results/results_2/agent2_actor.pth (torch, 185131 bytes, 6 tensors)

fc1.weight f4 [256, 48]
000000 f5 12 60 bf cb ea ba 3e d3 9b fd 3d da af ba bf
       -0.87528926 0.36507258 0.12383237 -1.4584916
000010 d8 e6 b5 3e 9d ee 15 be 83 fb 03 3e e0 db b3 bf
       0.35527682 -0.14641805 0.12888913 -1.4051476
000020 00 06 42 bf 8c 26 f0 bd b9 63 c4 be 9c 69 a2 bf
       -0.75790405 -0.11726102 -0.38357332 -1.268848
000030 6b 52 ad 3e 18 be 8f be a9 bc a4 be c6 cc 96 bf
       0.33851942 -0.28074718 -0.32175186 -1.1781242
000040 67 f7 13 bf c4 38 34 bf ed 0e 91 be 43 12 6f bf
       -0.5779938 -0.7039912 -0.283317 -0.9338724
000050 c4 a4 86 3e 8c 3a 79 be f9 a1 7a be 47 20 5d bf
       0.2629758 -0.2433874 -0.2447585 -0.86377376
000060 f3 69 a9 bd 3b 67 82 3e cb 6d 2f bc 54 3b b3 bf
       -0.08272161 0.25469384 -0.010707329 -1.400248
000070 ac 16 b7 be fd 18 4c be df 37 ac 3d be 86 b2 bf
       -0.35759485 -0.19931407 0.08409094 -1.394737
000080 e6 fa 7c bd 60 ca 58 3e 40 f4 63 3e a6 5f c4 bf
       -0.061762713 0.2117095 0.22261143 -1.534169
000090 ef 87 b7 be 10 db 8e be 58 50 42 3e 42 5a be bf
       -0.35845897 -0.27901506 0.18975961 -1.4871294
0000a0 d0 cd f0 bc 8e 46 c7 be 8a ab 4c 3e ff ce bc bf
       -0.029395014 -0.38921016 0.19987312 -1.475067
0000b0 41 f3 81 be fb 1a 74 be 16 71 7c 3e bb ad b8 bf
       -0.253809 -0.23838417 0.24652514 -1.4428018
0000c0 6e 0e 13 be d4 f3 81 3f fb a5 2d bd 8f bb 97 bd
       -0.14360973 1.0152535 -0.04239462 -0.07408821
0000d0 ac bc 88 be 51 8c 24 be 15 7a 1a bc b6 9a 4d bd
       -0.26706445 -0.16069151 -0.009428521 -0.050196372
0000e0 64 b9 d0 bd c7 68 40 3f 44 30 d8 be 04 00 54 be
       -0.101916105 0.7515988 -0.42224324 -0.20703131
0000f0 b4 21 2d bd ad 22 0f be fc 85 aa be af 2d 2c be
       -0.04226847 -0.13978072 -0.33305347 -0.16814302
000100 d6 42 07 bf d8 46 fd be 8d 2f 27 bf 63 83 e2 be
       -0.5283636 -0.49468112 -0.6530693 -0.44240865
000110 60 f1 d8 3e 59 3a 9a 3e b1 de 2a bf 1d 77 f9 be
       0.42371655 0.3012264 -0.6674605 -0.4872369
000120 59 02 67 3c 02 fe 96 be b7 73 52 bd 4e f0 2d bd
       0.014099681 -0.29490668 -0.051379886 -0.0424655
000130 d3 e2 60 3e 7d 0b 2a be 6e 52 62 bd 45 59 bc bd
       0.21961527 -0.16605945 -0.055254392 -0.09196714
000140 9a ca 72 3d 4c 52 c7 be 28 87 92 be b6 1b c2 3d
       0.059275247 -0.38929975 -0.2861874 0.09477942
000150 ab 46 18 3d e6 e5 7d be 58 49 a0 be 8a 59 ef 3c
       0.03717677 -0.2479473 -0.31305957 0.0292175
000160 4f ba 86 be 1d 38 73 bf 9a 66 4a be 69 f4 12 bf
       -0.26314017 -0.950075 -0.19765702 -0.5740419
000170 c5 e7 06 bf f7 e7 a6 3e 2a 73 89 be 07 c6 08 bf
       -0.526974 0.3259885 -0.26845676 -0.53427166
000180 50 8d a2 be 7d a2 1c bf b7 08 90 3e 98 25 20 c0
       -0.31748438 -0.6118544 0.2813165 -2.5022945
000190 9f b7 51 be 0f d9 14 bf 3c cd 81 3e cc 34 1a c0
       -0.20480202 -0.58143705 0.25351894 -2.4094725
0001a0 ee fb b3 be 38 98 9d bf f1 96 47 3d 3e c9 cd bf
       -0.35153145 -1.2312078 0.048727933 -1.6077039
0001b0 1c ec ba be 02 9e 56 bf cf 84 93 3c 74 4a d8 bf
       -0.36508262 -0.8383485 0.018007664 -1.6897721
0001c0 8b 9f e0 be dc b7 11 c0 82 17 7b 3e 59 13 94 bf
       -0.43871722 -2.276847 0.24520686 -1.1568404
0001d0 a9 2b 08 bf 80 ab 3a bf c2 04 6b 3e 0c 2e 92 bf
       -0.5319162 -0.7291794 0.22951034 -1.1420302
0001e0 b7 50 60 bd a0 f4 9f 3f fa 72 54 3e 5f cf 62 bf
       -0.054764476 1.2496529 0.20746985 -0.88597673
0001f0 bc 49 2d 3e 4f 04 15 bf 2e 1f 8d 3e 65 ce 68 bf
       0.16922659 -0.582097 0.2756285 -0.90939933
000200 b5 93 e1 ba f6 2b 94 3f 2d c6 19 3e 7a 63 a9 bf
       -0.0017210158 1.1575916 0.15017004 -1.3233483
000210 be 98 a3 3e 56 4e 52 bf 49 07 59 3e 9e fb b5 bf
       0.3195247 -0.8215078 0.21194185 -1.4217412
000220 ed 49 97 bc b3 20 93 3e 0c e1 bc be 54 97 07 c0
       -0.018467868 0.28735885 -0.36890447 -2.1186113
000230 01 29 04 3f 1a 5f 43 bf 70 4e 86 be 6d 9f 09 c0
       0.51625067 -0.7631699 -0.26231718 -2.1503556
000240 5b 23 9f 3e 49 4c aa be 07 73 4e 3e 77 9e ea bf
       0.31081662 -0.33261326 0.20161067 -1.832961
000250 89 9b db 3e 07 36 ac 3c 5c 57 7f 3e 1f 06 f3 bf
       0.428921 0.021021856 0.24935669 -1.8986243
000260 4a 10 1f 3e 64 67 80 bf d6 44 63 3e ce c0 d1 bf
       0.15533558 -1.0031552 0.22194228 -1.6386964
000270 69 cb 48 3e 34 3e 5d 3e a9 4b 4c 3e 18 d9 ce bf
       0.19608845 0.2160576 0.19950737 -1.6160002
000280 ef 59 98 3e 51 f3 e6 bf 13 9a 16 3e b4 fc 35 bf
       0.29756114 -1.8043004 0.14707212 -0.7108872
000290 e5 cd 52 bd d2 0c a4 3e b2 f9 58 3d c0 9d 30 bf
       -0.051465888 0.3204103 0.052972503 -0.6899071
0002a0 7f 45 88 3e b5 54 0d 3f 3b 05 08 bf 4f 10 ea 3e
       0.2661552 0.5520738 -0.5313298 0.45715567
0002b0 13 fd 06 bf 13 9e 89 bc 21 fc 00 bf 20 ae e8 3e
       -0.5272991 -0.016799008 -0.5038472 0.45445347
0002c0 78 95 7c 3e 88 54 11 3f 80 e7 1c 3e 57 f3 1a 3f
       0.24666393 0.5676961 0.15322685 0.6052756
0002d0 5d 96 29 be c9 a5 2f 3e 77 11 40 3e 92 3c 0a 3f
       -0.16561265 0.17153086 0.18756662 0.5399867
0002e0 3c 2a 8a 3e 75 ab 2c 3f d3 18 0f bf 29 ca e4 3e
       0.26985347 0.6744912 -0.55897254 0.44685486
0002f0 bb d1 e2 3d ea d0 dc 3e 97 9c 24 bf 09 53 de 3e
       0.11075159 0.4312814 -0.6430144 0.43422726
000300 6b 54 a1 bd 44 22 f7 bc 1b 3f 3a be 57 24 9a 3f
       -0.078774296 -0.030167706 -0.18188135 1.204234
000310 60 db 78 bd 39 1f 4b 3f 23 d1 eb bd bd ce 96 3f
       -0.060756087 0.79344517 -0.11514499 1.1781842
000320 40 cb 5e 3e 04 83 1f 3c 0b ec a5 bd 9d 3d ab 3e
       0.21757221 0.009735826 -0.08101662 0.33445445
000330 b5 88 b0 3d 27 32 9b 3f 18 c4 17 be 7f f6 bf 3e
       0.08619825 1.212468 -0.14820898 0.3749275
000340 87 69 e0 3e e9 09 b9 3e 5d ec 95 bd 63 d0 d9 3f
       0.4383051 0.36140373 -0.07320473 1.701672
000350 1e df 52 3d 43 8a b8 3f 01 3a fc bc 59 57 d1 3f
       0.051482312 1.4417194 -0.030789377 1.6354781
000360 6b 58 95 3e fc 6e 3d bf e0 5a 1b bf 0c 5a 03 3f
       0.2916902 -0.73997474 -0.6068554 0.51309276
000370 50 86 21 bc 4b 97 54 3f 4e 1f 0c bf 20 26 22 3f
       -0.009858683 0.83043355 -0.5473527 0.63339424
000380 c2 3c 32 3e 60 8d c1 be ef 47 2c bf 91 e4 a4 3f
       0.1740599 -0.37803173 -0.6729726 1.2882253
000390 2d 2e be bd d5 b1 91 3f 71 6e 1e bf 1f f4 9c 3f
       -0.09286151 1.1382395 -0.6188727 1.2262
0003a0 3a 99 6a 3e 0c 95 21 3e 39 11 b5 3e 19 6f 15 40
       0.22910014 0.15779513 0.35364702 2.3349059
0003b0 5d 95 d6 3b 4b 46 b5 3f a8 f1 d4 3e f9 ff 11 40
       0.006548567 1.4162077 0.4159062 2.2812483
0003c0 e2 ef 56 bf e7 d1 3d bf cd e8 a7 bd d7 32 11 c0
       -0.8395978 -0.7414841 -0.081987 -2.268728
0003d0 0e d8 c9 3e ee f0 5b be 86 bf 84 bd ed 4a 11 c0
       0.3942265 -0.21478626 -0.06481843 -2.270198
0003e0 95 47 5e bf a0 60 bc bf 12 e6 b1 be 48 20 f4 bf
       -0.86827976 -1.4716988 -0.34745842 -1.9072351
0003f0 84 b7 c6 3e f1 98 e0 be 9a 5a bc be 62 a6 f4 bf
       0.38811886 -0.43866685 -0.36787874 -1.9113276

fc1.bias f4 [256]
000000 ba 4a 6d 3c 6b d3 44 3e d4 8f f3 bd df 8f af be
       0.014483148 0.19221275 -0.118926674 -0.34289452
000010 dd a5 95 be 9c 7f 74 bd b2 ad 61 be 02 fd 79 be
       -0.29228106 -0.05969201 -0.22038916 -0.24412921
000020 51 9f 57 be 3f 97 b0 3d c4 12 43 be 68 6e 06 bc
       -0.21056868 0.08622598 -0.19050127 -0.008205034
000030 ea ee d0 bd a5 28 42 3f 05 01 16 bf ad b4 ca bc
       -0.10201819 0.7584327 -0.58595306 -0.024744356
000040 42 7f e0 bd de b1 9d bd 9f 0b 24 3e 66 8f a4 3f
       -0.109617725 -0.07699941 0.16020058 1.2856262
000050 04 83 c7 bd 4c ed 01 bf 98 be 53 be d1 51 2d bf
       -0.09741786 -0.5075271 -0.20678174 -0.67702967
000060 86 e1 5c be 64 1c a3 be b2 28 80 3e 9e 37 94 be
       -0.21570405 -0.31857598 0.25031048 -0.28948683
000070 e8 13 65 be 38 ff ea bd a0 bf 23 bf a9 0a b6 3e
       -0.22370875 -0.1147446 -0.6396427 0.35555008
000080 36 75 a8 3e 1a 7c 74 be ff 40 a0 3f de 47 23 3f
       0.32901925 -0.23875466 1.2519835 0.63781536
000090 f2 a6 c3 be 1d 07 8a be f9 d2 93 bd 43 27 ec be
       -0.38213307 -0.26958552 -0.07217974 -0.46123704
0000a0 f1 87 66 3e 1d 1d 87 be b7 a1 b8 3e e6 6c a2 be
       0.22512795 -0.263894 0.3606088 -0.31723708
0000b0 6d cf da be 87 c0 6b be 71 19 0c bf 75 47 55 be
       -0.42736378 -0.23022662 -0.5472632 -0.2082804
0000c0 f7 52 f4 3e d4 5d 80 be d3 26 06 be ca 2d ba be
       0.47719547 -0.25071585 -0.13100748 -0.3636306
0000d0 36 63 bd be f6 77 08 3b b9 7b 8f 3e ca 7d 05 bf
       -0.36989754 0.0020823455 0.2802408 -0.52145064
0000e0 e1 44 dc bd 2f 0a d2 3d 43 a5 9f 3e 58 29 71 be
       -0.10755325 0.102558486 0.31180772 -0.23550928
0000f0 9b 99 c7 be 92 e6 81 be c6 92 23 bf ee d9 a8 be
       -0.3898438 -0.25371224 -0.63895833 -0.32978767
000100 18 9a 84 3f dd 56 d8 be a1 91 bc 3d 50 19 84 be
       1.0359526 -0.4225377 0.09207464 -0.25800562
000110 0a 93 8a be 00 8f e0 3e 4d c2 23 3e 18 66 76 3e
       -0.27065307 0.438591 0.15992089 0.24062383
000120 73 bf 1f be b1 b7 1e bd 27 1f 83 be 9a b0 e3 3d
       -0.15600376 -0.0387494 -0.25609705 0.111176684
000130 03 6c 3d be d9 b6 9d be 1a 53 fb be 58 65 00 3f
       -0.18498234 -0.30803564 -0.4908684 0.5015464
000140 a9 af ae be 6c 07 02 be 83 df 89 be bc 6b cc be
       -0.34118393 -0.12698144 -0.26928338 -0.39925945
000150 10 c7 5b be e9 df 18 bf d7 59 41 bf 63 6a f4 be
       -0.21462655 -0.5971666 -0.7552771 -0.47737417
000160 3f 74 72 be bf a4 d5 3d 44 d4 80 be 45 e0 d2 be
       -0.23677157 0.104318134 -0.25161946 -0.4118673
000170 3e 83 95 be 59 b5 16 3f df f8 85 be 77 3e 5e be
       -0.29201692 0.58870465 -0.26166436 -0.21703516
000180 fd 14 21 3f bf 37 94 3e 64 4e 69 3d b4 3b 5c bd
       0.6292265 0.2894878 0.056959525 -0.053767875
000190 de 9f 01 bf 14 ed 14 bf 8e 31 7f 3e 0d 62 96 be
       -0.5063456 -0.5817425 0.24921247 -0.29371682
0001a0 0f a5 08 3f d6 06 c6 bb 6e 9a a4 be 92 2b 34 3e
       0.5337686 -0.0060432954 -0.3214907 0.17594746
0001b0 df aa a8 be 2e 44 1e bf bc 36 fa 3b 76 52 82 3e
       -0.32942864 -0.61822784 0.0076359194 0.25453538
0001c0 e5 96 96 3f 33 3d 07 bf ca cf 08 be 77 ea 99 bd
       1.1764799 -0.5282776 -0.13360515 -0.07515424
0001d0 27 ad 27 bf ad a7 91 be 96 66 b8 3e f8 74 d3 be
       -0.65498585 -0.2844824 0.36015767 -0.41300178
0001e0 dc 9c 7f 3e 8c ba 40 bf 90 46 05 bf 6d 00 00 3f
       0.24962181 -0.7528465 -0.52060795 0.5000065
0001f0 ca f3 ac be 70 18 97 be 54 53 5a 3e 24 5f 81 be
       -0.33779746 -0.29510832 0.2132085 -0.252679
000200 f5 17 8f be 1d 4a c6 3d ca da 2a 3e d5 c4 0b bf
       -0.27947965 0.09682105 0.16685024 -0.54597217
000210 35 d7 ae be 8a 03 05 bf b8 97 dd be 6f ea f7 be
       -0.34148565 -0.51958525 -0.43279815 -0.48421046
000220 21 71 fa 3e b1 b6 2c 3f 00 72 03 bf 06 e5 c7 be
       0.48914436 0.67466265 -0.51345825 -0.3904192
000230 77 69 a5 bd c1 1f 49 bf b8 52 2e bf 2e d3 12 3e
       -0.080767564 -0.7856408 -0.6809497 0.14338371
000240 c8 c0 9a be 91 58 9f 3e b7 51 b7 be df b9 a4 be
       -0.30225205 0.31122258 -0.3580453 -0.32173058
000250 da f0 eb be 8e 4e 18 bf be c2 92 be 06 56 08 bf
       -0.46082193 -0.59494865 -0.28664201 -0.5325626
000260 a2 d2 2d be be ca 07 3f 8c 5c 8a be 15 6b 3a bd
       -0.16974881 0.53043735 -0.27023733 -0.045512278
000270 bc 72 2c 3e b2 46 f8 be 58 79 a4 be 69 99 bb 3e
       0.16840643 -0.48491436 -0.32123828 0.3664048
000280 e5 4a d1 be ba 7b 8d bc 4d 1b b4 3e 93 47 e4 be
       -0.40877452 -0.017270911 0.3517708 -0.44585857
000290 4d 02 a6 ba 61 b1 ae 3e f7 97 6e 3d 47 c7 e9 be
       -0.0012665481 0.34119704 0.058250394 -0.4565985
0002a0 dd c6 3b bf e5 7d 66 be a8 58 87 be 01 f1 01 bf
       -0.73350316 -0.22508962 -0.26434827 -0.5075837
0002b0 0e 74 bf be 77 db ca bc c7 20 8a 3d 1a d7 d2 be
       -0.3739323 -0.024762852 0.06744533 -0.41179734
0002c0 15 40 97 be 69 61 07 3f e5 bf ca be 86 c7 d5 be
       -0.29541078 0.5288301 -0.3959953 -0.41753787
0002d0 ea 7a 09 bf 40 ca 00 bf a9 68 9c be 6e f3 50 be
       -0.53703177 -0.5030861 -0.305486 -0.20405361
0002e0 c4 20 0a be 40 31 f2 bc ce 44 85 be 09 6f d3 3e
       -0.13489062 -0.0295645 -0.26029056 0.4129565
0002f0 22 e3 b3 3e a3 1d f8 3e 10 29 18 3d 3c e0 0a be
       0.35134226 0.4846011 0.037148535 -0.13562101
000300 66 56 b8 3e 91 23 9c be f1 fe 15 bf 33 ed 57 3f
       0.36003417 -0.30495885 -0.58592135 0.8434631
000310 d1 0d 34 bf ee af 21 be e6 0a ff be 60 0d 35 3e
       -0.7033358 -0.15789768 -0.49813002 0.17680883
000320 a8 4a 1b 3f 57 fd 96 be cf 98 f7 be 05 ce 82 3c
       0.6066079 -0.29490158 -0.4835877 0.015967378
000330 e5 4c c9 be 94 0f 27 3f 04 32 2a be 91 ee 15 bf
       -0.39316478 0.65258145 -0.16620642 -0.5856715
000340 e3 13 dc 3e 64 8f 20 3f 77 5e bd be 89 76 17 bf
       0.42983922 0.62718797 -0.36986133 -0.59165245
000350 cf 8a 61 be 9d c8 20 3e 17 0a 5d be 13 97 25 3f
       -0.22025608 0.15701528 -0.2158588 0.64683646
000360 0e 40 aa bc 62 05 e7 bd 99 2e a2 be ff 1c 29 be
       -0.020782497 -0.112803236 -0.31676176 -0.16514967
000370 7d a1 a9 be dc 01 c1 bd 0c df 14 bf b7 ed 3c bd
       -0.33131018 -0.09424183 -0.5815284 -0.04612514
000380 1d d6 13 3e 35 b9 8a 3d 02 a8 3a bf 79 de 5e be
       0.14437146 0.06773607 -0.7291261 -0.21764554
000390 b0 05 b4 bb b6 48 4b be 54 35 b3 bd a1 6d 94 3e
       -0.005493842 -0.19851956 -0.08750406 0.2898989
0003a0 d7 aa 3c bf 6e c6 b4 be c7 25 96 3c 12 3e f1 bd
       -0.7369818 -0.3530764 0.01832856 -0.11779417
0003b0 d0 33 59 be 68 f3 81 3e 5a 43 41 3e 8c 51 93 3e
       -0.21211171 0.25381017 0.18873349 0.28773153
0003c0 a1 1a 63 be a5 b9 ce bd f3 2d 69 be 9d 42 b3 be
       -0.22178127 -0.10094003 -0.22771434 -0.3501176
0003d0 7f d9 2f 3e 62 b6 6b 3e 02 fa fe be 2e a7 89 3c
       0.17172812 0.23018792 -0.49800116 0.01680335
0003e0 f3 50 29 be 6d 1b ec bd 3b 40 92 3c f6 76 08 3e
       -0.16534786 -0.115286686 0.017852893 0.1332663
0003f0 00 31 17 bf 5d 08 b2 3d 4d 07 21 be f3 3a 20 be
       -0.59059143 0.086930014 -0.15725441 -0.15647487

fc2.weight f4 [128, 256]
000000 9a ff 77 be 35 ed 4d 3e 59 54 28 3e b7 d9 19 3f
       -0.24218598 0.20110019 0.16438426 0.6009783
000010 95 ff 5e 3f 25 3d 13 3e 46 aa 71 3d 0c ad 1e bf
       0.8710874 0.14378794 0.059000276 -0.619828
000020 6d b0 6b 3f 92 05 bb be 8e e2 99 bf cb 4a 3c be
       0.9206608 -0.36527687 -1.2022264 -0.18387906
000030 bb 9f 0c be 6d 2d 13 be f3 2e b7 be 93 8a ee bd
       -0.13732807 -0.14372797 -0.35778007 -0.11647525
000040 e9 3c 98 3e 66 ae af be fb 08 cc bf 80 e1 06 3f
       0.2973397 -0.34312743 -1.5940241 0.52687836
000050 fe cb 96 bf a4 eb 13 3f 45 bb 13 bf 26 a1 99 be
       -1.1781003 0.57781434 -0.57707626 -0.3000576
000060 4c f8 14 3f 65 6d b5 be 4d 10 ab 3f d4 39 c2 3e
       0.5819137 -0.35435024 1.336435 0.37934744
000070 d7 7f 78 3f 35 46 b0 be 02 86 52 be 30 5d 95 bd
       0.9707007 -0.34428564 -0.20558932 -0.07293165
000080 82 b4 4f bd 92 b4 4a 3e c8 f8 4b be 16 bd 08 be
       -0.050709255 0.19795445 -0.19919121 -0.1335338
000090 b6 59 23 bc 4a f1 91 3e 1b 16 94 bf d5 b2 76 bd
       -0.009970119 0.285044 -1.1569246 -0.06022914
0000a0 67 0b 09 bf 74 c8 99 3e 9d db 94 3f 1c c4 f5 3c
       -0.53533024 0.30035746 1.1629521 0.030000739
0000b0 3b ce 9d 3e d4 68 2b 3f a3 96 af 3d 85 03 b2 3e
       0.30821404 0.6695683 0.085736535 0.3476831
0000c0 f8 2e 64 be 22 b6 b0 bd 45 ff 0b bf a5 e8 5d 3f
       -0.22283542 -0.08628489 -0.54686385 0.8668311
0000d0 36 52 00 3f f8 af a7 bd 0a d3 bb 3f b9 f7 4c bf
       0.50125444 -0.0818786 1.4673779 -0.80065495
0000e0 e3 1d 23 3c 28 85 f5 3e 78 52 ba 3f 6a 14 e4 be
       0.009955856 0.47953153 1.4556417 -0.44546825
0000f0 38 7f 59 3f 58 a1 8c 3d 40 56 66 3f 8e aa b5 3c
       0.84959745 0.068667114 0.8997536 0.022176053
000100 85 78 1f be c7 62 8f 3e 6b 2c be 3d 3b d3 33 3f
       -0.15573318 0.2800505 0.09285816 0.7024419
000110 5e a3 0c bf 80 54 23 bf 0c d2 a0 3e 12 9a 14 3b
       -0.5493678 -0.6380081 0.31410253 0.002267484
000120 8b ed 5a 3e ae 0d a1 3f 8f 29 e5 3d 12 af 03 3f
       0.21379678 1.25823 0.11189567 0.5143901
000130 47 e2 37 3d b8 74 c6 3e dc 60 6c 3d 65 4a 49 be
       0.04489353 0.38760924 0.05770956 -0.19657286
000140 cc ab 5b 3f 73 98 b9 bc b5 63 8d 3f e9 05 8c bd
       0.85809016 -0.022655701 1.1046053 -0.06837065
000150 b4 de e3 3e b3 f8 af 3e f4 4a 86 3e 94 f4 0d be
       0.44505847 0.3436943 0.2622906 -0.1386283
000160 20 a0 46 bf d2 6a 4e 3f f1 5a 7e 3d 1a f8 82 3f
       -0.7758808 0.80631745 0.062098447 1.0231965
000170 87 be 69 3e 50 2d 12 bf 48 a8 c9 3e 1c a7 b9 bb
       0.22826587 -0.5710039 0.393862 -0.005665673
000180 3f 7f ce 3e 85 b1 40 3f e5 a0 26 3e 48 c8 85 bd
       0.40331456 0.75270873 0.16272314 -0.06532341
000190 92 18 c3 be e1 6e 7b 3f cc 94 d7 be 01 88 17 bf
       -0.38104683 0.9821606 -0.4210571 -0.591919
0001a0 19 a0 8e 3f 1a 46 80 3f 46 aa ad be 87 f2 a8 be
       1.1142608 1.0021393 -0.3391897 -0.32997534
0001b0 0f 8f c5 bb e0 04 8f be f5 97 97 3f 62 d6 2f 3d
       -0.006029017 -0.27933407 1.1843249 0.04292906
0001c0 2e 44 20 3f 04 ab 43 3e d8 a8 0b 3f 4d bb 0c be
       0.62604034 0.19108206 0.5455451 -0.13743325
0001d0 28 e7 6e bf 4c d7 8f bd c7 01 0a bf b0 ea 70 be
       -0.93321466 -0.070234865 -0.5390896 -0.23527026
0001e0 6d 8c 4b 3f de 99 5a be 73 35 0c bf b8 47 04 bf
       0.7951115 -0.21347758 -0.5476906 -0.51671934
0001f0 aa 74 00 3f 11 a5 58 be 06 9f 78 3f 85 20 51 3f
       0.50178015 -0.21156718 0.9711765 0.81690246
000200 13 71 78 bf bc fc 54 bf 21 cc 21 bf 36 bb df 3b
       -0.9704754 -0.8319814 -0.632021 0.006827737
000210 8f d8 07 3f cb ca 8d be 11 5e 0a be 3c 69 07 3f
       0.5306482 -0.2769378 -0.13512446 0.5289495
000220 81 c4 c9 3d 29 51 29 bf 71 ec 38 bf 99 27 0e 3e
       0.09851933 -0.66139466 -0.7223578 0.13882293
000230 e0 c6 16 be 9e f9 a1 bd 50 e6 6d 3f eb 08 3d bf
       -0.14724302 -0.07908939 0.92929554 -0.7384173
000240 92 67 a7 3e b7 8e dd be 1e f9 fa 3d 66 57 54 be
       0.32696205 -0.43272945 0.122545466 -0.20736465
000250 21 37 52 bf 3d b6 d7 be 8d 6a bf bd d4 e9 b0 3e
       -0.8211537 -0.42131224 -0.09346495 0.34553397
000260 46 7e 84 3f 4c 82 3d bf f3 ae ec 3e 1f b6 14 3f
       1.0351036 -0.7402694 0.46227226 0.58090395
000270 2e de 19 bf 9a 7e 0b 3f 7c cf 45 bf ff 35 87 bd
       -0.60104644 0.54490054 -0.7726972 -0.06602096
000280 26 4b 32 be 05 1e 59 be 86 41 ae 3e 72 30 da be
       -0.1741148 -0.21202858 0.34034365 -0.42615086
000290 f7 0c 20 3f fe 87 9a be 09 18 41 bf 7a d3 a4 3e
       0.6251978 -0.3018188 -0.754273 0.32192594
0002a0 47 25 da 3e 52 2e 69 3f c6 f8 18 bf 2a 91 91 3e
       0.42606565 0.91086304 -0.597546 0.28431064
0002b0 6c 45 ba 3e b9 8c 4a bd 7e c2 f1 be 68 01 de be
       0.3638109 -0.04945061 -0.47218698 -0.43360448
0002c0 6c 0a a6 3e a2 74 20 be 46 96 06 3e 82 6e 9e 3e
       0.32429826 -0.15669492 0.13143262 0.30943686
0002d0 28 2f 06 bf 8f 7f 43 3e 80 0a 29 3f 4a 35 81 3f
       -0.52415705 0.19091628 0.66031647 1.0094388
0002e0 28 80 59 3e c6 a7 ec 3d 26 f3 9f 3f d1 ac 3a bf
       0.21240294 0.11555438 1.2496078 -0.72919947
0002f0 16 60 13 3e 20 95 a9 3e 1b 8c 4b be 23 cb 66 3f
       0.14392123 0.33121586 -0.19877665 0.9015371
000300 54 e8 32 3e 3d ee 9d be 2e 9d aa be f5 16 e5 be
       0.17471439 -0.30845824 -0.33323044 -0.44744077
000310 01 bb af be b5 4e bc be 32 89 ed 3e eb 82 d8 3e
       -0.3432236 -0.367788 0.46393734 0.42287382
000320 00 36 08 3f fb d5 1c bd 52 68 5a bd 30 3f 41 3f
       0.532074 -0.038290005 -0.053322144 0.7548704
000330 0d ec f3 3b c5 f1 c1 be c0 0b e1 be 37 1b 13 3f
       0.007443911 -0.37879768 -0.43954277 0.574634
000340 c0 0f d5 be 0f 38 8b 3f 40 10 16 3f 62 78 bc bd
       -0.4161358 1.0876483 0.58618546 -0.09202649
000350 64 be dc 3e 4f a4 8d 3f a0 15 2e be 9c 53 0e be
       0.43114007 1.1065768 -0.17000437 -0.13899082
000360 5d 70 ec 3c 24 b1 2d 3e ca 22 a3 bd 8a 8e 8b bd
       0.028862173 0.16962105 -0.0796562 -0.068142965
000370 f2 d6 e9 3e 66 95 03 bd 22 7e 99 bc 31 35 11 3f
       0.45671803 -0.0321249 -0.018736903 0.5672179
000380 53 c6 5e 3f 3d b6 a1 3e bb 8a 00 be c5 ea e9 3d
       0.8702137 0.3158435 -0.12552921 0.11421732
000390 92 91 b2 be f8 f9 97 3e cb 69 98 3f 40 a7 cc 3f
       -0.34876686 0.296829 1.1907285 1.5988541
0003a0 5f fa 45 be a0 50 dc bd 26 31 e4 bd 14 f1 28 3e
       -0.1933379 -0.107575655 -0.11142187 0.16498214
0003b0 b7 c9 d7 3d 92 4a f3 be 0b fa 93 3d dd f1 57 3f
       0.10536521 -0.4751783 0.07225426 0.8435343
0003c0 a6 c7 b6 3c 83 f4 db 3e 39 2b d8 3e 64 33 11 3c
       0.022311997 0.42959985 0.42220476 0.00886235
0003d0 57 bd e3 3e 47 fb 9e 3e 43 30 86 3f 3a cf 66 3e
       0.44480392 0.31051084 1.0483478 0.22539988
0003e0 75 5c e2 be f3 36 ad be 05 05 38 bf 9a 1b 9c 3f
       -0.44211164 -0.33830985 -0.7188266 1.2195923
0003f0 9f 9f 43 3f f6 21 dc bd 98 d2 f3 3e be 61 68 be
       0.7641544 -0.10748665 0.47621608 -0.22693536

fc2.bias f4 [128]
000000 a0 6a 49 3e a4 99 ce 3e 4d 74 20 bf f5 26 a5 bd
       0.1966958 0.40351593 -0.6267746 -0.08064071
000010 30 80 d9 3c a0 18 3c bf e5 04 32 bf 86 55 a5 bd
       0.026550382 -0.73475075 -0.6953872 -0.08072953
000020 57 1a 72 bf 80 b8 e6 bc 0c e9 62 bf 43 29 7d bf
       -0.9457144 -0.028164148 -0.8863685 -0.98891085
000030 6e 6a 90 bf 6a e3 92 bf 49 68 c1 3e 3c 1c 52 3e
       -1.128248 -1.1475651 0.37774876 0.20518583
000040 aa 53 82 3e f7 fc cd 3c 84 d4 dc 3e d4 5a 78 bf
       0.25454456 0.025145037 0.43130887 -0.9701359
000050 18 ea d6 3e 02 e5 57 be cd d2 18 3f 26 33 d2 bd
       0.41975474 -0.21083453 0.59696656 -0.10263662
000060 93 e4 88 bc 06 1c ff be cf c3 75 bf a7 e4 16 be
       -0.016710555 -0.49826068 -0.96001905 -0.14735661
000070 6b a9 3a bf 8c ac 74 bf 5d 10 f4 be 68 23 a9 3d
       -0.7291476 -0.95575786 -0.47668734 0.08258706
000080 e0 ae 33 bf c0 e6 fb bd f6 5a 3f be c1 d2 2e be
       -0.70188713 -0.122998714 -0.18687043 -0.17072584
000090 31 f9 7e bf 0a 67 89 be 29 52 27 bf c4 c9 d1 be
       -0.99598986 -0.26836425 -0.6535974 -0.40974247
0000a0 cb ae 90 be 1b 45 5a 3f 80 93 e0 3c a8 0e 5d bf
       -0.28258356 0.85261697 0.027414083 -0.8635049
0000b0 92 e7 78 3c c7 f1 2d be 7d 64 8c be 18 8c 81 bf
       0.015191929 -0.16986762 -0.27420416 -1.0120878
0000c0 65 dd c8 be 1b 2f d1 be 4c 58 a3 bd 38 b4 3e 3f
       -0.3923141 -0.4085625 -0.07975826 0.7449374
0000d0 38 1b 61 bf 95 83 11 be db c3 7c bf 55 32 e2 be
       -0.8793216 -0.14210351 -0.9873635 -0.44179025
0000e0 e2 a7 d4 be 18 d1 7f 3e 19 f0 6b bd 43 40 43 bd
       -0.41534334 0.24982107 -0.05760202 -0.047668707
0000f0 bb 51 e2 bc fa 09 29 3d a3 f2 1a bf e0 f6 08 3f
       -0.027626863 0.04126928 -0.60526484 0.535017
000100 2c 4a 86 bf ab a8 31 bd 81 a6 31 3f 82 12 03 be
       -1.0491385 -0.043373745 0.6939469 -0.12800029
000110 e4 09 46 bf f3 d2 7a be e6 a7 04 bf a5 b1 97 bf
       -0.7735884 -0.24494533 -0.5181869 -1.1851088
000120 19 fa 6a bf 0b a3 d3 bd 5a 6b 80 bd 54 10 11 bf
       -0.9178787 -0.10333832 -0.06270476 -0.5666554
000130 56 5d 37 be 41 b5 54 bd 2d d3 03 be 4e 85 7e 3e
       -0.17906699 -0.05193067 -0.12873526 0.24855539
000140 bd 90 b2 bd 36 d4 3e be 0f 71 ef 3e 71 7c 8c bf
       -0.08719013 -0.1863564 0.46765944 -1.0975477
000150 f3 5b d5 3e 26 05 12 be 9b 1a 54 be 05 58 85 bf
       0.41671714 -0.14259776 -0.20713274 -1.0417486
000160 73 26 0c bd ff 4f c6 3e fc 92 03 bf 2d 57 7a 3f
       -0.034216356 0.38732907 -0.51396155 0.9778927
000170 bb 13 4f bf 4a 17 10 3f 36 fd 80 bf 97 0d 09 bf
       -0.8088948 0.56285536 -1.0077274 -0.5353636
000180 8c 54 12 3e c8 e5 20 bf f0 00 75 3c af b3 d7 3e
       0.14290065 -0.6285062 0.014953837 0.42129275
000190 1a 06 31 bf 65 2b 16 3f d5 9d a1 3c 41 a4 68 bd
       -0.69149935 0.58659965 0.01972858 -0.05679727
0001a0 80 65 26 bd 5f 4e 9d be dd c5 d5 bc 6b 6a 90 bf
       -0.04062414 -0.30723855 -0.026095325 -1.1282476
0001b0 ea 44 94 bf 77 d6 63 bf 12 f1 4e 3f 88 eb 0e be
       -1.1583531 -0.8899912 0.80836594 -0.13957036
0001c0 3b 41 44 bf de 10 3c bd ac 94 16 bf 17 3e 7d bf
       -0.76662034 -0.045914523 -0.58820605 -0.98922867
0001d0 96 69 2f bf 70 d1 01 3d 22 01 00 be 03 c5 67 bf
       -0.68520486 0.031693876 -0.12500432 -0.9053499
0001e0 0a 02 ad be 2a 02 45 bf 90 68 83 bd 0e 9d 3d bf
       -0.33790618 -0.7695643 -0.06416428 -0.7406777
0001f0 5a 9c af 3b 8a 08 83 bd 5a 35 28 3c 4f cd ae bc
       0.0053592147 -0.06398113 0.010266626 -0.021338133

fc3.weight f4 [2, 128]
000000 c2 f3 8c be 97 4c 7f 3e 77 c2 3c bf c8 ff c1 bc
       -0.27529722 0.2493156 -0.7373423 -0.023681536
000010 7a 5b 72 3b 3a 4e a1 bb 2a f0 1d bf a6 a4 bc bc
       0.0036980794 -0.0049226554 -0.61694586 -0.02302773
000020 b3 83 33 bc 70 4e 15 3c a7 c1 c7 be f9 22 c2 3e
       -0.0109566925 0.009112939 -0.39014933 0.37917307
000030 05 2a 10 bf f4 6c 6f be 21 24 13 bf 63 c9 57 3f
       -0.56314117 -0.23381406 -0.57477003 0.84291667
000040 4a dc 86 3f 49 b3 86 3c 07 a5 b3 3e 64 91 82 be
       1.0535977 0.016442912 0.35086843 -0.2550155
000050 d1 cd c7 3e 78 16 27 bf 40 82 93 bd 1f 4d 96 bc
       0.39024213 -0.6526866 -0.072025776 -0.018347321
000060 fe 9a 00 bd 17 7e fc be 32 fb 84 bf 4c 51 d0 3d
       -0.031397812 -0.4931495 -1.0389159 0.10171756
000070 40 0d 06 be ff f5 86 bd 83 65 e2 be de 00 9f 3e
       -0.13090992 -0.06589889 -0.44218072 0.3105535
000080 28 58 83 3d cf 50 02 bc b0 f8 e7 be cd 1d 7d 3c
       0.06413299 -0.007953837 -0.4530692 0.015449
000090 ff ab 5e 3e f4 a1 1a 3e 27 3c 7c be 30 75 95 be
       0.21745299 0.15100843 -0.24632321 -0.2919097
0000a0 38 6b 34 3d 7a e2 65 3e ba c8 a5 3c 68 1c 55 bd
       0.044047564 0.22449675 0.020237315 -0.052029043
0000b0 13 15 a3 3c 39 c8 00 3e c9 a5 25 bf 05 95 6c bf
       0.01990751 0.12576379 -0.64706093 -0.92414886
0000c0 bf 04 e6 be b9 5b 96 3d 0a 5a a3 3c 64 4f ed bd
       -0.44925496 0.073417135 0.019940395 -0.11587408
0000d0 e6 14 5c 3d 9b 74 03 3e 92 51 98 bc d1 16 37 bf
       0.053730868 0.1283745 -0.018593583 -0.7151919
0000e0 ee 9a 00 bf f5 ab c0 be 18 cb b7 bc f3 2b 6f bd
       -0.50236404 -0.37631193 -0.02243571 -0.058391523
0000f0 11 a4 b0 bb 36 4d 07 3f 49 cd 91 3e 1d ce 98 3f
       -0.005390652 0.5285219 0.28476933 1.1937901
000100 97 9d 2a bf a6 a5 5a bc 8a bc 9c 3f 2d c7 aa ba
       -0.66646713 -0.013345158 1.2245038 -0.001302933
000110 bf 16 b2 be a7 3f 70 3d 9c 0c e3 be c5 c3 a3 bc
       -0.3478298 0.058654454 -0.44345558 -0.019990811
000120 de 40 7b be 8b df b0 3b 09 ce aa 3a 9a ec 2e bf
       -0.24536464 0.005397742 0.0013031374 -0.68329775
000130 a6 e1 09 bf 7a 68 01 bb 23 48 ef 3a e0 cc e8 3e
       -0.5385994 -0.001974611 0.0018255751 0.45468807
000140 9e e5 5c bc 40 ce 29 bd 16 72 e9 3e 31 51 1c 3e
       -0.013482479 -0.04145646 0.45594853 0.15265347
000150 11 75 f3 3e f2 1a 08 3f b7 79 1b bf bb df 19 bf
       0.47550252 0.53166115 -0.607326 -0.6010701
000160 cd 83 1c bf 5d 24 9f bd 09 c1 09 bf 38 f9 65 3f
       -0.6113861 -0.077706076 -0.53810173 0.898334
000170 4b 49 32 bf 19 bd 95 3f 6f 15 4e bf b8 f9 d7 bd
       -0.69643086 1.1698333 -0.80501455 -0.10545677
000180 2d 21 37 bf cc 49 b0 bd be f0 64 bc db e1 d4 3e
       -0.71535 -0.08607826 -0.013973413 0.41578564
000190 63 80 0d 3e 8e f4 2e 3f 48 50 33 be f7 17 0c bd
       0.13818507 0.6834191 -0.17511094 -0.034202542
0001a0 8f 97 2e bc 0a 43 17 bf c6 a4 81 bf c5 60 bc be
       -0.010656252 -0.5908667 -1.012841 -0.3679258
0001b0 2a e7 15 bf 48 d0 fe be 97 a5 4c 3f 01 fe ca 3b
       -0.58555853 -0.4976828 0.7994017 0.0061948304
0001c0 9b 56 27 3d 1e 20 58 bc ec c7 27 bf 0d 1d 36 bf
       0.040854078 -0.013191251 -0.6553943 -0.7113808
0001d0 37 37 f8 bd 4a 7b 0b bf bb d7 95 3b e7 56 02 bf
       -0.121199064 -0.54485 0.004572836 -0.5091385
0001e0 bd 96 42 3d a3 47 c9 be 44 19 89 be c8 50 16 bf
       0.047507036 -0.39312467 -0.2677709 -0.5871701
0001f0 fa 05 71 bc fd 71 88 bc 28 eb f4 3d c7 97 3b 3b
       -0.014710898 -0.016655916 0.11958915 0.0028624402
000200 1c cd bf bd 4c 30 88 be 9e c3 e9 be f3 7b 94 3c
       -0.093652934 -0.26599348 -0.45657057 0.01812551
000210 25 16 aa 3f 7d 85 89 3f 5f d6 08 3e 93 cf 5a 3c
       1.3288008 1.0743862 0.13363026 0.013355154
000220 8a 22 b0 3e 96 fc 9d 3d 29 1f 23 3e ae 7d b5 3e
       0.3440135 0.077141926 0.15929855 0.35447448
000230 8e d0 3b be 22 c4 5b 3e e3 cf 41 be f3 6c 72 3f
       -0.18341276 0.21461537 -0.18926959 0.94697493
000240 33 75 35 3f 80 ba d7 3a 47 1e 74 3e 60 89 ca 3d
       0.70881957 0.001645878 0.23839675 0.098894835
000250 00 e0 5c be c6 5b c1 3e ee 17 4b bf 9b 0d 28 bc
       -0.21569824 0.3776533 -0.7933339 -0.01025715
000260 58 80 24 3c ec be c8 3e a5 07 a3 be 74 8b 71 3f
       0.010040365 0.39208162 -0.3184177 0.94353414
000270 da 80 e3 3e ee 5c 72 bf a8 0f 87 be e2 45 ea 3f
       0.44434243 -0.9467305 -0.26379132 1.8302577
000280 f4 82 29 3f 85 38 02 3c 51 90 8a bf 28 6e f3 3c
       0.66215444 0.007948046 -1.0825292 0.029715613
000290 94 5f 18 bd a0 a8 20 3f 3a 39 26 3f 06 6a f9 be
       -0.037200525 0.627573 0.6493107 -0.48713702
0002a0 c9 c0 f9 3f 3a 76 45 be 23 36 02 3b 33 0a 49 3f
       1.9511958 -0.19283381 0.0019868694 0.7853119
0002b0 1f 12 d4 bc 48 d6 9d bd e0 c3 8d 3d a8 ce b1 3d
       -0.025887547 -0.077068865 0.06922126 0.08681995
0002c0 4f 7d 72 be a6 d6 55 bf 87 0c 2f bd 9a 43 24 bf
       -0.23680614 -0.8353065 -0.042736556 -0.6416565
0002d0 a1 7d 2c 3f 4e 2d b0 3f f8 3b 07 3f a9 bf 8c bf
       0.67379194 1.3763826 0.5282588 -1.099599
0002e0 f1 ce 7d be aa aa 02 be 84 e5 eb 3c fd 1e 83 3e
       -0.24785973 -0.12760416 0.028795965 0.2560958
0002f0 7b f3 0d bc 2f 49 48 3f d5 83 13 3f e3 54 85 3f
       -0.008664007 0.7823667 0.57623035 1.041653
000300 77 aa c9 be d6 ad 04 bd be 67 27 3f 4f c2 1b 3e
       -0.39387867 -0.032392345 0.65392673 0.15210842
000310 56 ab 0f bf 89 fd 8f be 51 ae 20 3f 61 a9 e4 3e
       -0.5612081 -0.2812312 0.62765986 0.44660476
000320 c9 fb 09 3f 53 c2 4e bb 79 0a 4a 3c b3 0e 9f bf
       0.5389982 -0.0031548932 0.012331598 -1.2426361
000330 43 ed ed 3d b0 f2 af 3b 31 3d 34 bc 01 76 9a bc
       0.1161752 0.005369507 -0.011000917 -0.018855097
000340 7e bd 93 3d 2d d3 1d 3f 89 05 6a be ab 6e 5f 3f
       0.07213877 0.61650354 -0.22853674 0.8727824
000350 22 1e cb bd 3b cd 80 3f 9b 76 3d 3d fb 87 7f bf
       -0.09917857 1.0062631 0.04625569 -0.99816865
000360 ba cf 70 3c a8 78 c9 be c5 38 75 be 07 5e 39 3f
       0.014697963 -0.39349866 -0.23947437 0.724091
000370 9a 7e c3 bf 9e 5b 94 3f 01 b4 02 3e 9d da 30 3f
       -1.5273011 1.1590459 0.12763979 0.6908358
000380 5b 30 0e bf 1a 21 8f 3e 98 d2 d8 3c c9 97 0e be
       -0.55542535 0.27954942 0.026467606 -0.13925089
000390 60 27 1f 3f 73 d3 e1 bd e1 83 7a 3f c1 0c d6 bc
       0.62169456 -0.11026659 0.9785748 -0.026129128
0003a0 ab 06 dd bb 13 45 15 3d 17 cd dc 3d 36 75 78 be
       -0.0067451796 0.036442827 0.10781305 -0.24263462
0003b0 17 54 a5 3d 55 51 c5 3d 99 99 f4 3e 62 19 04 3d
       0.080726795 0.096346535 0.47773436 0.03225077
0003c0 ff 76 c6 3e 17 f7 d4 3b 3f 0f 82 be fc e4 23 bc
       0.38762662 0.006499182 -0.25402257 -0.010003325
0003d0 63 27 05 3f 84 6a 14 3d 47 f0 84 3d a1 ad 37 bf
       0.52013224 0.036234394 0.06491142 -0.7174931
0003e0 48 00 10 3f 20 a0 b0 3e 37 39 7a 3f ed 89 9e bf
       0.5625043 0.34497166 0.9774355 -1.2385842
0003f0 f0 51 0c bc 27 b4 87 3b cd 31 d7 3f 37 52 18 bc
       -0.008564457 0.004141349 1.6812073 -0.009296945

fc3.bias f4 [2]
000000 cf d7 11 3f 06 26 a2 bd
       0.5696992 -0.07917409
