results/results_2/agent1_actor.pth (torch, 185131 bytes, 6 tensors)

fc1.weight f4 [256, 48]
0.68327254 0.22877297 -0.2715417 -0.03735378 0.9474326 -0.8504119 -0.26648527 0.015988931
0.24692948 0.31828707 -0.1333399 -0.03874331 0.49450636 -0.86330134 -0.07151533 0.05198692
0.37025648 0.5085614 0.089309886 0.58232707 0.39375693 -0.8976754 0.12786597 0.6524275
0.75669926 0.65389013 0.009587185 -0.29527003 -0.94975084 -0.903314 0.10438627 -0.28975868
0.5697233 0.50307035 -0.030656118 0.2468436 -0.51444304 -0.86156887 -0.06350615 0.2938837
0.5647844 0.7747473 -0.0932261 0.9517012 -0.38458994 -0.8926703 -0.04657552 0.9839663
0.30504152 0.53745085 -0.35840905 0.33242506 0.5549357 -1.6236112 -0.3254432 0.3563189
-0.40164393 -0.16137512 -0.23258506 0.20797886 0.40624073 -1.5240554 -0.14339492 0.24687001
-0.09554333 -0.16314462 -0.06366429 1.6091721 0.70763445 -2.2258022 -0.07805438 1.5643482
0.9573795 1.7053107 -0.047853213 0.6242591 -0.60238117 -1.6289794 -0.05172736 0.57476056
0.7416871 1.3731298 -0.17809607 0.15306924 -0.41133282 -1.6322271 -0.20497096 0.08750987
0.7136522 1.5531027 -0.6208907 -0.66432625 -0.81090033 -2.2010348 -0.691685 -0.6245555
1.1581578 0.5377479 -0.07546431 -0.12886934 1.2280899 -0.86065596 -0.10326178 -0.03605249
0.64274794 0.07830515 -0.2074975 -0.56386393 0.7702268 -0.67970824 -0.2382173 -0.64593214
0.15761292 -0.027067289 -0.49578068 0.6827201 1.0076194 -0.72297955 -0.5114824 0.69753605
1.1685293 -0.48612413 -0.2658736 -0.24213395 -1.2636722 -0.8613154 -0.19772257 -0.26555765
0.67865145 -0.23909532 -0.18053171 -0.102951795 -0.815785 -0.6628676 -0.1187691 -0.20135
0.55183697 -0.36084032 -0.451273 -0.3242545 -1.0232834 -0.75697374 -0.34470347 -0.35599115
0.3681882 -0.39834028 -0.20377485 0.12613031 0.14452899 -1.6947128 -0.15602517 0.060467217
0.4258779 -0.34238783 -0.2524749 -0.05679971 0.09627675 -1.4605665 -0.2749044 -0.03410748
0.3878581 -0.9511514 -0.32726756 -2.2789338 0.029744653 -0.3309336 -0.42137185 -2.2579534
0.24474028 -0.99627244 -0.4943311 -0.29601476 -0.24291897 -1.7325267 -0.46685168 -0.298719
0.24650955 -0.7108099 0.4358384 1.3905389 -0.065802164 -1.5050852 0.47018218 1.3252587
0.33681738 -0.5987014 -0.42794397 0.97602665 0.029538006 -0.22005855 -0.51198775 0.9634044
0.20015664 -0.11622033 -0.20518011 -0.6771769 0.29733068 -0.8945755 -0.13844195 -0.7032239
0.4831409 -0.3117803 -0.4831427 -1.0675215 0.55762845 -0.833073 -0.55033004 -1.0270569
0.20429689 0.26478872 -0.38440117 1.1220676 0.59987694 -0.73482436 -0.34198573 1.055883
0.6912788 -0.3902907 0.06284083 -0.7605993 -0.36795363 -0.85755324 0.12233556 -0.6403057
0.75664246 -0.460496 0.08219484 -0.7478006 -0.56429505 -0.90732217 0.13628897 -0.80982685
0.7912839 -0.5689792 -0.6472614 -0.2469902 -0.54183525 -0.76033074 -0.5850066 -0.30064347
0.33738205 -1.3122805 -0.5197205 -1.2250874 -0.32611984 -0.98535913 -0.5025513 -1.2265556
0.57021147 -1.389424 0.027832946 -1.702333 -0.4608787 -1.6289161 0.007413234 -1.7064259
00000000: f3ea 2e3f 7643 6a3e 8407 8bbe 4700 19bd
00000010: f18a 723f 98b4 59bf c270 88be 38fb 823c
00000020: 15db 7c3e 86f6 a23e 418a 08be 4eb1 1ebd
00000030: f02f fd3e 5101 5dbf a176 92bd 3df0 543d
00000040: 4292 bd3e 1431 023f 1ae8 b63d 6313 153f
00000050: 829a c93e 0ece 65bf 4cef 023e 7d05 273f
00000060: 0bb7 413f 5865 273f 9213 1d3c a22d 97be
00000070: df22 73bf 963f 67bf 78c8 d53d 405b 94be
00000080: 63d9 113f 38c9 003f 8a22 fbbc 92c4 7c3e
00000090: 8ab2 03bf c78f 5cbf 830f 82bd ed77 963e
000000a0: b695 103f d755 463f 53ed bebd b1a2 733f
000000b0: f9e8 c4be 0a86 64bf f9c5 3ebd 37e5 7b3f
000000c0: 672e 9c3e 6196 093f 6481 b7be 9e33 aa3e
000000d0: 4410 0e3f 7ed2 cfbf 7ea0 a6be 6e6f b63e
000000e0: 46a4 cdbe 853f 25be c72a 6ebe 69f8 543e
000000f0: c9fe cf3e 3f14 c3bf 1ed6 12be 7ecb 7c3e
00000100: 39ac c3bd 620f 27be 6c62 82bd 5af9 cd3f
00000110: 8827 353f 8b73 0ec0 fada 9fbd 903c c83f
00000120: d316 753f 9f47 da3f bb01 44bd 72cf 1f3f
00000130: a735 1abf 6682 d0bf 11e0 53bd 8223 133f
00000140: 35df 3d3f b8c2 af3f d15e 36be 2fbe 1c3e
00000150: 379a d2be d1ec d0bf e8e3 51be 6038 b33d
00000160: e9b1 363f 12cc c63f b1f2 1ebf 4911 2abf
00000170: 2a97 4fbf c1dd 0cc0 4512 31bf dfe2 1fbf
00000180: 843e 943f d9a9 093f 088d 9abd 53f6 03be
00000190: 0d32 9d3f f353 5cbf ea7a d3bd c7ab 13bd
000001a0: 218b 243f 735e a03d 3a7a 54be 6359 10bf
000001b0: 952d 453f 5c01 2ebf 3cef 73be cf5b 25bf
000001c0: 4865 213e 38bc ddbc f7d6 fdbe bfc6 2e3f
000001d0: acf9 803f 3015 39bf 83f0 02bf b991 323f
000001e0: 5e92 953f 43e5 f8be 9620 88be f6f1 77be
000001f0: 03c0 a1bf 2b7f 5cbf c977 4abe 2cf7 87be
00000200: 1abc 2d3f 67d5 74be 4edd 38be 64d8 d2bd
00000210: 49d7 50bf b1b1 29bf 373d f3bd b22e 4ebe
00000220: 3045 0d3f 10c0 b8be 410d e7be b004 a6be
00000230: f3fa 82bf 08c9 41bf f97c b0be 7944 b6be
00000240: 2a83 bc3e 42f3 cbbe 5baa 50be 4e28 013e
00000250: 68ff 133e 59ec d8bf 10c5 1fbe 79ac 773d
00000260: ab0c da3e 754d afbe 6444 81be d0a6 68bd
00000270: bf2c c53d d8f3 babf 45c0 8cbe 49b4 0bbd
00000280: 5695 c63e a87e 73bf 9d8f a7be 0dda 11c0
00000290: 0fab f33c 2170 a9be 0dbe d7be 4f82 10c0
000002a0: 329d 7a3e b60b 7fbf f718 fdbe 3f8f 97be
000002b0: c0bf 78be 6fc3 ddbf 2f07 efbe b2f1 98be
000002c0: 006d 7c3e a3f7 35bf 3626 df3e 2efd b13f
000002d0: 49c3 86bd a2a6 c0bf b8bb f03e 14a2 a93f
000002e0: 5473 ac3e 7f44 19bf 791b dbbe e2dc 793f
000002f0: b0f9 f13c 0757 61be a111 03bf aca1 763f
00000300: ddf5 4c3e ed04 eebd bc1a 52be 775b 2dbf
00000310: ba3b 983e e602 65bf bac3 0dbe 7b06 34bf
00000320: 3e5e f73e aba1 9fbe 7b5e f7be 8ba4 88bf
00000330: bdc0 0e3f 4644 55bf 6ee2 0cbf 9a76 83bf
00000340: 3433 513e 6392 873e 3bd0 c4be e99f 8f3f
00000350: 8991 193f 731d 3cbf c118 afbe 2d27 873f
00000360: a6f7 303f 2fd4 c7be b1b2 803d a3b6 42bf
00000370: 6b64 bcbe 9c88 5bbf 118b fa3d 13eb 23bf
00000380: 52b3 413f 22c6 ebbe c555 a83d dc6f 3fbf
00000390: a475 10bf 4446 68bf 568f 0b3e d050 4fbf
000003a0: 9591 4a3f 9fa8 11bf ecb2 25bf 00eb 7cbe
000003b0: b7b5 0abf 09a5 42bf fec2 15bf f1ed 99be
000003c0: 57bd ac3e cff8 a7bf 670c 05bf aacf 9cbf
000003d0: 2ef9 a6be 7f40 7cbf 34a7 00bf c6ff 9cbf
000003e0: 61f9 113f a5d8 b1bf eb01 e43c 0ce6 d9bf
000003f0: 4bf8 ebbe 5380 d0bf b7ea f23b 2a6c dabf

fc1.bias f4 [256]
-0.7219507 -0.7835848 -0.59752357 -0.4589622 -0.9859742 -0.5200678 -0.84093124 -0.7794158
-0.9786375 -0.23286909 -1.0090493 -0.48629987 0.10313993 -0.97377676 -0.22756135 -1.2330743
-0.82231456 -1.082088 -1.1601827 0.033808433 0.024930412 -0.40068337 -1.1275793 -0.27973062
-0.8540856 -0.62650377 -0.42534456 -0.7626389 -0.47791642 -1.0921433 -0.033193752 -1.1088307
-0.61846846 0.020937406 -0.7041214 -1.2735031 -1.0200744 -1.0035918 -1.2354027 2.068833
-0.2583186 0.9335598 -0.34424663 -0.42144614 -0.5498581 0.23802927 -0.93460995 -0.82835585
0.43646422 -0.47700918 0.2715201 -0.63454103 -0.71577716 -0.43431252 -1.0884925 -0.26335394
-0.752534 -1.3154678 -0.72518027 -0.7838903 0.34844887 -0.2332357 -1.0219254 -1.0457096
2.7951937 -1.1842734 0.6010311 -0.6288665 -0.931052 -1.2725254 -0.5557612 -0.64411074
-0.9773304 -0.77908725 -0.9158589 -0.9847781 -0.64673996 1.6063192 -0.7350105 -1.164826
-0.9013116 -0.23564014 -0.46858355 -0.6451106 -0.6706987 -1.2720239 -0.32668975 -0.8345955
-0.77480036 -1.066611 -0.77409667 -0.8134011 -0.70778567 0.5773282 -0.73990715 -1.1945195
-1.2661045 -0.0017309431 -0.6234976 -0.8026202 -0.50331247 -0.99311495 0.9051051 0.14718746
-1.1465932 -0.11356863 -0.6075646 -0.5638183 -1.1353999 -1.0955442 -0.583308 -0.7645498
-0.62241185 -0.46968234 -1.0433697 -0.98486716 -0.5746945 -0.43043303 -0.47692758 -0.99996763
-1.2991695 0.15280268 -0.71019727 -0.5610236 -1.1687784 -0.94680697 -0.953883 -0.47671822
-0.8798864 0.24743044 -1.165498 -0.5022665 -1.0350963 -0.88396966 -0.52627325 -0.3762204
-1.0250242 -0.14909492 -0.6409273 -0.25772223 -0.9354229 -0.17276688 0.51337594 -1.1315339
0.053408917 -0.506422 -0.8572599 -0.8797795 -0.90246594 -0.37174413 -0.22160412 -0.23288354
-0.6800973 -0.5791802 -1.0109558 -1.2583355 -0.9830272 0.74642444 -0.9831632 -0.79282874
-0.8642169 -0.4536706 -0.12704603 -0.79611 -0.5143794 -1.0140108 0.8162995 -0.7676438
-0.68266064 -0.0666851 -1.0091994 -0.6489428 -0.6389798 -0.21598895 -0.33616534 -0.5875798
-0.8871206 -1.1784998 -0.37531006 -1.0272586 -1.1013651 -0.83981 -0.26363274 -0.3442367
-0.44765928 -1.1703672 -0.025626939 0.071555965 -0.9408562 -0.6853509 -0.81494457 -1.0735267
-0.83068955 -1.3503076 -1.0457826 -0.52864075 -0.41531584 0.58907294 -0.5641277 -1.6966252
-1.0127739 -1.2244096 -0.7253143 -0.5974364 -0.92033607 -0.41645598 -1.0175823 -0.65972656
-0.9197648 -0.47820804 -1.0465223 -0.63780445 -1.4865347 -0.03962432 -0.6102082 0.30249462
-1.2333323 -1.1584761 -0.7005239 -0.7031662 -0.07494758 -0.7920309 -0.650631 -1.0492706
-0.053519182 -0.88470566 -0.8459534 -0.08412931 -0.36113268 -0.36725006 -0.8105544 -0.2999596
-0.35298252 -0.94207376 -0.25330123 -0.47037137 2.5377843 -0.98134756 0.13208604 -0.88193834
-0.84859765 -1.0457257 -0.25540486 -0.91565955 -1.3373591 -1.0366083 -0.19897166 -1.0220631
-0.21551672 -0.9947816 -1.1777169 -0.5996325 0.4278834 2.888275 2.354018 -0.5959508
00000000: c3d1 38bf 0399 48bf 4ef7 18bf 18fd eabe
00000010: ce68 7cbf 2a23 05bf 4547 57bf cb87 47bf
00000020: fd87 7abf 3c75 6ebe 8728 81bf 4cfc f8be
00000030: 073b d33d 6f49 79bf d805 69be 61d5 9dbf
00000040: 3583 52bf dc81 8abf de80 94bf b67a 0a3d
00000050: dd3a cc3c 5f26 cdbe 8554 90bf da38 8fbe
00000060: 5ba5 5abf 8d62 20bf c3c6 d9be 4e3c 43bf
00000070: 76b1 f4be 5acb 8bbf 2cf6 07bd 2aee 8dbf
00000080: f353 1ebf ec84 ab3c 4d41 34bf 2602 a3bf
00000090: cc91 82bf b275 80bf ad21 9ebf c367 0440
000000a0: 5642 84be c6fd 6e3f 1841 b0be cac7 d7be
000000b0: 80c3 0cbf f2bd 733e 9942 6fbf 210f 54bf
000000c0: 3d78 df3e 8c3a f4be af04 8b3e 4871 22bf
000000d0: 2c3d 37bf 365e debe b953 8bbf 54d6 86be
000000e0: 11a6 40bf 4061 a8bf 6aa5 39bf 09ad 48bf
000000f0: e467 b23e 57d5 6ebe 74ce 82bf d0d9 85bf
00000100: 74e4 3240 4596 97bf 2ddd 193f 65fd 20bf
00000110: 6d59 6ebf 1de2 a2bf 5e46 0ebf 71e4 24bf
00000120: 5332 7abf 4372 47bf bb75 6abf 6b1a 7cbf
00000130: c090 25bf de9b cd3f a629 3cbf 0519 95bf
00000140: 5bbc 66bf a64b 71be 2fea efbe f825 25bf
00000150: e9b2 2bbf aed1 a2bf e143 a7be 0da8 55bf
00000160: 5159 46bf b686 88bf 332b 46bf 0e3b 50bf
00000170: 7131 35bf c8cb 133f 8e6a 3dbf 04e6 98bf
00000180: b60f a2bf d0e0 e2ba 8a9d 1fbf 8478 4dbf
00000190: 16d9 00bf c83c 7ebf f8b4 673f 4fb8 163e
000001a0: 91c3 92bf ab96 e8bd 5b89 1bbf 6556 10bf
000001b0: c954 91bf cb3a 8cbf ac53 15bf 89b9 43bf
000001c0: 6256 1fbf 347a f0be 238d 85bf 4120 7cbf
000001d0: 2e1f 13bf b861 dcbe da2f f4be e1fd 7fbf
000001e0: 304b a6bf 4e78 1c3e 7dcf 35bf 3e9f 0fbf
000001f0: 889a 95bf f161 72bf ad31 74bf 6914 f4be
00000200: 3c40 61bf 685e 7d3e 0a2f 95bf 8a94 00bf
00000210: 097e 84bf d64b 62bf d8b9 06bf f69f c0be
00000220: fe33 83bf 57ac 18be d013 24bf 2bf4 83be
00000230: e077 6fbf cde9 30be 9b6c 033f 1ad6 90bf
00000240: 4fc3 5a3d dfa4 01bf 6375 5bbf 3b39 61bf
00000250: 0208 67bf 3f55 bebe 31ec 62be 0679 6ebe
00000260: db1a 2ebf 2745 14bf 0067 81bf 2311 a1bf
00000270: aca7 7bbf ac15 3f3f 95b0 7bbf d3f6 4abf
00000280: 523d 5dbf 8347 e8be 5b18 02be ddcd 4bbf
00000290: 5eae 03bf 1bcb 81bf 01f9 503f 4e84 44bf
000002a0: d9c2 2ebf 3392 88bd 722d 81bf 1e21 26bf
000002b0: 2e94 23bf 352c 5dbe dd1d acbe a16b 16bf
000002c0: 561a 63bf 15d9 96bf a428 c0be 367d 83bf
000002d0: 88f9 8cbf cafd 56bf dffa 86be cb3f b0be
000002e0: 9933 e5be 98ce 95bf 96ef d1bc ef8b 923d
000002f0: f4db 70bf 2873 2fbf 35a0 50bf 5369 89bf
00000300: 12a8 54bf e1d6 acbf 34dc 85bf 0055 07bf
00000310: 47a4 d4be 7ccd 163f ac6a 10bf 042b d9bf
00000320: 93a2 81bf 74b9 9cbf 33ae 39bf 98f1 18bf
00000330: 259b 6bbf b839 d5be 2340 82bf d7e3 28bf
00000340: b575 6bbf afd7 f4be 71f4 85bf 2747 23bf
00000350: c546 bebf 1c4d 22bd 9b36 1cbf 93e0 9a3e
00000360: d5dd 9dbf f248 94bf 8955 33bf b302 34bf
00000370: 1e7e 99bd 89c2 4abf c18f 26bf 804e 86bf
00000380: ee36 5bbd 127c 62bf 6790 58bf fd4b acbd
00000390: 62e6 b8be 3308 bcbe 7e80 4fbf 4e94 99be
000003a0: 20ba b4be bf2b 71bf b3b0 81be 84d4 f0be
000003b0: 0f6b 2240 9839 7bbf 9041 073e b6c6 61bf
000003c0: b23d 59bf 57da 85bf 6dc4 82be aa68 6abf
000003d0: 952e abbf 95af 84bf 3abf 4bbe f7d2 82bf
000003e0: 6ab0 5cbe 02aa 7ebf 6dbf 96bf 8481 19bf
000003f0: 8813 db3e 7fd9 3840 3ba8 1640 3b90 18bf

fc2.weight f4 [128, 256]
-0.1475893 -0.017478693 0.098446436 -0.054949395 -0.13556404 -0.016584259 -0.08688489 -0.057876814
-0.059428286 -0.02167959 -0.12656374 0.05734308 -0.01804448 -0.034531828 0.092268266 -0.024466319
-0.12389369 -0.08231272 -0.03205668 -0.03822923 -0.13496804 -0.08856464 0.015272762 0.10654184
-0.10659038 -0.10326101 -0.02474509 -0.06380291 -0.18168052 0.055648953 -0.09160748 0.014071213
-0.035829566 -0.057158556 -0.031954713 -0.09983114 -0.20095183 -0.10797271 -0.033625107 -0.11804069
0.0112397885 -0.06279744 -0.2134616 -0.18529916 -0.12014997 -0.035271347 -0.11997694 0.054285225
-0.08396265 0.05871272 0.0028111946 -0.028549286 -0.017473256 -0.029808417 -0.06923701 -0.056208163
-0.11027627 0.03309226 -0.030558633 -0.01758663 -0.15021518 -0.012917536 -0.05503622 0.0018538054
-0.10929457 0.010545316 -0.043909397 -0.094494954 -0.07037463 -0.15013646 0.020314056 0.010811061
-0.08651996 0.0128988 0.084591486 -0.0022701814 -0.017725974 -0.033493806 -0.062725075 -0.0084724
-0.17621848 -0.035858627 -0.023795241 -0.11010197 0.06561123 0.106954955 0.011800279 0.0279819
-0.07977012 -0.03320071 -0.24931626 -0.09917191 0.05117242 -0.052734204 0.088307366 -0.11162945
-0.08036964 0.09466067 -0.023318443 0.11408927 0.096579835 -0.121636376 -0.044348393 -0.13162772
-0.035892956 -0.011668392 -0.0338034 -0.1206548 -0.052680712 -0.30688152 0.15675074 0.044349186
-0.16650659 -0.079169266 -0.009563396 0.021717634 -0.033179883 -0.14477885 -0.11854937 -0.050505336
0.1033725 -0.19029449 -0.23227292 -0.099766366 0.04167067 -0.065237686 0.13331445 -0.011535893
-0.14462277 -0.030724326 0.13330989 -0.06144472 0.04593248 -0.022985723 0.042191707 -0.1457729
-0.10654465 -0.12322563 0.015828958 -0.108733 0.13057685 -0.07011207 0.0010383693 -0.122233376
-0.03894838 -0.036799643 0.048604574 -0.13587432 0.07283685 0.04297335 0.050300576 0.01606453
-0.03304979 0.011325532 -0.06832123 -0.0742482 0.009589264 -0.08011182 -0.066764295 -0.00720267
0.010888349 -0.09304325 -0.009482187 -0.12745932 0.02929013 -0.042436592 -0.08050018 0.18515505
-0.07207483 -0.0835474 -0.027251726 0.016095236 -0.01384538 -0.10094898 0.029345995 -0.11807735
-0.05239621 0.035085678 0.08538847 -0.09633827 -0.005778383 -0.015455249 -0.001765115 -0.034167074
0.13080035 0.019117184 0.018994333 0.027941747 -0.15790254 0.040951934 -0.073674686 -0.047197815
-0.084372096 0.021207985 -0.13699132 -0.043683752 -0.022731733 0.058787674 -0.110211566 -0.09293549
-0.05680214 -0.09628101 -0.012804754 0.13034788 0.0052930657 -0.08420415 -0.100572005 0.06542036
0.055944327 -0.06985641 0.02638015 -0.11713378 -0.05014866 0.048564836 0.113724016 -0.05106679
0.15043648 -0.02047301 0.010379718 -0.1016696 0.008582168 -0.053209912 -0.07329426 -0.053396974
-0.0059661125 -0.0052596373 0.15318912 -0.015392098 -0.048081454 -0.24907346 -0.08793235 -0.023463015
-0.0057006986 -0.0150262145 -0.14441961 -0.30580994 -0.015117879 -0.04181062 -0.0924319 0.050156314
-0.014842008 -0.008496868 0.047001228 0.04218265 -0.122338496 -0.00016116703 -0.054173153 0.10681492
0.010114601 -0.100399226 -0.051990837 0.10231533 -0.018712481 -0.06871869 -0.16191387 0.0055742804
00000000: a621 17be 7a2f 8fbc 499e c93d 9e12 61bd
00000010: 4dd1 0abe b6db 87bc b5f0 b1bd 3d10 6dbd
00000020: 136b 73bd 6599 b1bc ed99 01be 94e0 6a3d
00000030: 04d2 93bc 3f71 0dbd 25f7 bc3d 976d c8bc
00000040: fabb fdbd 9293 a8bd de4d 03bd 4196 1cbd
00000050: 1035 0abe 6161 b5bd 9b3a 7a3c 9c32 da3d
00000060: 0f4c dabd 827a d3bd 37b6 cabc 1aab 82bd
00000070: 750a 3abe 28f0 633d b49c bbbd f28a 663c
00000080: 06c2 12bd 171f 6abd f2e2 02bd 4574 ccbd
00000090: 51c6 4dbe cc20 ddbd 7bba 09bd 51bf f1bd
000000a0: 1727 383c f29b 80bd ad95 5abe 10bf 3dbe
000000b0: 3011 f6bd b078 10bd 78b6 f5bd 2f5a 5e3d
000000c0: 9cf4 abbd c07c 703d 053c 383b 31e0 e9bc
000000d0: 1324 8fbc c830 f4bc 22cc 8dbd 883a 66bd
000000e0: 86d8 e1bd c08b 073d 1956 fabc d611 90bc
000000f0: 02d2 19be 13a4 53bc a96d 61bd 63fb f23a
00000100: d5d5 dfbd 43c6 2c3c 57da 33bd 9286 c1bd
00000110: 9320 90bd 5fbd 19be aa69 a63c e020 313c
00000120: 6031 b1bd 7d55 533c 4d3e ad3d 53c7 14bb
00000130: 1036 91bc cd30 09bd 0176 80bd d2cf 0abc
00000140: 9e72 34be 7fe0 12bd 3dee c2bc 247d e1bd
00000150: 2e5f 863d 330b db3d f555 413c 4c3a e53c
00000160: 845e a3bd 78fd 07bd c34c 7fbe a41a cbbd
00000170: 2c9a 513d d2ff 57bd 7eda b43d fb9d e4bd
00000180: d698 a4bd 74dd c13d 5206 bfbc a3a7 e93d
00000190: a6cb c53d 7e1c f9bd a9a6 35bd 6bc9 06be
000001a0: 7e04 13bd c92c 3fbc 6f75 0abd dd19 f7bd
000001b0: bbc7 57bd 931f 9dbe 4483 203e 7ea7 353d
000001c0: b480 2abe 7f23 a2bd caaf 1cbc 2ee9 b13c
000001d0: a1e7 07bd e840 14be 03ca f2bd afde 4ebd
000001e0: f6b4 d33d 8fdc 42be f4d8 6dbe 4f52 ccbd
000001f0: ddae 2a3d 569b 85bd 9583 083e 0b01 3dbc
00000200: fe17 14be 95b1 fbbc 6382 083e 75ad 7bbd
00000210: b223 3c3d 8e4c bcbc 36d1 2c3d 7e45 15be
00000220: 1534 dabd b85d fcbd bbab 813c 68af debd
00000230: f0b5 053e eb96 8fbd e419 883a 7e55 fabd
00000240: 5688 1fbd 39bb 16bd 9715 473d a322 0bbe
00000250: 7d2b 953d d304 303d fa07 4e3d c399 833c
00000260: 375f 07bd b98e 393c 00ec 8bbd 710f 98bd
00000270: 4a1c 1d3c aa11 a4bd b8bb 88bd 6004 ecbb
00000280: 0c65 323c 768d bebd 2d5b 1bbc b284 02be
00000290: dbf1 ef3c fed1 2dbd 47dd a4bd 4999 3d3e
000002a0: f89b 93bd e61a abbd 033f dfbc 28da 833c
000002b0: bcd7 62bc 57be cebd 0367 f03c 8ad2 f1bd
000002c0: 699d 56bd 00b6 0f3d 26e0 ae3d 004d c5bd
000002d0: 9758 bdbb 0338 7dbc 6e5b e7ba c6f2 0bbd
000002e0: 87f0 053e a49b 9c3c 019a 9b3c 17e6 e43c
000002f0: 34b1 21be 37bd 273d c1e2 96bd 7f52 41bd
00000300: 47cb acbd 5ebc ad3c 7447 0cbe bced 32bd
00000310: e637 babc 58cb 703d 9ab6 e1bd f654 bebd
00000320: 5ca9 68bd fa2e c5bd 08cb 51bc ea79 053e
00000330: 7471 ad3b 3a73 acbd b2f8 cdbd 1cfb 853d
00000340: e125 653d e110 8fbd 2f1b d83c d6e3 efbd
00000350: ae68 4dbd eceb 463d 23e8 e83d 692b 51bd
00000360: 050c 1a3e 04b7 a7bc b10f 2a3c 2738 d0bd
00000370: 399c 0c3c a3f2 59bd 4d1b 96bd c9b6 5abd
00000380: 617f c3bb 0959 acbb 9cdd 1c3e 232f 7cbc
00000390: 0ff1 44bd 1d0d 7fbe e015 b4bd 8235 c0bc
000003a0: edcc babb 8330 76bc bce2 13be 1f93 9cbe
000003b0: fbb0 77bc 9d41 2bbd f04c bdbd b570 4d3d
000003c0: e52b 73bc 7336 0bbc 5c84 403d b7c7 2c3d
000003d0: 9b8c fabd f2fe 28b9 abe4 5dbd c8c1 da3d
000003e0: b6b7 253c 1c9e cdbd 58f4 54bd b38a d13d
000003f0: eb4a 99bc 62bc 8cbd c0cc 25be 74a8 b63b

fc2.bias f4 [128]
-0.081970744 -0.5429088 -0.2989923 -0.007965742 -0.1429999 -0.08505448 -0.122167565 -0.180719
-0.1531523 -0.05162566 -0.020813799 0.028110525 -0.41986027 -0.19739348 -0.005521372 -0.1146915
-1.2439249 -0.17860073 0.09829566 -0.34755751 -0.15127811 -0.051015496 0.014087987 -0.5600626
-0.06534595 -0.015177617 -0.5661049 -0.8853277 -0.031053336 -0.083062574 -0.2687516 -0.45315382
-1.046418 -1.4542049 -0.5477732 -0.09075332 -0.25660273 -0.34925902 -0.12071447 -0.0120957345
-0.11039435 -0.027595662 -0.10188129 -0.32499307 -0.85652405 -0.5876925 -0.3405265 -0.079980984
-0.36177167 -0.525884 -0.059443038 -0.022841537 -0.049582254 -0.25219637 -0.048230585 -0.25505278
-0.59547037 -0.010838088 -0.032734316 0.024786865 -0.028598864 -0.011218961 -0.3164521 -0.043729648
-0.42779717 -0.25176787 -0.10371597 -0.094111934 -0.534061 -0.0038088479 -0.12436005 -0.049567584
-0.24990852 -0.16906129 -0.2969303 -0.06957818 -0.2351291 -0.045080002 -0.07250556 -0.02416813
-0.0813195 -0.8006039 -0.24900272 -0.63101876 -0.25817057 -0.10277482 -0.12577958 -0.5746125
0.023303282 -0.1480677 -0.29217598 0.010979258 -0.38250753 -0.6235056 -0.012851007 -0.95883596
-0.11518886 -0.0817462 -0.022707045 0.5890395 -0.88148373 -0.92956513 -0.060864974 -0.06077031
-0.07711245 -0.46927488 -0.037990157 -0.33655286 -0.57141536 -1.4462938 -0.730814 -1.2432262
-0.1028339 -0.93474567 -0.0032934323 -0.055997718 -1.0617771 -0.44147268 -0.069127016 -0.030336624
-0.061795425 -0.07636264 -0.05748057 -1.2852273 -1.2515806 -0.08907362 -0.15996866 -0.513922
00000000: 47e0 a7bd 12fc 0abf 8515 99be be82 02bc
00000010: 916e 12be 0b31 aebd fd32 fabd 670e 39be
00000020: f5d3 1cbe 6e75 53bd b381 aabc 0b48 e63c
00000030: edf7 d6be 8421 4abe a0ec b4bb 61e3 eabd
00000040: ee38 9fbf 1ce3 36be 3c4f c93d 0ff3 b1be
00000050: a6e8 1abe a0f5 50bd 4dd1 663c 4360 0fbf
00000060: 19d4 85bd 8aab 78bc 40ec 10bf d6a4 62bf
00000070: 9163 febc b61c aabd cf99 89be c703 e8be
00000080: 06f1 85bf 6323 babf dd3a 0cbf e0dc b9bd
00000090: 6f61 83be 14d2 b2be 2639 f7bd 302d 46bc
000000a0: 6f16 e2bd 4c10 e2bc 23a7 d0bd 7e65 a6be
000000b0: 2945 5bbf 0473 16bf 7d59 aebe 12cd a3bd
000000c0: 233a b9be 55a0 06bf 8b7a 73bd 2d1e bbbc
000000d0: c316 4bbd e21f 81be 6f8d 45bd 4796 82be
000000e0: bf70 18bf 3c92 31bc 6b14 06bd d30d cb3c
000000f0: 2a48 eabc bccf 37bc 0206 a2be dc1d 33bd
00000100: 3b08 dbbe b8e7 80be 0a69 d4bd c2bd c0bd
00000110: 39b8 08bf dd9d 79bb 7bb0 febd 6107 4bbd
00000120: 05e8 7fbe 671e 2dbe 4007 98be 017f 8ebd
00000130: afc5 70be cfa5 38bd cc7d 94bd 3efc c5bc
00000140: d78a a6bd 61f4 4cbf 92fa 7ebe 728a 21bf
00000150: ef2e 84be 9b7b d2bd 5dcc 00be ce19 13bf
00000160: 86e6 be3c 0f9f 17be 1798 95be 59e2 333c
00000170: 07d8 c3be 109e 1fbf 088d 52bc 4676 75bf
00000180: 23e8 ebbd 8d6a a7bd 2004 babc 4bcb 163f
00000190: eba8 61bf fbf7 6dbf 8d4d 79bd 4aea 78bd
000001a0: 22ed 9dbd cc44 f0be 919b 1bbd a850 acbe
000001b0: 4748 12bf 2820 b9bf a016 3bbf 0922 9fbf
000001c0: 949a d2bd 7e4b 6fbf a0d6 57bb dd5d 65bd
000001d0: 50e8 87bf b508 e2be 7792 8dbd 8384 f8bc
000001e0: 331d 7dbd 0464 9cbd bf70 6bbd 5482 a4bf
000001f0: cb33 a0bf 3b6c b6bd d3ce 23be 6490 03bf

fc3.weight f4 [2, 128]
0.022990115 0.31672937 -0.15963805 0.0046117455 0.06795108 0.0021822655 0.008083599 0.5430943
-0.05612107 -0.00036532053 0.30250633 -0.008752791 -0.18691926 -0.01910402 0.010259527 0.008234672
-0.01775521 0.03978558 -0.25916606 -0.08263886 -0.08128599 -0.007155518 -0.009180691 -0.07766753
-0.41453826 -0.0033496725 0.08477941 -0.050490517 0.0025951508 -0.01966775 -0.14591786 0.34830627
-0.19212472 0.022246424 0.4080298 0.009169024 -0.27702555 0.82145023 -0.022567319 -0.012021884
0.0073297457 -0.02220354 0.3173625 -0.10006645 0.30270255 0.12710518 -0.013247884 0.013550261
-0.074089356 -0.0021640921 -0.2765931 0.0007228915 -0.034130625 -0.14204235 -0.05063987 0.039366346
0.50446105 -0.0020403774 -0.008605951 -0.014390409 0.0003339392 0.015953407 -0.029632663 0.015477489
-0.49190953 -0.14702976 0.0220361 0.0124913175 0.13250841 -0.03286205 -0.0366006 0.013282877
0.011901213 -0.14161907 -0.16390266 -0.19261979 -0.1704579 0.031152556 -0.006354398 -0.013433046
0.016610464 0.3583085 -0.2734756 -0.021854615 0.56664556 -0.09940672 -0.040680483 -0.02960146
0.022767723 0.12755747 -0.41753206 -0.17227457 -0.2830943 -0.07976721 -0.025315672 0.7034539
-0.23936631 -0.0631313 -0.0019225674 0.21690807 0.5015104 -0.08465296 -0.060073957 0.039328806
-0.010609917 0.033112787 0.03170719 -0.41113326 0.085415654 0.11147039 -0.064408146 -0.018545803
-0.010246015 0.045064297 0.019315265 0.016322156 0.27825284 0.14294241 -0.011638471 -0.0054513407
-0.015068472 -0.2447594 -0.005367333 0.037328176 -0.053303298 -0.21856071 -0.005266867 -0.48175246
0.009048986 0.05581557 0.16531195 0.003560839 0.09953359 0.00064643665 0.013874323 0.24190883
0.24325576 0.13432628 0.12814716 -0.015116323 0.0838215 0.008776481 -0.0030160255 -0.03729933
0.21502653 -0.093180664 -0.007289358 -0.031043237 0.07965714 0.99105054 0.012746135 0.43538907
0.10769622 0.022381367 0.00035004984 0.061944243 0.015572695 0.03196811 0.09286866 0.3012756
0.02462186 0.2990621 0.31409785 0.0043214867 0.12061566 0.20269422 -0.05161302 0.011605507
-0.072094664 -0.0014196299 0.0052958443 0.043457348 0.043947462 0.11536877 0.32463315 0.015671235
0.08339034 0.18998048 0.09211415 0.09696811 0.04351585 0.07907447 0.0019915518 0.13073914
0.18645455 -0.0043842867 0.008247058 0.019334817 0.024146104 -0.0022249864 0.0776635 -0.015887836
0.035234995 0.17089556 0.66209525 0.0117580015 0.118587 -0.020154096 0.25266415 0.03660284
0.2633224 -0.07413159 0.36022785 0.038044542 0.14844514 0.15038732 0.0060455226 -0.044919804
0.024581471 0.21933435 -0.25233576 0.17477544 0.17108087 0.07240196 0.017794345 0.00061898434
0.027541414 0.342159 0.072026946 -0.06672762 0.23189555 0.07134453 0.013967206 0.68418974
-0.117285796 -0.007666888 0.0027023284 0.7254329 0.3550094 0.13515511 0.021098549 -0.060932655
0.027136248 0.17124347 0.046574727 0.019031398 0.17160095 0.3812971 0.63117033 0.16928723
-0.0019603886 0.17536898 0.24742858 0.053096905 0.35457763 0.13931611 -0.2920815 -0.0013293965
0.0024731916 -0.36937392 0.109895214 0.6195015 0.11512469 -0.30056828 0.0014339334 0.1352829
00000000: c455 bc3c 5a2a a23e 2878 23be 201e 973b
00000010: f029 8b3d 5704 0f3b 1271 043c 3a08 0b3f
00000020: 35df 65bd 7e88 bfb9 1ce2 9a3e de67 0fbc
00000030: c367 3fbe 0980 9cbc 9317 283c b8ea 063c
00000040: 6073 91bc 34f6 223d 6ab1 84be 903e a9bd
00000050: 4579 a6bd d678 eabb 9c6a 16bc 2710 9fbd
00000060: 5c3e d4be 2e86 5bbb d4a0 ad3d 25cf 4ebd
00000070: 6813 2a3b 431e a1bc 7e6b 15be 3355 b23e
00000080: 58bc 44be 223e b63c 48e9 d03e ad39 163c
00000090: 4bd6 8dbe 904a 523f 19df b8bc 70f7 44bc
000000a0: 5d2e f03b 33e4 b5bc 567d a23e a4ef ccbd
000000b0: d4fb 9a3e dc27 023e a70d 59bc ea01 5e3c
000000c0: 29bc 97bd 71d3 0dbb 9c9d 8dbe 6d80 3d3a
000000d0: 8ecc 0bbd 8d73 11be c16b 4fbd 9b3e 213d
000000e0: 5c24 013f dab7 05bb faff 0cbc c0c5 6bbc
000000f0: 9014 af39 b8b0 823c 33c0 f2bc 4b95 7d3c
00000100: 91db fbbe f88e 16be 0d85 b43c 62a8 4c3c
00000110: 49b0 073e 5b9a 06bd 83ea 15bd 6da0 593c
00000120: 4efd 423c 9704 11be 19d6 27be 1f3e 45be
00000130: 848c 2ebe a533 ff3c 8e38 d0bb 4716 5cbc
00000140: ab12 883c 3674 b73e fe04 8cbe 7308 b3bc
00000150: af0f 113f c095 cbbd 94a0 26bd c37e f2bc
00000160: 6083 ba3c 6d9e 023e c3c6 d5be bf68 30be
00000170: bcf1 90be fe5c a3bd d062 cfbc 8e15 343f
00000180: 711c 75be fc4a 81bd a8fe fbba 261d 5e3e
00000190: fc62 003f 885e adbd 1c10 76bd 3e17 213d
000001a0: 38d5 2dbc 46a1 073d 66df 013d 0f80 d2be
000001b0: 67ee ae3d 964a e43d 6be8 83bd 5eed 97bc
000001c0: e7de 27bc 5795 383d 0c3b 9e3c 0bb6 853c
000001d0: 2877 8e3e 7f5f 123e 49af 3ebc 29a1 b2bb
000001e0: c1e1 76bc 35a2 7abe 74e0 afbb 6ee5 183d
000001f0: 8f54 5abd 61ce 5fbe af95 acbb 42a8 f6be
00000200: 3342 143c de9e 643d 8947 293e f75c 693b
00000210: 44d8 cb3d a175 293a 2151 633c f3b6 773e
00000220: 0a18 793e d48c 093e 0239 033e 74aa 77bc
00000230: 9baa ab3d 3bcb 0f3c 83a8 45bb 2fc7 18bd
00000240: ea2f 5c3e 81d5 bebd 91db eebb 634e febc
00000250: 4823 a33d 7db5 7d3f 2ad5 503c 51eb de3e
00000260: d68f dc3d 2159 b73c e586 b739 3fb9 7d3d
00000270: 9e24 7f3c fef0 023d ed31 be3d cc40 9a3e
00000280: c8b3 c93c ab1e 993e 6fd1 a03e 429b 8d3b
00000290: 5805 f73d 138f 4f3e 2d68 53bd 0625 3e3c
000002a0: 5ea6 93bd e012 baba c388 ad3b 5500 323d
000002b0: 4102 343d 7646 ec3d 5136 a63e f660 803c
000002c0: 8ec8 aa3d 3e8a 423e 58a6 bc3d 3797 c63d
000002d0: ad3d 323d ccf1 a13d b284 023b 7be0 053e
000002e0: f1ed 3e3e 10aa 8fbb ab1e 073c 0d64 9e3c
000002f0: 0dce c53c 14d1 11bb 0b0e 9f3d 3527 82bc
00000300: 9252 103d 3fff 2e3e 137f 293f a2a4 403c
00000310: bedd f23d 341a a5bc 325d 813e dcec 153d
00000320: 32d2 863e 4ed2 97bd c96f b83e 98d4 1b3d
00000330: 0102 183e 22ff 193e 8519 c63b d4fd 37bd
00000340: 155f c93c 2f99 603e 2732 81be 55f8 323e
00000350: d32f 2f3e 7b47 943d 72c5 913c 5643 223a
00000360: 889e e13c 772f af3e dd82 933d 7ea8 88bd
00000370: 0776 6d3e 151d 923d b5d6 643c 0f27 2f3f
00000380: 8933 f0bd 853a fbbb 8c19 313b f8b5 393f
00000390: cbc3 b53e 1a66 0a3e ddd6 ac3c 8594 79bd
000003a0: d64c de3c 735a 2f3e 24c5 3e3d bce7 9b3c
000003b0: 29b8 2f3e 6039 c33e 6194 213f a259 2d3e
000003c0: dd79 00bb ed93 333e eb5d 7d3e 247c 593d
000003d0: 338b b53e e2a8 0e3e b58b 95be 253f aeba
000003e0: 4515 223b 941e bdbe be10 e13d a697 1e3f
000003f0: 7ec6 eb3d 16e4 99be d2f2 bb3a 9a87 0a3e

fc3.bias f4 [2]
-0.49089658 8.615119
00000000: cc56 fbbe 87d7 0941
