results/results_2/agent1_critic.pth (torch, 185643 bytes, 5 tensors)

fcs1.weight f4 [256, 48]
-0.84155864 1.121482 -0.008106458 -0.051819734 -0.1684583 -0.06463115 -0.0052368436 0.009957213
-0.5584816 1.4655755 -0.05628351 0.25805885 -0.26324594 -0.18942893 -0.0644928 0.36464876
-0.39095056 1.6852751 -0.079454325 -1.200402 0.21313179 -0.41048002 -0.09455173 -1.1526585
0.6937121 1.2873757 -0.13930449 -0.5352666 0.23220386 -0.04991344 -0.088992804 -0.55770725
0.9307166 1.003073 -0.13041674 0.49635804 0.23088469 -0.11171394 -0.14484955 0.40226132
1.0311049 1.1824045 0.04652858 1.1990075 -0.24473967 -0.43241537 0.022297144 1.2264888
0.10189772 0.8542095 -0.11494361 0.6767786 -0.23204656 -0.006835389 -0.12956505 0.7111396
0.29435223 1.3839724 -0.17885807 1.5407621 -0.50883615 -0.12818158 -0.12756588 1.4567255
0.5450681 1.6015215 -0.15118757 0.41685113 -0.40882012 0.20914532 -0.121580146 0.4836094
0.3870034 2.8632963 0.050343387 0.40361175 0.28900588 -0.010091846 0.107871845 0.33642408
2.0024781 2.6594987 -0.04519204 0.34931442 0.5164075 -0.10614751 -0.045448117 0.3917291
2.6977813 2.601859 0.026035635 0.33435503 0.36012045 0.24238639 0.01614711 0.39385533
0.13912894 0.010585204 -0.002990871 -0.022236872 0.029319497 -0.11447891 -0.022285143 0.031861942
0.093753725 -0.007893499 -0.022717716 -0.086923204 0.001317408 -0.061690915 0.013004989 -0.024666943
0.066508204 0.02080157 -0.05182112 0.047914043 -0.07692949 -0.09248652 0.04415763 0.0650828
0.043141007 0.06899443 -0.020650858 -0.058810916 -0.012889624 -0.1071096 -0.009878444 -0.079230785
0.048863187 0.007938708 -0.05408984 -0.015186509 0.014955251 -0.0701517 0.025975361 -0.0053421888
0.16848291 0.015774392 0.010841867 0.06719299 0.009404153 -0.08248927 0.0066785207 0.033978093
1.3615568 -0.39794955 -0.17498375 -0.45113957 -0.032130685 0.75225765 -0.20928718 -0.4210748
2.0225637 -0.20234111 -0.13369735 -0.837934 -0.008194708 -0.3937763 -0.09259339 -0.73217344
1.3752383 -0.32365128 0.004521973 1.4762971 0.060065344 -1.2753881 -0.062924 1.4909384
0.84618753 0.18329658 0.08631463 0.3510181 0.13440798 0.74605495 0.07430419 0.40971455
1.0949169 0.43515596 0.043192703 0.32882118 0.045465834 -0.46753347 0.009049002 0.3079636
1.2420096 0.54196596 0.06545433 0.065590605 -0.16199459 -1.2601289 0.034133933 0.06200499
1.2842433 2.3744905 -0.098293036 0.1998045 0.17063661 -0.52404124 -0.046173673 0.12215131
0.96532923 2.147208 -0.10975766 -0.2190951 -0.025723906 -0.38860577 -0.086014174 -0.22916524
0.20343201 1.9764376 -0.039731406 0.6526664 0.1497231 -1.0033108 -0.04682827 0.7202924
0.47673187 0.6288348 -0.039370038 0.14724457 -0.14594215 -0.5831304 -0.028849062 0.08041801
0.4813924 0.34891376 -0.07537896 -0.16796906 -0.016619721 -0.41018033 -0.08321283 -0.15954702
0.5715627 0.568319 -0.025685916 0.52894694 -0.151679 -1.000245 -0.04814535 0.5165293
0.28786463 3.5160704 -0.0010839107 0.031814136 -0.062332727 -0.6532989 -0.055191748 0.07180602
0.26300597 2.5334342 0.024653217 -0.061974864 -0.12468293 -0.63881415 0.039559975 0.034859706
00000000: 6370 57bf b98c 8f3f f3d0 04bc ee40 54bd
00000010: 5580 2cbe 565d 84bd d499 abbb 9423 233c
00000020: a6f8 0ebf fa97 bb3f 8a89 66bd 4a20 843e
00000030: 2cc8 86be a8f9 41be cd14 84bd 3eb3 ba3e
00000040: ac2a c8be 18b7 d73f f3b8 a2bd c6a6 99bf
00000050: 383f 5a3e 702a d2be 56a4 c1bd 508a 93bf
00000060: 1e97 313f bac8 a43f d6a5 0ebe 3b07 09bf
00000070: d9c6 6d3e 0972 4cbd dc41 b6bd e7c5 0ebf
00000080: 7143 6e3f b264 803f f78b 05be a422 fe3e
00000090: 096d 6c3e 47ca e4bd 7153 14be 32f5 cd3e
000000a0: 3ffb 833f 0859 973f c194 3e3d 1479 993f
000000b0: 099d 7abe 8c65 ddbe 80a8 b63c 96fd 9c3f
000000c0: c0af d03d 79ad 5a3f 8e67 ebbd 5d41 2d3f
000000d0: 9d9d 6dbe 66fb dfbb b3ac 04be 3f0d 363f
000000e0: 56b5 963e 0226 b13f 9226 37be b137 c53f
000000f0: 1643 02bf 0842 03be a1a0 02be fb75 ba3f
00000100: 9589 0b3f a8fe cc3f ead0 1abe 836d d53e
00000110: df50 d1be 312a 563e 03ff f8bd a79b f73e
00000120: 4f25 c63e 3f40 3740 de34 4e3d 33a6 ce3e
00000130: 94f8 933e 4558 25bc eaeb dc3d c73f ac3e
00000140: 9a28 0040 3a35 2a40 4a1b 39bd 57d9 b23e
00000150: 4833 043f de63 d9bd ce27 3abd b790 c83e
00000160: 73a8 2c40 dc84 2640 af48 d53c 9530 ab3e
00000170: b561 b83e 2334 783e f246 843c 68a7 c93e
00000180: d177 0e3e 906d 2d3c 7d02 44bb 1a2a b6bc
00000190: 712f f03c eb73 eabd 558f b6bc ab81 023d
000001a0: f401 c03d bc53 01bc 811a babc cb04 b2bd
000001b0: e1ac ac3a 9daf 7cbd e112 553c 5412 cabc
000001c0: 7435 883d 0e68 aa3c 6242 54bd 8441 443d
000001d0: 358d 9dbd 9369 bdbd a2de 343d 224a 853d
000001e0: a0b4 303d f44c 8d3d fd2b a9bc b7e3 70bd
000001f0: 002f 53bc 475c dbbd 32d9 21bc c043 a2bd
00000200: c424 483d 5b11 023c 4f8d 5dbd d6d0 78bc
00000210: de06 753c b2ab 8fbd 48ca d43c 870d afbb
00000220: c986 2c3e 4c39 813c 16a2 313c 7a9c 893d
00000230: e013 1a3c 22f0 a8bd 7ed7 da3b 9d2c 0b3d
00000240: 7e47 ae3f 0bc0 cbbe f12e 33be c4fb e6be
00000250: 779b 03bd f593 403f 614f 56be 1e97 d7be
00000260: af71 0140 8232 4fbe f5e7 08be d882 56bf
00000270: 1943 06bc 0c9d c9be 9aa1 bdbd b86f 3bbf
00000280: cf07 b03f 9fb5 a5be 0f2d 943b 4ef7 bc3f
00000290: 1407 763d eb3f a3bf 4cde 80bd 12d7 be3f
000002a0: bf9f 583f 19b2 3b3e bac5 b03d a5b8 b33e
000002b0: 3fa2 093e 75fd 3e3f cc2c 983d 1bc6 d13e
000002c0: 3d26 8c3f c3cc de3e d5ea 303d 405b a83e
000002d0: 623a 3a3d 8c60 efbe 4442 143c 68ad 9d3e
000002e0: 2cfa 9e3f 48be 0a3f eb0c 863d 5e54 863d
000002f0: e9e1 25be e74b a1bf 06d0 0b3d f2f8 7d3d
00000300: 1662 a43f a7f7 1740 dc4d c9bd 8d99 4c3e
00000310: 5dbb 2e3e 9127 06bf 9b20 3dbd 772a fa3d
00000320: d11f 773f db6b 0940 a0c8 e0bd 775a 60be
00000330: f1ba d2bc 56f7 c6be 3328 b0bd 4baa 6abe
00000340: 7b50 503e e8fb fc3f 66bd 22bd 2515 273f
00000350: 0351 193e 7d6c 80bf 00cf 3fbd 1565 383f
00000360: 3316 f43e 51fb 203f 7a42 21bd 48c7 163e
00000370: dc71 15be 0948 15bf de54 ecbc 33b2 a43d
00000380: 1179 f63e d3a4 b23e 4960 9abd 1500 2cbe
00000390: 1526 88bc 2803 d2be 7d6b aabd 4b60 23be
000003a0: ef51 123f 5b7d 113f 456b d2bc 1169 073f
000003b0: bd51 1bbe 0708 80bf 0f34 45bd 443b 043f
000003c0: fe62 933e 4c07 6140 0212 8eba 8a4f 023d
000003d0: 9a50 7fbd 993e 27bf be10 62bd 090f 933d
000003e0: b8a8 863e c923 2240 8bf5 c93c 5bd9 7dbd
000003f0: c459 ffbd 5389 23bf a409 223d 0dc9 0e3d

fcs1.bias f4 [256]
-0.4398839 -1.2051469 -0.10392247 -1.9942633 -0.59066 0.96115756 -1.619751 -0.583449
-1.4992507 -1.3018742 -0.049455527 -0.4599419 -0.7640925 -1.3555286 -0.66320187 -1.8516935
0.037289675 -1.5250332 -0.12350153 -0.10260644 -1.5666461 -1.0169482 -1.0580506 -0.7785085
0.3954393 -1.2419056 -0.15105066 -0.45839146 -0.6047967 -1.4387773 -0.804456 0.14523362
-0.15755661 -2.4539793 -1.3506893 -2.1695414 -0.006794862 -1.8488395 -1.2627665 -1.388394
-0.013505654 -0.99880475 -0.26499563 -1.3697724 0.19285189 -0.06369577 -1.8628988 -1.2994696
-1.9266189 -0.6541327 -1.4989045 -2.1972275 0.047573246 0.7165166 0.3165504 -1.1627463
-2.44145 -1.6143785 -0.6080144 0.092352465 -1.5246598 0.59070927 -1.5060309 -1.2347115
-1.3084846 0.28266057 0.26423916 0.39400366 -0.5119622 -1.9294136 -0.6353772 -0.9823684
-1.7173971 -0.3759111 -0.3960233 -1.745632 0.5894212 -0.7368619 -2.3702393 -1.6204469
-1.3366013 -1.0859197 -0.029156843 -0.98108625 -1.3179754 -0.117337696 -2.0191388 -0.7001513
0.024723852 -0.534017 -0.69051224 0.15160276 -1.3328398 -1.1452994 -1.2351443 -2.1922357
-0.433123 -1.2387681 -0.99108815 -2.9562316 -1.967033 0.13336976 0.3168342 -0.032358505
-1.3383454 -1.4384944 -2.2300408 0.38561982 -1.8353386 -1.5161139 -1.1720743 -1.152294
-2.4837916 -1.4604611 -1.7023032 -1.0215476 -1.0052491 0.6609377 0.32917494 0.36413017
-0.27033114 -1.3252288 -1.7632586 -0.6219752 -0.081348106 0.3984489 -0.28917098 -0.4670174
-0.45766422 -1.2445983 -0.24252445 0.059178296 -1.9563061 -1.7131435 -1.315133 -2.2378662
-1.8333716 -1.3190138 -0.7990125 -0.44071105 1.408449 -1.8772641 -0.99099296 -1.3916913
-0.0032289235 0.99577916 -0.613723 -0.66376007 -0.6832054 -0.93536013 -0.0055521214 -3.1892436
-1.0440577 -2.194071 -1.4222366 -2.226167 1.5372231 -0.99547446 0.87625986 -1.3963906
-1.7071451 -0.28426853 0.40726915 -0.7646632 -0.7050922 -3.1466064 -1.0473998 -2.2859166
-0.9746902 -1.4173822 -2.0531251 -0.031416964 0.8541544 -0.45017695 0.017072683 -2.0023377
-1.0950688 0.02027095 -1.0215471 -1.0370733 -0.06455897 0.1248152 -1.2966262 -0.5889966
-1.0056282 -1.2272711 -1.7053754 -2.8089602 -1.953541 -1.9376032 -1.673422 -1.3548537
-1.54639 -2.198793 -1.4380729 0.059899434 -0.74667937 -0.014468193 0.26743346 -1.046258
-1.2977332 -0.3834319 -0.72924685 -1.2616541 0.23859642 -0.69896686 -2.478965 -0.35587353
-0.8607476 -1.1266116 -1.1309677 -1.8934399 0.58388627 0.6093165 -0.7195609 -2.1027312
-0.9285158 -1.2348772 -0.18938798 -2.2834027 0.059591096 0.21953379 -2.0230703 -0.89868563
-1.2137343 -0.6319835 -1.3126702 -1.2345791 -2.015624 -1.5536361 -1.2235289 -0.338343
-2.3854005 -0.44369552 -1.6840473 -0.29959065 -0.5841608 -2.040532 -0.4139016 -2.0071957
-0.58958673 -2.3600035 -1.7355089 -0.7780538 -2.1467636 0.52669287 -0.5998921 -1.9249768
0.4799187 -1.4324944 -2.4364922 -1.7851211 -1.6849082 -1.054519 -1.5842799 -1.187823
00000000: 7638 e1be 4142 9abf 4ed5 d4bd 0544 ffbf
00000010: 7e35 17bf 6c0e 763f 0054 cfbf ea5c 15bf
00000020: 72e7 bfbf d0a3 a6bf e191 4abd 817d ebbe
00000030: 919b 43bf f681 adbf 99c7 29bf 4b04 edbf
00000040: 0fbd 183d 4a34 c3bf 5fee fcbd 5323 d2bd
00000050: dc87 c8bf 5c2b 82bf 346e 87bf 554c 47bf
00000060: 0577 ca3e c3f6 9ebf 06ad 1abe 49b2 eabe
00000070: f5d3 1abf db29 b8bf d4f0 4dbf 1fb8 143e
00000080: 8556 21be ff0d 1dc0 63e3 acbf c4d9 0ac0
00000090: 6fa7 debb c6a6 ecbf 55a2 a1bf e5b6 b1bf
000000a0: d246 5dbc abb1 7fbf 82ad 87be b454 afbf
000000b0: f77a 453e ee72 82bd 7873 eebf 0555 a6bf
000000c0: 739b f6bf 3e75 27bf 1adc bfbf 609f 0cc0
000000d0: 2adc 423d a26d 373f e512 a23e dfd4 94bf
000000e0: b840 1cc0 f4a3 cebf d5a6 1bbf 4a23 bd3d
000000f0: 0d28 c3bf b938 173f 9fc5 c0bf 070b 9ebf
00000100: 6c7c a7bf e3b8 903e 5b4a 873e d9ba c93e
00000110: f40f 03bf 06f7 f6bf 15a8 22bf 7f7c 7bbf
00000120: abd3 dbbf 6b77 c0be 91c3 cabe df70 dfbf
00000130: 4fe4 163f fba2 3cbf 00b2 17c0 ce6a cfbf
00000140: c015 abbf 6bff 8abf 55da eebc 7828 7bbf
00000150: 6bb3 a8bf bf4e f0bd 9239 01c0 1e3d 33bf
00000160: ad89 ca3c 57b5 08bf 69c5 30bf c13d 1b3e
00000170: 7f9a aabf 2c99 92bf 3519 9ebf 974d 0cc0
00000180: 4cc2 ddbe f48f 9ebf f4b7 7dbf e632 3dc0
00000190: bdc7 fbbf 1592 083e 1838 a23e 5a8a 04bd
000001a0: e74e abbf 9620 b8bf fdb8 0ec0 f66f c53e
000001b0: 60ec eabf 0510 c2bf 8806 96bf 5f7e 93bf
000001c0: 71f6 1ec0 64f0 babf 12e5 d9bf 12c2 82bf
000001d0: 01ac 80bf 3733 293f 9e89 a83e 456f ba3e
000001e0: d868 8abe 19a1 a9bf 75b2 e1bf c439 1fbf
000001f0: d699 a6bd 7f01 cc3e 380e 94be e81c efbe
00000200: f752 eabe ff4e 9fbf 5458 78be f164 723d
00000210: 3d68 fabf 4948 dbbf 4756 a8bf 3339 0fc0
00000220: ecab eabf 72d5 a8bf 158c 4cbf e1a4 e1be
00000230: 0f48 b43f 314a f0bf b7b1 7dbf f122 b2bf
00000240: 599c 53bb 62eb 7e3f f31c 1dbf 2eec 29bf
00000250: 8de6 2ebf c373 6fbf 92ee b5bb 911c 4cc0
00000260: afa3 85bf a96b 0cc0 d90b b6bf 8579 0ec0
00000270: bac3 c43f 6ad7 7ebf 9152 603f edbc b2bf
00000280: bb83 dabf a58b 91be 9585 d03e f8c0 43bf
00000290: ec80 34bf 0062 49c0 3211 86bf 754c 12c0
000002a0: 4c85 79bf c86c b5bf 6766 03c0 13af 00bd
000002b0: dda9 5a3f 987d e6be 03dc 8b3c 4d26 00c0
000002c0: 372b 8cbf 430f a63c 0ec2 82bf d1be 84bf
000002d0: 7e37 84bd 1d9f ff3d d9f7 a5bf 7bc8 16bf
000002e0: 6db8 80bf 3817 9dbf be49 dabf 01c6 33c0
000002f0: a20d fabf 6203 f8bf b132 d6bf d96b adbf
00000300: 1cf0 c5bf 06b9 0cc0 c612 b8bf 1c59 753d
00000310: 6126 3fbf 000c 6dbc 0aed 883e c8eb 85bf
00000320: 1f1c a6bf 3051 c4be ecaf 3abf e27d a1bf
00000330: 9f52 743e 7eef 32bf 5da7 1ec0 0e35 b6be
00000340: f459 5cbf cf34 90bf 8dc3 90bf 3d5c f2bf
00000350: 9279 153f 2bfc 1b3f 2535 38bf 2693 06c0
00000360: 36b3 6dbf 7510 9ebf ecee 41be 4523 12c0
00000370: cb15 743d 77cd 603e fc79 01c0 4310 66bf
00000380: a55b 9bbf acc9 21bf 9405 a8bf b006 9ebf
00000390: fcff 00c0 8cdd c6bf 989c 9cbf 4b3b adbe
000003a0: 67aa 18c0 0f2c e3be dd8e d7bf f263 99be
000003b0: 908b 15bf 1498 02c0 e9ea d3be e575 00c0
000003c0: 28ef 16bf 4c0a 17c0 2825 debf 892e 47bf
000003d0: 9364 09c0 58d5 063f 8792 19bf a465 f6bf
000003e0: e7b7 f53e fa5b b7bf 7def 1bc0 d97e e4bf
000003f0: 12ab d7bf 7bfa 86bf afc9 cabf 960a 98bf

fc2.weight f4 [128, 258]
-0.027685395 -0.09499663 0.049875524 -0.00087743887 -0.1453433 -0.021189366 -0.031437267 -0.05528411
-0.08627668 0.01127289 -0.09937847 0.00995917 -0.07697417 0.012064309 0.051803414 -0.023102047
-0.064350344 0.07315148 -0.0005057174 0.033399384 -0.06705002 0.03857926 -0.043765187 0.02730519
-0.06407033 -0.00075273967 -0.038569644 -0.06960528 0.04474568 -0.045887902 -0.041351747 -0.032678068
0.014908742 -0.05819088 -0.045799743 -0.026599823 -0.11592229 0.07916691 -0.031177413 0.030010682
-0.051999673 -0.09737766 -0.039967224 -0.015071979 -0.062056217 -0.008672275 -0.08929913 0.036523636
-0.07798811 -0.021303639 -0.123938225 0.03258017 -0.07720693 0.031492125 0.037823096 -0.036649123
-0.014445801 -0.013866041 0.04120685 0.01813406 -0.073127195 -0.0665797 -0.028993756 0.05507514
-0.08183947 -0.06638735 -0.15193304 -0.030257458 -0.049521834 -0.0066860816 -0.014074148 -0.030976478
-0.07755141 -0.045072626 -0.0650984 0.022490576 0.05669074 0.036022834 -0.0894174 -0.058166716
-0.012094263 -0.014190213 0.045974206 -0.05006175 -0.041401852 -0.110892154 -0.0007205182 0.01417837
-0.04189961 0.04213766 -0.09778637 0.053299207 -0.108643234 0.04692054 -0.056527328 -0.03425426
-0.057969913 -0.02464005 -0.20554943 0.066256724 -0.044908214 -0.037738472 -0.096201204 -0.012180898
0.0038547472 -0.031833023 0.020847872 -0.10412453 -0.064631395 -0.018386634 -0.015547766 -0.08416517
0.05580654 -0.010415418 -0.13474873 -0.0083177015 -0.022624647 -0.070070565 -0.05391343 -0.0035131995
0.027403671 -0.012016433 -0.07280439 -0.05749433 0.051667772 -0.029407326 0.038665064 -0.10117693
0.09485068 0.053277172 -0.11842813 0.03675401 -0.10220835 0.015633646 -0.027377522 0.029456908
-0.06893466 0.05663855 -0.009532062 -0.10289059 -0.10262598 -0.1370322 0.05743686 -0.07426497
-0.09557739 0.036965802 0.0125338035 -0.085159466 -0.017374517 -0.06869509 -0.08571161 -0.015286986
0.004069758 -0.008478997 -0.10770884 -0.054497536 0.0069935634 0.050836768 -0.061368417 0.059102144
-0.09903215 0.04860774 -0.042847306 -0.02840536 -0.08698145 -0.0044932174 0.029336104 -0.074168086
-0.04115711 -0.010413722 -0.0026510593 0.010010276 -0.106137775 -0.0009934367 -0.05211464 -0.019288113
-0.057777975 -0.08697702 0.0053486447 -0.027746636 0.01043948 -0.07829093 -0.09233624 -0.02775448
-0.07732487 0.03522824 -0.035262343 -0.13127819 -0.074862786 -0.0024058118 0.021933448 0.08180683
-0.020455256 -0.0658163 -0.015852222 -0.11198075 -0.0350395 -0.016380135 -0.09528711 -0.11749969
0.07519727 -0.03944973 0.038032826 -0.041969154 -0.023339167 -0.02709453 0.067157395 -0.061510902
-0.056710646 0.0032160839 0.012736973 0.011979725 -0.0055728815 0.01830867 0.033237573 -0.0044806222
0.005448428 0.035632767 0.055843484 -0.086308956 -0.17319927 -0.10758226 -0.090020955 -0.057224534
-0.0796241 -0.077688724 -0.052740153 -0.062313456 -0.047888674 -0.16892394 -0.11225226 -0.11777315
0.02472684 -0.053504262 -0.065966405 0.0035475108 -0.05018328 0.00017418618 -0.04641729 -0.10878273
0.056907542 -0.009932306 -0.07114068 0.021673493 0.013032066 -0.050199036 -0.058561932 0.043647144
-0.07631448 -0.12017939 -0.06484288 -0.041360322 -0.120181 -0.10111855 0.009050746 0.04264345
00000000: 7bcc e2bc 988d c2bd 474a 4c3d ed03 66ba
00000010: e0d4 14be 5295 adbc 5dc4 00bd 9771 62bd
00000020: d4b1 b0bd edb1 383c f086 cbbd c92b 233c
00000030: a2a4 9dbd 61a9 453c d12f 543d 8140 bdbc
00000040: 1dca 83bd 71d0 953d 1f92 04ba cbcd 083d
00000050: 8551 89bd 4905 1e3d 2043 33bd 22af df3c
00000060: 4e37 83bd 8153 45ba 34fb 1dbd 378d 8ebd
00000070: 3f47 373d f4f4 3bbd 7360 29bd 70d9 05bd
00000080: cc43 743c 8f59 6ebd 8398 3bbd dfe7 d9bc
00000090: aa68 edbd 4322 a23d c667 ffbc f6d8 f53c
000000a0: 9cfd 54bd f06d c7bd acb4 23bd 76f0 76bc
000000b0: a92e 7ebd 2816 0ebc 76e2 b6bd cf99 153d
000000c0: 3bb8 9fbd f884 aebc 53d3 fdbd c972 053d
000000d0: ab1e 9ebd e3fd 003d 64ec 1a3d 641d 16bd
000000e0: 15ae 6cbc 642e 63bc 84c8 283d e18d 943c
000000f0: b6c3 95bd f05a 88bd 5084 edbc 7896 613d
00000100: 749b a7bd 17f6 87bd 5694 1bbe 7dde f7bc
00000110: 68d7 4abd eb16 dbbb 4197 66bc 62c2 fdbc
00000120: 46d3 9ebd 139e 38bd 4f52 85bd 283e b83c
00000130: 8d34 683d ae8c 133d 7820 b7bd 3940 6ebd
00000140: 0427 46bc 117e 68bc 734f 3c3d 8d0d 4dbd
00000150: fd94 29bd 6d1b e3bd 28e1 3cba 654c 683c
00000160: ed9e 2bbd 8a98 2c3d 3844 c8bd 4550 5a3d
00000170: 5880 debd c12f 403d 3389 67bd 324e 0cbd
00000180: dc71 6dbd eed9 c9bc 8d7b 52be 9bb1 873d
00000190: adf1 37bd a893 1abd 2305 c5bd 6492 47bc
000001a0: ed9f 7c3b 5863 02bd 28c9 aa3c 3e3f d5bd
000001b0: 775d 84bd 919f 96bc 0fbc 7ebc ca5e acbd
000001c0: 6695 643d 6ea5 2abc 92fb 09be f846 08bc
000001d0: 5357 b9bc 2881 8fbd 54d4 5cbd b53d 66bb
000001e0: aa7d e03c 93e0 44bc 781a 95bd 2d7f 6bbd
000001f0: 96a1 533d a2e7 f0bc 425f 1e3d da35 cfbd
00000200: 1341 c23d 2a39 5a3d 738a f2bd 5f8b 163d
00000210: 9d52 d1bd 2212 803c d346 e0bc 9d4f f13c
00000220: 9d2d 8dbd d3fd 673d 5e2c 1cbc 4db8 d2bd
00000230: 922d d2bd 2b52 0cbe ea42 6b3d 3c18 98bd
00000240: 14be c3bd 7469 173d 955a 4d3c 1668 aebd
00000250: 0155 8ebc 03b0 8cbd 9289 afbd 4476 7abc
00000260: 9b5b 853b 7eeb 0abc 7496 dcbd cf38 5fbd
00000270: 432a e53b 373a 503d 735d 7bbd 1715 723d
00000280: 5ed1 cabd e918 473d a880 2fbd 5cb2 e8bc
00000290: 5523 b2bd d73b 93bb 4552 f03c 70e5 97bd
000002a0: 5c94 28bd 519e 2abc 65bd 2dbb 2402 243c
000002b0: c35e d9bd 3436 82ba 2976 55bd 1b02 9ebc
000002c0: 99a8 6cbd 0221 b2bd af43 af3b ea4c e3bc
000002d0: 5a0a 2b3c ff56 a0bd c81a bdbd 5d5d e3bc
000002e0: 805c 9ebd 7d4b 103d 3f6f 10bd ca6d 06be
000002f0: a951 99bd d3aa 1dbb c6ad b33c 578a a73d
00000300: c891 a7bc b2ca 86bd 85dc 81bc 2a56 e5bd
00000310: 9485 0fbd a22f 86bc e325 c3bd ada3 f0bd
00000320: 0701 9a3d 0a96 21bd 4fc8 1b3d d9e7 2bbd
00000330: c831 bfbc 59f5 ddbc d189 893d dbf2 7bbd
00000340: 6c49 68bd efc4 523b bdae 503c 9c46 443c
00000350: b89c b6bb 10fc 953c 1f24 083d 2fd2 92bb
00000360: ba88 b23b aaf3 113d 23bc 643d c0c2 b0bd
00000370: 265b 31be 1754 dcbd e85c b8bd 4664 6abd
00000380: f611 a3bd 441b 9fbd 0f06 58bd 653c 7fbd
00000390: ea26 44bd 66fa 2cbe 83e4 e5bd 0d33 f1bd
000003a0: f18f ca3c 4927 5bbd 6519 87bd 5b7d 683b
000003b0: fc8c 4dbd bfa5 3639 0e20 3ebd 7bc9 debd
000003c0: e217 693d 1cbb 22bc 34b2 91bd 9c8c b13c
000003d0: 7284 553c 819d 4dbd a3de 6fbd 59c7 323d
000003e0: c44a 9cbd 9d20 f6bd 58cc 84bd 7169 29bd
000003f0: 7521 f6bd 3e17 cfbd 9549 143c e6aa 2e3d

fc2.bias f4 [128]
-0.07304904 -0.05269226 -0.08094529 -0.14126943 -0.048137728 -0.20938034 -0.15283093 -0.12831777
-0.07113978 -0.15781136 -0.15867142 -0.095570475 0.7109174 -0.040833708 -0.10940957 -0.10123859
-0.069471754 -0.14983231 -0.013628739 -0.03309404 -0.051133603 1.0185931 -0.11750769 -0.04882396
-0.12609291 -0.106043145 -0.080119036 -0.044603042 -0.13810445 -0.07126404 0.009222806 -0.12949738
-0.16377303 -0.16523409 -0.15212947 -0.07412634 -0.10852713 0.0026141158 -0.1525659 -0.047394842
-0.06003458 -0.06648424 -0.08108063 -0.07852747 -0.0807106 -0.065833405 -0.9454872 -0.8279957
-0.1415883 -0.04562981 -0.08233217 -0.059683282 -0.022335246 -0.119234405 -0.10275599 -0.1339449
-0.08113989 -0.046794612 -0.025932476 -0.06864095 -0.0924476 2.6590703 -0.11111616 -0.67054033
-0.05354468 -0.07534271 -0.13236605 -0.113662764 -0.16654222 -0.0058049047 -0.06952518 -0.10549493
-0.039166324 -0.1294581 -0.13189806 -0.063479744 -0.3610465 -0.07439978 -0.071546055 -0.17596614
-0.08731584 -0.10359867 -0.07040722 -0.053614233 -0.14154974 -0.04492736 -0.7007951 -0.1224575
-0.03616309 -0.061649255 -0.14535765 -0.027004892 -0.16701832 -0.10535151 -0.0168009 -0.018383881
-0.12823445 -0.028935058 -0.07656959 -0.09478052 -0.10075881 -0.005793301 -0.047858078 -0.073760904
-0.08993324 -0.05724076 -0.15467152 -0.05150927 -0.10461442 -0.10949416 -0.15887405 -0.10217774
-0.16107693 -0.060064286 -0.13087502 -0.047416452 -0.032976583 -0.18186918 -0.124541804 -0.08827029
-0.11021485 -0.08536896 -0.15325116 -0.13408117 -0.10268997 -0.120821364 -0.10982728 -0.18496557
00000000: bc9a 95bd d7d3 57bd a5c6 a5bd efa8 10be
00000010: 112c 45bd cd67 56be b67f 1cbe bc65 03be
00000020: bcb1 91bd 4d99 21be c37a 22be 74ba c3bd
00000030: affe 353f 3f41 27bd 2012 e0bd 2e56 cfbd
00000040: 3547 8ebd a46d 19be 134b 5fbc 9e8d 07bd
00000050: 7871 51bd 4261 823f dfa7 f0bd a2fb 47bd
00000060: 801e 01be 262d d9bd 7315 a4bd aeb1 36bd
00000070: 416b 0dbe e2f2 91bd 411b 173c f69a 04be
00000080: 1eb4 27be 2033 29be d4c7 1bbe 8dcf 97bd
00000090: 7943 debd 9651 2b3b 3c3a 1cbe 1821 42bd
000000a0: d2e6 75bd e428 88bd 9a0d a6bd 03d3 a0bd
000000b0: 994b a5bd aad3 86bd 730b 72bf 87f7 53bf
000000c0: 86fc 10be 53e6 3abd c59d a8bd 7576 74bd
000000d0: 68f8 b6bc 2b31 f4bd bc71 d2bd da28 09be
000000e0: ac2c a6bd b5ab 3fbd 5870 d4bc a093 8cbd
000000f0: 2b55 bdbd 352e 2a40 df90 e3bd 88a8 2bbf
00000100: ab51 5bbd 474d 9abd f78a 07be 06c8 e8bd
00000110: 0b8a 2abe 1237 bebb 3863 8ebd ba0d d8bd
00000120: de6c 20bd aa90 04be 4910 07be ab01 82bd
00000130: 16db b8be e95e 98bd bd86 92bd 7830 34be
00000140: a6d2 b2bd 8a2b d4bd a931 90bd 999a 5bbd
00000150: 6af2 10be c005 38bd 4f67 33bf ffca fabd
00000160: c01f 14bd ee83 7cbd a3d8 14be 5d39 ddbc
00000170: da06 2bbe 88c2 d7bd 0ba2 89bc cb99 96bc
00000180: e44f 03be 3709 edbc 84d0 9cbd 4a1c c2bd
00000190: a35a cebd bbd5 bdbb d506 44bd f50f 97bd
000001a0: eb2e b8bd 4a75 6abd 3662 1ebe 62fb 52bd
000001b0: 1640 d6bd 793e e0bd e1af 22be 9042 d1bd
000001c0: 5af1 24be f805 76bd 1a04 06be c137 42bd
000001d0: 7412 07bd ea3b 3abe c60f ffbd 0ec7 b4bd
000001e0: 53b8 e1bd ecd5 aebd dfed 1cbe 934c 09be
000001f0: 1e4f d2bd 3171 f7bd 20ed e0bd 9d67 3dbe

fc3.weight f4 [1, 128]
0.012953932 0.010767686 0.0077016833 -0.015009119 -0.020310909 0.026653782 -0.008103029 -0.023337355
0.014264697 -0.0045791087 -0.025524851 0.014032595 0.008649651 -0.0033294822 0.0066451454 0.019580826
-0.010327796 0.009373755 0.0038653526 0.021237785 0.001976216 -0.010386409 -0.012053686 -0.007238977
0.01309481 0.012418879 -0.017916428 0.029684078 -0.0060877763 0.020469315 -0.029660232 0.00532495
0.004494324 -0.0043460014 -0.026399825 0.026815016 0.022157285 -0.007591186 0.025657125 0.025876481
-0.022035975 0.01967764 0.012941837 0.011969706 -0.0015725074 -0.007443146 0.024453185 -0.023324605
0.0074378722 -0.015997065 -0.021993252 -0.0149178775 -0.0008615516 0.0040119803 0.014500707 -0.006405983
-0.0105807 -0.009836078 -0.008173214 0.01838743 -0.026014293 -0.010601954 -0.020510485 -0.013354628
0.007190417 -0.0069810217 0.012084965 -0.016123917 -0.010383696 0.022680731 2.3231625e-05 -0.027581606
-0.007855468 -0.017643968 0.016028376 -0.01381657 -0.02398777 -0.006840981 0.013506156 0.0022608647
0.0046407348 0.014447271 -0.00019605792 -0.005709109 0.0024106407 0.002324788 -0.011662248 0.0061373576
0.008400167 0.012295466 -0.0016512348 0.0029369607 0.016833523 0.0044859834 -0.026854299 0.005110866
-0.026149828 -0.001796316 0.0058486504 -0.02705861 -0.010715934 -1.9183444e-05 -0.007459086 -0.005731576
-0.017345425 -0.010953511 0.003744789 -0.013663925 0.009043195 0.0063037397 0.024390241 -0.0072873808
0.018363766 -0.0046738526 0.022593902 -0.026691623 0.006689846 -0.009296607 -0.013468886 -0.0030672099
-0.025116244 0.025657315 -0.008030227 0.017218048 -0.019626278 0.00234081 0.0037008408 0.006762294
00000000: bb3c 543c f36a 303c 675e fc3b cfe8 75bc
00000010: 1063 a6bc 0859 da3c 91c2 04bc fb2d bfbc
00000020: 7ab6 693c 590c 96bb 7e19 d1bc f8e8 653c
00000030: 44b7 0d3c 7133 5abb 85bf d93b f867 a03c
00000040: eb35 29bc 6194 193c db51 7d3b ddfa ad3c
00000050: 6783 013b c22b 2abc d37c 45bc f134 edbb
00000060: 9d8b 563c 8e78 4b3c 79c5 92bc 062c f33c
00000070: f87b c7bb 44af a73c 04fa f2bc eb7c ae3b
00000080: 1f45 933b e768 8ebb 7244 d8bc 2aab db3c
00000090: 3283 b53c 7cbf f8bb e42e d23c eafa d33c
000000a0: ca84 b4bc 0133 a13c 000a 543c 961c 443c
000000b0: 981c ceba a2e5 f3bb 0c52 c83c 3e13 bfbc
000000c0: 65b9 f33b 470c 83bc 312b b4bc 1d6a 74bc
000000d0: c0d9 61ba ee76 833b 6094 6d3c 48e9 d1bb
000000e0: ac5a 2dbc 8027 21bc f2e8 05bc 3ca1 963c
000000f0: ed1b d5bc d1b3 2dbc 9b05 a8bc 5fcd 5abc
00000100: 979d eb3b 0ec1 e4bb 0400 463c 4e16 84bc
00000110: 6120 2abc f1cc b93c 89e1 c237 d2f2 e1bc
00000120: 39b4 00bc 158a 90bc f14d 833c e55e 62bc
00000130: 0082 c4bc 4f2a e0bb ed48 5d3c 042b 143b
00000140: 4e11 983b 3fb4 6c3c e694 4db9 7a13 bbbb
00000150: d7fb 1d3b 785b 183b 0313 3fbc e31b c93b
00000160: dba0 093c ec72 493c 3f6e d8ba 067a 403b
00000170: 75e6 893c 28ff 923b 8cfd dbbc 0d79 a73b
00000180: 2a38 d6bc 5d72 ebba 09a6 bf3b 05aa ddbc
00000190: e391 2fbc 22ec a0b7 596b f4bb f2cf bbbb
000001a0: fe17 8ebc 5b76 33bc 226b 753b a8de 5fbc
000001b0: e929 143c 9a8f ce3b 0bce c73c fbca eebb
000001c0: 9c6f 963c 1e27 99bb d916 b93c 64a8 dabc
000001d0: 7f36 db3b cc50 18bc 9aac 5cbc 3e03 49bb
000001e0: 95c0 cdbc 4a2f d23c 3791 03bc dd0c 8d3c
000001f0: 4ac7 a0bc 4668 193b ce89 723b 3c96 dd3b
