results/results_2/agent2_critic.pth (torch, 185643 bytes, 5 tensors)

fcs1.weight f4 [256, 48]
000000 6e aa 40 be 0a b8 6a 40 97 8a e3 3c 56 ba 29 3f
       -0.18815014 3.6674829 0.027776046 0.6629995
000010 0a 21 4d 3d 6e 0d c4 bd e5 0c fb 3c 64 8a 39 3f
       0.050080337 -0.09572874 0.030645797 0.7247679
000020 9d 44 f7 3e 16 9a 83 40 73 5d 5e 3d 01 2d 0e be
       0.48294535 4.1125593 0.05428834 -0.13884355
000030 ee 06 83 be 44 33 00 bf 56 be 3c 3d 69 23 04 bd
       -0.25591224 -0.50078225 0.046079956 -0.032260332
000040 3c 74 61 3f 52 91 83 40 30 d5 e7 bb 7d cd c9 be
       0.88067985 4.1114893 -0.0070749745 -0.39414588
000050 e9 54 af be 5c 96 b1 bf 38 a2 b5 bc 93 5a b1 be
       -0.3424447 -1.3874011 -0.022172078 -0.34639415
000060 b1 f9 f4 3e 1e 21 40 40 9f 6b cc be e8 78 af 3e
       0.4784675 3.0020213 -0.39925858 0.34271932
000070 30 dc 5f 3c 90 e7 a5 bd 1f a9 b2 be 5a fc a3 3e
       0.013663337 -0.08100808 -0.34894654 0.32028466
000080 48 3a fa 3e 1f 2d 42 40 05 93 38 be ac 41 8a bd
       0.4887259 3.034004 -0.18024834 -0.06750807
000090 cc e9 64 3e ef 9c d8 be b9 5a 47 be 91 7a 25 be
       0.22354811 -0.4230723 -0.19468202 -0.16160037
0000a0 9f 4a bd 3e e0 92 24 40 e9 b8 50 3d 73 5b 3b bf
       0.36970994 2.5714645 0.050957594 -0.73186415
0000b0 c1 25 9f 3e 5a 65 b4 bf bd f4 da 3c 45 52 34 bf
       0.3108349 -1.409343 0.026728028 -0.70438033
0000c0 6d e9 a4 3e 1b de fc 3e fe 9b 44 bd 47 4a 8f 3f
       0.3220934 0.49388203 -0.04800033 1.1194543
0000d0 98 0b 95 bf bb 72 54 3e ff 3f 80 bd 87 af 93 3f
       -1.1644163 0.20746891 -0.06262206 1.1537942
0000e0 88 4c 99 3e e4 92 c8 3f a1 bd 7d bd f3 af 3a 3f
       0.299412 1.5669827 -0.061948422 0.7292473
0000f0 90 55 15 bf 08 59 bf 3e 2a 90 2e bc 5d 2c 25 3f
       -0.58333683 0.37372613 -0.010654489 0.6452082
000100 ea f2 77 3f 72 9e 07 40 2e 6b 48 bd cf f8 18 3f
       0.9685503 2.1190457 -0.04893034 0.5975465
000110 1b 5d b6 3d ce 4c 7f 3d 9d 4a 9e bc 5b 0e 2a 3f
       0.08904477 0.062329106 -0.019322688 0.66428155
000120 5f 07 c6 3e e4 4d 87 3f 2c 5c cc bc ce e4 47 bd
       0.386775 1.0570645 -0.024946295 -0.04880219
000130 10 56 9c 3f 31 1d 51 3e 58 72 05 3d b7 94 ed bd
       1.2213764 0.20421292 0.03257975 -0.11600631
000140 bd f0 15 3f 1c 36 8e 3f f6 79 79 bb d8 36 f2 bd
       0.5857046 1.1110263 -0.003806708 -0.11826867
000150 de 45 17 3f d8 a0 ca 3e f5 20 85 bb 02 5b 9b bd
       0.59090984 0.3957584 -0.0040627667 -0.07585718
000160 2a 4e 34 3f bd 8c 3d 3f dc dc 09 3d 13 f4 06 bf
       0.7043177 0.74042875 0.033657894 -0.5271618
000170 57 0d 0d be 6e ba c3 3d e0 b9 c2 3c 61 70 ef be
       -0.1377462 0.09557043 0.023770273 -0.46765426
000180 e4 cd 4e 3f f8 60 27 c0 f6 2d 7e be a2 7f 30 3f
       0.80782914 -2.6152935 -0.2482222 0.6894475
000190 84 0d b7 3e 1f c0 16 bf ff f7 88 be ce 58 3e 3f
       0.357525 -0.58886904 -0.26751706 0.74354255
0001a0 1f 2c 20 40 5a 05 2a c0 7c 81 78 3c 94 1d ce bd
       2.502693 -2.6565766 0.01516759 -0.10064235
0001b0 b4 92 a2 3e a7 9c 55 bf 49 71 50 3d 31 3c 1d bd
       0.3175255 -0.8344216 0.050889287 -0.03838748
0001c0 72 42 dd 3f 6e 95 28 c0 b0 c1 ab be 37 df f5 be
       1.7285903 -2.6341205 -0.3354621 -0.48021862
0001d0 0f a5 42 3e 4e 5b b5 bf 9c 3a 75 be a9 14 ed be
       0.19008277 -1.4168489 -0.23948139 -0.46304825
0001e0 c6 e2 2f 3f 29 53 95 3f 68 51 46 be 99 e1 24 be
       0.68705404 1.1666003 -0.19366992 -0.16101684
0001f0 b6 a3 ae be 41 dd 14 bf 44 49 3b be 49 ca 39 be
       -0.34109277 -0.58150107 -0.18289667 -0.18143572
000200 94 17 4a 3f b7 ac 91 3f 09 6d ea 3a 48 91 1b be
       0.7894223 1.1380833 0.0017885278 -0.15192139
000210 ae 3d 9a be 29 c7 57 bf 2e a4 a7 3d c7 7c 11 be
       -0.30125183 -0.8428827 0.08185612 -0.14207755
000220 68 7f 3d 3f 5d 50 e6 3f f3 d5 bb be 70 dc 91 3f
       0.7402253 1.7993275 -0.36686668 1.1395397
000230 5b e5 83 be b6 13 b4 bf 8d f7 bd be 02 9c 8d 3f
       -0.25760922 -1.4068515 -0.3710293 1.1063235
000240 cb d7 ea be ef 6f 25 bd 29 07 e6 3c bd ef 1e 3e
       -0.45867762 -0.04038995 0.028079586 0.1552114
000250 99 59 17 bf d0 91 82 bf 3d 1a cc bb 4d b9 3d 3e
       -0.5912109 -1.0200748 -0.006228714 0.18527718
000260 17 b3 9e 3e 29 5a 05 bf 93 41 ca 3d 5c a6 05 bf
       0.3099601 -0.520907 0.098757885 -0.5220697
000270 a4 f1 0b be f3 ad 3d c0 6d 37 0f 3e d5 28 d5 be
       -0.13666397 -2.963742 0.13985987 -0.41632715
000280 7b e0 2e 3f fc 31 25 3e a1 fd 4f 3e 34 63 f8 3c
       0.6831128 0.16132349 0.20311595 0.030320741
000290 ed 80 92 be 64 32 05 c0 3e ec 0a 3e c4 2c 38 3d
       -0.28613988 -2.0812006 0.13566682 0.044964567
0002a0 84 fc c8 be e8 8b bc 3f be c6 15 3d 33 f0 b5 3f
       -0.39255154 1.4730196 0.03656649 1.4213928
0002b0 3b 88 31 3f 0b 5d 83 bf 39 28 c9 3c 11 74 bd 3f
       0.69348496 -1.026277 0.024555312 1.4801046
0002c0 6e 70 1e be 7a 4d ba 3f 13 59 5b bd 64 7a c0 bf
       -0.15472576 1.4554894 -0.053551745 -1.5037351
0002d0 e0 1b 32 3e 3b 66 42 c0 a1 99 b3 bd e4 25 c3 bf
       0.17393446 -3.0374897 -0.08769537 -1.5245938
0002e0 49 ad 33 bc 1c 8d 24 3f c8 97 9d 3c 59 29 d9 3f
       -0.010966607 0.64277816 0.019237414 1.6965743
0002f0 f9 9f 3c 3e 70 38 04 c0 e8 f4 45 bc e5 b3 d8 3f
       0.184204 -2.0659447 -0.012082316 1.69299
000300 cf 2e a1 3d 53 89 db 3e 44 d6 0b bd 61 dc ba bd
       0.07870256 0.42878208 -0.034139886 -0.09124065
000310 97 57 1f 3e 67 29 1d 3f 0f 4a 93 3c bd f1 2c be
       0.15560757 0.613913 0.01797965 -0.16889091
000320 d8 4f a4 3f 90 a0 cd 3f d9 6d 37 bc 27 8c 11 3d
       1.2836866 1.6064625 -0.011195623 0.03553405
000330 d1 d8 8d bf e1 b9 5e be 8d 97 4d 3c 66 95 d0 3c
       -1.1081792 -0.21750595 0.01254834 0.025461864
000340 e9 81 2d 40 b8 01 17 40 40 49 f8 3c 27 2b c3 bc
       2.711054 2.35948 0.030308366 -0.023824288
000350 db 0e da bf 64 0f f0 bf 04 26 be 3c 12 69 33 3d
       -1.7035784 -1.8754697 0.023211487 0.043801375
000360 50 7b 07 3f 9c fd 70 bf c3 12 95 3c 8e 3e 9c 3c
       0.52922535 -0.9413698 0.018197423 0.019072797
000370 27 0e 06 be 75 09 0e 3f 77 40 eb 3c db 93 43 bd
       -0.13091336 0.5548318 0.028717263 -0.047748428
000380 23 b3 07 3f 47 ad 83 bf b7 66 58 3c 55 27 80 bd
       0.53007716 -1.0287255 0.013208083 -0.06257502
000390 65 6d 88 3f f3 d1 74 be 3a 16 b0 3b a2 cf 5d bd
       1.0658385 -0.23908214 0.0053737434 -0.054153092
0003a0 f5 78 2b 3f 13 1c 05 bf be 7d 6a 3c 3f c4 5f 3e
       0.6698144 -0.5199596 0.014312206 0.21852206
0003b0 bd ce d9 3f 02 ab ef bf a5 7a 05 bc 09 0c 53 3e
       1.7016217 -1.8724062 -0.0081469165 0.2061006
0003c0 e6 6a 1c 3e 21 1b 52 40 16 86 87 3c 92 95 bb be
       0.15275154 3.2829058 0.01654343 -0.3663755
0003d0 48 b4 50 be b1 5b 33 be 20 dd 19 bd 02 1c a7 be
       -0.20381272 -0.17515446 -0.037564397 -0.32638556
0003e0 62 07 f6 bc 0b d1 51 40 6e 49 80 bd 1a 6f 08 be
       -0.030032817 3.278384 -0.062640056 -0.13323632
0003f0 de b9 ea be 86 de af bd b8 84 43 bd a8 1a 15 bd
       -0.4584493 -0.08587365 -0.047733992 -0.036402375

fcs1.bias f4 [256]
000000 47 94 32 bf 20 b1 e9 bf 34 36 ce bf d6 28 14 bf
       -0.69757503 -1.8257179 -1.6110291 -0.5787481
000010 90 b9 b4 bf dd 20 0e bf da d3 9f bf 73 b0 8e bf
       -1.4119129 -0.55518895 -1.2486527 -1.1147598
000020 e2 b8 15 bf a2 58 9e bf c0 52 69 3e 9c 73 1d bf
       -0.58485234 -1.2370799 0.22785473 -0.6150453
000030 08 ff be bf e1 4d a9 bf 42 16 93 bf df de a4 bf
       -1.4921579 -1.3226892 -1.1491168 -1.2880515
000040 c7 ee 1f bf 44 d2 91 bf 8b 20 2e bf 1f ec 16 bf
       -0.6247372 -1.1392293 -0.68018407 -0.5895404
000050 cd 32 67 bf f4 2b db bf d3 ec 8c bf cd 71 b9 bf
       -0.9031189 -1.7122788 -1.1009773 -1.4487854
000060 7f 00 37 bd 41 cd 27 bf a5 54 41 3f d2 c4 d9 bf
       -0.044678207 -0.6554757 0.7551978 -1.701319
000070 c2 1b 6c be 80 7d 9b bf ca 9b ed be 71 80 5a bf
       -0.23057464 -1.2147675 -0.4640792 -0.85352236
000080 4c 6b e4 3f 7a 31 69 bf a8 73 05 bf c9 f2 ca bf
       1.7845244 -0.9109112 -0.521296 -1.5855342
000090 0a 15 44 3f 82 62 ad be 84 ee 4f be 28 4f 6f bf
       0.76594603 -0.33864218 -0.2030583 -0.9348016
0000a0 10 28 23 bf 74 17 84 bd fd 95 6b bf 25 97 a3 3d
       -0.63733006 -0.06449786 -0.9202574 0.07987813
0000b0 cd 17 38 be ad e1 9e bf 79 63 e4 3e 46 05 bd bf
       -0.1797783 -1.2412621 0.44607142 -1.4767234
0000c0 f5 2a 74 bf bd 94 9c bf ef f1 2f bf 0b ac ae bf
       -0.9537805 -1.2232891 -0.68728536 -1.3646253
0000d0 84 6a bc bf 0c 09 5e bd a4 f2 9d bf bf d3 91 3e
       -1.4720006 -0.054207847 -1.2339673 0.28481862
0000e0 ab 70 c6 be cf f0 bb bf 91 09 26 c0 d9 4b 4c bf
       -0.38757834 -1.4682864 -2.594334 -0.79803234
0000f0 5f 62 8d bf f1 83 cd bf 15 c5 b7 bf 7c f0 ad bf
       -1.1045645 -1.605589 -1.435702 -1.3589015
000100 1a c1 00 3f 30 df 66 bf 1a 50 1b 3f f6 7c 84 be
       0.5029465 -0.9018431 0.606691 -0.25876588
000110 28 ef 89 bf 17 67 f6 bf 6c 62 15 bf c8 70 8b 3e
       -1.077611 -1.925021 -0.58353305 0.27234483
000120 af 41 e4 bf 8d f8 a0 bf 69 87 43 be bf aa 1a 3e
       -1.7832545 -1.2575852 -0.19094624 0.15104197
000130 31 21 6a bf 1c 02 c2 bf db 42 6f bf cf fa f3 be
       -0.91456896 -1.5156894 -0.9346139 -0.4765229
000140 f6 1b 9c bf e2 42 07 bf 1b 7d 95 bf d4 27 12 3f
       -1.2196033 -0.5283643 -1.1678804 0.5709202
000150 93 f9 e4 ba ed 95 c4 bf ab 29 0f be 02 ea 48 3f
       -0.0017469398 -1.5358254 -0.13980739 0.7848207
000160 d1 1e de bf e4 1c 86 bf a5 58 93 bf e9 ee c8 bf
       -1.7353154 -1.0477567 -1.1511427 -1.569791
000170 82 1f 83 be ce 3f 02 c0 f3 84 d1 bf d3 9e 3c bf
       -0.25609976 -2.0351443 -1.6368698 -0.73679847
000180 8d b6 52 bf 23 05 a5 bf 50 08 90 bf 91 a8 9e bf
       -0.823098 -1.2892193 -1.1252537 -1.2395192
000190 6f 9e 81 be 70 93 74 bf 1e 4c 4e be a2 3a 12 3e
       -0.25316188 -0.9553747 -0.20146224 0.14280179
0001a0 6b 59 78 3e ba 1e fd bf b1 5e af bf b2 be 60 bf
       0.2425286 -1.9775002 -1.3700773 -0.8779098
0001b0 42 1e 41 be f5 7d 17 be b2 37 46 bf a8 9e 91 3e
       -0.18859199 -0.14794143 -0.77428734 0.28441358
0001c0 34 00 0c be 5b 94 08 3e ef 04 d0 bf b0 97 37 bf
       -0.13671952 0.13337843 -1.6251506 -0.7171583
0001d0 0c 73 15 c0 51 11 15 bf 10 4e 2f bf bd 86 b4 be
       -2.335147 -0.5822955 -0.6847849 -0.35259047
0001e0 69 d4 0d c0 11 c2 c8 bf 27 f5 bd 3d ad 48 5d bf
       -2.2160895 -1.5684224 0.09275275 -0.8643902
0001f0 e1 22 f7 be 7d 20 1f bd 9a 32 72 bf bb 5d e9 3f
       -0.48268798 -0.038849343 -0.9460846 1.8231729
000200 6f a7 a3 3e c2 b5 95 3e 70 a7 f8 bf 99 65 95 bf
       0.3196368 0.29240233 -1.9426098 -1.167163
000210 fe c0 a7 be 28 ac 87 be e3 ed 5e bf 8c 60 2d bf
       -0.3276443 -0.26498532 -0.87081736 -0.67725444
000220 77 a9 b7 bf 71 bb 71 bf 98 ae a5 bf 70 ae 12 c0
       -1.4348592 -0.9442664 -1.2943907 -2.2918968
000230 14 05 a9 3f cf 34 cc bf b2 44 c2 be 14 da b5 bf
       1.3204675 -1.5953616 -0.37943035 -1.4207177
000240 ad 6e 8f bf 15 e2 7a bf 84 43 81 be fb 67 93 bf
       -1.120565 -0.98001224 -0.25246823 -1.1516107
000250 fb 84 7f bf 5d b1 6d bf 86 2b 20 bf 20 33 58 bf
       -0.9981229 -0.9284876 -0.6256641 -0.8445301
000260 47 97 a9 3f 9d 1a 8c bf 73 8c 1d bd 54 2e 83 bf
       1.3249291 -1.0945622 -0.03846402 -1.0248513
000270 e4 e0 9b 3d aa d7 66 be 2e 36 3e bf ac 73 59 bf
       0.07611254 -0.22543207 -0.7430142 -0.84942126
000280 09 06 e8 bf 90 f2 ed be 2d 24 9e bf b2 d7 31 bf
       -1.8126842 -0.46474123 -1.235479 -0.6946975
000290 db ca 04 3f 95 c3 87 bf ab 1e e5 bf a6 fa 6f bf
       0.5187203 -1.0606562 -1.7899984 -0.93741834
0002a0 09 27 f8 bf e5 5d 18 c0 2a 0a a8 bf f3 b7 7f bf
       -1.9386913 -2.3807309 -1.3128102 -0.9989006
0002b0 15 ef b4 bf 9c 7c 86 bf c9 3c d8 be 17 59 b8 bf
       -1.4135462 -1.0506778 -0.42233875 -1.4402188
0002c0 93 44 2c 3d 05 e6 02 bf c5 a3 8e bf 56 e1 c6 bf
       0.042057585 -0.5113223 -1.1143728 -1.5537517
0002d0 99 fb 9d bd b1 01 f3 3e e4 47 90 3d f0 fb d5 bf
       -0.07714004 0.47462228 0.07044962 -1.671751
0002e0 d1 09 27 bf f3 09 db bf 15 95 96 bf bc b3 81 bf
       -0.65249354 -1.7112411 -1.1764246 -1.0132976
0002f0 c7 f5 32 3f 68 48 7b bf a5 1f 39 bf 16 e4 61 bd
       0.69906276 -0.9815736 -0.7231391 -0.05514916
000300 4e c4 99 bf 39 a8 8d bd 4f 98 c3 bf a2 8a cf bf
       -1.2013032 -0.069168516 -1.5280856 -1.6214182
000310 cd 3f 8c bf 13 8f 4a bf 3e 55 27 3f ff a0 85 bf
       -1.095697 -0.79124564 0.65364444 -1.0439757
000320 60 bd 15 bf a8 ba c2 bf 84 8e cd be d2 4d 01 bf
       -0.5849209 -1.5213213 -0.40147793 -0.5050937
000330 ab 6a 1b be 86 03 97 3e 43 82 d8 bb 72 ec 33 bf
       -0.1517741 0.29494876 -0.0066073253 -0.7028266
000340 e3 69 c0 bf 42 90 8e 3f 37 41 1c bf 59 42 e1 bf
       -1.5032314 1.1137774 -0.6103701 -1.7598373
000350 c8 16 8e bf a6 ec bf 3d dd 18 40 3f 7a fc f3 3d
       -1.1100702 0.09371309 0.7503794 0.119133905
000360 84 bd 50 3f 28 6f 67 bf 87 87 96 bf 00 17 61 3f
       0.8153918 -0.90403986 -1.176011 0.8792572
000370 15 0f 90 bf 4e 01 eb 3e 2e a1 8d bf 4b 29 85 bf
       -1.1254603 0.45899433 -1.1064813 -1.0403227
000380 e8 fc 53 bd 0b 82 29 3e 08 7a be bf 35 47 64 3f
       -0.051754862 0.16553514 -1.4880991 0.89171153
000390 47 83 48 3f 13 7c ec bf ef 36 fe be ec c5 02 c0
       0.78325313 -1.8475364 -0.49651286 -2.0433302
0003a0 ab a3 5c bf cb 33 fa bf 65 25 c4 bf ac df a4 3d
       -0.8618724 -1.9547056 -1.5323912 0.080504745
0003b0 6b 6e b4 bf e7 89 0d c0 9a ce 28 bd c2 39 8c bf
       -1.4096197 -2.211542 -0.041212656 -1.0955126
0003c0 3b a0 8f bf c1 71 a1 bf ae 1c f2 3d e9 be ad bd
       -1.1220773 -1.261284 0.118218765 -0.08483679
0003d0 25 75 de bf c2 5b 82 bf cc 93 71 bf 24 49 82 bf
       -1.73795 -1.0184252 -0.94366145 -1.0178571
0003e0 d5 6b d0 bf 7e 46 42 3f 6a 14 83 bf 32 99 7c bf
       -1.6282908 0.7588881 -1.0240605 -0.9867126
0003f0 ab d4 7a bd 45 85 93 bf d2 ef b3 3e c5 a5 d5 bf
       -0.061237972 -1.1525046 0.35143906 -1.6691214

fc2.weight f4 [128, 258]
000000 69 86 7b bc 85 9e fe bd 7d 52 c3 3c 6b 85 d5 3c
       -0.01535187 -0.12432579 0.023843044 0.026064595
000010 b8 a8 bb bd af ca 1f bd 83 77 5c bc be c8 7d bd
       -0.0916304 -0.039011654 -0.013456228 -0.06195902
000020 57 73 9e bd 6c 55 26 3b f3 c8 e2 3c 05 50 28 3d
       -0.07736843 0.0025380505 0.02768371 0.041091938
000030 f3 7c 0e bd ec a4 36 3d cc ab 2f 3d b4 72 ea ba
       -0.03478713 0.044590876 0.042888448 -0.0017886967
000040 da 54 9c bd 3c 9c 6d 3c 8f 81 f6 3b 01 ce a4 3c
       -0.07633372 0.014502581 0.007522769 0.020117762
000050 2f 39 81 bd 37 34 67 3d f1 c0 82 bb 0e 99 f3 bb
       -0.06309735 0.05644628 -0.0039902856 -0.007434017
000060 73 ce b2 bd cd a7 02 3d 92 46 9e bb 07 24 f3 bc
       -0.08730783 0.03189831 -0.00483019 -0.029680265
000070 9f 19 95 3d d7 a0 b3 bd 10 e2 33 bc e5 9b 57 ba
       0.072802775 -0.08770912 -0.0109791905 -0.0008224829
000080 5f 10 10 be 98 35 52 bd 35 1e 5f be 82 3b 7c 39
       -0.14068745 -0.051320642 -0.21788867 0.00024054761
000090 fe 74 a4 bd 51 ef e0 3d 02 c0 05 bc 60 b1 f4 3c
       -0.08030127 0.10983146 -0.008163454 0.029869735
0000a0 71 b0 39 3d 94 1f 5a bd 81 b7 7c 3b dd cb 66 bd
       0.045334283 -0.05325277 0.0038561525 -0.056346763
0000b0 a9 d3 06 be 7e 35 4a bd 78 62 0e be 21 a1 d4 3b
       -0.1316668 -0.04936742 -0.1390475 0.0064889346
0000c0 7f ab 28 bd cd 0d 9a bc ce cc 73 bd 2f b8 19 3d
       -0.041179176 -0.018805409 -0.05952149 0.037529167
0000d0 12 7b b7 bd 7e dd 56 3b 69 25 95 3b 25 b1 5c 3d
       -0.08959021 0.0032785828 0.004551579 0.053879876
0000e0 9f 46 09 bd 4b e8 05 3d ba a7 03 3d 9e 5b 27 3d
       -0.033514615 0.032692235 0.03214238 0.040858857
0000f0 7e c3 fa bc 5c 7f 0e be e6 3b 06 bc f1 31 9b 3d
       -0.030610796 -0.13915771 -0.008192992 0.07577885
000100 c4 74 48 bd bd 1c a5 bd 5b 67 0c bc 99 58 a4 bd
       -0.04893948 -0.08062122 -0.008569564 -0.08024711
000110 ad cd 82 3b 5a 2e 0d be d1 35 fd bc 53 b8 fe bb
       0.0039918036 -0.13787213 -0.03090945 -0.007773438
000120 d0 ce 97 bd 2b 66 52 bd 9e a4 b7 bd 4f 75 8e bd
       -0.07412493 -0.051366966 -0.08966945 -0.069559686
000130 d5 71 42 3d 11 8d 12 bc 83 ea ff bd 05 4d 50 bd
       0.04747184 -0.008944766 -0.124959014 -0.0508547
000140 71 02 89 3c 08 14 21 be 77 19 00 3d 4a a6 c0 bd
       0.016724797 -0.15730298 0.031274285 -0.09406717
000150 a1 6c c6 bd bc d9 77 bd 00 af 7a bc a3 20 b1 3b
       -0.09688688 -0.060510382 -0.015300512 0.005405502
000160 c9 00 0e bc e7 1b 10 bd fe 5c 98 3c 05 f0 0d bb
       -0.008667179 -0.03518286 0.01859903 -0.0021657955
000170 34 92 bc bd f1 8b 90 3d 58 70 1d bd 78 19 fd 3c
       -0.092075735 0.07057942 -0.038437217 0.030895934
000180 91 a5 2c bd 27 53 27 3d 2c 2f a4 bd bb 5a 7a 3b
       -0.042150084 0.040850785 -0.0801681 0.0038201052
000190 40 a7 3b bd cf 70 61 3b 83 80 37 be d6 d2 5f bc
       -0.0458138 0.0034399515 -0.17920117 -0.013661107
0001a0 21 34 bf 3b 2a dd 0a bc 62 b5 9e 3d 79 a6 1c be
       0.0058350717 -0.008475581 0.0774944 -0.1529788
0001b0 e8 45 fe bd 5e ed 8f bb 8c a6 94 bc 62 73 31 be
       -0.12415677 -0.00439231 -0.018145822 -0.17329171
0001c0 21 9c 5e bb 3b 93 b0 3c bc 28 01 be df b7 c3 3c
       -0.0033967572 0.02155458 -0.12613195 0.023891388
0001d0 33 e7 e8 bc 53 02 02 be 5a 91 3d bd d6 b6 a5 3c
       -0.028430557 -0.12696199 -0.046281196 0.020228785
0001e0 6b c1 23 3d 3e 9f 06 3d 6b d9 8d be a2 fe 99 bd
       0.03997938 0.03286671 -0.2770494 -0.075192705
0001f0 64 b3 67 3d 01 f9 19 bd 62 73 89 3d df ea 07 be
       0.056567565 -0.037590984 0.06711461 -0.1327319
000200 6f b6 64 3d cb 2e a5 3d f7 6e 00 be 0e ae 55 3a
       0.055838045 0.08065566 -0.1254233 0.00081512413
000210 80 13 b3 bd 45 51 0b 3c cf 72 0f bb 9d f9 9b bc
       -0.08743954 0.008503263 -0.00218885 -0.019039923
000220 f7 02 7c bd f7 41 7e 3d ff 6c 14 3d 87 c4 ae bd
       -0.061526265 0.062074628 0.03623676 -0.08533578
000230 61 32 a4 bd cd a5 1e be 76 3b 59 3d 15 09 2f be
       -0.080174215 -0.15492935 0.053035222 -0.17093308
000240 d7 66 4d be 3c a4 eb 3d 73 b0 9d bc 0f 52 b2 bc
       -0.20058762 0.115059346 -0.019249177 -0.021767644
000250 be 05 ea 3c 43 d0 b9 bd de e4 ef bd 44 c8 4f bd
       0.028567191 -0.09072926 -0.11713575 -0.050728098
000260 e2 19 8c 3b 87 e8 90 bc 21 3a a9 bd b8 75 38 bd
       0.0042755464 -0.017689003 -0.0826304 -0.04503414
000270 3d a9 29 bd ec f6 9c 3d 30 a8 60 bd 86 3d b8 3d
       -0.041421164 0.07664284 -0.054847896 0.0899611
000280 4e 53 8c bd 96 bd 09 3c 06 44 a6 bc a9 2b ff ba
       -0.068518266 0.008407017 -0.020296108 -0.0019467968
000290 3e c8 87 bd 10 33 f8 bc 17 81 f1 bc 34 16 9e bd
       -0.0662999 -0.030297786 -0.0294805 -0.07719079
0002a0 58 f6 10 bd 79 a1 1c bd 31 15 65 bd 5e 4e 9d 3c
       -0.03539118 -0.03823993 -0.055928413 0.019202407
0002b0 43 22 64 bd df 0f bc 3c fe 09 e8 bd 85 18 9b bd
       -0.055696737 0.022956787 -0.11330031 -0.07573036
0002c0 9b 94 0c bd e5 91 07 be 86 ef 98 3d 93 50 9f 3c
       -0.03432141 -0.13239248 0.074675605 0.0194476
0002d0 b5 ae f5 bc a3 c6 f9 bd 77 7f b0 bd 05 b1 35 bd
       -0.029990533 -0.1219609 -0.08618062 -0.044358272
0002e0 0b 3c c3 bc 5c c1 98 3c a2 5d 21 bd bc 8d cb bd
       -0.023832342 0.018646888 -0.039395936 -0.09939143
0002f0 59 6f a6 bd e7 8a 03 3d f1 9e 01 3b fd b2 6a 3c
       -0.08126707 0.03211489 0.0019778574 0.014324901
000300 e8 8e 01 3d 53 d5 a3 bd 41 2e 79 3c 43 a2 8c bd
       0.031630427 -0.07999673 0.015208782 -0.068668865
000310 17 6e 8d bd cb 3c 95 3d 4e 92 8c bd a8 7a 0c be
       -0.069057636 0.07286986 -0.06863843 -0.13718665
000320 ef 7e 80 3d 2c 1f 28 3c df 80 0f 3d 97 51 f8 bd
       0.06274211 0.010261338 0.03503501 -0.12124937
000330 ca ac 68 bc 5e 7d 0f be a9 87 17 3d 17 a1 78 bd
       -0.014201352 -0.14012668 0.03699461 -0.060700502
000340 8e 85 ba bc e8 18 ec 3c 56 35 4d 3d 08 59 01 3c
       -0.022768762 0.02882047 0.050099693 0.007894762
000350 81 ec a9 bd 25 f7 49 bb 9c 8f e1 bb c8 75 bc 3c
       -0.08297063 -0.0030817476 -0.0068835746 0.023005381
000360 eb c6 9d 3c 95 31 34 3d 55 9f 05 3d 84 c1 d1 bd
       0.01925989 0.043992598 0.032622654 -0.10241988
000370 e2 40 ff bd 02 01 bb bd 7f 5d 23 bd f1 0a 03 be
       -0.12463547 -0.091310516 -0.039884087 -0.12797143
000380 be 85 81 bd c8 c7 00 be 5f 93 89 bc 04 ec 8b bd
       -0.063243374 -0.1257621 -0.016793905 -0.06832126
000390 3a 8e 69 bd ad 5e 19 be f9 52 92 bd 34 4e 12 bd
       -0.057020403 -0.14977522 -0.07144732 -0.03571911
0003a0 81 f7 e2 3a 37 c9 7c bd 20 35 ea bd 2c c0 bd bc
       0.0017316194 -0.06171533 -0.11435914 -0.023162924
0003b0 a9 1f 94 bd 23 35 12 3d 0a 44 24 bd 9b 2a ed bd
       -0.07232601 0.035695206 -0.04010395 -0.11580392
0003c0 48 e2 41 3d e5 28 39 3c be f7 d8 bd 75 3d 5c 3d
       0.04733494 0.011301254 -0.10594128 0.053769547
0003d0 e8 fe 75 bc 5f ae 14 bd ba e0 1c bc 0d 1f 9f 3d
       -0.015014388 -0.036299106 -0.009575063 0.07769594
0003e0 08 09 e9 bc 98 4a e3 bd e7 45 5b be 29 81 a2 bc
       -0.02844669 -0.11098212 -0.21413384 -0.019836979
0003f0 75 e6 f1 bd cd 4d 89 be a6 24 9e 3c 71 ec 63 3d
       -0.11811534 -0.2681717 0.019304585 0.05564541

fc2.bias f4 [128]
000000 a9 45 99 bd 46 ee bc bc 2c 72 d6 bd a2 25 d0 bd
       -0.0748399 -0.023062836 -0.10470995 -0.10163428
000010 b9 7d 8d bd c5 b2 fd bd e0 1b c5 bd 6a bc 6e bd
       -0.06908745 -0.12387613 -0.09624457 -0.058285154
000020 b4 7a b2 bd ef c8 06 be 65 31 1f be 9e 31 f9 bd
       -0.0871481 -0.13162588 -0.15546186 -0.12167667
000030 8a 97 0d be 36 3e 36 bd b9 d2 b7 bd 46 43 cb bd
       -0.13827339 -0.044492923 -0.08975739 -0.09924941
000040 9a b9 e9 bd 61 71 ff bd c1 3c 1f bd 0a 65 b4 bc
       -0.11412354 -0.12472797 -0.0388763 -0.022020835
000050 a9 89 b7 bd 6d 01 bd bd 66 24 e9 bd 53 95 d8 bd
       -0.089618035 -0.092287876 -0.113838956 -0.10575356
000060 c3 86 20 be 0b 1b e3 bd 6b 5a d3 bd 3c b1 79 bb
       -0.15676408 -0.110891424 -0.1031998 -0.0038100025
000070 d3 e2 06 be fa 20 71 bd c3 f9 92 bc c0 27 12 be
       -0.13172464 -0.05886934 -0.017941361 -0.14272976
000080 9f 0a 1f be 65 b0 1a be c5 a1 8b bc 60 50 0c bd
       -0.15531395 -0.15106352 -0.017044911 -0.03425634
000090 c3 25 ef bd 5f 7b 5c bd f9 ce 06 be 80 ad bf bd
       -0.11677124 -0.053828593 -0.13164891 -0.093592644
0000a0 3c fb 29 bd 06 23 ae bd 8a 5a 05 bd e6 1f 06 be
       -0.04149936 -0.08502774 -0.032557048 -0.13098106
0000b0 0c f6 97 bd 4a d2 06 bd a7 94 23 be 1d 60 99 bd
       -0.074199766 -0.03291539 -0.15974675 -0.07489035
0000c0 78 ec 14 bf 01 0d 06 bd 6b 42 b9 bd 80 ed 28 bd
       -0.5817332 -0.032727245 -0.09045871 -0.041242123
0000d0 4b f8 31 bd a6 cb f7 bd f1 6a c8 bc d7 4b 2c be
       -0.04344968 -0.1209939 -0.024465056 -0.16825806
0000e0 10 50 cc bd 6a 92 20 be 2b d9 20 bd ee 7a c4 3e
       -0.09976208 -0.15680853 -0.039269608 0.38375038
0000f0 a6 2d 10 bd c9 19 82 3f 18 87 35 3b 86 46 cd bc
       -0.035199784 1.0164119 0.002769893 -0.025058042
000100 39 f6 67 bd 82 a8 19 be 1e c8 0c be c8 f6 ea bd
       -0.0566313 -0.15005687 -0.13748214 -0.11472851
000110 ef e9 04 be 08 e2 95 bd b5 90 45 bd b0 8a 28 40
       -0.12979864 -0.07318503 -0.048233707 2.6334648
000120 96 d9 5c bd 24 f2 e2 bd e5 ce f5 bd 77 bc 09 bd
       -0.053918444 -0.11081341 -0.120023526 -0.033627
000130 fc 44 07 be 19 58 b4 bd a8 b0 cc bd 66 29 da bd
       -0.13209909 -0.08805866 -0.09994632 -0.106524274
000140 3c 67 ed bd 96 33 25 3f 5d 3c c5 bd 98 95 97 bd
       -0.11591956 0.6453184 -0.09630654 -0.074015796
000150 f8 2f 1f be 18 d9 e2 3e 43 1c ba bc d2 88 b1 bd
       -0.15545642 0.44306254 -0.022718554 -0.086686745
000160 ac 16 89 bd 47 31 de bd 30 ac ea bd 8d b7 05 be
       -0.066937774 -0.10849243 -0.114586234 -0.130583
000170 f9 8b 04 be d2 86 89 bd cb 93 77 bd 87 0f 89 bd
       -0.1294402 -0.06715168 -0.06044368 -0.06692415
000180 93 fd c3 bd af c9 18 bd 91 56 d8 bd 8e e7 93 bd
       -0.0956985 -0.037301715 -0.10563386 -0.072219
000190 22 15 8f bd d5 45 52 bc 75 1b 93 bd e1 fd bd bd
       -0.06986453 -0.012834032 -0.071829714 -0.09276939
0001a0 a2 5f 98 bd 4c c5 e5 bc dc bc 29 be 78 d9 d2 3f
       -0.074401155 -0.02804818 -0.1657595 1.6472616
0001b0 76 ef 98 bd 8f 5e 3b be bf 8f ee bd 75 3e eb bd
       -0.074675485 -0.1829779 -0.11648511 -0.11486522
0001c0 21 68 cc bd 25 ca f5 bd fe d2 de bd cd c0 12 bd
       -0.099807985 -0.12001447 -0.10880087 -0.0358284
0001d0 5e 4a 46 bc 1b dd 17 be 73 2c c7 bd da 82 0a be
       -0.012102691 -0.14830439 -0.09725275 -0.13526478
0001e0 95 ec 9e bd 4f 57 ca bd 76 4f 1c be cb 12 07 be
       -0.07759968 -0.09879934 -0.15264687 -0.13190763
0001f0 3d 8e 40 be 9e 6e f2 bd 64 86 22 be 6f 8d ff bd
       -0.1880426 -0.11837505 -0.15871578 -0.12478148

fc3.weight f4 [1, 128]
000000 ac d3 2a bc 6c 73 56 3c 2f 3e e2 bc 00 3e 4c 3c
       -0.010426443 0.013089042 -0.027617542 0.012465954
000010 66 a4 c2 bb bf cf ab 3c 81 75 49 bc 37 a1 67 3a
       -0.005940008 0.020973084 -0.0122960815 0.00088359736
000020 90 90 10 3b 9a ac 48 bb 28 47 2e bc b0 2d 80 3a
       0.0022058822 -0.0030620457 -0.010637082 0.0009779241
000030 c8 25 b2 3c 6d a3 d0 3c 05 6d ea b7 01 d8 0d bb
       0.021746531 0.025468552 -2.794574e-05 -0.002164364
000040 e3 95 60 3c 32 45 9a 3b 26 cd 4b bc 97 b9 dc 3c
       0.013707611 0.0047079558 -0.012439048 0.026943965
000050 a5 ed 3e 3c d2 5a db 3c fe df af bc 46 7e 55 3b
       0.011653339 0.026776705 -0.021469112 0.0032576486
000060 e4 21 21 bc e1 13 7a bc 68 d0 72 bc 29 8b d8 3b
       -0.00983474 -0.015263529 -0.014820196 0.006608386
000070 85 e8 f6 3c 0e 54 79 3a d8 e1 b9 3b 6c ac cb bc
       0.03014017 0.00095111213 0.0056726746 -0.02486249
000080 e3 83 97 3c d3 bb 33 3c f2 73 82 bc fc 93 85 3c
       0.018495506 0.010970074 -0.015924428 0.016305916
000090 17 88 72 3c 19 72 93 bc 45 83 e3 3b d6 fc e1 3c
       0.014802954 -0.017998742 0.006943139 0.027586382
0000a0 93 4d 73 3c e8 4d d0 3c d4 94 70 3b a4 93 43 3c
       0.014850038 0.025427774 0.0036709802 0.011937056
0000b0 3e 74 a6 bc 3a 7c 01 bc fc f5 ed bc 6b df e1 bc
       -0.0203191 -0.007903153 -0.029047959 -0.027572354
0000c0 91 33 dc 3b 21 04 31 bc 19 d4 08 bc 48 f7 ec bb
       0.0067200144 -0.010804207 -0.008351349 -0.0072316267
0000d0 af a9 c9 3c 34 f6 69 bc 53 d7 88 3a ed 5c 96 3c
       0.024617044 -0.014279891 0.0010440148 0.018354857
0000e0 c4 06 7d 3c a5 a6 ad bc 16 7a 9d 3b d4 f0 2c bd
       0.015443508 -0.021197626 0.0048058135 -0.04222186
0000f0 c1 f5 df bc 97 58 b3 bc eb d3 83 bc f2 7f a8 bc
       -0.027338864 -0.021892829 -0.016092261 -0.020568822
000100 4c f6 20 bc 96 73 8b bc 8e c8 db bc a8 a9 d7 bc
       -0.009824347 -0.01702289 -0.02682903 -0.026326016
000110 a0 a9 c3 3c 4a 80 4b 3a 58 cd 00 bc 6d 5a fc bb
       0.023884594 0.0007762952 -0.007861458 -0.0077012093
000120 90 1c 90 3c cd 20 64 bc 4c d6 8f 3c 70 c5 db 3a
       0.017591745 -0.013923836 0.01755824 0.0016767215
000130 47 2e 12 3c 0b c8 51 ba 34 0f 96 bc 13 43 c5 3c
       0.008922166 -0.0008002526 -0.018317796 0.024079835
000140 86 45 80 bb c0 39 7b bc 8d b6 ab bc 17 a3 04 3c
       -0.003914538 -0.015333593 -0.02096107 0.008095524
000150 b9 87 4d 3c 60 d8 67 bc 5b c4 31 bc be 49 d6 bc
       0.012544566 -0.014150709 -0.010850037 -0.02615821
000160 6f 14 d5 bc c5 9c 9e 3b 7b ce c0 3b cf 2e 91 3c
       -0.02601072 0.0048404657 0.0058839894 0.017722515
000170 9e 7e d9 bb ae fb c9 bc 8b f8 98 bc c9 1a 85 bc
       -0.0066374084 -0.024656143 -0.018673202 -0.016248124
000180 ad fb 93 bc d8 9c 06 39 4a cc be bc b2 d1 d9 bc
       -0.018064344 0.00012837665 -0.023290772 -0.026589248
000190 a4 7f 06 bb 8d 18 7e 3c 6c e6 b7 3c fb b5 3f bb
       -0.0020522857 0.015508783 0.02244874 -0.0029252756
0001a0 2f 04 8d bc 2e 39 a7 3a 22 7a d5 3c 37 16 3f bc
       -0.017213909 0.001275813 0.026059214 -0.011663011
0001b0 67 af c3 bc 92 c0 b4 bc d5 45 c6 bb b6 fb 80 3c
       -0.02388735 -0.02206448 -0.006050805 0.015745025
0001c0 04 2c 8e bc 92 05 b3 bc 9a d4 69 bc 75 0b 2f bc
       -0.017354973 -0.021853242 -0.01427188 -0.010683884
0001d0 7f 59 52 3c 97 22 ef bb 31 b2 11 3c 07 51 c2 3c
       0.01283872 -0.0072978246 0.008892582 0.023720277
0001e0 c9 9d e4 3c 99 09 c6 3c 0c 91 98 3c 40 a6 a6 bb
       0.02790727 0.024174498 0.018623851 -0.0050857365
0001f0 d9 3f 32 3c f9 dc e9 bc 79 16 b9 3c ab 72 38 3c
       0.01087948 -0.02854775 0.022593724 0.011257808
