results/results_2/solved_agent2_actor.pth (torch, 185131 bytes, 6 tensors)

fc1.weight f4 [256, 48]
000000 bd 0a 53 be f5 16 c0 bc 4e e9 b8 3d a6 d2 1d bf
       -0.20609565 -0.023448447 0.09028874 -0.6164955
000010 76 0a 41 3e 6f 24 78 be 94 44 c3 3d 90 2a 10 bf
       0.18851647 -0.24232648 0.095345646 -0.56314945
000020 7f 49 56 be 68 1a 6c be a8 5f 49 be ba c6 f9 be
       -0.20926474 -0.23056948 -0.19665396 -0.4878443
000030 60 b7 cd 3d ea 5c 73 be 3a 11 0a be 87 52 cb be
       0.10044742 -0.23765913 -0.13483134 -0.397114
000040 92 e5 c8 bd 8a 9d 08 bf 2d ea ae bc d9 54 4c be
       -0.09809412 -0.53365386 -0.021351898 -0.19954242
000050 1c f1 30 bd d6 25 ef bd 2a f2 8c 3c 1b 8c 04 be
       -0.04319869 -0.116771385 0.017205317 -0.12944071
000060 51 91 97 3d a6 83 ba 3d e5 b7 5d 3c cd f4 c4 bf
       0.07400764 0.09107141 0.013532613 -1.5387207
000070 1e 6a 43 be b2 27 97 be 71 dc dd 3d 37 40 c4 bf
       -0.19083449 -0.29522473 0.108330615 -1.5332097
000080 f9 6a e7 3d 50 96 41 be 12 c8 bb 3b 5b 16 bf bf
       0.112997 -0.18904996 0.0057306373 -1.4928697
000090 e9 8d f6 bd d2 96 71 be 00 2c de bc f7 10 b9 bf
       -0.12038786 -0.2359269 -0.02712059 -1.4458302
0000a0 3f 18 2a 3e 2b a8 14 bf 59 29 e1 3c f1 9d a1 bf
       0.16610812 -0.58069104 0.027485536 -1.2626325
0000b0 53 7d 56 3d ba e6 e4 bd d6 d4 97 3d ad 7c 9d bf
       0.052365612 -0.1117682 0.07413642 -1.2303673
0000c0 dd 5c 1d be 38 07 22 3f 57 77 db 3c 3b 6e b4 bd
       -0.15367456 0.63292265 0.026790304 -0.08810087
0000d0 b2 a6 23 3d e2 4a f2 bd 04 c4 74 3d 83 7f 83 bd
       0.039953895 -0.11830689 0.059757248 -0.06420805
0000e0 29 1c eb bd b7 69 0e 3f 47 0d fb bd 17 26 6e be
       -0.114799805 0.5563006 -0.12258392 -0.23256718
0000f0 a3 54 21 3e d3 09 be bd f7 c6 08 bd 41 53 46 be
       0.15754943 -0.092792176 -0.033392873 -0.19367696
000100 c8 64 0d bf b8 08 98 be 70 38 cb be 3f e0 e8 be
       -0.55231905 -0.29694152 -0.39691496 -0.45483586
000110 f7 c4 18 3f bd af 9f 3e a1 96 d2 be 25 d4 ff be
       0.59675545 0.31188765 -0.41130546 -0.4996654
000120 a0 03 af 3d 62 9b c5 be 77 7a 75 bd 2d e2 2e 3d
       0.08545613 -0.3859511 -0.059931245 0.042696167
000130 61 01 b3 bd 21 49 fd bd 7f ac 82 bd 0a f7 de bb
       -0.087404974 -0.12367464 -0.06380557 -0.0068043517
000140 78 0d f6 3d 61 10 d9 be b8 cc 8f bd 3f 54 1b 3c
       0.12014288 -0.4239531 -0.07021469 0.009480535
000150 5b 8b 26 be 95 c7 4d be 64 d7 c6 bd 2a b3 65 bd
       -0.16264097 -0.20095666 -0.09709051 -0.056079067
000160 da 64 80 be 5e 2a 4c bf a9 71 22 be c6 82 a6 be
       -0.25076944 -0.7975215 -0.1586367 -0.32521647
000170 23 34 33 bf 67 5d ac 3e ab f1 6a be ce 25 92 be
       -0.7000143 0.3366501 -0.22943752 -0.28544468
000180 14 f0 8a be 31 c7 47 bd 3d 33 11 3e 01 c7 67 bf
       -0.2713629 -0.048773948 0.14179702 -0.9053803
000190 19 56 2d be 93 80 bf be 91 78 e9 3d 2b 04 50 bf
       -0.16927375 -0.37402782 0.11399949 -0.8125636
0001a0 b0 7d 8e be c0 b0 dc be 6d e7 02 be bd d1 62 bf
       -0.27830267 -0.431036 -0.12783594 -0.88601285
0001b0 36 7a 4e be 74 09 0d bf 2b 5d 22 be 0d d4 77 bf
       -0.20163807 -0.5509255 -0.15855853 -0.9680794
0001c0 4d 8f 97 be 98 0b 86 bf 5e 7d 20 3e 4b 3f 44 bf
       -0.29601517 -1.0472288 0.15672824 -0.7665908
0001d0 15 ef 2b be da 2a 03 bf 06 6a 10 3e 6b 74 40 bf
       -0.16790421 -0.5123726 0.14102945 -0.7517764
0001e0 fd 7c a7 bc 6d 2d 7f 3e 5f 91 78 3e 77 04 59 bf
       -0.020445341 0.24919672 0.24274205 -0.8477244
0001f0 0c e8 08 3e 0b d7 bf be d0 2d 9f 3e 7d 03 5f bf
       0.13369769 -0.37468752 0.3108964 -0.871147
000200 7c 10 99 bc 48 36 38 3e f0 5a cb bd be 2b 83 bf
       -0.018684618 0.17989457 -0.09929454 -1.0247724
000210 d6 d2 1f 3e c8 b9 08 bf dc b0 19 bd 22 c4 8f bf
       0.15607771 -0.5340848 -0.037522182 -1.123173
000220 9e 2e 0b 3c 87 28 98 be e8 25 32 be d7 53 95 bf
       0.008495001 -0.2971842 -0.17397273 -1.1666211
000230 3b e5 1b 3e d3 de 0b bf 64 01 8a bd 0f 64 99 bf
       0.15224163 -0.5463688 -0.067385465 -1.198366
000240 6c 13 36 3e cd 0c aa be 70 e7 98 3d 45 1e 9e bf
       0.17780846 -0.3321289 0.07466018 -1.2352988
000250 a4 f8 41 3e ee 43 f4 bb 25 b0 fa 3d ed 85 a6 bf
       0.18942505 -0.007454387 0.12240628 -1.3009621
000260 d7 5b e7 3d 5e 12 66 bf bc 40 80 3c 67 42 7f bf
       0.11296814 -0.89871776 0.015655868 -0.99710697
000270 e0 eb b8 3d a0 01 c0 3d 94 23 de bb f7 72 79 bf
       0.090293646 0.0937531 -0.0067791436 -0.9744105
000280 35 2d 72 3e 23 97 aa bf 16 09 45 bc 3c 1f 07 bf
       0.23650058 -1.3327373 -0.012026092 -0.52782035
000290 f7 0c df 3b 6c 01 36 3e 3b 57 d9 bd 5d c0 01 bf
       0.0068069655 0.1777398 -0.10612341 -0.5068415
0002a0 5b 1b 57 3e 77 47 07 bd 03 10 ca be 2c e0 e7 3e
       0.21006529 -0.03302714 -0.3946534 0.45288217
0002b0 24 5b 93 be 40 70 39 bd 11 fe bb be e2 7d e6 3e
       -0.28780472 -0.045273066 -0.36717275 0.45017916
0002c0 7b bc 83 3e 39 03 1a 3e a3 89 31 3c d3 39 f2 3e
       0.25729737 0.15040292 0.010836038 0.4730974
0002d0 c4 03 75 bd 3e 9f 49 3d da 0a 39 3d 86 cc d0 3e
       -0.059818044 0.04922413 0.045176364 0.4078104
0002e0 a6 cc a2 3e e0 8c 87 3e c1 3e 92 3d a4 aa b7 3e
       0.3179676 0.26474667 0.071408756 0.35872376
0002f0 a7 f1 56 3d 80 c4 93 3e 08 f1 4e bc 22 33 b1 3e
       0.05247655 0.28860855 -0.0126307085 0.34609324
000300 a0 5b 10 3d d6 8f 4a bc e8 8f 41 bd 34 6c 53 3f
       0.03524363 -0.012363395 -0.04725638 0.8258698
000310 01 2b 22 bb d7 41 09 3f 95 94 9f 3c be c0 4c 3f
       -0.002474487 0.5361609 0.01948003 0.799816
000320 39 92 80 3e 1b 37 1e 3d 61 52 9c bd 67 70 cd 3e
       0.2511156 0.03862677 -0.076329 0.4012482
000330 69 10 bc 3d 56 aa 5f 3f c4 f6 12 be 5b 29 e2 3e
       0.091828175 0.87369287 -0.14351946 0.44172177
000340 19 6b f3 3e 17 f5 a6 3e 87 b5 87 bc 3d d7 69 3f
       0.47542647 0.32608864 -0.016566051 0.9134405
000350 18 74 b5 3c e2 46 86 3f 29 c1 d3 3c 1d e5 58 3f
       0.022150084 1.0490382 0.025848942 0.847246
000360 de a0 7c 3e 6b f4 e3 be cc 10 68 bd 41 78 92 3e
       0.24670741 -0.44522414 -0.056656644 0.2860737
000370 29 8d 8b bd e9 b9 12 3f 35 5f 3a 3b 19 10 d0 3e
       -0.068140335 0.57314926 0.0028438095 0.40637282
000380 e7 15 2c 3e 0f 56 5c be 8a 39 c0 be 61 f4 8d 3f
       0.1680523 -0.21517204 -0.375439 1.1090204
000390 cb b5 c9 bd 72 aa 4c 3f 96 86 a4 be ef 03 86 3f
       -0.098491274 0.7994758 -0.3213393 1.046995
0003a0 94 76 3d 3e f3 40 0d 3e 18 2f f9 bd ce cd e1 3f
       0.18502265 0.13794307 -0.121671855 1.7640932
0003b0 a3 f3 12 3d eb 02 83 3f 9a 5a 73 bd 02 f0 da 3f
       0.03587688 1.0235265 -0.059412576 1.7104495
0003c0 ed f1 6e bd b7 29 f0 be 1c 8a b7 3d 2c ad 46 bf
       -0.058336187 -0.46906826 0.08961889 -0.7760799
0003d0 ec 98 84 3e 34 be 2b be 82 b3 da 3d 5e 0d 47 bf
       0.2589792 -0.16771775 0.1067877 -0.7775477
0003e0 24 9c 64 be 25 01 33 bf 73 b0 35 be 76 4c 28 bf
       -0.22325188 -0.6992362 -0.17743091 -0.6574167
0003f0 20 00 3f 3e 40 e4 32 be 7f 99 4a be a4 58 29 bf
       0.18652391 -0.17469883 -0.19785117 -0.6615088

fc1.bias f4 [256]
000000 c2 99 52 be ef dd 57 3e 65 6b 12 be 83 24 b5 be
       -0.20566466 0.21080755 -0.1429878 -0.3537942
000010 e0 e7 5b be f3 42 0f be 2f e7 25 be b9 48 3f be
       -0.21475172 -0.13990383 -0.16201471 -0.18680085
000020 c6 bb 6f be e2 86 93 3d 86 fa 21 be a9 9c c3 bd
       -0.23411474 0.07203461 -0.15818223 -0.09551365
000030 7c a3 2a be 4a 9c 17 3f 82 1a c2 be 7a 8e 50 be
       -0.16663927 0.59222853 -0.3791085 -0.2036685
000040 18 95 23 be 32 2b ba be 83 c0 f7 3c ed 66 3a 3f
       -0.15974844 -0.3636108 0.030243164 0.728133
000050 e6 8a 01 be 1a ab 9f be f8 a6 56 be 5f 2e d1 be
       -0.12650642 -0.31185228 -0.20962131 -0.4085569
000060 e6 23 45 be 02 8a 7c be 4a d7 3f bd e5 17 78 be
       -0.19251975 -0.24662021 -0.046836175 -0.24227865
000070 04 d5 cf be 04 1c 7c be 9b 2e 0b bf 8f f9 9c 3e
       -0.40592206 -0.24620062 -0.5436799 0.30659148
000080 b3 84 2e 3e b4 5d dc bd 82 b1 6e 3f 32 ae 19 3f
       0.17042808 -0.1076006 0.93239605 0.60031426
000090 f2 a6 c3 be 73 1f 6e be 12 ae a9 be d8 fa fa be
       -0.38213307 -0.23254184 -0.33140618 -0.49019504
0000a0 81 ea 63 3e 51 18 c4 be 3e 4e 0c 3e 5e e3 93 be
       0.22257425 -0.38299802 0.13701722 -0.28884405
0000b0 b5 29 ae be 39 55 4a be 44 13 d0 be 0a dc 93 be
       -0.34016195 -0.19759072 -0.40639699 -0.28878814
0000c0 63 41 67 3e 23 d5 69 be 81 5c 7c be 19 c0 44 be
       0.22583537 -0.22835211 -0.24644662 -0.19213904
0000d0 91 cb 8c be fa c3 d9 bd 1e bf c4 3d af 33 b0 be
       -0.2749906 -0.10633083 0.09606765 -0.3441443
0000e0 1d d8 45 be 15 a1 a1 3d 90 ef 18 3e 4c 53 b1 be
       -0.19320722 0.07892052 0.14935136 -0.34633863
0000f0 15 7e b8 be ae 46 a8 be 75 98 ea be ff 7c 88 be
       -0.36033693 -0.32866424 -0.4581944 -0.26657864
000100 1f fd 58 3f 82 b5 c7 be e8 88 7b be bf d8 a8 be
       0.8476123 -0.39005667 -0.24563944 -0.32977864
000110 27 e0 d2 be fa 48 08 3f f7 98 91 3b 93 c2 4b 3e
       -0.4118664 0.53236353 0.0044432837 0.19898443
000120 d0 7c bf be 06 42 e5 bd 04 37 70 be 13 7a bb 3d
       -0.37399912 -0.111942336 -0.23458487 0.09154143
000130 c3 2d 54 be 19 1f 7f be d5 0d f0 be 23 4b 00 3f
       -0.20720582 -0.24914207 -0.46885553 0.5011465
000140 f2 1e 7c be 9c c8 ea bd 89 61 64 be 23 4c a8 be
       -0.2462118 -0.114640445 -0.22302832 -0.32870588
000150 ab c0 6c be 43 ec 0f bf ed 21 2d bf 75 c6 ad be
       -0.23120372 -0.5621988 -0.6762989 -0.33940473
000160 d1 9e 3c be 2a a4 2e 3d b2 e2 a7 be da 55 a0 be
       -0.18419959 0.042637028 -0.32790142 -0.313155
000170 54 2a 87 be 0d d1 0e 3f 6c a4 89 be 61 6e 8b be
       -0.2639948 0.55787736 -0.26883256 -0.2723265
000180 1b 6d 02 3f 9a c1 c6 3e b3 25 94 bd da 0d 50 be
       0.5094773 0.3881958 -0.07233753 -0.20317784
000190 3e 25 89 be 1b 3e ce be fd 46 1b 3e 35 96 45 be
       -0.26786226 -0.40281758 0.15163799 -0.1929558
0001a0 2e c5 5a 3c d5 81 86 be 44 0b c1 be 6c 79 bd 3d
       0.013352675 -0.2627093 -0.37703907 0.09251675
0001b0 29 51 46 be 70 66 a8 be ab 4a a8 be 75 e7 d5 3d
       -0.19366898 -0.32890654 -0.32869467 0.104445376
0001c0 24 9b 6f 3f 57 1b 6c be 9d d6 70 3d 7f 65 9d be
       0.935961 -0.23057304 0.05879842 -0.30741498
0001d0 30 51 02 bf ba 2d 91 bd 69 aa 05 3f 6b d6 b3 be
       -0.5090513 -0.070888 0.5221315 -0.35124525
0001e0 89 f6 85 bd e1 4c 09 bf 65 8a b0 be 33 73 f6 3e
       -0.065411635 -0.5363293 -0.34480587 0.48134765
0001f0 5c 8b 4d be c5 9c 80 be 8d 19 38 3d d8 e6 24 be
       -0.20072693 -0.25119606 0.044946242 -0.16103685
000200 3d 3f bf be 87 2e cf 3d 0b 67 2b 3e 0b 8b 82 be
       -0.37352934 0.10116296 0.16738527 -0.25496706
000210 98 b2 d3 be c1 72 df be a7 a9 8d be e8 f6 64 be
       -0.41347194 -0.43642238 -0.27668497 -0.22359812
000220 24 17 ce 3e d0 c2 24 3f 9e b6 b3 be ba 71 11 bf
       0.4025203 0.6435976 -0.35100263 -0.5681416
000230 44 79 3f be 17 a4 d2 be 94 fd 05 bf ed e4 d1 3d
       -0.18698603 -0.41140816 -0.52340055 0.10248742
000240 85 c6 49 be 6a ad 51 3e 44 39 78 be a7 2f 3c be
       -0.19704635 0.20476308 -0.24240595 -0.18377553
000250 80 63 b2 be a2 8a c2 be 21 a5 d9 be fd ca a8 be
       -0.34841537 -0.37996393 -0.42508796 -0.32967368
000260 a7 23 85 bb 9a bc 08 3f fb 13 5f be e1 f3 38 bd
       -0.004063088 0.53412783 -0.21784966 -0.045154456
000270 db ef 31 3e 89 2b 33 be de e9 a6 be 53 a2 f0 3d
       0.17376654 -0.17497076 -0.32600302 0.11749711
000280 c5 86 ab be cb 80 90 bc 82 81 6e 3e fb 6c da be
       -0.33501258 -0.017639538 0.23291591 -0.4266127
000290 d2 aa 16 be b6 48 80 3e 3d d9 f1 3c 27 d7 8b be
       -0.147136 0.25055474 0.029522533 -0.27312586
0002a0 c1 bb 22 be 24 68 73 be e4 ab a0 be 4b 28 8f be
       -0.15891935 -0.23770195 -0.31381142 -0.2796043
0002b0 63 eb a8 be ad 7d c6 3d 66 19 b6 3d b9 5f 95 be
       -0.32992086 0.096919395 0.08891563 -0.29174593
0002c0 e1 7c ae be 6f 72 ee 3e b3 34 8a be 8b 42 eb be
       -0.3407965 0.4657168 -0.2699333 -0.45949206
0002d0 6c 28 b5 be 0c 6d c5 be df 36 ab be 2b 6f c7 be
       -0.35382402 -0.3855976 -0.334403 -0.38952002
0002e0 fd 58 3a be b7 7e dc bd e5 35 40 be 81 26 8c 3e
       -0.18198009 -0.107663564 -0.18770559 0.27373126
0002f0 45 f2 8d 3e a9 25 e0 3e e8 bd 32 be 43 29 1d be
       0.277239 0.43778732 -0.17455256 -0.15347771
000300 fa b3 bf 3e 0e 3d 16 be a3 46 d4 be 26 22 1a 3f
       0.37442 -0.14671728 -0.41460142 0.60208356
000310 1a fd 64 be 9d be e6 be 8c ba fa be 72 c3 06 3d
       -0.22362176 -0.450673 -0.4897045 0.032901235
000320 a0 13 ae 3d 31 cb 9d be 1a 92 e1 be b6 6e 9f bd
       0.08499837 -0.30819085 -0.4405678 -0.07784788
000330 2c 54 df be 96 ef fb 3e 17 02 a4 be 75 c8 bf be
       -0.43618906 0.49206227 -0.32032844 -0.37457624
000340 86 7d b2 3e 1a 06 1a 3e df e6 9e be b1 71 e2 be
       0.34861392 0.1504139 -0.31035516 -0.44227365
000350 49 04 61 be a8 3d 00 be a3 b1 50 be d0 da 1d 3f
       -0.21974291 -0.1252352 -0.20380263 0.61662006
000360 0f 12 f6 3d 5d 97 a3 bd 4b b6 72 be ff 1c 29 be
       0.12015163 -0.07987855 -0.23702352 -0.16514967
000370 68 10 60 be dc 14 f6 bd aa 82 e3 be 4a 2c 0f be
       -0.21881258 -0.12015697 -0.44435626 -0.13981739
000380 fb a7 9a 3d c0 13 5f be a2 0d 94 be 9b 79 e0 bd
       0.07551571 -0.21784878 -0.2891665 -0.109606944
000390 3e b8 ce bd 1f de 29 be 26 22 d6 bd 61 17 9a 3e
       -0.10093735 -0.16588639 -0.10455732 0.30095962
0003a0 4e ed 68 be ec 69 cd be 0e c8 7c 3e d6 91 f6 bd
       -0.22746775 -0.40119874 0.2468569 -0.12039535
0003b0 55 bb 5c be 99 00 45 3e 58 f9 8d 3e f9 ee 05 3e
       -0.21555836 0.19238509 0.27729297 0.13079442
0003c0 7e bf 92 be 5b d8 c6 bd 64 f8 3d be 85 cc b7 be
       -0.28661722 -0.09709235 -0.18551785 -0.35898224
0003d0 b4 5f b4 3c f8 c9 2a 3e 70 a9 da be 51 2d 61 be
       0.022018291 0.16678607 -0.42707396 -0.21989943
0003e0 5c 40 5d be 89 6b e8 bd fc 3a 01 3d 83 c3 e3 bd
       -0.21606582 -0.11348636 0.031550393 -0.11121275
0003f0 1c d3 b1 be c5 50 46 3d fe 42 06 be dd 12 43 3d
       -0.34731376 0.04841687 -0.13111493 0.04762541

fc2.weight f4 [128, 256]
000000 ab 20 4e 3e 1c 00 a3 bc 8f db c8 3e e2 43 ca 3e
       0.2012965 -0.019897513 0.3923001 0.39504915
000010 2e 7e b4 3e 14 79 ad 3e 51 9f 5c 3c 33 e1 b5 3d
       0.35252517 0.33881438 0.013465718 0.08880844
000020 9f 24 d0 3e 27 5f 4e be 43 05 f9 be 42 57 e4 3e
       0.4065294 -0.20153485 -0.48636827 0.44597822
000030 68 73 15 3d 84 48 bb be 93 c7 09 3e e1 83 34 3e
       0.036487013 -0.36578763 0.13455038 0.17628433
000040 ec 69 91 3e 55 af b9 3d 13 9e 2a bf 1e a8 04 3f
       0.28401124 0.09066645 -0.6664745 0.51819026
000050 42 34 0f bf 1b 92 ee 3e 5d b4 f1 bc f1 68 95 3d
       -0.55939114 0.46595845 -0.02950495 0.072954066
000060 ea 4a 1a 3d 5b 68 9d 3e 99 17 14 3f 52 04 0d 3f
       0.0376691 0.3074368 0.5784851 0.5508472
000070 9f a4 ea 3e 3f 92 0e be 82 02 34 3e d7 64 8c 3d
       0.4582872 -0.13922976 0.17579082 0.06855171
000080 c2 cb 48 3d 01 4f 49 3e c5 02 5c be e6 e2 f3 bd
       0.049022444 0.19659044 -0.21485431 -0.11908512
000090 b5 59 23 bc 23 78 c7 3d 2c 23 3c bd 72 b6 0d 3f
       -0.009970118 0.09739711 -0.04593198 0.55356514
0000a0 75 98 0b bf c6 01 9f 3e 10 7b 36 3f e3 63 ed 3e
       -0.54529506 0.3105604 0.7128153 0.4636527
0000b0 bf 90 a9 3e 4f fc 87 3e 87 6b 94 3e 14 0a 0a 3f
       0.33118245 0.26559684 0.28988287 0.5392163
0000c0 5e 95 b6 3d 86 46 42 3d 0a 8d b3 3e a3 16 c6 3e
       0.08915208 0.047430538 0.35068542 0.38689145
0000d0 5c cc 91 3e 6e e5 22 3e 86 31 4a 3f fd 5e a4 be
       0.28476226 0.15907833 0.78981817 -0.3210372
0000e0 84 33 1e 3e 6e 41 85 3e 96 35 8c 3f b5 40 71 3e
       0.15449339 0.2602648 1.0953853 0.2355984
0000f0 ef 3f 45 3e 85 b2 c0 bd 5b 4f 9c 3e 42 03 3e 3e
       0.1926267 -0.0940905 0.30529293 0.1855593
000100 c7 79 b7 be d8 14 e0 3e 53 e3 d3 3e 77 50 6a 3e
       -0.35835096 0.43765903 0.41384372 0.22882257
000110 fc 01 44 bd 49 23 f6 be 94 b8 de 3e 82 79 2a 3c
       -0.047853455 -0.48073795 0.43500197 0.010404946
000120 91 a8 1a 3e ec 3b a1 3f 8f 29 e5 3d b6 3b 1a 3f
       0.15103365 1.2596412 0.11189567 0.6024736
000130 f3 9a 8b 3e e0 8a 0c 3e 98 f2 da 3d 77 52 cb bd
       0.27266654 0.13724852 0.10690802 -0.09927838
000140 50 fc e4 3d f3 a2 b9 bc a8 b4 01 3f 5b f6 2e 3e
       0.11180937 -0.022660708 0.50666285 0.17086165
000150 4c 13 8b 3e ba 3b 9e 3e 85 94 64 3e 6d 33 32 bd
       0.2716316 0.30904943 0.2232228 -0.043506075
000160 b2 47 d4 bd 61 fc 66 3f 41 51 8d 3e a1 5f ef 3e
       -0.10365237 0.9022885 0.27601054 0.46752647
000170 56 fd 44 3e c7 8c 9d be 1c 4c e2 3d 5a 62 04 be
       0.19237265 -0.30771467 0.11049673 -0.12928143
000180 08 89 1c 3e 32 ef 5d 3f 5f 75 f7 3e ec b3 cd 3e
       0.15286648 0.8669311 0.48331735 0.40176332
000190 8c c6 a8 3e 23 16 31 3f 7e 7c 8b be 23 3e 05 be
       0.3296398 0.691744 -0.27243418 -0.13011985
0001a0 95 6d 0e 3f b8 e4 f4 3e 23 6f b0 bd 57 38 a6 be
       0.5563596 0.4783075 -0.08614948 -0.3246486
0001b0 8f 57 89 3e 87 ef d7 bd 85 ec 3a 3f 0e ed 1f 3e
       0.26824614 -0.10543733 0.7301715 0.15617773
0001c0 69 3f bc 3e f1 a8 83 3e 17 9d f2 3e 91 47 10 3f
       0.36767128 0.2571483 0.47385475 0.563592
0001d0 39 39 0b be 41 2e b9 3b 8a 1d e8 be 2e d4 e1 3e
       -0.13596047 0.005651266 -0.45335037 0.44107193
0001e0 0a 45 e4 3e 7e 2e 73 3d 2c 31 78 be de 94 56 be
       0.44583923 0.05937051 -0.24237508 -0.20955226
0001f0 f7 cb 2c 3f f4 ff bc 3e f4 f3 42 3f e0 ca 2c 3f
       0.67498726 0.36914027 0.7615349 0.6749706
000200 6a 55 58 bd 21 15 d3 be 9a 68 13 3e 1a b0 b3 3d
       -0.052815832 -0.41227058 0.14395371 0.08773823
000210 d4 24 ed 3e 2a a2 de 3e 4b 17 d6 3e 23 01 b9 3e
       0.4631716 0.43483096 0.41814646 0.3613368
000220 59 92 04 3d 45 9b 95 be ba 35 86 3d 73 ea 79 3e
       0.03236613 -0.29220024 0.06553216 0.24405842
000230 ff 0f 77 3c 39 64 33 3e 2a de 03 3f 8d af 0c bf
       0.015079497 0.175187 0.5151087 -0.5495537
000240 29 c5 a5 3e 00 34 9f be fb 3a 2b 3e a4 ab fc 3d
       0.32376984 -0.3109436 0.16721718 0.12337425
000250 32 43 e0 3e a3 49 b2 3d b0 7d 82 3e dd 2f d3 3b
       0.43801266 0.08705451 0.25486517 0.0064449147
000260 6e 81 4b 3f ee 94 14 bf a9 aa 9e 3e 86 cf 05 3f
       0.7949437 -0.5803975 0.30989578 0.5226978
000270 33 0b 1f be 86 df 11 3f d4 90 17 3e 89 4f a4 3e
       -0.15531616 0.56981695 0.14801341 0.3209193
000280 57 49 45 3e 3d 8e e5 3c 4d ce e6 bc 2d 77 49 3d
       0.19266258 0.028021926 -0.028174544 0.04918592
000290 39 2f 1d 3f 06 70 22 3e 9d 89 25 bf 47 86 e6 3e
       0.6140018 0.15863046 -0.64663106 0.4502432
0002a0 02 fe 8a 3e 82 74 02 3f b7 0a 1b bc f8 a0 95 3e
       0.27146918 0.50959027 -0.009463004 0.29224372
0002b0 3e 12 9a 3e 2b bb 53 3e 21 f4 cb be 08 14 ce 3d
       0.30092043 0.20676868 -0.39834693 0.100624144
0002c0 dc 58 cf 3e 21 74 25 be b6 61 41 3e a8 d4 14 3e
       0.40497482 -0.16157581 0.1888493 0.14534247
0002d0 71 a8 14 bb 4d 69 af 3e 9f 23 08 3f 10 b3 07 3f
       -0.0022683407 0.34260026 0.53179353 0.530076
0002e0 af 16 94 3e a4 b9 1d 3e 9f f6 1c 3f 6a 43 9d be
       0.28923556 0.15402848 0.61313814 -0.30715495
0002f0 46 c6 46 be 27 b2 17 3e d0 67 33 3e 37 0b 01 3f
       -0.19411573 0.14814053 0.1752007 0.5040774
000300 45 df d8 3d 4c 1e 73 3e ca 7a 3f be e2 fe 80 be
       0.1058946 0.23742026 -0.18699184 -0.2519446
000310 93 92 e9 bd 44 96 3c be 66 71 d1 3e 81 81 94 3d
       -0.1140491 -0.18416697 0.4090683 0.072512634
000320 52 d4 1c 3e 59 bd 5f 3d 14 29 64 3e a9 27 2d 3f
       0.15315369 0.054623935 0.22281295 0.6763864
000330 79 88 9f 3e 88 e5 92 3d 35 f5 02 3e 7e a3 16 3f
       0.31158808 0.07172686 0.12788852 0.5884322
000340 60 fa 44 be 8d c2 3f 3f 5c c6 da 3e 38 4f 70 3d
       -0.19236135 0.74906236 0.4272946 0.0586693
000350 1c 20 23 3e 30 a9 2f 3f 85 98 d9 3e 3a f6 10 be
       0.15930218 0.68617535 0.42499176 -0.14156428
000360 bf 0c 6c bc d3 d6 69 3e 5b 79 a0 3e 8a 8e 8b bd
       -0.014407336 0.22835855 0.31342587 -0.068142965
000370 d5 de d5 3e 41 61 89 3e 76 f3 b2 3e e6 ba 64 3f
       0.4177157 0.2683201 0.3495137 0.89347684
000380 a5 01 06 3f 49 7c ac 3e 6e e3 f7 bc 36 4a 77 3e
       0.5234626 0.33688572 -0.030259814 0.24149403
000390 ff 01 29 3d 58 75 f0 3e 60 f1 ef 3e 52 e1 91 3f
       0.04126167 0.46964526 0.46863842 1.1396887
0003a0 e8 8d b5 3d 37 5f 8f 3d 91 8c 83 3e 18 13 97 3e
       0.08864957 0.07000583 0.2569318 0.29506755
0003b0 c5 a2 ab 3e ad 50 d0 be 97 65 cb 3c 83 cd 10 3f
       0.3352262 -0.4068655 0.024828715 0.56563586
0003c0 6e 8a b4 3d 71 c9 2e 3f 9d d0 b8 3e c5 a8 a3 3e
       0.08815466 0.68276125 0.3609666 0.31964698
0003d0 22 ea ef 3e a1 07 6c 3e 76 23 bc 3e 92 8f 9f 3e
       0.46858317 0.23049785 0.36745805 0.31164223
0003e0 e0 a1 d2 3d 97 c0 46 3d 6c eb 18 bf 40 51 7c 3f
       0.102847815 0.04852351 -0.59734225 0.9856148
0003f0 07 b4 ce 3e 01 96 d9 bd c6 7b a5 3e 12 be 06 be
       0.40371725 -0.10624314 0.32320994 -0.13158444

fc2.bias f4 [128]
000000 f6 b6 10 bc 51 a7 b4 3e 2a 7d fd be f5 26 a5 bd
       -0.008832684 0.35283902 -0.49509555 -0.08064071
000010 cc 4d 04 be 5e 0f a3 be 2d 07 24 bf 86 55 a5 bd
       -0.12920302 -0.31847662 -0.6407345 -0.08072953
000020 30 bd 07 bf 80 b8 e6 bc 76 7a 1e bf 98 42 02 bf
       -0.5302305 -0.028164148 -0.6190561 -0.50882864
000030 82 9a 66 bf dc b8 29 bf f8 3a 50 3b dc cb e1 3d
       -0.9007951 -0.662977 0.003177343 0.11025211
000040 7e fd 37 3e f7 fc cd 3c 93 23 f3 3e d5 a3 0a bf
       0.17967793 0.025145037 0.47488078 -0.5415624
000050 6a de c0 3e ee c4 7d be 61 aa 5c 3f 26 33 d2 bd
       0.37669688 -0.24782154 0.8619748 -0.10263662
000060 93 e4 88 bc ce 74 1c bf a4 90 4f bf 0d 80 ed bd
       -0.016710555 -0.6111573 -0.8108008 -0.115966894
000070 66 68 33 bf a4 d5 1d bf c0 6d 34 bf d5 1d a3 3c
       -0.70081174 -0.61654115 -0.70479965 0.019911686
000080 cd fc e5 be c0 e6 fb bd a3 f5 08 be c1 d2 2e be
       -0.44919434 -0.122998714 -0.13374953 -0.17072584
000090 67 92 0c bf 31 30 d5 bd 94 00 1d bf 8b 47 ab be
       -0.5491089 -0.104095824 -0.6132901 -0.3345302
0000a0 da a4 a9 be 2b cf 36 3f 80 93 e0 3c d9 a7 01 bf
       -0.33133584 0.71409863 0.027414083 -0.5064674
0000b0 92 e7 78 3c 95 5f 39 be f4 5c ec bd 08 ba 4c bf
       0.015191929 -0.18102868 -0.11541167 -0.7997136
0000c0 33 fc 27 bf 0d ee 42 be 4c 58 a3 bd 56 22 79 3f
       -0.656192 -0.19036122 -0.07975826 0.9731802
0000d0 e4 7a e2 be 4e 0a 31 be 8f 4e dc be ea a9 a7 be
       -0.44234383 -0.17289087 -0.43028685 -0.32746822
0000e0 e5 13 48 bf a3 c1 30 bd 19 f0 6b bd 9c 3e da bd
       -0.78155357 -0.043153416 -0.05760202 -0.10656473
0000f0 bb 51 e2 bc 99 06 ba bc 96 6f 78 be 07 a7 a9 3e
       -0.027626863 -0.022708224 -0.24261317 0.33135244
000100 ce e5 86 bf ab a8 31 bd e7 ec d5 3e 82 12 03 be
       -1.0538881 -0.043373745 0.41782305 -0.12800029
000110 e9 70 24 bf d9 74 da bc 3e e2 ea be 5a 59 4c bf
       -0.6423479 -0.026667045 -0.45875734 -0.7982384
000120 f8 1b 32 bf 0b a3 d3 bd 5a 6b 80 bd 34 8d ae be
       -0.69573927 -0.10333832 -0.06270476 -0.34092104
000130 04 2c 0a be 41 b5 54 bd 2d d3 03 be fc 26 84 3e
       -0.13493353 -0.05193067 -0.12873526 0.25810993
000140 bd 90 b2 bd 07 49 c7 bd 14 29 cd 3e 06 7f 2c bf
       -0.08719013 -0.09730726 0.40070403 -0.6738132
000150 bd 2a b5 3e 1d 9a 00 be d8 d3 81 be bb 0c 58 bf
       0.3538417 -0.1255879 -0.25356936 -0.84394425
000160 78 8a aa bd 11 76 1e 3f 74 f7 86 be b5 01 31 3f
       -0.08327192 0.61898905 -0.26360667 0.6914323
000170 b8 41 1f bf 49 37 b9 3e c1 ef 5c bf a6 c4 20 bf
       -0.62209654 0.36174992 -0.86303335 -0.6280006
000180 62 1c 6a bc f3 df e5 be f0 00 75 3c e8 c9 d7 3e
       -0.014288994 -0.44897422 0.014953837 0.4214623
000190 e6 11 d6 be 6c cf 12 3f b8 bd 11 bc 41 a4 68 bd
       -0.4181053 0.5734775 -0.00889533 -0.05679727
0001a0 80 65 26 bd f5 1d 54 be d5 f4 fc 3c 76 fb 73 bf
       -0.04062414 -0.20714553 0.030878464 -0.95305574
0001b0 d6 63 5f bf f3 87 3d bf 5f e8 12 3f 88 eb 0e be
       -0.8726171 -0.7403557 0.5738582 -0.13957036
0001c0 aa 6b 92 be de 10 3c bd 9e 2a ea be 3d 1d 61 bf
       -0.28597766 -0.045914523 -0.4573564 -0.8793524
0001d0 b3 9b 0c bf ed 59 ae bd 22 01 00 be fa 3c 55 bf
       -0.5492508 -0.08513246 -0.12500432 -0.8329617
0001e0 ea 69 8e be cf a7 1b bf 8d ed 5f be f1 31 10 bf
       -0.2781518 -0.6080293 -0.21867962 -0.56326205
0001f0 5a 9c af 3b 8a 08 83 bd e2 8b a5 be 4f cd ae bc
       0.0053592147 -0.06398113 -0.32333285 -0.021338133

fc3.weight f4 [2, 128]
000000 0d 91 99 bd 7e 75 54 3e c7 e9 5c be c8 ff c1 bc
       -0.07498369 0.20747945 -0.21573554 -0.023681536
000010 e0 03 25 3e 13 2c 82 bd b4 18 c2 be a6 a4 bc bc
       0.1611476 -0.06356063 -0.37909472 -0.02302773
000020 6f f7 35 bd 70 4e 15 3c 40 d5 3b be df 8b 9c bd
       -0.044425424 0.009112939 -0.18343067 -0.07643866
000030 44 a8 42 be 83 68 64 be 96 a5 57 be e6 b5 ec 3e
       -0.190095 -0.22305493 -0.2105926 0.46232527
000040 ff 1f 18 3f 49 b3 86 3c 70 e7 a4 3e 54 e7 63 be
       0.5942382 0.016442912 0.32207823 -0.22256213
000050 ea 5b c8 3e b3 4b b7 be 06 e8 a3 3d 1f 4d 96 bc
       0.39132625 -0.3579994 0.08003239 -0.018347321
000060 fe 9a 00 bd 94 e9 a5 bd e9 26 72 be 58 0b 92 3b
       -0.031397812 -0.08101192 -0.23647656 0.0044569187
000070 0c 07 3a be 1c 87 5e bc 4f 57 2b be aa 20 dd 3e
       -0.1816675 -0.013582017 -0.16732524 0.43188983
000080 ae a5 44 3e cf 50 02 bc bd 3a c6 bd cd 1d 7d 3c
       0.19203827 -0.007953837 -0.09679172 0.015449
000090 73 2d 05 be 12 d1 b0 3d 02 64 63 be 35 2d 90 be
       -0.13005619 0.08633627 -0.22206119 -0.2815949
0000a0 05 d0 39 be 6c 21 2a 3e ba c8 a5 3c d0 55 81 bd
       -0.1814576 0.16614312 0.020237315 -0.063151956
0000b0 13 15 a3 3c 39 c8 00 3e 3e 29 f2 be d1 4c 71 be
       0.01990751 0.12576379 -0.4729709 -0.2356446
0000c0 d2 5c 39 be 91 77 97 bc 0a 5a a3 3c df 6b 98 3d
       -0.18101814 -0.01848963 0.019940395 0.0744245
0000d0 00 77 1c be 78 0c b8 3d 4d 14 8b bb ca f9 84 be
       -0.1527977 0.08986753 -0.0042443634 -0.25971824
0000e0 f8 76 70 be c5 3e 39 be 18 cb b7 bc 1d 46 3d 3c
       -0.23482883 -0.18090351 -0.02243571 0.011552361
0000f0 11 a4 b0 bb 0d d7 90 3e 06 ec 08 3e 56 fa 4a 3f
       -0.005390652 0.2828907 0.13371286 0.7928823
000100 6b 90 ac be a6 a5 5a bc cd 49 5a 3f 2d c7 aa ba
       -0.33703932 -0.013345158 0.8526886 -0.001302933
000110 25 a7 48 be dd 55 6c 3c 2d a9 94 be 32 4d 29 be
       -0.1959501 0.014424768 -0.2903532 -0.16533354
000120 45 71 c6 be 8b df b0 3b 09 ce aa 3a fb b6 cc bd
       -0.38758293 0.005397742 0.0013031374 -0.09995838
000130 7d 95 bf be 7a 68 01 bb 23 48 ef 3a 4e d0 dd 3e
       -0.37418738 -0.001974611 0.0018255751 0.43322986
000140 9e e5 5c bc ff 9f 7a 3b 83 2f d1 3e 6c 5a 51 be
       -0.013482479 0.0038242338 0.4085656 -0.2044465
000150 29 4d ef 3e d7 d6 af 3e 78 24 bb be bb 24 9a be
       0.46738556 0.34343597 -0.3655126 -0.30106148
000160 c8 be ff be 95 5b 0a 3e f6 49 31 be 92 b9 2e 3f
       -0.49950242 0.13511498 -0.1731337 0.6825191
000170 dd 0c 1c be ba 50 3a 3f c1 35 62 be ef 38 ac bc
       -0.15239282 0.7277943 -0.22090818 -0.021023242
000180 8b d2 26 be 59 21 e0 bd be f0 64 bc cd 83 bb 3e
       -0.16291253 -0.109438606 -0.013973413 0.36623994
000190 23 bd 82 3d d4 df f7 3e 3f 72 2e 3c f7 17 0c bd
       0.06383731 0.48412955 0.010647356 -0.034202542
0001a0 8f 97 2e bc 03 88 fc be 8e 89 32 bf 10 00 cd be
       -0.010656252 -0.4932252 -0.6974114 -0.4003911
0001b0 52 d7 b0 be 92 89 10 be 3f 56 09 3f 01 fe ca 3b
       -0.34539276 -0.14114979 0.53647226 0.0061948304
0001c0 f0 06 a2 bc 1e 20 58 bc da 5c 8f be 3f bc 86 be
       -0.019778699 -0.013191251 -0.28000528 -0.26315495
0001d0 1f f1 b0 bd a7 5b 47 be bb d7 95 3b 27 26 9a bd
       -0.0863974 -0.19468556 0.004572836 -0.07526808
0001e0 6e c2 c3 3c a1 cc a8 be 23 61 c8 be 9b 5d 61 be
       0.023896422 -0.3296862 -0.3913661 -0.22008364
0001f0 fa 05 71 bc fd 71 88 bc a4 d7 10 be c7 97 3b 3b
       -0.014710898 -0.016655916 -0.1414476 0.0028624402
000200 17 a9 21 be 3e 24 5f be 8c 66 22 bf f3 7b 94 3c
       -0.15787159 -0.21791169 -0.63437724 0.01812551
000210 09 f8 18 3f bc 69 ea 3e 74 48 18 3c 93 cf 5a 3c
       0.5975347 0.45783794 0.009294618 0.013355154
000220 23 95 92 3e 96 fc 9d 3d 9f 2b 02 3e fa d4 91 3e
       0.28629407 0.077141926 0.12711953 0.284828
000230 46 01 48 be a7 1c 55 3e 40 48 28 bf 92 c5 1c 3e
       -0.19531736 0.20811711 -0.65735245 0.15309742
000240 a2 5e a4 3e 80 ba d7 3a 9d f2 f5 bd 30 74 e8 3e
       0.3210345 0.001645878 -0.120091654 0.45401144
000250 75 ee 42 be e0 68 27 3e f1 3b 78 bf 9b 0d 28 bc
       -0.19036277 0.163486 -0.96966463 -0.01025715
000260 58 80 24 3c 4d 7f ba 3c 8e 78 06 bf 60 0d a5 3e
       0.010040365 0.02276578 -0.525277 0.32236767
000270 03 d1 bc 3e 30 12 74 be 05 9c d3 be 04 27 73 3f
       0.36878213 -0.23835063 -0.4132997 0.9498141
000280 e4 a4 16 3f 85 38 02 3c 9d 31 3c bf 28 6e f3 3c
       0.58845353 0.007948046 -0.73513204 0.029715613
000290 22 bb b1 3d ab 35 e9 bd 9d 68 0b 3f 7d 8c ea be
       0.08678271 -0.113871895 0.544565 -0.4581031
0002a0 bf 5c 67 3e 82 ec a5 be 23 36 02 3b de 21 d2 3e
       0.22593974 -0.32407004 0.0019868694 0.41041464
0002b0 1f 12 d4 bc cf 40 9e bc 49 8a 95 3d da 75 21 be
       -0.025887547 -0.019318013 0.073017664 -0.15767613
0002c0 fe 42 aa be 9f a3 a5 be 87 0c 2f bd 20 71 50 bf
       -0.33254236 -0.32351395 -0.042736556 -0.81422615
0002d0 b7 fd ad 3e f7 2d fb 3e 34 f0 02 3f 80 71 76 bf
       0.33982632 0.49058506 0.5114777 -0.9626694
0002e0 7d c5 ed be f9 4d 53 be 84 e5 eb 3c 66 3d 3d 3e
       -0.46439734 -0.20635213 0.028795965 0.18480453
0002f0 7b f3 0d bc 46 7a 85 3e 81 a1 20 3f 17 2b a6 3e
       -0.008664007 0.2606985 0.62746435 0.3245475
000300 f1 68 0a be d6 ad 04 bd b0 1b 3e be 4f c2 1b 3e
       -0.13516594 -0.032392345 -0.1856525 0.15210842
000310 98 ed 63 be 57 ff a0 be 38 d8 a7 3e 68 d0 8d 3e
       -0.22258604 -0.3144481 0.3278215 0.27698064
000320 7e 54 be 3e 53 c2 4e bb 79 0a 4a 3c aa 30 34 bf
       0.37173837 -0.0031548932 0.012331598 -0.70386755
000330 12 14 2b bd b0 f2 af 3b 31 3d 34 bc 6a 2d 78 3d
       -0.041767187 0.005369507 -0.011000917 0.060590185
000340 7e bd 93 3d 89 35 c8 3e cd d0 3c be d0 28 98 3e
       0.07213877 0.39103344 -0.18439026 0.29718637
000350 24 7b 04 be a4 81 d9 3e 2d 9d a1 bc c3 cb 19 bf
       -0.129376 0.4248172 -0.019728268 -0.6007654
000360 7b 07 8b bc ad cd 3c be 4e 3d 45 bd 87 cf e4 bc
       -0.01697134 -0.18437834 -0.048154168 -0.027930988
000370 b2 5c 69 bf 36 61 98 3e 20 b0 4e be d4 c8 13 3f
       -0.91157067 0.29761666 -0.20184374 0.57728314
000380 52 8a ef be 3e fd 95 3e 98 d2 d8 3c 42 d3 6f be
       -0.46785218 0.2929477 0.026467606 -0.23420432
000390 07 73 07 3e 1d 70 ae be 2b 37 30 3e c1 0c d6 bc
       0.13227473 -0.3406991 0.17208545 -0.026129128
0003a0 ab 06 dd bb 32 86 9e 3d ba dd f6 3d 84 04 23 be
       -0.0067451796 0.077404395 0.1205401 -0.15919691
0003b0 28 1e 59 3e d8 85 91 3c e4 e6 7d be 62 19 04 3d
       0.2120291 0.017764017 -0.24795109 0.03225077
0003c0 93 e6 4c 3e 17 f7 d4 3b e6 f9 c5 be 0b ce 15 bc
       0.20009832 0.006499182 -0.3866722 -0.009143363
0003d0 72 1b b9 3e ae ef 62 bd 47 f0 84 3d 36 db c4 be
       0.36153752 -0.055404358 0.06491142 -0.38448495
0003e0 52 5d 9a 3e 5d 8d 87 3e cd 9e 04 3f 34 c9 24 bf
       0.30149323 0.2647504 0.5180481 -0.6436951
0003f0 f0 51 0c bc 27 b4 87 3b 1c e5 d8 3e 37 52 18 bc
       -0.008564457 0.004141349 0.42362297 -0.009296945

fc3.bias f4 [2]
000000 5a 5c 10 3f 1f 83 16 bf
       0.5639092 -0.58793825
