results/results_2/solved_agent1_critic.pth (torch, 185643 bytes, 5 tensors)

fcs1.weight f4 [256, 48]
00000000: 7d49 c3be 9ce7 0e3d 9bab c5ba a060 c53e
00000010: a1b1 77bd 5fa3 00be f574 b23a 5401 e53e
00000020: 6a0e 8fbe 1c36 9f3e b2e4 37bd 06a1 413e
00000030: 0a0d 61bd 3083 16be 7a84 59bd e062 973e
00000040: 6c8b 9bbe ff3a 043f 83fc 09bd 2b05 f8bd
00000050: fe8b 853e 9cee b8be 61d2 47bd 9d3a 96bd
00000060: df2b 133e dae5 233f 2fe0 74bd 2e37 c4be
00000070: 2d65 fe3d 1221 e3bd 5c34 1bbc beb3 cfbe
00000080: ec0e 753e 1526 dc3e b310 8fbd 00ac ca3e
00000090: a700 b93c bcdf 8dbd f09f acbd f67e 9a3e
000000a0: 9dbd 7c3e efa4 c53e 92ed 883e 67e9 e83d
000000b0: feba 95be 7a2a c4be bb0a 793e 2299 103e
000000c0: 998a 373e ebae af3f a014 2cbc c1f2 0a3f
000000d0: ea45 193d 5ccf 673d 40d1 cdbc 8dbd 133f
000000e0: a254 293e a66d d93f 98f7 3a3c b0f1 303f
000000f0: 481a 07be 54c1 63be 306b 803d 606e 1b3f
00000100: cae7 b93d 6d7b ca3f 47dc 2bbe 0f6f 75bf
00000110: ecae e5bc 7539 99bd 148b 0dbe e957 64bf
00000120: e974 e03e 77a8 a53f 6681 17be e103 1f3e
00000130: da0d a03c c978 5a3d 6031 b9bd cb6b b43d
00000140: 1205 883f 2400 9b3f 436d 143e 8af3 f5bd
00000150: 2cdb 0e3e b031 4dbe 1f2a 143e 2c15 9fbd
00000160: a640 7e3f 3bc9 7b3f 024d 2e3e 5138 cebe
00000170: 9144 a9bc fb4a 2abd 3c2d 243e 29c1 afbe
00000180: d177 0e3e 906d 2d3c 7d02 44bb 1a2a b6bc
00000190: 712f f03c eb73 eabd 558f b6bc ab81 023d
000001a0: f401 c03d bc53 01bc 811a babc cb04 b2bd
000001b0: e1ac ac3a 9daf 7cbd e112 553c 5412 cabc
000001c0: 7435 883d 0e68 aa3c 6242 54bd 8441 443d
000001d0: 358d 9dbd 9369 bdbd a2de 343d 224a 853d
000001e0: a0b4 303d f44c 8d3d fd2b a9bc b7e3 70bd
000001f0: 002f 53bc 475c dbbd 32d9 21bc c043 a2bd
00000200: c424 483d 5b11 023c 4f8d 5dbd d6d0 78bc
00000210: de06 753c b2ab 8fbd 48ca d43c 870d afbb
00000220: c986 2c3e 4c39 813c 16a2 313c 7a9c 893d
00000230: e013 1a3c 22f0 a8bd 7ed7 da3b 9d2c 0b3d
00000240: 81df d23e e694 7ebf cc4c 8cbe f8ac a7be
00000250: d434 52be c8ee ba3d 6cdd 9dbe 3848 98be
00000260: 7a84 2e3f 39e1 40bf e78d bf3d 0e25 bbbe
00000270: e976 f2bd 9ca5 82bf 2dde 093e 94ff 84be
00000280: 9732 e43e c437 50bf 7fdb 82bd 2237 193f
00000290: 01a8 e7bc 729b c2bf 157f 06be def6 1c3f
000002a0: 8b1a 113f 0cb5 c43d 54bd 033d 45df d5be
000002b0: cd77 9d3e ca3a ae3d 7318 a53c 33d2 b7be
000002c0: 2a5b 0b3f 2419 3c3e ee1e b4bd 307f 3fbd
000002d0: a965 1f3e a716 8cbf 6b0b fabd b377 8abd
000002e0: e91d 023f 5120 963e 52c1 5b3c c5c6 2a3f
000002f0: a3d6 96bd 6ea7 c0bf 3fb2 92bc cfdb 293f
00000300: 8b5b 50bb def1 da3f f81b 2ebe cf8f f0bc
00000310: 8db2 453e 6fb1 38be 7f7a f1bd 112b dbbd
00000320: 508c f93c 7a0c c63f 4aa5 e53b 2835 14bf
00000330: 3fa9 e83d 5b7d e8be 3ee9 fb3c 32c9 16bf
00000340: cea0 eabe f2a7 ab3f fae4 87bd 7aca bd3e
00000350: fe0b 9c3e 60d3 73bf b06d 96bd 486a e03e
00000360: 540b 0cbe 13b1 043f 6325 64bd 9a73 5cbd
00000370: cd68 2cbe 4733 75be e90c 39bd ab15 f7bd
00000380: 1743 22be 0fe7 a73e 21af 8dbd bdd6 a6be
00000390: 9cb1 1fbe 5f89 f3be 2cba 9dbd f986 a2be
000003a0: 875d f5bd 7765 163e d7aa 08bd 9781 213c
000003b0: 6c0c 9dbe 9a0a 73bf bda9 64bd 35d1 27bb
000003c0: f0df b83d 4b97 1240 b0a0 843d c426 83bd
000003d0: 6103 463d ee19 62bf e284 2e3c c6fe c4bc
000003e0: 4a2e f2bc 3b28 ed3f 396e 863d d488 05be
000003f0: 4a2e 103c 0713 43bf 6ff5 a43d eb80 09bd
-0.38142005 0.03488885 -0.001508105 0.38550282 -0.060472135 -0.12562321 0.0013615178 0.44727576
-0.27940685 0.3109597 -0.044895835 0.18909082 -0.054944076 -0.14698482 -0.053104855 0.29567623
-0.30379808 0.5165252 -0.03368808 -0.12110361 0.26083368 -0.36119545 -0.048784617 -0.07335398
0.14372204 0.640226 -0.05978411 -0.3832335 0.124216415 -0.11090292 -0.009472933 -0.4056682
0.23931473 0.42997804 -0.06985607 0.3958435 0.022583319 -0.069274396 -0.08428943 0.30174989
0.24681707 0.38602397 0.26743752 0.11372643 -0.29244226 -0.38313657 0.243205 0.14120916
0.17923965 1.3725256 -0.010502964 0.54276663 0.03742019 0.056594238 -0.025124192 0.57711107
0.16536191 1.6986587 0.01141157 0.69118786 -0.13193619 -0.22241718 0.062704444 0.60715294
0.090774134 1.5818917 -0.16783248 -0.95872587 -0.02803751 -0.07481662 -0.13822585 -0.8919664
0.43839195 1.2942036 -0.14795455 0.15528823 0.019537855 0.053337846 -0.09042621 0.088096224
1.0626547 1.2109418 0.14494805 -0.12009342 0.13950795 -0.20038486 0.14469193 -0.0776771
0.99317396 0.9835393 0.17021564 -0.4027734 -0.020662578 -0.041575413 0.1603288 -0.34327057
0.13912894 0.010585204 -0.002990871 -0.022236872 0.029319497 -0.11447891 -0.022285143 0.031861942
0.093753725 -0.007893499 -0.022717716 -0.086923204 0.001317408 -0.061690915 0.013004989 -0.024666943
0.066508204 0.02080157 -0.05182112 0.047914043 -0.07692949 -0.09248652 0.04415763 0.0650828
0.043141007 0.06899443 -0.020650858 -0.058810916 -0.012889624 -0.1071096 -0.009878444 -0.079230785
0.048863187 0.007938708 -0.05408984 -0.015186509 0.014955251 -0.0701517 0.025975361 -0.0053421888
0.16848291 0.015774392 0.010841867 0.06719299 0.009404153 -0.08248927 0.0066785207 0.033978093
0.41186145 -0.9944595 -0.2740234 -0.32749152 -0.20527965 0.09127575 -0.30832994 -0.297426
0.68170893 -0.7534366 0.093532376 -0.36551708 -0.118390866 -1.020679 0.1346366 -0.2597624
0.44569847 -0.8133509 -0.06389522 0.5984975 -0.028278353 -1.5203688 -0.13134415 0.6131419
0.56681126 0.096048445 0.03216298 -0.41771904 0.30755463 0.08507307 0.02015326 -0.35902557
0.5443598 0.18368965 -0.08794962 -0.046752155 0.15566124 -1.0944413 -0.12209209 -0.06761112
0.5082689 0.2932153 0.01341279 0.6670955 -0.073651575 -1.5051095 -0.01790726 0.66351026
-0.0031792845 1.7105062 -0.17002857 -0.029365448 0.19306393 -0.18036436 -0.117909424 -0.10701574
0.030462414 1.5472558 0.0070082294 -0.5789361 0.11360406 -0.4540814 0.030750867 -0.5890075
-0.4582581 1.3410628 -0.06635471 0.3706854 0.304779 -0.9524441 -0.0734514 0.43831086
-0.13676196 0.51832694 -0.055699717 -0.053821184 -0.16836853 -0.23945342 -0.045178328 -0.1206468
-0.15845905 0.3279347 -0.06918169 -0.32585707 -0.15595096 -0.47565743 -0.07701525 -0.317436
-0.119807296 0.14687143 -0.03336605 0.009857557 -0.3067354 -0.9493805 -0.055825938 -0.0025606875
0.09027088 2.2904842 0.06475961 -0.06403878 0.048343066 -0.88320816 0.010651799 -0.024047267
-0.029563088 1.8527902 0.06563992 -0.13040477 0.008800099 -0.7620091 0.08054625 -0.03357021

fcs1.bias f4 [256]
00000000: 30c4 8f3e 30c9 7abe 4ed5 d4bd 3585 6ebf
00000010: 32a3 483e f893 143f b110 50bf cb59 fcbe
00000020: f681 33bf cbb6 e1be 5752 723e 1b6f 8cbc
00000030: 2d38 42be 610f 45bf fc65 46bf 68ae 5fbf
00000040: 699e 6c3e 5178 41bf cb3d 90be 13f4 9b3e
00000050: e86b 45bf 9979 4ebf 30a8 82bb 986d ffbe
00000060: 425a 263e adc3 4dbf ed17 623e 6d76 9dbd
00000070: 8412 3abe 37b6 05bf 5f8e f5be 431d 5c3d
00000080: 00fa 5c3e e033 90bf d961 e2bd c799 77bf
00000090: 3273 123d f3ec 5ebf 3106 35bf f53c 69bf
000000a0: 3cd7 343e ce0c a1be 82ad 87be 90b4 e3be
000000b0: 0c64 44be 5409 4fbd 9dcb 68bf f403 efbe
000000c0: eeb3 2bbf cb08 0bbf 5396 3dbf 6bcb 97bf
000000d0: 19eb 80bd 9365 093f f676 353e 39d4 bebe
000000e0: df9f 8dbf 564e 7ebf 939c e4be 5dfc a8be
000000f0: 89ce f1be 315e 653e d4bf 39bf 22ed e8be
00000100: 5adc c9be 5fcb 2a3e d8d6 c63e 88a0 24be
00000110: f3e1 8abe f4a1 7cbf 3f1e 79bd b406 33bf
00000120: e192 19bf bad9 8abe 6bbb 52be da36 05bf
00000130: 678c 093f 8721 07be 4295 76bf a3fa ecbe
00000140: dbe4 26bd ba22 d4be eb28 d1bc 560d e0bd
00000150: 053a f4be b8dc 30be 2ca4 55bf 9791 afbe
00000160: db9e 1a3f 510e e2be 694a 7cbe ff92 603e
00000170: ad9f 1ebf d800 73bf 84fb 13bf 4368 82bf
00000180: 7116 c3bd feb0 13bf d679 d3be 0a0a 8ebf
00000190: c0b5 a3bf 6649 4e3e ed84 b73e 9331 85be
000001a0: f570 cfbe f63f adbe 667a 4abf 5994 b93e
000001b0: b9cd 9abe e05e 43bf ea4c 86bf 5183 32bf
000001c0: 5ce6 81bf ec61 8dbf fa75 32bf e9f9 14bf
000001d0: 108c f2be 189b f23e 8972 a3be 0126 5c3e
000001e0: 9277 fbbb 4b8b b0be e222 68bf f496 23bf
000001f0: edad 51be bdec 093f b8bb aabe 43a5 7fbe
00000200: cab6 e1be 2ebf 5abf e53a 983e 1e1a 3f3e
00000210: 29f7 86bf b3ff 5fbf b72a 91bd 851c 93bf
00000220: 1a68 86bf 5d96 0abf 92de fdbe 8491 f6be
00000230: 5615 493f 3c63 88bf c9da 37bf 1b72 febe
00000240: 599c 53bb 1c77 2a3f 0555 1ebd c384 8abe
00000250: e17e d1be 3e92 4abe 3a1e 7bbd 1a80 81bf
00000260: a30f 04bf 39a0 90bf be1b 1dbf d690 afbf
00000270: 107c 6f3f b1e2 83be 5088 213f 7ea3 2ebf
00000280: d41b 68bf 079e b1bd 8ba3 093e f23e 9fbe
00000290: 4356 09bf 8078 acbf 77f2 2fbf 4f12 48bf
000002a0: 5fd4 dfbe a2dc e8be f4e8 48bf ffcd 8ebe
000002b0: efbb 083f 1001 463e f710 a7bd 6f2f 8ebf
000002c0: e782 ad3d 0791 06be 1cb3 f7be ea62 623e
000002d0: a87c b93d 41c9 db3e 6c9e 0ebf 7bc8 16bf
000002e0: 6a01 2abf 1523 49bf b408 86be 4045 4bbf
000002f0: 9201 a4be 0d46 3abf 9378 fbbe aa7c 0fbf
00000300: 36a0 76be b7fc 82bf dfe7 7fbe 648f a03e
00000310: 21ae 2f3d 5cb8 a33d ae99 963e e8a0 16bf
00000320: f285 88bf 61fc 043e d551 60be 1704 c4be
00000330: 5f9c 003f fff6 f2bd 6293 64bf 98cb 35bf
00000340: 0c71 25bf b285 2fbf 0f87 a6be c1f3 95bf
00000350: b5c7 c43e 73b8 ae3e 95e6 a9be bbe5 7dbf
00000360: 5044 08bf a44a d5be ecee 41be cb2c a3bf
00000370: 45e8 fa3e c923 24be dbda 27bf d73f eabe
00000380: b0c2 0fbf ccb7 30be 9d91 03bf 6df9 01bf
00000390: 40dc 68be 5b20 88bf c2f1 29bf 7ee2 4abe
000003a0: 12c2 45bf b965 e8bd a285 d7be 6876 cdbc
000003b0: c808 b33e f9f8 69bf e9ea d3be a8a3 1cbf
000003c0: ae56 dcbe 6493 c5bf aca6 50bf df43 653d
000003d0: df06 93bf 04eb 723e 2437 80be bc99 8bbf
000003e0: 90db 573c 4ce4 19bf 7a96 aebf c9c7 59bf
000003f0: 8073 92bf c990 46bf 3606 16bf 22c8 2cbf
0.28079367 -0.2449081 -0.10392247 -0.9317201 0.19593504 0.5803828 -0.8127547 -0.49287257
-0.7012018 -0.44084772 0.23664223 -0.017142823 -0.18966742 -0.7697659 -0.77499366 -0.873755
0.23107304 -0.75574213 -0.28172144 0.3045965 -0.77117777 -0.80654293 -0.0039873347 -0.498883
0.16245368 -0.803767 0.2207944 -0.076886036 -0.18171126 -0.5223116 -0.47960183 0.053738844
0.21579742 -1.1265831 -0.11053819 -0.9671902 0.03575439 -0.87080306 -0.7071257 -0.9110864
0.1766023 -0.31455082 -0.26499563 -0.44473696 -0.1917879 -0.050546005 -0.9093569 -0.46682703
-0.67071426 -0.5431029 -0.740575 -1.1858953 -0.06294841 0.53670615 0.17721161 -0.37271288
-1.1064414 -0.9933828 -0.44650707 -0.33005038 -0.47227886 0.22399212 -0.7255833 -0.45493418
-0.39425927 0.16679142 0.38835788 -0.16076863 -0.2712551 -0.9868462 -0.06081986 -0.69932103
-0.59989744 -0.27119237 -0.20579307 -0.5203682 0.5372986 -0.13196383 -0.963215 -0.4628497
-0.040745597 -0.41432744 -0.025532207 -0.10940044 -0.47700515 -0.17271698 -0.8345363 -0.34290764
0.60398644 -0.44151548 -0.2463776 0.21931075 -0.61962396 -0.9492316 -0.5780566 -1.0188068
-0.09525765 -0.57691944 -0.4130389 -1.1096814 -1.2789841 0.20145187 0.35843602 -0.26014385
-0.40515867 -0.3383786 -0.79093015 0.36245993 -0.3023508 -0.7631664 -1.0492222 -0.6973162
-1.0148425 -1.1045508 -0.6971127 -0.5819383 -0.47372484 0.47383952 -0.3192332 0.21498872
-0.007674166 -0.34481272 -0.90678227 -0.6390221 -0.20476504 0.5387686 -0.33346343 -0.24965386
-0.4408477 -0.8544797 0.29732433 0.18662307 -1.0544177 -0.8749954 -0.07088225 -1.1493078
-1.0500519 -0.54135686 -0.4958387 -0.48157895 0.7854818 -1.0655284 -0.71818215 -0.4969643
-0.0032289235 0.66587996 -0.0386553 -0.27054414 -0.40917113 -0.1978235 -0.061308123 -1.0117218
-0.5158636 -1.1298896 -0.61370456 -1.3716075 0.9354868 -0.2575889 0.6309862 -0.6821822
-0.9066746 -0.086727194 0.13441293 -0.3110271 -0.5364725 -1.3474274 -0.68729347 -0.78152937
-0.43716714 -0.4548083 -0.7848046 -0.27891538 0.53411764 0.19336343 -0.08157533 -1.1108226
0.08472233 -0.13141261 -0.48378837 0.22108045 0.090569794 0.42926982 -0.5571048 -0.5889966
-0.6640841 -0.78569156 -0.26178515 -0.7940254 -0.32032448 -0.7276314 -0.49115428 -0.560496
-0.24084553 -1.0233372 -0.24990796 0.31359398 0.04289067 0.07994148 0.29414123 -0.58839273
-1.0665877 0.129869 -0.21906216 -0.3828437 0.50238603 -0.11863517 -0.8928739 -0.71013784
-0.6462562 -0.6856338 -0.32524917 -1.1715013 0.38433614 0.341251 -0.33183733 -0.99178666
-0.53229237 -0.4165851 -0.18938798 -1.2748045 0.49005333 -0.16029276 -0.6556832 -0.4575183
-0.56156445 -0.17257613 -0.51394063 -0.5077122 -0.22740269 -1.0634874 -0.6638452 -0.19812962
-0.7724925 -0.11347527 -0.4209414 -0.025080875 0.34967637 -0.9139553 -0.4139016 -0.6118722
-0.4303488 -1.5435605 -0.8150432 0.05597293 -1.1486472 0.23722464 -0.2504207 -1.0906291
0.013174906 -0.6011398 -1.3639672 -0.8507047 -1.1441498 -0.77564675 -0.5860323 -0.6749288

fc2.weight f4 [128, 258]
00000000: 7bcc e2bc 988d c2bd 474a 4c3d ed03 66ba
00000010: e0d4 14be 5295 adbc 5dc4 00bd 9771 62bd
00000020: d4b1 b0bd edb1 383c f086 cbbd c92b 233c
00000030: a2a4 9dbd 61a9 453c d12f 543d 8140 bdbc
00000040: 1dca 83bd 71d0 953d 1f92 04ba cbcd 083d
00000050: 8551 89bd 4905 1e3d 2043 33bd 22af df3c
00000060: 4e37 83bd 8153 45ba 34fb 1dbd 378d 8ebd
00000070: 3f47 373d f4f4 3bbd 7360 29bd 70d9 05bd
00000080: cc43 743c 8f59 6ebd 8398 3bbd dfe7 d9bc
00000090: aa68 edbd 4322 a23d c667 ffbc f6d8 f53c
000000a0: 9cfd 54bd f06d c7bd acb4 23bd 76f0 76bc
000000b0: a92e 7ebd 2816 0ebc 76e2 b6bd cf99 153d
000000c0: 3bb8 9fbd f884 aebc 53d3 fdbd c972 053d
000000d0: ab1e 9ebd e3fd 003d 64ec 1a3d 641d 16bd
000000e0: 15ae 6cbc 642e 63bc 84c8 283d e18d 943c
000000f0: b6c3 95bd f05a 88bd 5084 edbc 7896 613d
00000100: 749b a7bd 17f6 87bd 5694 1bbe 7dde f7bc
00000110: 68d7 4abd eb16 dbbb 4197 66bc 62c2 fdbc
00000120: 46d3 9ebd 139e 38bd 4f52 85bd 283e b83c
00000130: 8d34 683d ae8c 133d 7820 b7bd 3940 6ebd
00000140: 0427 46bc 117e 68bc 734f 3c3d 8d0d 4dbd
00000150: fd94 29bd 6d1b e3bd 28e1 3cba 654c 683c
00000160: ed9e 2bbd 8a98 2c3d 3844 c8bd 4550 5a3d
00000170: 5880 debd c12f 403d 3389 67bd 324e 0cbd
00000180: dc71 6dbd eed9 c9bc 8d7b 52be 9bb1 873d
00000190: adf1 37bd a893 1abd 2305 c5bd 6492 47bc
000001a0: ed9f 7c3b 5863 02bd 28c9 aa3c 3e3f d5bd
000001b0: 775d 84bd 919f 96bc 0fbc 7ebc ca5e acbd
000001c0: 6695 643d 6ea5 2abc 92fb 09be f846 08bc
000001d0: 5357 b9bc 2881 8fbd 54d4 5cbd b53d 66bb
000001e0: aa7d e03c 93e0 44bc 781a 95bd 2d7f 6bbd
000001f0: 96a1 533d a2e7 f0bc 425f 1e3d da35 cfbd
00000200: 1341 c23d 2a39 5a3d 738a f2bd 5f8b 163d
00000210: 9d52 d1bd 2212 803c d346 e0bc 9d4f f13c
00000220: 9d2d 8dbd d3fd 673d 5e2c 1cbc 4db8 d2bd
00000230: 922d d2bd 2b52 0cbe ea42 6b3d 3c18 98bd
00000240: 14be c3bd 7469 173d 955a 4d3c 1668 aebd
00000250: 0155 8ebc 03b0 8cbd 9289 afbd 4476 7abc
00000260: 9b5b 853b 7eeb 0abc 7496 dcbd cf38 5fbd
00000270: 432a e53b 373a 503d 735d 7bbd 1715 723d
00000280: 5ed1 cabd e918 473d a880 2fbd 5cb2 e8bc
00000290: 5523 b2bd d73b 93bb 4552 f03c 70e5 97bd
000002a0: 5c94 28bd 519e 2abc 65bd 2dbb 2402 243c
000002b0: c35e d9bd 3436 82ba 2976 55bd 1b02 9ebc
000002c0: 99a8 6cbd 0221 b2bd af43 af3b ea4c e3bc
000002d0: 5a0a 2b3c ff56 a0bd c81a bdbd 5d5d e3bc
000002e0: 805c 9ebd 7d4b 103d 3f6f 10bd ca6d 06be
000002f0: a951 99bd d3aa 1dbb c6ad b33c 578a a73d
00000300: c891 a7bc b2ca 86bd 85dc 81bc 2a56 e5bd
00000310: 9485 0fbd a22f 86bc e325 c3bd ada3 f0bd
00000320: 0701 9a3d 0a96 21bd 4fc8 1b3d d9e7 2bbd
00000330: c831 bfbc 59f5 ddbc d189 893d dbf2 7bbd
00000340: 6c49 68bd efc4 523b bdae 503c 9c46 443c
00000350: b89c b6bb 10fc 953c 1f24 083d 2fd2 92bb
00000360: ba88 b23b aaf3 113d 23bc 643d c0c2 b0bd
00000370: 265b 31be 1754 dcbd e85c b8bd 4664 6abd
00000380: f611 a3bd 441b 9fbd 0f06 58bd 653c 7fbd
00000390: ea26 44bd 66fa 2cbe 83e4 e5bd 0d33 f1bd
000003a0: f18f ca3c 4927 5bbd 6519 87bd 5b7d 683b
000003b0: fc8c 4dbd bfa5 3639 0e20 3ebd 7bc9 debd
000003c0: e217 693d 1cbb 22bc 34b2 91bd 9c8c b13c
000003d0: 7284 553c 819d 4dbd a3de 6fbd 59c7 323d
000003e0: c44a 9cbd 9d20 f6bd 58cc 84bd 7169 29bd
000003f0: 7521 f6bd 3e17 cfbd 9549 143c e6aa 2e3d
-0.027685395 -0.09499663 0.049875524 -0.00087743887 -0.1453433 -0.021189366 -0.031437267 -0.05528411
-0.08627668 0.01127289 -0.09937847 0.00995917 -0.07697417 0.012064309 0.051803414 -0.023102047
-0.064350344 0.07315148 -0.0005057174 0.033399384 -0.06705002 0.03857926 -0.043765187 0.02730519
-0.06407033 -0.00075273967 -0.038569644 -0.06960528 0.04474568 -0.045887902 -0.041351747 -0.032678068
0.014908742 -0.05819088 -0.045799743 -0.026599823 -0.11592229 0.07916691 -0.031177413 0.030010682
-0.051999673 -0.09737766 -0.039967224 -0.015071979 -0.062056217 -0.008672275 -0.08929913 0.036523636
-0.07798811 -0.021303639 -0.123938225 0.03258017 -0.07720693 0.031492125 0.037823096 -0.036649123
-0.014445801 -0.013866041 0.04120685 0.01813406 -0.073127195 -0.0665797 -0.028993756 0.05507514
-0.08183947 -0.06638735 -0.15193304 -0.030257458 -0.049521834 -0.0066860816 -0.014074148 -0.030976478
-0.07755141 -0.045072626 -0.0650984 0.022490576 0.05669074 0.036022834 -0.0894174 -0.058166716
-0.012094263 -0.014190213 0.045974206 -0.05006175 -0.041401852 -0.110892154 -0.0007205182 0.01417837
-0.04189961 0.04213766 -0.09778637 0.053299207 -0.108643234 0.04692054 -0.056527328 -0.03425426
-0.057969913 -0.02464005 -0.20554943 0.066256724 -0.044908214 -0.037738472 -0.096201204 -0.012180898
0.0038547472 -0.031833023 0.020847872 -0.10412453 -0.064631395 -0.018386634 -0.015547766 -0.08416517
0.05580654 -0.010415418 -0.13474873 -0.0083177015 -0.022624647 -0.070070565 -0.05391343 -0.0035131995
0.027403671 -0.012016433 -0.07280439 -0.05749433 0.051667772 -0.029407326 0.038665064 -0.10117693
0.09485068 0.053277172 -0.11842813 0.03675401 -0.10220835 0.015633646 -0.027377522 0.029456908
-0.06893466 0.05663855 -0.009532062 -0.10289059 -0.10262598 -0.1370322 0.05743686 -0.07426497
-0.09557739 0.036965802 0.0125338035 -0.085159466 -0.017374517 -0.06869509 -0.08571161 -0.015286986
0.004069758 -0.008478997 -0.10770884 -0.054497536 0.0069935634 0.050836768 -0.061368417 0.059102144
-0.09903215 0.04860774 -0.042847306 -0.02840536 -0.08698145 -0.0044932174 0.029336104 -0.074168086
-0.04115711 -0.010413722 -0.0026510593 0.010010276 -0.106137775 -0.0009934367 -0.05211464 -0.019288113
-0.057777975 -0.08697702 0.0053486447 -0.027746636 0.01043948 -0.07829093 -0.09233624 -0.02775448
-0.07732487 0.03522824 -0.035262343 -0.13127819 -0.074862786 -0.0024058118 0.021933448 0.08180683
-0.020455256 -0.0658163 -0.015852222 -0.11198075 -0.0350395 -0.016380135 -0.09528711 -0.11749969
0.07519727 -0.03944973 0.038032826 -0.041969154 -0.023339167 -0.02709453 0.067157395 -0.061510902
-0.056710646 0.0032160839 0.012736973 0.011979725 -0.0055728815 0.01830867 0.033237573 -0.0044806222
0.005448428 0.035632767 0.055843484 -0.086308956 -0.17319927 -0.10758226 -0.090020955 -0.057224534
-0.0796241 -0.077688724 -0.052740153 -0.062313456 -0.047888674 -0.16892394 -0.11225226 -0.11777315
0.02472684 -0.053504262 -0.065966405 0.0035475108 -0.05018328 0.00017418618 -0.04641729 -0.10878273
0.056907542 -0.009932306 -0.07114068 0.021673493 0.013032066 -0.050199036 -0.058561932 0.043647144
-0.07631448 -0.12017939 -0.06484288 -0.041360322 -0.120181 -0.10111855 0.009050746 0.04264345

fc2.bias f4 [128]
00000000: bc9a 95bd d7d3 57bd a5c6 a5bd 5054 bcbd
00000010: 112c 45bd ca69 23be de95 f8bd cc4d b6bd
00000020: 8696 6fbd 290b 9fbd df27 fbbd 74ba c3bd
00000030: b254 053f 3f41 27bd 3001 4fbd b451 92bd
00000040: 9bca 35bd a46d 19be aa73 afba 83d6 c9bb
00000050: 3145 79bc 2c83 c03e cd61 bdbd befb b5bc
00000060: a9ab ccbd 8748 acbd 7315 a4bd a87e d3bc
00000070: 416b 0dbe ba7d 38bd 653e 253c 6638 b4bd
00000080: cdee 0cbe 7df5 16be e8d6 ffbd 8dcf 97bd
00000090: 05d3 a0bd 9651 2b3b fe4d f4bd 1821 42bd
000000a0: e278 35ba 3a36 27bd a56e 55bd 03d3 a0bd
000000b0: 994b a5bd aad3 86bd f6c9 80be 657e 15bd
000000c0: 86fc 10be 53e6 3abd c59d a8bd 7576 74bd
000000d0: 82fa 45ba 2b31 f4bd 2806 963c 4d0f d0bd
000000e0: ac2c a6bd b5ab 3fbd 5870 d4bc a093 8cbd
000000f0: 2500 bcbd 8bf1 b03f 883d acbd 3c09 8dbb
00000100: ab51 5bbd 9dcb 83bd f78a 07be 05e2 81bd
00000110: 5877 c9bd deeb 53bb 3863 8ebd e378 80bd
00000120: de6c 20bd 6b90 dcbd 4910 07be ab01 82bd
00000130: e13c 1dbe f625 64bd 8e2e 27bd 8029 01be
00000140: a6d2 b2bd 8a2b d4bd f112 f3bc f6c3 16bd
00000150: 17ae cdbd c005 38bd 33d8 d5bc ffca fabd
00000160: 901a 5fbb 8c33 09bd 2e6d cabd 5d39 ddbc
00000170: 3f93 0dbe 88c2 d7bd f219 8f3b cb99 96bc
00000180: a727 9cbd 32d0 043b 84d0 9cbd 35b7 90bd
00000190: 855a 8fbd 67f7 aa3c a575 92bb f50f 97bd
000001a0: f99f 71bd d37b fcbc 3662 1ebe 62fb 52bd
000001b0: c26d a9bd a895 92bd bed6 ccbd 6585 9abd
000001c0: 9bf5 d0bd f805 76bd 3c82 cebd c137 42bd
000001d0: b41f d4ba ea3b 3abe c60f ffbd 0ec7 b4bd
000001e0: 39c5 cbbd 560c 62bd dde0 08be 999c ebbd
000001f0: 1e4f d2bd 3171 f7bd 20ed e0bd e8ef 20be
-0.07304904 -0.05269226 -0.08094529 -0.09195769 -0.048137728 -0.15958324 -0.1213796 -0.08901557
-0.05849316 -0.077658005 -0.12263464 -0.095570475 0.5208236 -0.040833708 -0.050538242 -0.0714449
-0.044382673 -0.14983231 -0.0013385911 -0.006159605 -0.01521425 0.37600076 -0.0924717 -0.022214767
-0.09993679 -0.08412271 -0.080119036 -0.02581723 -0.13810445 -0.045041777 0.010085677 -0.0879982
-0.1376297 -0.14742084 -0.12492162 -0.07412634 -0.07852749 0.0026141158 -0.11928938 -0.047394842
-0.0006922615 -0.0408232 -0.052107472 -0.07852747 -0.0807106 -0.065833405 -0.25154084 -0.036497492
-0.1415883 -0.04562981 -0.08233217 -0.059683282 -0.0007552282 -0.119234405 0.018313482 -0.101591684
-0.08113989 -0.046794612 -0.025932476 -0.06864095 -0.09179715 1.3823713 -0.08410174 -0.0043040793
-0.05354468 -0.064353205 -0.13236605 -0.06341938 -0.09837216 -0.0032336633 -0.06952518 -0.06273057
-0.039166324 -0.10769733 -0.13189806 -0.063479744 -0.15355255 -0.055700265 -0.040815882 -0.12613487
-0.08731584 -0.10359867 -0.029672118 -0.036807977 -0.10042971 -0.04492736 -0.026104068 -0.1224575
-0.0034042932 -0.033496425 -0.098841056 -0.027004892 -0.13825701 -0.10535151 0.0043671066 -0.018383881
-0.076247506 0.0020265696 -0.07656959 -0.07066194 -0.06999687 0.020869924 -0.0044695907 -0.073760904
-0.058990452 -0.030820763 -0.15467152 -0.05150927 -0.08272888 -0.07157451 -0.10001896 -0.07544974
-0.102030955 -0.060064286 -0.10083434 -0.047416452 -0.0016183765 -0.18186918 -0.124541804 -0.08827029
-0.099497266 -0.055187546 -0.13367029 -0.11504478 -0.10268997 -0.120821364 -0.10982728 -0.15716517

fc3.weight f4 [1, 128]
00000000: bb3c 543c f36a 303c 675e fc3b 2da6 bc3b
00000010: 1063 a6bc 4f85 e13c d5fe c03c 4e13 983c
00000020: 64bf 60bc 98b9 e13b 4514 c03b f8e8 653c
00000030: a6c2 173c 7133 5abb 266a db3b 332c 47bc
00000040: 5a40 a33c 6194 193c 8788 f8bb 11ad 25bc
00000050: 301b 09bb 3f92 40bc ffaf 8c3c 3ddc 9a3c
00000060: 9b38 94bc b7a4 b93c 79c5 92bc 0d39 f1ba
00000070: f87b c7bb f985 27bc 3ae0 fbbc cf54 8a3b
00000080: f95b d3bc 69b7 d53b b41d a93b 2aab db3c
00000090: 5434 1bbc 7cbf f8bb 9525 a93c eafa d33c
000000a0: 4d30 b3bc cb9d 0c3b ea25 99bc 961c 443c
000000b0: 981c ceba a2e5 f3bb e86a 01bc c3e3 8dbc
000000c0: 65b9 f33b 470c 83bc 312b b4bc 1d6a 74bc
000000d0: 14d1 9a3c ee76 833b 9815 fc3c 856b a73c
000000e0: ac5a 2dbc 8027 21bc f2e8 05bc 3ca1 963c
000000f0: 0ad8 d5bc 1cb8 35bc bc67 1f3c 59ff f2bc
00000100: 979d eb3b 6004 04bc 0400 463c 3972 f13a
00000110: 4299 ee3c f49f ba3c 89e1 c237 ee3e a03c
00000120: 39b4 00bc 3c45 1c3c f14d 833c e55e 62bc
00000130: a52c 133c 9d6a a83c 7d1e 95bc a4d7 b2bc
00000140: 4e11 983b 3fb4 6c3c dd3c 5f3b 419d 943c
00000150: ac1e 37bb 785b 183b e989 93bb e31b c93b
00000160: 877a d93c 6831 67bc 3e49 f13c 067a 403b
00000170: 25dc 70bc 28ff 923b fe09 023b 0d79 a73b
00000180: d519 58bc 3620 f53c 09a6 bf3b e0b5 7a3b
00000190: e16a ab3c 0a1d b73c b3fe fa3c f2cf bbbb
000001a0: cda1 683c d9a5 0ebc 226b 753b a8de 5fbc
000001b0: 825b acbc c54d 393c 4c7e c53c 734a 953b
000001c0: 9269 49bc 1e27 99bb 90de 0dbc 64a8 dabc
000001d0: f51d ccbc cc50 18bc 9aac 5cbc 3e03 49bb
000001e0: 5a6e a03b 5fd8 c7bb 75a3 a9bc ca71 bc3a
000001f0: 4ac7 a0bc 4668 193b ce89 723b 11f6 b5bc
0.012953932 0.010767686 0.0077016833 0.0057571144 -0.020310909 0.027529387 0.023559013 0.018563893
-0.013717506 0.0068885796 0.0058617913 0.014032595 0.009262716 -0.0033294822 0.0066960035 -0.012156534
0.019928146 0.009373755 -0.0075846347 -0.010112063 -0.0020920746 -0.011753618 0.017173765 0.018903846
-0.018093398 0.02266155 -0.017916428 -0.0018403843 -0.0060877763 -0.010224813 -0.030746568 0.0042215358
-0.025800692 0.0065221083 0.0051610116 0.026815016 -0.009472925 -0.007591186 0.020647803 0.025876481
-0.021873618 0.0021456357 -0.018694837 0.011969706 -0.0015725074 -0.007443146 -0.007899024 -0.01732052
0.0074378722 -0.015997065 -0.021993252 -0.0149178775 0.018898524 0.0040119803 0.030772015 0.020437011
-0.0105807 -0.009836078 -0.008173214 0.01838743 -0.026103992 -0.011091258 0.009729322 -0.029662775
0.007190417 -0.008057684 0.012084965 0.0018420882 0.029125813 0.02278135 2.3231625e-05 0.019561257
-0.007855468 0.009537991 0.016028376 -0.01381657 0.008982812 0.02055865 -0.018203015 -0.021831341
0.0046407348 0.014447271 0.0034063377 0.01814139 -0.0027941866 0.002324788 -0.004502524 0.0061373576
0.026547683 -0.0141109 0.02945387 0.0029369607 -0.014700924 0.0044859834 0.0019842382 0.005110866
-0.013189753 0.029922586 0.0058486504 0.0038255379 0.020924987 0.022352714 0.030639028 -0.005731576
0.014198733 -0.008706533 0.003744789 -0.013663925 -0.021039728 0.011310046 0.024108075 0.004555994
-0.012293236 -0.0046738526 -0.00865902 -0.026691623 -0.024916628 -0.009296607 -0.013468886 -0.0030672099
0.0048959674 -0.0060987915 -0.020707825 0.0014377174 -0.019626278 0.00234081 0.0037008408 -0.02221206
