results/results_6/agent1_critic.pth (torch, 185643 bytes, 5 tensors)

fcs1.weight f4 [256, 48]
0.24307011 0.4230308 0.030472994 -0.11518703 0.07253211 -0.416749 0.033342674 -0.0534169
0.24338964 0.4516595 -0.05936663 -0.42949736 0.1153156 -0.42025778 -0.06757563 -0.3229096
0.27033386 0.45617184 -0.03856167 -0.0025941255 0.163534 -0.38815132 -0.053657655 0.04515397
-0.0943551 0.5895434 0.027804662 0.1299441 -0.008788528 -0.40202862 0.07811507 0.10751004
0.02802663 0.79705316 -0.09178704 0.50880104 -0.14767675 -0.3425521 -0.10622008 0.41470316
0.07659336 1.0286169 0.11298784 -0.075487 -0.19514357 -0.41009274 0.08875599 -0.04800484
0.016075473 0.17749605 0.046214156 -0.59322953 0.13607876 -0.50842667 0.031593256 -0.5588864
0.064765826 0.20589599 -0.07839189 -0.009871201 -0.033674676 -0.45919216 -0.027097462 -0.09390903
0.060753368 0.10807742 -0.08036429 0.016449193 -0.18419722 -0.5904153 -0.050757132 0.083185315
0.116576865 0.07455358 -0.037533514 -0.4539504 -0.07911983 -0.51168334 0.019992847 -0.5211413
0.17468649 -0.038663756 0.09955202 0.100994326 0.041246027 -0.43716162 0.09929599 0.14340942
0.044408724 0.13473465 -0.010067487 0.24880385 0.135495 -0.5571732 -0.019954532 0.3083065
0.45626634 0.057610914 -0.19929959 0.1602952 0.25682196 -0.16160345 -0.21859394 0.21439466
0.44064292 0.04420982 0.06702709 0.07211561 0.20624065 -0.29988196 0.1027502 0.13437119
0.44601545 0.0739248 0.02487571 -0.44249126 0.11181607 -0.67444503 0.12085372 -0.4253221
-0.17253362 0.20722555 0.021649826 -0.17894104 -0.24039051 -0.15423375 0.03242226 -0.19936177
-0.10764267 0.20928474 -0.0013169869 0.24329679 -0.18996802 -0.30834267 0.0787482 0.25314164
-0.00045306428 0.23006088 0.008842925 0.22665374 -0.17934224 -0.66444826 0.004679584 0.19343825
0.28205445 -0.1405912 0.039246753 0.39069748 0.18832284 -0.3232129 0.004937801 0.42076296
0.7890243 -0.045183487 -0.018729629 0.57454526 0.043886967 -0.3830879 0.022374554 0.68029267
0.44391102 0.022819705 -0.16942225 0.44518062 -0.094186604 -0.6059369 -0.23687084 0.45982417
0.44047308 0.67042375 -0.13283443 -0.078504026 -0.0860484 -0.3294154 -0.14484432 -0.019799
0.46100622 0.6520935 -0.023582485 -0.0077260137 -0.0066184974 -0.45684603 -0.057724547 -0.028585406
0.28953072 0.6008801 -0.08082642 -0.056942508 -0.0077445493 -0.5906761 -0.112145945 -0.06052774
-0.1366403 0.066590235 -0.03151274 0.27523497 0.30379468 0.0795506 0.020607457 0.19758314
-0.0030206863 0.04335925 0.06189161 0.09181914 0.3065694 -0.07455871 0.08563558 0.0817467
-0.06998665 0.016116524 0.0015297816 -0.11191741 0.5146829 -0.15952052 -0.0055665406 -0.044292975
-0.0026433256 0.11426377 -0.008979757 -0.30042842 -0.27909845 0.02046184 0.0015404971 -0.3672522
-0.011129021 -0.22159842 0.0044943974 -0.3706096 -0.34891623 -0.09613354 -0.003339535 -0.36218718
0.049179666 -0.29177994 0.015685443 -0.16210707 -0.51663876 -0.15645741 -0.0067737717 -0.17452519
0.011498473 -0.043108687 -0.010737804 -0.19997083 0.09268201 -0.0879478 -0.06484544 -0.15998013
0.17191255 0.029179534 -0.031348027 0.15011577 -0.11955795 0.054484658 -0.016442455 0.24695
00000000: 5fe7 783e 7e97 d83e 80a2 f93c 2de7 ebbd
00000010: b78b 943d 2060 d5be 5492 083d aecb 5abd
00000020: 223b 793e ea3f e73e 6c2a 73bd 14e7 dbbe
00000030: 962a ec3d 072c d7be 1865 8abd 6854 a5be
00000040: 3369 8a3e 5b8f e93e d7f2 1dbd 3402 2abb
00000050: 7575 273e c5bb c6be 21c8 5bbd 5ff3 383d
00000060: 3f3d c1bd 51ec 163f 9ac6 e33c 1110 053e
00000070: c2fd 0fbc b2d6 cdbe cbfa 9f3d 392e dc3d
00000080: 1a98 e53c ad0b 4c3f d8fa bbbd c940 023f
00000090: 9338 17be fd62 afbe ea89 d9bd f953 d43e
000000a0: fbdc 9c3d b8a9 833f 2b66 e73d ee98 9abd
000000b0: b7d3 47be adf7 d1be b3c5 b53d b9a0 44bd
000000c0: b6b0 833c 86c1 353e 0e4b 3d3d e4dd 17bf
000000d0: 3b58 0b3e 4028 02bf ee67 013d 2e13 0fbf
000000e0: f2a3 843d 66d6 523e ed8b a0bd d1ba 21bc
000000f0: 75ee 09bd 3c1b ebbe 7ffb ddbc 6153 c0bd
00000100: 86d8 783d b257 dd3d 0896 a4bd 75c0 863c
00000110: 329e 3cbe 7525 17bf b6e6 4fbd 105d aa3d
00000120: dabf ee3d 8caf 983d bebc 19bd 306c e8be
00000130: 9409 a2bd aefd 02bf 0ac8 a33c 8469 05bf
00000140: 04e1 323e e35d 1ebd eee1 cb3d 1dd6 ce3d
00000150: 98f1 283d a6d3 dfbe b25b cb3d ebd9 123e
00000160: ece5 353d e1f7 093e 1af2 24bc 70c6 7e3e
00000170: 34bf 0a3e e7a2 0ebf b077 a3bc 59da 9d3e
00000180: be9b e93e 6cf9 6b3d 3115 4cbe 6d24 243e
00000190: 2b7e 833e 607b 25be 17d7 5fbe 468a 5b3e
000001a0: f39b e13e 5b15 353d 8045 893d 59b1 933d
000001b0: c030 533e 218a 99be b26e d23d 9a98 093e
000001c0: 235c e43e e365 973d 25c8 cb3c 378e e2be
000001d0: d3ff e43d 6ea8 2cbf 2882 f73d d1c3 d9be
000001e0: a7ac 30be ef32 543e fa5a b13c 523c 37be
000001f0: ee28 76be 74ef 1dbe 34cd 043d 7e25 4cbe
00000200: c373 dcbd bd4e 563e bf9e acba cb22 793e
00000210: fa86 42be 17df 9dbe bc46 a13d c89b 813e
00000220: 4289 edb9 1495 6b3e eae1 103c eb17 683e
00000230: 7ea5 37be 4819 2abf 3257 993b ad14 463e
00000240: 7169 903e 24f7 0fbe 34c1 203d 8009 c83e
00000250: b4d7 403e 297c a5be 47cd a13b 3e6e d73e
00000260: 7ffd 493f 5212 39bd e16e 99bc 6615 133f
00000270: d2c2 333d 1924 c4be d74a b73c a927 2e3f
00000280: 4e48 e33e 64f0 ba3c 077d 2dbe b7ee e33e
00000290: e8e4 c0bd ae1e 1bbf 458e 72be 136e eb3e
000002a0: b085 e13e e4a0 2b3f c005 08be b8c6 a0bd
000002b0: 253a b0bd 23a9 a8be 1252 14be 8331 a2bc
000002c0: 0209 ec3e 9aef 263f 0e30 c1bc 802a fdbb
000002d0: fbdf d8bb b9e7 e9be 9370 6cbd f12b eabc
000002e0: 5f3d 943e 47d3 193f 5288 a5bd 8c3c 69bd
000002f0: fdc5 fdbb 8d36 17bf c6ac e5bd efeb 77bd
00000300: 6feb 0bbe 7660 883d 8113 01bd 99eb 8c3e
00000310: fa8a 9b3e 6deb a23d f8d0 a83c 3c53 4a3e
00000320: b5f6 45bb 7899 313d 0f82 7d3d ac0b bc3d
00000330: aaf6 9c3e 3db2 98bd b561 af3d d06a a73d
00000340: 2955 8fbd cd06 843c f482 c83a f434 e5bd
00000350: 42c2 033f 5959 23be 8767 b6bb 8d6c 35bd
00000360: a53b 2dbb 2003 ea3d d51f 13bc c1d1 99be
00000370: fee5 8ebe 979f a73c 81ea c93a 7b08 bcbe
00000380: 7f56 36bc b2ea 62be bd45 933b 8bc0 bdbe
00000390: 26a5 b2be a9e1 c4bd 1adc 5abb 9970 b9be
000003a0: 9e70 493d 2e64 95be c27e 803c 65ff 25be
000003b0: 7042 04bf 5f36 20be 84f6 ddbb bbb6 32be
000003c0: 1764 3c3c bc92 30bd 9ded 2fbc 27c5 4cbe
000003d0: 11d0 bd3d fa1d b4bd b0cd 84bd d5d1 23be
000003e0: d809 303e eb09 ef3c ca66 00bd f3b7 193e
000003f0: ccda f4bd 4e2b 5f3d 54b2 86bc 76e0 7c3e

fcs1.bias f4 [256]
-0.48959655 -0.1645048 0.15128337 -0.47281593 0.27565998 -0.06945358 -0.44118798 0.07979395
-0.3680485 -0.39442506 -0.7264556 -0.017882803 0.22161302 -0.020363627 -0.23914964 -0.1698255
-0.13425882 -0.55224395 -0.68416035 0.19041862 0.057404716 -0.63898695 0.0624853 -0.1877597
-0.14959545 -0.5097573 0.11653055 0.37035316 -0.0030256575 -0.59868085 -0.21398176 -0.25657478
0.09396801 -0.1852955 -0.23766823 -0.24366102 0.044344142 -0.12695314 -0.45780465 -0.6370935
-0.06782117 0.05742499 -0.50460887 0.054622244 -0.4709004 -0.075522706 -0.36504492 -0.073792495
-0.26523644 -0.4277344 -0.55363584 -0.29506984 -0.31326064 -0.0883852 -0.42346415 -0.20816045
0.25560647 -0.055243317 -0.3795365 -0.25572476 -0.2731672 -0.5754917 -0.30086198 -0.13096346
0.10699394 -0.40633985 -0.44175377 -0.18120341 -0.27708554 -0.14897066 -0.037424717 -0.16217925
0.24207796 -0.4213713 0.003966716 -0.057539467 0.38604477 -0.08283322 -0.18691447 -0.55403596
-0.1263137 -0.38847473 -0.39802986 0.1901197 -0.055450756 -0.48549283 -0.81930965 0.19144271
0.19150946 -0.04017968 -0.6496158 -0.10931429 -0.2266024 -0.1584583 -0.3902217 -0.34637383
-0.18822129 -0.4842623 0.021571692 -0.3595583 -0.019331511 -0.47485235 -0.023721818 -0.2909616
-0.54054713 -0.14874381 -0.0076526343 -0.19367702 -0.10843744 -0.47885004 -0.62940437 -0.20909998
-0.092961766 -0.2792829 -0.23515348 -0.54400563 -0.036973417 0.5452012 0.16780236 0.2805003
-0.55974597 -0.3891116 -0.62124115 -0.44845155 -0.36610585 -0.052438986 -0.05387949 -0.42692026
0.25634667 -0.053858846 -0.46699965 -0.14969979 -0.36290315 -0.6790222 0.2501463 0.23117933
-0.52465594 -0.4206469 -0.23765148 -0.004767211 0.17178403 -0.38214666 -0.4984216 -0.5333922
-0.300248 -0.009505813 -0.52760226 -0.118972555 -0.50732476 -0.13317661 -0.17045438 -0.2979971
-0.14119132 -0.5110454 -0.09430661 -0.56146854 -0.08545706 -0.112297095 -0.0012538603 -0.07536116
-0.47349474 0.060683858 -0.50803775 -0.42401892 -0.46077937 -0.09644558 -0.58258545 -0.33516622
-0.42563808 -0.3297142 0.23184961 -0.29172853 0.30416027 -0.20703216 -0.01341808 -0.13670523
0.014254027 -0.23909658 0.176577 -0.1788967 -0.49596748 -0.30765432 0.32830754 -0.52317995
-0.31602094 -0.55130917 0.23556197 0.35485885 -0.4114027 -0.27036762 -0.07295713 -0.12664062
-0.6887768 0.21085417 -0.21633376 -0.6893078 -0.33813047 -0.07251574 -0.31407452 -0.6520346
-0.25776094 0.3105615 0.08871763 -0.5290853 0.05824045 0.13024464 -0.20413795 0.2979371
-0.028537419 -0.24039996 -0.5505093 -0.4222851 0.6800133 -0.19335225 -0.16439474 -0.3772348
0.0049282857 -0.04752673 -0.54719937 -0.17571825 0.07936858 -0.4466788 -0.5165529 -0.12977886
-0.30609715 -0.3696066 0.0493052 -0.50891286 -0.08428388 -0.5328088 -0.26991504 -0.12714423
-0.38297153 -0.42888537 -0.16987468 -0.42563254 -0.10401052 -0.37409633 -0.34934947 -0.28183037
0.10385927 -0.25964266 -0.2872003 0.18770716 -0.3233661 0.1686526 -0.14991365 -0.33443144
-0.06804668 -0.57418007 -0.23137745 -0.5719807 0.3321744 -0.20917287 -0.042575136 -0.57085913
00000000: 66ac fabe f273 28be 07ea 1a3e ee14 f2be
00000010: 4e23 8d3e ae3d 8ebd 64e3 e1be 036b a33d
00000020: da70 bcbe 15f2 c9be fff8 39bf f57e 92bc
00000030: 86ee 623e 9fd1 a6bc a5e3 74be bce6 2dbe
00000040: 257b 09be dc5f 0dbf 2225 2fbf 19fd 423e
00000050: 3521 6b3d a694 23bf 96f0 7f3d 1444 40be
00000060: 8d2f 19be 747f 02bf 92a7 ee3d ee9e bd3e
00000070: 1c4a 46bb 2643 19bf 091e 5bbe c55d 83be
00000080: 4d72 c03d 1bbe 3dbe 4d5f 73be 4682 79be
00000090: 34a2 353d 0100 02be 5f65 eabe 8f18 23bf
000000a0: d3e5 8abd 7736 6b3d 0c2e 01bf 93bb 5f3d
000000b0: db19 f1be a6ab 9abd 2be7 babe 8520 97bd
000000c0: 12cd 87be 0100 dbbe 14bb 0dbf 6513 97be
000000d0: b363 a0be 4d03 b5bd 4bd0 d8be 0328 55be
000000e0: dade 823e d146 62bd 9c52 c2be 5bee 82be
000000f0: 92dc 8bbe 6d53 13bf 950a 9abe 491b 06be
00000100: a41f db3d c70b d0be 8d2d e2be 638d 39be
00000110: 28de 8dbe c48b 18be a94a 19bd 5112 26be
00000120: 49e3 773e fbbd d7be 3afb 813b 81ae 6bbd
00000130: a9a7 c53e 77a4 a9bd 8266 3fbe 4dd5 0dbf
00000140: 6158 01be 29e6 c6be 92ca cbbe bdae 423e
00000150: 5520 63bd 8492 f8be 47be 51bf 8f09 443e
00000160: 0e1b 443e 7393 24bd 394d 26bf 2ce0 dfbd
00000170: 760a 68be e542 22be 23cb c7be e957 b1be
00000180: 15bd 40be 3af1 f7be 1eb7 b03c 0718 b8be
00000190: 1e5d 9ebc d91f f3be 4254 c2bc ebf8 94be
000001a0: 4c61 0abf 4c50 18be f3c2 fabb 4553 46be
000001b0: 7314 debd d52b f5be a520 21bf 4e1e 56be
000001c0: bd62 bebd 2bfe 8ebe 13cc 70be f443 0bbf
000001d0: 7071 17bd 4e92 0b3f 62d4 2b3e bc9d 8f3e
000001e0: 834b 0fbf a339 c7be a909 1fbf 719b e5be
000001f0: 3a72 bbbe 43ca 56bd bdb0 5cbd 4b95 dabe
00000200: df3f 833e 189b 5cbd 941a efbe e74a 19be
00000210: 71ce b9be 66d4 2dbf 2d13 803e 46ba 6c3e
00000220: da4f 06bf 085f d7be e95a 73be 4436 9cbb
00000230: 27e8 2f3e baa8 c3be 1e31 ffbe 648c 08bf
00000240: 1bba 99be 45be 1bbc f110 07bf e2a7 f3bd
00000250: 09e0 01bf 735f 08be 988b 2ebe 1393 98be
00000260: 7594 10be dfd3 02bf d323 c1bd 67bc 0fbf
00000270: 1c04 afbd 05fc e5bd 9258 a4ba f456 9abd
00000280: e76d f2be a38f 783d c30e 02bf 0219 d9be
00000290: 46eb ebbe 4385 c5bd 5224 15bf e89a abbe
000002a0: 3ced d9be 4dd0 a8be fc69 6d3e 715d 95be
000002b0: e5ba 9b3e 3d00 54be 82d7 5bbc 75fc 0bbe
000002c0: b989 693c bcd5 74be 9ad0 343e b230 37be
000002d0: 73ef fdbe de84 9dbe ed17 a83e 1fef 05bf
000002e0: 7fcd a1be 9922 0dbf 2837 713e 0fb0 b53e
000002f0: 60a3 d2be a06d 8abe 8c6a 95bd 14ae 01be
00000300: ad53 30bf 28ea 573e 9986 5dbe 7a76 30bf
00000310: 701f adbe 2283 94bd 60ce a0be bdeb 26bf
00000320: 3ef9 83be eb01 9f3e 97b1 b53d 2272 07bf
00000330: 8a8d 6e3d da5e 053e 8a09 51be 368b 983e
00000340: 4ec7 e9bc 682b 76be 2dee 0cbf c135 d8be
00000350: 5a15 2e3f 22fe 45be 1857 28be eb24 c1be
00000360: 757d a13b 63ab 42bd 4215 0cbf 7cef 33be
00000370: fe8b a23d 15b3 e4be d03c 04bf c0e4 04be
00000380: c4b8 9cbe 143d bdbe 40f4 493d 1d48 02bf
00000390: 079d acbd 2866 08bf 4e32 8abe 1932 02be
000003a0: d814 c4be dd96 dbbe a1f3 2dbe 82ec d9be
000003b0: 7803 d5bd 8e89 bfbe efdd b2be 124c 90be
000003c0: 2bb4 d43d e2ef 84be eb0b 93be 4e36 403e
000003d0: 3e90 a5be 44b3 2c3e f782 19be 993a abbe
000003e0: 0f5c 8bbd 77fd 12bf 36ee 6cbe 546d 12bf
000003f0: c312 aa3e 6a31 56be 4463 2ebd d323 12bf

fc2.weight f4 [128, 258]
-0.13844526 -0.1586184 -0.2319596 -0.11285384 0.04171413 -0.28022304 -0.05624003 -0.04045399
-0.08071747 0.06008653 0.022803854 0.010868587 -0.27072588 0.025488805 0.023273356 -0.14156784
0.20247367 0.056251522 0.011207421 -0.23713732 -0.10444044 0.08529483 0.06978346 -0.20787081
-0.15018792 0.038099345 -0.51989806 -0.051549125 -0.13535896 0.20206355 0.017272422 -0.25489336
0.048352532 -0.17679346 -0.02230361 -0.054603204 0.10850818 0.20685048 -0.3402463 -0.22243382
-0.06744198 -0.08066767 -0.07011364 -0.18357606 -0.08188815 0.010366565 0.1519768 0.35430294
-0.06951911 0.11351849 0.24220096 -0.07130913 -0.14572555 0.12735195 -0.032264773 0.035982106
-0.07965051 0.013604282 0.046257112 -0.20265062 -0.03750515 -0.17031012 -0.04485117 0.073006794
0.0042750635 -0.14323099 0.0945061 -0.08893537 -0.07243386 0.14101693 -0.16301928 -0.008528643
-0.37476826 -0.06498492 -0.19210422 0.07528052 0.20637177 -0.07882812 -0.024998058 -0.17413034
0.19414325 0.08004574 -0.010693443 -0.11119062 0.07949582 -0.4253616 -0.79383445 -0.017594505
0.038552795 -0.24427764 -0.051863167 0.0041957526 -0.03301538 -0.012545407 -0.103678636 -0.10433244
-0.07635728 0.016772078 0.08908142 0.028966675 -0.053964846 -0.3673282 -0.14807482 -0.17838995
-0.04596969 -0.03420698 0.15193428 -0.61394453 -0.14831853 -0.27107093 0.04693995 0.031371582
-0.069366045 0.023828754 0.09346709 -0.1501879 -0.20993379 -0.084372155 -0.0532812 -0.51339054
-0.411037 -0.13678665 -0.017237425 -0.15143198 -0.08869975 0.008124273 -0.39351717 -0.37271386
-0.27633688 0.066731624 0.2744373 -0.024961589 0.10997709 -0.107642144 -0.06983563 0.053067584
0.06394302 -0.035598096 -0.3483213 -0.052744124 -0.47575408 -0.10883237 -0.21623325 -0.10071122
-0.04769771 0.06795683 -0.09742021 -0.10004372 -0.11837062 0.03847324 -0.1281045 -0.376997
0.005511011 0.03989207 -0.30220687 -0.022911802 -0.057680536 0.02715135 0.005847256 0.16396694
-0.05576218 -0.1283952 -0.012861755 0.107990146 -0.21225443 0.06340901 -0.08538814 -0.4225312
-0.03614365 -0.11634551 0.15856594 -0.035542887 -0.1844318 0.028812287 0.07223835 0.0013367411
-0.07054064 -0.08496937 0.0072798277 -0.14013465 -0.012118739 0.002265222 -0.37614864 -0.2241385
-0.015611727 -0.17066342 -0.030084392 -0.1184104 -0.23730627 0.41131166 -0.33653697 0.015069423
0.1808679 -0.05918105 0.055066578 -0.13490798 0.11515318 0.11495389 -0.07181915 -0.08859752
-0.07537348 0.0510196 0.041512232 -0.1756508 -0.01281395 -0.22654814 0.040066883 0.12874849
-0.10373939 -0.022275591 0.032494757 -0.03991479 -0.084815055 -0.238009 -0.0405339 -0.026029022
-0.34358683 -0.024761943 -0.077025585 -0.07030924 0.19361092 0.065417804 -0.01999089 -0.059378147
0.026898434 -0.06884193 -1.0805374 -0.055904143 0.017140059 -0.091644846 -0.11772428 -0.06548584
0.04065364 -0.28605124 -0.019832576 0.014522209 -0.08557946 0.08938569 -0.20461056 -0.16446075
-0.3172213 0.07097095 -0.14151867 -0.113394454 -0.010924193 -0.06718073 -0.23661678 -0.037056003
0.058385227 -0.039207652 -0.058019325 -0.19483888 -0.5664475 0.007653158 -0.015968258 0.1359113
00000000: 98c4 0dbe dd6c 22be d186 6dbe ea1f e7bd
00000010: 70dc 2a3d 6579 8fbe f25b 66bd 15b3 25bd
00000020: 334f a5bd 4b1d 763d 26cf ba3c 2812 323c
00000030: 959c 8abe e6cd d03c c4a7 be3c 29f7 10be
00000040: 4255 4f3e ff67 663d 559f 373c 20d4 72be
00000050: dfe4 d5bd 0eaf ae3d a1ea 8e3d 16dc 54be
00000060: ddca 19be 0f0e 1c3d 0a18 05bf 2d25 53bd
00000070: 8a9b 0abe bfe9 4e3e e57e 8d3c 6281 82be
00000080: 4e0d 463d 5809 35be 0fb6 b6bc 9ca7 5fbd
00000090: 8939 de3d 9dd0 533e c334 aebe b1c5 63be
000000a0: 051f 8abd 1735 a5bd bd97 8fbd 5dfb 3bbe
000000b0: f9b4 a7bd 86d8 293c ce9f 1b3e 3267 b53e
000000c0: 0960 8ebd 627c e83d 8703 783e 850a 92bd
000000d0: 1439 15be 8d68 023e 1128 04bd f961 133d
000000e0: ce1f a3bd 7fe4 5e3c 1978 3d3d a583 4fbe
000000f0: 009f 19bd c765 2ebe dcb5 37bd 9684 953d
00000100: d515 8c3b 25ab 12be 6a8c c13d bf23 b6bd
00000110: 3458 94bd be66 103e 87ee 26be b9bb 0bbc
00000120: a0e1 bfbe d016 85bd f8b6 44be ac2c 9a3d
00000130: 1f53 533e a370 a1bd bac8 ccbc 394f 32be
00000140: 7dcd 463e 05ef a33d 8d33 2fbc e8b7 e3bd
00000150: b4ce a23d ffc8 d9be bc38 4bbf 5a22 90bc
00000160: 89e9 1d3d eb23 7abe 796e 54bd 867c 893b
00000170: 233b 07bd 408b 4dbc 7755 d4bd 3fac d5bd
00000180: 3561 9cbd 9965 893c 5270 b63d 854b ed3c
00000190: 3e0a 5dbd 7112 bcbe eda0 17be dbab 36be
000001a0: b74a 3cbd 9e1c 0cbd a994 1b3e 782b 1dbf
000001b0: d0e0 17be cfc9 8abe 1b44 403d 7d7f 003d
000001c0: c90f 8ebd 8534 c33c ac6b bf3d dbca 19be
000001d0: e2f8 56be 4fcb acbd 633d 5abd 906d 03bf
000001e0: 7173 d2be cd11 0cbe 8035 8dbc fc10 1bbe
000001f0: 37a8 b5bd ac1b 053c 157b c9be 5ad4 bebe
00000200: 077c 8dbe 97aa 883d 0c83 8c3e 3f7c ccbc
00000210: ab3b e13d 7c73 dcbd fc05 8fbd 655d 593d
00000220: 8ff4 823d 4fcf 11bd 2b57 b2be 390a 58bd
00000230: 0a96 f3be 81e3 debd 406c 5dbe af41 cebd
00000240: ad5e 43bd f32c 8b3d 3f84 c7bd b9e3 ccbd
00000250: 4c6c f2bd 1e96 1d3d d32d 03be c005 c1be
00000260: b695 b43b de65 233d dcba 9abe 88b1 bbbc
00000270: 6d42 6cbd 826c de3c 579a bf3b f3e6 273e
00000280: e266 64bd 087a 03be 1cba 52bc f029 dd3d
00000290: 3a59 59be 95dc 813d fadf aebd 0256 d8be
000002a0: 5d0b 14bd 8e46 eebd 1c5f 223e 6b95 11bd
000002b0: b1db 3cbe bf07 ec3c b3f1 933d 9735 af3a
000002c0: 9c77 90bd 6c04 aebd 9f8b ee3b 757f 0fbe
000002d0: ad8d 46bc 1e74 143b 8e96 c0be 9084 65be
000002e0: 54c8 7fbc 64c2 2ebe 8b73 f6bc 2781 f2bd
000002f0: 6a00 73be 7197 d23e 934e acbe bee5 763c
00000300: 6f35 393e d467 72bd 7e8d 613d 5125 0abe
00000310: 6ed5 eb3d f26c eb3d eb15 93bd 9e72 b5bd
00000320: 695d 9abd eef9 503d bb08 2a3d cedd 33be
00000330: 9af1 51bc 3cfc 67be 2c1d 243d a5d6 033e
00000340: 5175 d4bd 4d7b b6bc 3919 053d b17d 23bd
00000350: 84b3 adbd a2b8 73be e006 26bd d13a d5bc
00000360: 9dea afbe 8fd9 cabc 97bf 9dbd 4afe 8fbd
00000370: f141 463e c5f9 853d efc3 a3bc 8036 73bd
00000380: 1b5a dc3c fffc 8cbd 0d4f 8abf befb 64bd
00000390: 4f69 8c3c 4bb0 bbbd 6d19 f1bd 711d 86bd
000003a0: 6e84 263d 4f75 92be ed77 a2bc 8fee 6d3c
000003b0: 4944 afbd d80f b73d 6e85 51be 6668 28be
000003c0: d56a a2be 3859 913d 45ea 10be 5a3b e8bd
000003d0: 63fb 32bc 0d96 89bd ab4b 72be 09c8 17bd
000003e0: 5925 6f3d 3498 20bd aca5 6dbd d883 47be
000003f0: b402 11bf 58c7 fa3b ddcf 82bc 552c 0b3e

fc2.bias f4 [128]
-0.3212153 -0.026886517 -0.12243699 -0.101557314 -0.13239989 -0.14135271 -0.094681896 -0.043384068
-0.07101966 -0.10564581 -0.14386936 -0.10485677 -0.05659453 -0.028437648 -0.08740171 -0.03594516
-0.0803789 0.22571792 -0.037462696 -0.035238177 -0.066236034 -0.11373998 -0.11516007 -0.037010077
-0.090202846 -0.040458754 -0.08824088 -0.059988327 -0.11230984 -0.0746871 -0.019074531 -0.12896216
-0.104585305 -0.14483625 -0.12017783 -0.08358375 -0.12653501 -0.08451519 -0.09056314 -0.07140823
-0.00041046183 0.026006974 -0.038740136 -0.07274606 -0.045550328 -0.07596096 -0.10709252 -0.0428285
-0.11595374 -0.057264626 -0.074140996 -0.05776994 0.05770714 -0.15341103 -0.028182527 -0.10798185
-0.0798847 0.02357439 -0.0021453178 -0.059724946 -0.11762224 -0.007570288 -0.037676904 -0.045604218
-0.030181725 -0.14818925 0.12239184 -0.05510123 -0.13212211 -0.009441488 -0.02904317 -0.054628976
-0.023486666 -0.11703334 -0.097391486 -0.120300464 -0.027976407 -0.0719628 -0.0009873735 -0.13463934
-0.11160066 -0.110631146 -0.08791484 -0.060342416 -0.10159692 0.22376496 -0.0631368 -0.14084448
-0.036426887 -0.06229436 -0.09120433 -0.15758994 -0.12954496 -0.048792876 -0.016502734 -0.099946305
-0.0770409 0.15988262 -0.12903658 -0.041694958 -0.05581299 -0.04748118 -0.051933233 -0.05631129
-0.060012966 -0.05853093 -0.15284425 -0.1813459 -0.056191422 -0.081104174 -0.09251296 -0.052987568
-0.10842814 -0.056250524 -0.03955064 -0.024859095 0.037105322 -0.14862029 -0.091971755 -0.12927642
-0.14699438 -0.32851124 -0.09512724 -0.09558023 -0.14254057 -0.12428024 0.06552306 -0.03715754
00000000: 5576 a4be 1d41 dcbc 3fc0 fabd 48fd cfbd
00000010: d693 07be c4be 10be 95e8 c1bd 7eb3 31bd
00000020: c172 91bd d55c d8bd 7d52 13be 25bf d6bd
00000030: aacf 67bd 12f6 e8bc abff b2bd 3b3b 13bd
00000040: b19d a4bd 9922 673e 7c72 19bd e855 10bd
00000050: c2a6 87bd 82f0 e8bd 0bd9 ebbd e197 17bd
00000060: 45bc b8bd 14b8 25bd a2b7 b4bd 52b6 75bd
00000070: b402 e6bd 8df5 98bd 3142 9cbc a80e 04be
00000080: d230 d6bd f44f 14be cb1f f6bd f52d abbd
00000090: 6592 01be 4d16 adbd 2b79 b9bd 7a3e 92bd
000000a0: 4133 d7b9 940c d53c faad 1ebd e3fb 94bd
000000b0: fb92 3abd 6b91 9bbd 5353 dbbd f06c 2fbd
000000c0: 2879 edbd 508e 6abd 3cd7 97bd 2ca0 6cbd
000000d0: 525e 6c3d c817 1dbe 0bdf e6bc 9725 ddbd
000000e0: 979a a3bd 141f c13c 7698 0cbb 25a2 74bd
000000f0: eee3 f0bd 2e10 f8bb 1953 1abd 7dcb 3abd
00000100: aa3f f7bc ecbe 17be 93a8 fa3d d4b1 61bd
00000110: 054b 07be 79b0 1abc f1eb edbc a2c2 5fbd
00000120: 1c67 c0bc 2daf efbd 3075 c7bd 1760 f6bd
00000130: c72e e5bc 3c61 93bd c26a 81ba e5de 09be
00000140: e38e e4bd 9592 e2bd b20c b4bd 9c29 77bd
00000150: 0c12 d0bd a422 653e de4d 81bd 8939 10be
00000160: 5c34 15bd 5f28 7fbd 56c9 babd 425f 21be
00000170: 6fa7 04be 0adb 47bd be30 87bc a6b0 ccbd
00000180: 9fc7 9dbd 45b8 233e 2a22 04be 55c8 2abd
00000190: 299c 64bd a07b 42bd f1b7 54bd aba6 66bd
000001a0: 28d0 75bd 21be 6fbd 3483 1cbe bdb2 39be
000001b0: fa28 66bd f219 a6bd 6f77 bdbd 7e09 59bd
000001c0: 930f debd f366 66bd daff 21bd 4da5 cbbc
000001d0: c0fb 173d eb2f 18be b05b bcbd 0a61 04be
000001e0: b285 16be a032 a8be 12d2 c2bd 91bf c3bd
000001f0: 28f6 11be a386 febd f430 863d 8132 18bd

fc3.weight f4 [1, 128]
-0.016463108 -0.01753094 -0.012330475 -0.012848156 -0.02052961 0.01739997 0.010977339 0.00036431832
0.0039980924 -0.021342944 -0.0076841353 -0.027974814 -0.002530922 0.0041939146 -0.005602814 0.028423779
-0.015995273 0.015116133 0.012002472 -0.021252709 -0.009423712 -0.008597669 0.00497041 -0.0010215789
-0.0115869725 0.015612404 0.0015404851 -0.019321047 -0.011899923 -0.0142695485 0.008692476 0.024704609
0.005004068 -0.02672368 0.0003170886 0.0052057384 -0.022657245 -0.009959535 -0.019577283 0.021019464
0.004068006 -0.038861852 0.023156013 0.022353973 -0.030994512 -0.02672737 0.022731245 0.023266898
-0.0022630377 0.0008793583 0.0049763075 0.00047437008 -0.0073691267 0.007210045 0.004840585 -0.01331776
-0.011757924 -0.014339698 0.00011695008 0.0016682459 -0.0033402862 -0.028240742 0.020603854 0.013543791
0.0076283775 0.017384378 -0.035580367 -0.011341436 0.008393938 -0.0329922 -0.031204097 0.0038148034
-0.023308892 0.0014821081 -0.012570725 -0.0022725763 -0.009131163 0.0020616192 -0.012029207 -0.00918928
0.0037530004 -0.009751133 -0.010382973 0.008573395 0.00012938216 -0.010400716 0.01904448 -7.9067504e-05
-0.01571879 -0.0015927994 -0.021083267 0.010292931 -0.020229835 -0.012702024 -0.012231903 -0.0072417487
0.025471305 -0.02453238 0.0042277435 0.029062686 -0.0141285965 0.0093577625 -0.00880369 -0.025269907
-0.0034547725 -0.013237528 0.014041628 0.010982323 0.011770742 0.025793957 0.0036247964 0.03073186
-0.005676268 0.013834148 -0.008946171 0.030803358 -0.012281924 0.011783156 0.00929915 -0.019280074
-0.000511417 -0.013110592 0.013343263 0.018385548 0.010031065 0.00064068404 0.02200347 -0.011314516
00000000: a4dd 86bc 0c9d 8fbc c305 4abc 1281 52bc
00000010: b62d a8bc 628a 8e3c 4cda 333c fa01 bf39
00000020: 6e02 833b 66d7 aebc 33cb fbbb 702b e5bc
00000030: d3dd 25bb 1b6d 893b cf97 b7bb fcd8 e83c
00000040: 8508 83bc a8a9 773c 04a6 443c 291a aebc
00000050: ea65 1abc 3ddd 0cbc d2de a23b 80e6 85ba
00000060: 49d7 3dbc 2bcb 7f3c 1aea c93a 2c47 9ebc
00000070: e5f7 42bc d3ca 69bc e36a 0e3c 5261 ca3c
00000080: 2af9 a33b 9eeb dabc e93e a639 e694 aa3b
00000090: b09b b9bc 512d 23bc 8a60 a0bc 0331 ac3c
000000a0: e84c 853b 9b2d 1fbd aeb1 bd3c ae1f b73c
000000b0: 34e8 fdbc 5cf3 dabc e036 ba3c 399a be3c
000000c0: 794f 14bb bd84 663a 4b10 a33b e0b4 f839
000000d0: b778 f1bb 3e42 ec3b c59d 9e3b bc32 5abc
000000e0: 4fa4 40bc 0df1 6abc 1943 f538 0ba9 da3a
000000f0: b4e8 5abb 2159 e7bc 6ac9 a83c c7e6 5d3c
00000100: 78f7 f93b af69 8e3c b8bc 11bd 6ed1 39bc
00000110: ba86 093c d422 07bd bc9f ffbc c801 7a3b
00000120: 4af2 bebc 4c43 c23a 71f5 4dbc 81ef 14bb
00000130: e09a 15bc 3b1c 073b 2716 45bc a28e 16bc
00000140: e6f4 753b 37c3 1fbc 581d 2abc 6d77 0c3c
00000150: c2aa 0739 c467 2abc 2b03 9c3c 0bd1 a5b8
00000160: b1c4 80bc 7bc5 d0ba d1b6 acbc afa3 283c
00000170: 0ab9 a5bc 261c 50bc 5268 48bc 314c edbb
00000180: 33a9 d03c 21f8 c8bc e288 8a3b df14 ee3c
00000190: a17b 67bc 4d51 193c 5a3d 10bc d602 cfbc
000001a0: 7769 62bb 37e2 58bc db0e 663c 34ef 333c
000001b0: 12da 403c d94d d33c fe8d 6d3b 62c1 fb3c
000001c0: fdff b9bb 9fa8 623c f692 12bc 5357 fc3c
000001d0: 1f3a 49bc 230e 413c 765b 183c 3ff1 9dbc
000001e0: 9d10 06ba cfcd 56bc b49d 5a3c 4a9d 963c
000001f0: 5659 243c 94f3 273a 9f40 b43c 8560 39bc
