results/results_6/agent2_actor.pth (torch, 185131 bytes, 6 tensors)

fc1.weight f4 [256, 48]
00000000: eb02 a9be aa2c 80be d801 4bbe 4dbf 843e
00000010: 0ea2 55be a634 a1be 9ad4 45be 3e0f a03e
00000020: c917 7bbe f9ee fcbd f089 6e3e 4f0b 623e
00000030: 2fa5 68be fbd3 12bf 1fec 963e c979 9f3e
00000040: b454 c2bd 9e6e dabd 57fc a8bd 6e23 063e
00000050: 4bef 04be eb73 66bf 070b 34bd 8fec 4d3e
00000060: eb99 05bf a632 063e af72 093e 61f4 34bf
00000070: 6242 533e 444a bcbe 9585 6a3e 328b 33bf
00000080: 4176 cabe 0640 853d 318f 333d ba01 14bf
00000090: 073a 543e 7d62 12bf eb02 343c 05f7 07bf
000000a0: 0cca b6be 5a5d 1bbd 804c 4cbd 4f6e 2abf
000000b0: 6f52 0e3e 072c 65bf a771 53bb ab2b 22bf
000000c0: 3723 8abe 0b3e 2a3e 8d26 1fbe 294e c8bd
000000d0: 1bdc b23d 1bae 66be cbc8 fabd 0e5f 97bd
000000e0: 8d53 3cbe 843a 573e 7602 01bd ee6a b7be
000000f0: b548 273d edd0 01bf 3950 6c3d 4a81 a3be
00000100: 2ba3 4abe 1c50 603e b80e 913c bd14 00bf
00000110: 3b72 df3d 2adc 7abf 6350 593b b68e 0bbf
00000120: bf60 c2be 5044 323f a1e9 28bb 77e0 56bf
00000130: b404 0abe 132d 6cbe b265 d3bb a98c 63bf
00000140: 76ed 81be ad00 013f 5b4d 58be 792c 56bf
00000150: 7d23 3cbd e681 1dbf f2d2 73be f7f4 66bf
00000160: 54c4 84be 4e9d c13e cd65 54bd c08c 6cbf
00000170: 9075 59be 5285 74bf 1332 fbbd 225e 62bf
00000180: 9c61 1dbb ffa3 8a3d 082f 133e 8b79 f4bd
00000190: eae7 493d cd42 393e 2e70 ed3d 9d8a d9bc
000001a0: 16de 00bd 5f73 483d 6968 633e ffb7 88bd
000001b0: 2f8e b1bd 846c 943e 79f3 433e 0765 18be
000001c0: e72e 113c 4519 643e 61dd c03d e258 c53d
000001d0: a344 bc3d 89a4 913e 2eb6 a03d f0b0 e33d
000001e0: 9a68 ea3e 56c1 d13b ad06 713e f126 99be
000001f0: 09d0 adbd dd95 383e c768 9b3e 5b25 a5be
00000200: b2dd cf3e cad8 7fbd 74f2 743e e1f8 d0be
00000210: 537e 283d b80b 9d3e e419 9a3e adad 01bf
00000220: 32c5 043f 9908 0dbe 215b f8bd 5b47 18bf
00000230: d858 dcbd cf3c 803e 0383 70bc d567 20bf
00000240: cc76 c13b dbbc 69bc 693d dbb8 797d 293e
00000250: 4e00 363e ceb3 c23d 6626 433d 4980 cc3d
00000260: b7b7 80bd 4995 a9bd fe67 353e 24d2 5c3e
00000270: 796b 6c3d 11c6 a73e ea6e 1e3e 6f0f 743e
00000280: 46e5 98bd cd26 4bbd d49c ffbd 72e6 ab3e
00000290: 3547 853e 22e4 eb3e 2d29 60be 50a4 b63e
000002a0: 20d1 053f 4e66 1dbe 0b1f 973e b84d 41be
000002b0: 565f 8dbe b37e 6a3d 0331 a53e 4d12 44be
000002c0: 4e75 b73e 5bae 97be d096 46be a92d 4d3b
000002d0: f72d dfbc 7ef9 903e 7b6c 23be 4d98 7ebd
000002e0: d8ac 853e b78b bfbe 55c7 21be ecfe f6bd
000002f0: efd9 4dbe ac53 123f 36d5 77be 6d6e 08be
00000300: 9ee4 e13c 1b69 08bf f422 f33d f20d 91be
00000310: 821a 083e db6b 5d3e fae7 3d3e ee64 9ebe
00000320: 0ac8 f13d 849c 0fbf b7e8 673e 7e48 63bd
00000330: 85bd c13d f26c c63e a71a 233e 7007 76bc
00000340: 2a1b e73c 852f b6be 7ccf 1dbe 9d7d 63bd
00000350: 89cf cebb 1370 d23e 69c1 e4bd b74f f9bd
00000360: e260 5c3b 9682 263f 585f b23d 08c3 04bd
00000370: 216a 50be 4fa6 813e cf1d 163e d9fc b33d
00000380: 74e3 5cbc cba1 1a3f 18fe 0b3e af7a 913e
00000390: 4f63 cfbd d66c a03e c463 433e af6f 633e
000003a0: dd7f 2bbc 0710 433f 83c0 8f3e 8d1b 3b3e
000003b0: 93c3 833d 7960 c53e 8ea0 af3e e529 043e
000003c0: 8541 6ebe 2cb6 0fbf 4088 553e 94fa c6be
000003d0: fac9 1a3d 9c08 f8bd 981c 673e 03bb c7be
000003e0: bcff 30be 373e 0cbf e13a 543a 8abe a0be
000003f0: d853 0e3d f9b1 c1be f6a5 a0bc eed6 a2be
-0.3301004 -0.25034076 -0.19824922 0.259272 -0.208626 -0.3148548 -0.19319382 0.3126163
-0.24520792 -0.12350268 0.23294806 0.22074626 -0.22719263 -0.57354707 0.2947702 0.31147602
-0.09488812 -0.1066563 -0.08251255 0.13099453 -0.12981908 -0.90020627 -0.04395583 0.20109771
-0.52187985 0.13105258 0.13422655 -0.7068539 0.20630792 -0.3677541 0.2290252 -0.7013427
-0.39543346 0.06506352 0.04383773 -0.57815135 0.2072526 -0.5718153 0.010987024 -0.53111297
-0.35701025 -0.037930824 -0.049877644 -0.6657457 0.13898633 -0.89520305 -0.0032263787 -0.6334788
-0.26979992 0.1662523 -0.1554205 -0.09780533 0.08733388 -0.22527353 -0.122453295 -0.07391177
-0.18391247 0.21018416 -0.031496488 -0.35823768 0.040840823 -0.5070942 0.057693694 -0.31934577
-0.19788806 0.2190556 0.017707214 -0.50031644 0.109104596 -0.97992194 0.0033159486 -0.54514635
-0.37964436 0.69635487 -0.002577402 -0.83936256 -0.13478357 -0.2306407 -0.006451332 -0.88886505
-0.2537648 0.50391656 -0.21123259 -0.8366161 -0.04593228 -0.61526334 -0.23810938 -0.90217537
-0.25931036 0.37815326 -0.051854897 -0.9240227 -0.21236253 -0.9551593 -0.1226541 -0.88424885
-0.0024014479 0.06769561 0.1437341 -0.11937245 0.049293436 0.18091889 0.11593662 -0.026555354
-0.031461798 0.04893815 0.22207798 -0.066757195 -0.086696975 0.2898904 0.19135846 -0.14882289
0.00886128 0.22275265 0.09417225 0.09636094 0.09192779 0.28445843 0.07847248 0.111177325
0.4578293 0.0064012213 0.23537703 -0.29912522 -0.08486945 0.18025918 0.30353376 -0.32255062
0.40598828 -0.062462606 0.23920614 -0.4081488 0.041136097 0.30673003 0.30097878 -0.50655633
0.51863396 -0.13772811 -0.121267565 -0.5948388 -0.10759133 0.25046393 -0.014679673 -0.62658435
0.0059040543 -0.014266218 -0.00010454172 0.1655177 0.17773554 0.09506951 0.04764404 0.09985406
-0.06285041 -0.08280427 0.17715451 0.21564537 0.05771968 0.327683 0.15471998 0.23834012
-0.074656054 -0.04959755 -0.124810845 0.33574253 0.2603089 0.4607249 -0.21890707 0.35672235
0.52272224 -0.15371057 0.2951587 -0.18877304 -0.27611798 0.057249736 0.32263955 -0.19147606
0.35831684 -0.2962521 -0.19393468 0.0031307733 -0.027243597 0.28315347 -0.15959351 -0.062156964
0.26108432 -0.3741128 -0.15798695 -0.12060341 -0.20102666 0.57158923 -0.24202427 -0.13323374
0.027574833 -0.5328538 0.11871901 -0.28330952 0.13291362 0.21623175 0.18545523 -0.30936378
0.118057325 -0.560982 0.22647367 -0.055489056 0.09459976 0.38754994 0.15928136 -0.015016422
0.028211195 -0.3558313 -0.1541118 -0.055539716 -0.006311361 0.4110113 -0.111697026 -0.121734075
0.0033627083 0.6504301 0.087095916 -0.03241256 -0.20352985 0.25322196 0.14659809 0.08788461
-0.013481963 0.60403126 0.13671148 0.28413913 -0.101263635 0.31333035 0.19081026 0.22210573
-0.010467497 0.7619633 0.28076562 0.18272229 0.06433787 0.38550165 0.3430218 0.12906606
-0.23267181 -0.5613735 0.20852757 -0.3886305 0.037790276 -0.12111017 0.22569501 -0.39009866
-0.17285055 -0.5478243 0.0008095932 -0.3139537 0.03474793 -0.37831095 -0.019610386 -0.31804603

fc1.bias f4 [256]
00000000: dbc6 bf3d eb37 fa3c 2542 26be 2a80 ecbd
00000010: f203 f6bc 829e 7d3e eefa 8dbe e830 a83e
00000020: 8844 71be e5bc 273e 44f2 8ebe 7b73 29be
00000030: fafc 873d c570 003e 8d1f a7be a87f 37be
00000040: 5a11 a43b 5e0f 6fbe 63fc 87be 14f3 92bd
00000050: 0579 05be acaa 52be 5d06 dbbc ef77 02be
00000060: 61ff a83e 6a8d 2bbe 9c4f 8c3b 90d8 643e
00000070: e133 71be 2e03 6cbe c6a2 bcbe d07a bcbd
00000080: a488 8dbd f013 4fbd 558d 753e 6b0a edbe
00000090: 64e5 12be 36d2 29be 490a a7be 3eda fcbd
000000a0: 758e fdbd 74df 32bc 8795 523e 5de8 2fbe
000000b0: 59e5 7bbe 9f6e 2dbe 95fa 63be 3a73 e63d
000000c0: a1e5 563d 94b2 19be ddb6 7d3b ccf6 29be
000000d0: cccc 78be b45d 8b3e c7d9 61be 2dde edbc
000000e0: d7c7 f63d 4cf6 0b3e 5a4e 723e c741 46be
000000f0: 14d8 3a3e 171f 07be 355f 0a3e bb0b 92bd
00000100: 596d c33e c3d4 17be e997 16be 479c 0bbd
00000110: e8eb a4be bbef 55be e0a0 e13c d140 b5bd
00000120: 0743 22be 692f c33d 1151 a2bd 0914 2c3e
00000130: 10c0 643d 2790 39bd ed99 8cbe adf9 5bbe
00000140: 523a 093d af3b 21be daa6 9e3e decd 9bbe
00000150: 6479 7abc 4700 68be 2de4 53be 1db0 203d
00000160: 3329 323e f1e7 483d bbf3 01bc 6735 24be
00000170: 07bb 9fbd 2064 53be 106b 18be 15b2 3b3d
00000180: 3a0d a1bc d275 3abe b8fe e33c 3b4b ac3e
00000190: d8cd e1bd c667 e5be 05ae 373d 3a49 80bd
000001a0: 818b 413e fddd 5abe fd02 40be da58 bcbe
000001b0: dfb8 44bc 85db 8abe 6a7d 70be cd39 b1bd
000001c0: 36ea ccbd c71b 09be f14f 66be 723f 5c3d
000001d0: 9e30 dfbd 8178 aabd 9f1f 37be 552c 75be
000001e0: d65b cfbd 7325 82be 0595 9dbe ee8e 46be
000001f0: 6755 4fbe adc4 13bd 876e 13be 5648 3abc
00000200: 083b b43a e12b b73d f6c2 31be bdda e4be
00000210: 90b5 79be 1412 0ebe cf71 093d bd67 60bd
00000220: 25b8 353d 7233 28be fac8 66bd 9655 8dbe
00000230: 4dfe cfbd 819c 96bd d112 36be d15b ba3d
00000240: 4065 d63d c51e 58be 6ee2 493d eec9 a53d
00000250: 5adb 7e3c 6e92 5e3d 94d5 103d 87c9 49bd
00000260: 3c3c 94be 5db8 01be fe14 9fbc fd24 79be
00000270: f433 3e3e 86de 473e 7da7 563e 7c6d db3d
00000280: 8cde 87bd fb93 0fbe 75e7 80be 6135 46be
00000290: 1670 52be ff8b 033e 67da 6fbe e9d4 75bd
000002a0: 897f 5dbb f698 993d db79 0abe c039 5fbc
000002b0: 3ef9 093e 46f1 04be b360 1ebe 4df4 0cbe
000002c0: 1b0e 59bc 9846 d5be fc1a adbc c34f 07bc
000002d0: fbb8 1dbe eb65 fe3c 6b39 c2bd 8a21 80be
000002e0: 7fe9 3ebe 9203 7a3b d303 7a3c 127a a43e
000002f0: ecec bcbc 597a 49be 3629 8b3e ec4c b13e
00000300: 8788 893e e898 073d 2aea 69bd bd4e 673e
00000310: 36e0 59be 4ffd 68be c522 febd 9e59 a4be
00000320: 9cad 22bd c89a b0be b7b0 55be bbfb 7abe
00000330: 6e4a 3ebd 5ef5 c23d dd01 95bd f446 a2be
00000340: e080 933e 76cb 6f3e 8712 fcbd 1d1e bbbe
00000350: 7017 7e3e 7070 7cbd 5a33 783e 28ad 9c3e
00000360: 2ecf 80be 04d5 f83c 111f ce3c 618e 38be
00000370: 3297 c53d 8a71 10be 9025 b1be 1581 c33d
00000380: e32e c03d 0858 14be 3672 733d 29f5 20be
00000390: 5618 a43e f58d ff3c 894c 863d b619 19bd
000003a0: c149 78be b0cc b4be daf8 21be af26 ab3d
000003b0: 5e4f 2ebe 4eba 113e 674f 883e a2dd 77be
000003c0: 3726 143e 41fa e23d 3d0c a0bd 8593 22be
000003d0: 6e06 a73d 2bd9 30be 5ebf 103d 30af 03be
000003e0: 1467 9cbc c60c 9ebc 0383 6abe b702 2d3e
000003f0: c56a 21be bc59 c5be ec44 14be 5f3b 1bbe
0.093641005 0.030544242 -0.1623617 -0.11547883 -0.030031178 0.24767497 -0.27730507 0.32849813
-0.23561299 0.16380651 -0.2791921 -0.16547959 0.06640048 0.12543018 -0.3264126 -0.1791979
0.0050069513 -0.23345706 -0.26559743 -0.0717527 -0.13034447 -0.20572919 -0.026736433 -0.12741064
0.3300734 -0.16753164 0.004281951 0.22348237 -0.23554946 -0.23048088 -0.36842936 -0.09203112
-0.06910828 -0.050556123 0.23979695 -0.4629701 -0.14345318 -0.16584095 -0.32625034 -0.12346314
-0.12380687 -0.010917533 0.20564853 -0.17178483 -0.24599208 -0.1693673 -0.22263558 0.112524465
0.052465085 -0.15009528 0.0038713731 -0.16598052 -0.24296874 0.27219927 -0.22055732 -0.029036606
0.12049835 0.13668174 0.23662701 -0.1936103 0.1824649 -0.13195454 0.13512881 -0.07131144
0.38169363 -0.14827256 -0.14706387 -0.034084585 -0.32211232 -0.20892231 0.027542531 -0.088502534
-0.15845881 0.09530527 -0.079256184 0.16804518 0.055847228 -0.04530349 -0.27461186 -0.21481963
0.033502884 -0.15745424 0.30986673 -0.30430502 -0.015287731 -0.22656356 -0.20692511 0.039230455
0.17398529 0.04904932 -0.007931645 -0.16035996 -0.077993445 -0.20643663 -0.14884591 0.04582413
-0.019659627 -0.18209007 0.02783142 0.33651146 -0.1102559 -0.44805735 0.044843692 -0.06263967
0.18900873 -0.21373744 -0.1875114 -0.36786538 -0.012006967 -0.27120605 -0.23485342 -0.08653603
-0.1000561 -0.13389502 -0.22491433 0.053771444 -0.10897945 -0.083237655 -0.17883156 -0.23942693
-0.10124938 -0.25419196 -0.30777755 -0.19390461 -0.20247422 -0.036076237 -0.14397632 -0.011369785
0.0013750503 0.08943916 -0.17359528 -0.44698134 -0.24385667 -0.13874084 0.033555802 -0.054786433
0.044365067 -0.16425875 -0.05634401 -0.2760436 -0.10155926 -0.073540695 -0.17780615 0.09099544
0.10468531 -0.21105488 0.049288206 0.08095156 0.015555227 0.054338865 0.035359934 -0.049264457
-0.28952205 -0.12667985 -0.01941919 -0.24330516 0.18574506 0.1951848 0.20962329 0.10714242
-0.06634244 -0.14021294 -0.25176588 -0.193563 -0.2055057 0.12846373 -0.23423158 -0.0600175
-0.003379794 0.07499878 -0.13523047 -0.0136246085 0.13473985 -0.12982664 -0.15466575 -0.13765068
-0.013247992 -0.4165542 -0.021131031 -0.008258763 -0.15402596 0.031054458 -0.09483608 -0.25025588
-0.18643759 0.00381491 0.015259701 0.32124382 -0.023062192 -0.19675578 0.2717988 0.34629
0.26861975 0.033104807 -0.057108082 0.2258863 -0.21276936 -0.2275288 -0.124089755 -0.32099622
-0.039716348 -0.3449309 -0.20868193 -0.2451009 -0.0464577 0.09519456 -0.07275746 -0.31694758
0.2880926 0.23417458 -0.12308221 -0.36546412 0.24813628 -0.061630666 0.24238339 0.30600858
-0.25158066 0.030375011 0.025161298 -0.18023063 0.09647979 -0.14105812 -0.3459897 0.09546105
0.09383943 -0.14486706 0.059435092 -0.15718521 0.32049817 0.03119562 0.06557567 -0.037378035
-0.24246885 -0.35312414 -0.15817586 0.08356988 -0.17022464 0.14231226 0.2662308 -0.2420564
0.14467703 0.110828884 -0.07814834 -0.15876587 0.08155523 -0.17270343 0.035338752 -0.12859797
-0.01909212 -0.0192932 -0.2290154 0.16895567 -0.15763386 -0.38545024 -0.14479417 -0.15159367

fc2.weight f4 [128, 256]
00000000: ac9a 46be f8c2 153d 3e03 f83c 41ec 52bd
00000010: 05f3 38be 859c fabd a2d6 903c e706 fcbd
00000020: 8f6d 15bd 9311 51be 5384 653c 9df7 fbbd
00000030: 32fe 6bbd 6898 183c b9ec 7c3c 1697 dbbd
00000040: 58f6 0fbe 491d 48bd df53 b7bd 23cb 8fbd
00000050: ac02 38be 553a 233d 96d6 1fbd 0720 c63d
00000060: 5d51 25be be04 6b3b bb3c 95bd 5478 d7bb
00000070: 5a3b e8bd 17f6 cfbd 9157 c9b9 5aec 38bd
00000080: dbc4 583d 2e23 a7bc ae16 06be d484 a7bd
00000090: e1a2 b4bd 671f e3bd 1ac6 c43c a1f0 b7bd
000000a0: 6055 38be 043b 51bc ab8e 0cbe fefc 8abd
000000b0: b808 0dbe bfb0 0fbe e6bc 04be 38c6 7bbd
000000c0: a939 ffbd 1cf1 b0bd aa16 903d 796d 9ebd
000000d0: 4c4f a33b 8513 9abd fce0 d5bd 5f05 3cbd
000000e0: c715 c3bd 9156 0c3d 6b7f 313b b4b5 053d
000000f0: d2ad c73d 3893 83bd 3609 83bd baba 85bb
00000100: 5763 14be 1cd3 5a3d 5d0e 253c 1038 05be
00000110: 08d2 0bbe 69cc 8dbd e083 d03c 48f6 a7bd
00000120: a09d b33b 2a68 d33d 8692 6bbd e816 ddbd
00000130: 37a2 a5bd e119 f0bd c88c babd 5208 2bbe
00000140: 28bf 87bd f302 abbd 5103 8fbd bb30 9cbd
00000150: 6338 31be 0df2 153e 08de c63c 50fd 36bb
00000160: e690 13be 5809 31bc a5c4 12be 7543 b7bd
00000170: 998d 873c 506c 15be 75a3 d83c 6181 313d
00000180: b5ef c1bd f12c 9b3c 8cd7 fcbc 0801 a53d
00000190: 882d 253d 2a31 713c 52d1 4bbd 5322 99bd
000001a0: 027b 10be 93d9 4b3d d5d1 9dbd 1af0 fbbd
000001b0: c3e9 60bd f45f c0bd 1d39 a63c 1dcb 453d
000001c0: 3a4a a7bd 5413 bfbd 2128 15bd 1760 9b3d
000001d0: dd2c 3cbe 6e86 63bd 298b 9cbd e225 4d3d
000001e0: 753c 3e3d 6cfb b5bd 585c 9bbe 573d d0bd
000001f0: 151f 323d a5ea c53c 1679 263d c222 94bc
00000200: a5c2 b7bd 4b6d dbbd b336 803b 88c8 2dbe
00000210: 6fe3 b9bd 8f5d 3d3d 91a7 a23d bd80 40be
00000220: 7020 14be c577 4b3b fccd 7f3c eb3e a1bd
00000230: ecd6 093d a7b9 f23d 354d 7b3d 0dc1 d0bd
00000240: e041 ac3b 49ce 0abd 4ca1 08be d7b1 cc3c
00000250: d38d 833d 1b2c aebc 555d 6cbd be60 213d
00000260: eb00 043d b86a 6dbd c589 87bd bbc9 413e
00000270: 322e 82bd 65a7 36be 6eba 07be 8dcb 563d
00000280: e203 6abd 99ff eebd e94b fcbd 1da3 1bbe
00000290: 3b2f 40bd 02d5 58bd 9f05 113c 820a 28bd
000002a0: 4769 fabd a3bd 273c 4648 60bd 63c1 2fbe
000002b0: 42c6 443d f421 f6bd cbc8 52bd 79fd 0dbe
000002c0: 09ea 59bd 0955 18be a905 34be 8edd 9dbd
000002d0: 9598 adbb 2352 2b3e 6127 3c3e b176 89bc
000002e0: 7a32 143c 5b73 413d 25d6 1e3d 6774 d9bd
000002f0: a088 b5bd c880 32bc 2ea2 093d 95a1 21be
00000300: 38b9 2dbe 08c3 723d aa52 28bd 48b3 0fbe
00000310: 7960 0fbd 6f2e 4c3d 4e3a 943b dc94 bfbd
00000320: 4039 393b c3d1 c2bd da76 1b3d c3ff fd3d
00000330: e7e2 463d 0475 92bd 2c77 07be bcd3 9f3d
00000340: a809 2abe e05a 0c3b 1f77 0a3d c16f a0bc
00000350: 3654 22be 78f1 cc3c 571d e9bc f3bd cf3c
00000360: 413f 153d 4834 38be 6d24 42bc f8cb 00be
00000370: 68e8 7dbc 1d56 8f3c 9367 893d 035c 25be
00000380: 7ae9 043d eefa 79bd faf3 c3bc 79cb 85bc
00000390: a1e4 35bd ef6f 25be d55e 78bd e273 483c
000003a0: 6143 fabd f6a0 a73d c061 993c d793 e0bd
000003b0: b322 943b c291 76bd 6f48 bfbd 1129 dcbd
000003c0: 7e6a d1bd 5d85 38be e858 34bd a365 983c
000003d0: ac57 9bbd 2631 1abe 5761 353e ca97 473c
000003e0: d790 8d3d 4678 89bd 1d7d 78bd d076 2d3b
000003f0: abb7 0ebc b166 173d e133 20bd 0f01 983d
-0.1939494 0.03656289 0.030274983 -0.05149484 -0.18061455 -0.12236885 0.01768047 -0.12306004
-0.036481436 -0.2041686 0.014008599 -0.12303088 -0.057615466 0.00931368 0.015437298 -0.10722177
-0.14058816 -0.048856054 -0.08951544 -0.07021167 -0.17969769 0.03985055 -0.039023004 0.096740775
-0.16144319 0.003586098 -0.07286974 -0.0065756235 -0.113394454 -0.1015436 -0.0003840295 -0.045147277
0.05292211 -0.020402517 -0.13094589 -0.08179632 -0.08820129 -0.11089974 0.024020243 -0.08981443
-0.18001318 -0.012770418 -0.13726299 -0.06786536 -0.13772857 -0.14032267 -0.12962684 -0.061468333
-0.1246217 -0.08639738 0.07035573 -0.07735724 0.004983818 -0.07523254 -0.10443303 -0.04590356
-0.09525638 0.034262244 0.0027084004 0.03264399 0.097499505 -0.06424564 -0.06398241 -0.0040810974
-0.1449102 0.053423986 0.010074225 -0.13009667 -0.1365434 -0.06923754 0.025453508 -0.08201271
0.005481437 0.10322602 -0.057512783 -0.10795385 -0.08087581 -0.11723686 -0.09108883 -0.16702393
-0.06628257 -0.08350172 -0.069830544 -0.07626482 -0.17306666 0.14643116 0.024275795 -0.0027921982
-0.14410743 -0.01080545 -0.14332826 -0.08948413 0.016547011 -0.14592099 0.02644513 0.043336276
-0.094695486 0.018942328 -0.0308645 0.08056837 0.040326625 0.014721194 -0.04976017 -0.0747725
-0.14109424 0.04976804 -0.07706038 -0.12301655 -0.054910433 -0.093933016 0.020290906 0.048289407
-0.081684545 -0.093298584 -0.036415223 0.07586687 -0.18376489 -0.055548124 -0.0764373 0.050084956
0.046444375 -0.088858455 -0.3034389 -0.1016795 0.043486673 0.024159739 0.04064282 -0.01808298
-0.089726724 -0.10714205 0.0039127707 -0.16971028 -0.09076583 0.046231803 0.07942117 -0.1879911
-0.14465499 0.003104673 0.015613075 -0.07873329 0.03365223 0.118518166 0.061352927 -0.101930715
0.0052568763 -0.033888135 -0.1334278 0.024987144 0.06423535 -0.021261266 -0.057706196 0.0393989
0.032227438 -0.057963103 -0.06618074 0.1892461 -0.06356467 -0.17837293 -0.13254711 0.052440215
-0.05713261 -0.11669845 -0.12319166 -0.15198942 -0.046920042 -0.052937515 0.008851438 -0.041025646
-0.12227111 0.010238084 -0.054756425 -0.17163615 0.048040636 -0.12018195 -0.051461022 -0.13866223
-0.05320171 -0.14876188 -0.17580284 -0.07708274 -0.00529773 0.16730551 0.18374397 -0.01678023
0.009045238 0.047229152 0.038778443 -0.10617905 -0.0886395 -0.010894962 0.033601932 -0.15784295
-0.16965187 0.059268028 -0.04109446 -0.14033234 -0.035004113 0.04984897 0.004523552 -0.093545645
0.0028262883 -0.09512665 0.037955143 0.12402298 0.048556235 -0.07151225 -0.13229054 0.07804057
-0.16605246 0.002141647 0.03380501 -0.019584538 -0.15852436 0.025017485 -0.028456373 0.02535913
0.036437277 -0.17988694 -0.011849505 -0.12577808 -0.0154973045 0.017497117 0.06709208 -0.16148381
0.032449223 -0.06103032 -0.023920048 -0.016332375 -0.04440749 -0.1615598 -0.060637314 0.01223466
-0.12219883 0.08184998 0.018723369 -0.10965698 0.004520738 -0.0601976 -0.093399875 -0.1075002
-0.1022539 -0.18019624 -0.0440301 0.018603152 -0.075850815 -0.15057811 0.17712913 0.012182185
0.06912392 -0.067123935 -0.060666192 0.0026468523 -0.008710782 0.03696317 -0.039111976 0.07422077

fc2.bias f4 [128]
00000000: ffcd 3cbe a816 f4be 59e4 40be 8fc5 aebd
00000010: 160f 6a3e f2fa 32be bc0d 91be 0550 9bbe
00000020: b467 0fbe c688 cebc f5e7 14be 4b94 a93d
00000030: b8fd cebd 1388 64bd 565d b0bd 3c19 4cbe
00000040: 65f0 933e c911 f6bd 3018 a6bd 6c24 d7bd
00000050: 249a 5f3d 4680 40be cceb b8be 1b12 ecbd
00000060: f30c 123d 8816 54be c330 b43e e6c2 2bbe
00000070: 95b6 3abd f257 ecbd d861 9fbe 423b f1bd
00000080: 490e b1be 5293 dfbd b400 91bd 8047 c9be
00000090: aea6 6abe b71c 24be 02ac 2a3e 7485 9dbd
000000a0: 76f8 52be 537e 25be 3f21 debd 0222 42be
000000b0: 9960 c43d 73a5 17be b1af d3be 6b3f a5be
000000c0: 1117 c4bd 9998 4cbe 6475 e33d cedd 49be
000000d0: bfde 56be b21b 14be 229d 6ebe 9cb6 c8be
000000e0: e69c 9fbe baa9 78be 36cd 89bd e705 6bbe
000000f0: ee1b 51bd 1ce2 bd3e 6a88 2f3e 54ab b5bd
00000100: 494f cbbd 745e db3a 256c cfbd 2183 22be
00000110: f3d2 bf3c 40ac adbe 1845 b9bd df90 53bd
00000120: ad54 dbbd 560d 74be 4ae3 87bd 3c97 9fbe
00000130: 4355 41be 7968 c7be 10e8 fabd 0c72 98be
00000140: 7dca 32be 24dd d93d 8929 2dbe f912 a0bd
00000150: 9146 1fbe 8163 91be 30a6 b6be 8d0f 07be
00000160: 5412 21bd 131f 75be 3de5 c33c 7568 17be
00000170: ec04 3abe aeb2 b63e c7c1 98be 8ff5 eabd
00000180: d3ed c33e 9e4a 8bbd 07c2 4cbe 5919 9dbe
00000190: 9274 3ebe d871 b2be 34ad f3bd e6da 0fbe
000001a0: e90f bfbe 7e72 59be b1a5 a83e 548f 38be
000001b0: 44f0 90bd 19a8 34be d973 93bd c472 42be
000001c0: 0e9c 23be 375d a83b 360b 8d3e f90f 97be
000001d0: f6e1 81be 6cdd b5be 98c5 1dbe bb16 8ebe
000001e0: bd4c 8ebe 87d4 66be 31a3 5ebe c717 4fbe
000001f0: 8364 97bd d056 2abe 2d93 713e 53af 87be
-0.18437956 -0.47673535 -0.18837108 -0.08533775 0.22857317 -0.1747854 -0.2833079 -0.30334488
-0.14004403 -0.025211703 -0.1454161 0.08280238 -0.10106987 -0.055793833 -0.086115524 -0.19931501
0.28894344 -0.12015111 -0.08110082 -0.10504994 0.05459036 -0.18798932 -0.361174 -0.11526891
0.03565688 -0.2071172 0.35193452 -0.16773567 -0.04558428 -0.11540212 -0.31129336 -0.11778881
-0.3458121 -0.10916771 -0.07080212 -0.39312363 -0.22915146 -0.16026579 0.16667178 -0.0769147
-0.20602593 -0.1616147 -0.10846185 -0.18958285 0.09588737 -0.14809208 -0.4134498 -0.32274947
-0.09574712 -0.19980086 0.11106375 -0.19713518 -0.20983408 -0.1446369 -0.23302129 -0.3920182
-0.31174392 -0.24283496 -0.06728594 -0.2295147 -0.051052026 0.3708657 0.17141882 -0.08870569
-0.09927232 0.0016736523 -0.10128049 -0.15870334 0.023416018 -0.3392048 -0.09046382 -0.05165183
-0.1070951 -0.23833212 -0.06635149 -0.3117007 -0.18880181 -0.38946894 -0.12251294 -0.2977451
-0.17460056 0.10637882 -0.16910376 -0.07816119 -0.15554263 -0.28396228 -0.35673666 -0.13189526
-0.03932412 -0.23937635 0.02391302 -0.14785941 -0.1816594 0.35683197 -0.2983534 -0.11472618
0.38267383 -0.068013415 -0.1999589 -0.306834 -0.18599156 -0.3485248 -0.1189827 -0.14048347
-0.37316826 -0.21235082 0.32938913 -0.18023425 -0.07077077 -0.17642249 -0.071998306 -0.18989092
-0.15977499 0.005138065 0.27547616 -0.29504374 -0.25367707 -0.35520494 -0.15407407 -0.27751717
-0.27792922 -0.2254201 -0.2174194 -0.20223914 -0.07392218 -0.16634679 0.235913 -0.2650095

fc3.weight f4 [2, 128]
00000000: dc27 1c3d ad7c b1bd 985f 15bd f09f 44bc
00000010: 00f5 d43e eadf 03be bbbe 2cbf 34ee 13bf
00000020: efb3 34be 3220 a8bd 3d74 7dbd 893d a93b
00000030: 161d 35bc abb0 02be c973 b3be c194 263b
00000040: d10a 2e3f a916 a9be 9c73 8fbe e29f 37be
00000050: 33ea 6a3e 6c5e 88be 1fcf 92be f832 263d
00000060: b91a 813c 8240 25bd bfc0 9c3e 491d 0f3b
00000070: c770 1bbd ac0f 4fbe c6b7 ebbd 9669 183e
00000080: c438 69be a28e a0be 8c7b 26bc 003b 5abe
00000090: c37b f1bd b428 cdbd 5138 d2bd e4cb d6bc
000000a0: 405e a3bc d9cb ccbb 28ba 9abe fb9d aebd
000000b0: df28 8b3d 2661 dfba 20a2 73bd b171 02be
000000c0: 03ae 1cbd bc5c 51bc 56d6 30bc 31c5 26be
000000d0: c72b 88bc 4e11 c9bd f67c cabd a1d5 4bbe
000000e0: 24a9 bcbd 4da2 6f3b 6935 14bc 7665 58bd
000000f0: 5e14 d2bd 7581 fe3e 037c 653e 513e 503e
00000100: 68fb 27be 7f9d 37bb 7251 0fbe dbc5 51bd
00000110: 85be 40bd bd58 a5bd c0fd b5bd 298a 87be
00000120: 64e8 8bbc ce9d ddbe 268e 263c f95c 13bd
00000130: 6a71 f7bd 2911 9abe 5320 48bc 9aa7 47bd
00000140: f4c1 153c 77cb 3abc 2d2a a73b 6237 3ebc
00000150: 6c6f b9b9 b5b2 97be 9550 52bd 8358 0dbe
00000160: 4492 cbbc cdbb 99bd c23c 73bc 6d73 b43c
00000170: 7898 9f3c 2aa3 1d3f 6fcc 07be 605e 78be
00000180: 4833 433f ebed a23c 4093 52be 6a55 21be
00000190: 67e2 d9bc 1019 7bbd de29 913d 4958 75be
000001a0: 46bf 1dbd 1df7 84bc 8aef 0a3f 3ac2 e8bd
000001b0: 9172 78bd 7a97 d53c fcec 35bc 3229 e43c
000001c0: 3ea8 98bd f878 23bd 6feb 153f 1092 9cbd
000001d0: 942a 98be dab1 03be 9960 18bc 6f94 a0bc
000001e0: 593f 3bbf f7f1 f3bd 5222 46bd 2707 933c
000001f0: 5f2c 853b c950 1a3d 2c4c 203f 46a5 05bd
00000200: f45c e63c c560 32bc 5f28 1d3f 9937 2bbc
00000210: 3818 21be 747e 5bbe c11f a93e 9f78 9a3d
00000220: 9673 983e 8ee8 11bc 624a 083e 798a 263f
00000230: e0ca 40bd 6e3f 953e 87ae 27bf 6d8a 173c
00000240: 2a0a 903d 39a7 a3be ce83 6cbd f37a c23c
00000250: e055 86be cbc8 88bd 302f 9abe 3457 60be
00000260: addb 0fbf a27c be3a 94b6 1f3e 86e4 76bb
00000270: d241 de3e 207a 943e c25c 9d3e dd94 17bc
00000280: 9e0d 9b3e 8ac4 233b d440 9a3b a88a bfbd
00000290: f1b0 193e acc4 983e 5cd7 403f d51d 5d3c
000002a0: 027b 153d e256 8c3d 2757 d0be ea91 97bb
000002b0: f42c d4be 33ed 9fbb 354d dfbb 62cc 7abc
000002c0: a103 563e d7c7 5fbc f78e 293f 43e5 c43e
000002d0: 9d14 dd3d 5eb9 b0bc 72bc ebbe 3c1a fb3d
000002e0: 7377 5a3e 9a1d 1b3e 004c b53b 9583 ec3e
000002f0: 6e79 9a3e b447 623d c803 55bd 0f02 e8bd
00000300: 9e05 b83c ed92 7cba 1674 82be 4f42 a33e
00000310: 584a 9d3e 980c 8d3e fd24 073f 141f 02bf
00000320: e4b3 e2bc 8f97 783d 71a8 033b 82b1 943e
00000330: 61a7 b33e 6d49 5f3e b444 01bd d280 ddbe
00000340: 7ddd 0dbe 63b1 e93e 0566 843d b130 d73e
00000350: 6c76 a13c cf24 55bd 1103 c43e e22a be3e
00000360: 270f dd3c 33e6 9f3e bc63 6cbb 072a 64bd
00000370: 6813 993c a2ac 1d3d 9b89 7d3c 81fa bfbd
00000380: e56e 993d 8017 1f3c ee2d 49bd fa7d dabc
00000390: b8e0 8abd 5c9b 7dbc b33c bf3a f3e7 83be
000003a0: 08c8 90be 01a2 683d 19e0 10bb 3d03 a93e
000003b0: b5ab a33e 1c58 d1bc 3e53 7f3c a963 923e
000003c0: 562c a13e a5df d93d f088 8f3d a0be a1be
000003d0: aa29 9abd fa2c 1b3e 2cef 963d 6e4d ce3d
000003e0: 45ac 7ebe 6a14 0e3e 22c3 0d3d 4279 363d
000003f0: 96fc 8bbd e698 9d3c 1d3e 143d 9cf0 2e3e
0.03812395 -0.08666358 -0.03646812 -0.012001023 0.4159317 -0.12878385 -0.6747853 -0.57785344
-0.17646764 -0.08209266 -0.06187843 0.0051648063 -0.011054298 -0.12762706 -0.35049275 0.0025418254
0.67985255 -0.330251 -0.2801789 -0.17932084 0.22940902 -0.26634538 -0.28673646 0.04057595
0.015759813 -0.040344723 0.30615804 0.0021837524 -0.03794935 -0.20220822 -0.115096614 0.14884028
-0.2277556 -0.3135882 -0.010161292 -0.21311569 -0.11791184 -0.10017529 -0.10264648 -0.02622027
-0.019942403 -0.0062498865 -0.3022015 -0.08526226 0.06794905 -0.0017042502 -0.059480786 -0.12738682
-0.038251888 -0.012778457 -0.010793289 -0.1628616 -0.016622437 -0.09817754 -0.09887116 -0.19905712
-0.092119485 0.0036565245 -0.009045937 -0.052831136 -0.10257791 0.49708143 0.22410588 0.20336272
-0.16404498 -0.002801746 -0.13995913 -0.05121408 -0.047056694 -0.08073566 -0.088862896 -0.26472595
-0.017078586 -0.43284458 0.010165727 -0.035977338 -0.12082179 -0.30091217 -0.012214738 -0.04874382
0.00914048 -0.011401049 0.0051014633 -0.011609884 -0.00035368965 -0.2962853 -0.05134638 -0.13803296
-0.024850018 -0.07506523 -0.014846029 0.022027696 0.019481882 0.61577094 -0.13261579 -0.24254751
0.76250124 0.019888839 -0.20563984 -0.15755239 -0.026597215 -0.0613032 0.07088064 -0.2395946
-0.03851249 -0.016231114 0.5427176 -0.11365171 -0.060656134 0.026073206 -0.011103865 0.027851675
-0.07453965 -0.039910287 0.5856237 -0.07645047 -0.29719985 -0.12860814 -0.009300374 -0.019602029
-0.73143536 -0.119113855 -0.048372574 0.017947746 0.0040641273 0.0376747 0.6261623 -0.03262832
0.028120495 -0.0108873295 0.61389726 -0.010450267 -0.15731895 -0.21434957 0.3303204 0.07542538
0.29775685 -0.008905543 0.13309625 0.6505504 -0.047068477 0.29149956 -0.6550068 0.009249312
0.07033189 -0.31963518 -0.057742886 0.023740267 -0.26237392 -0.06678923 -0.30114126 -0.21908265
-0.56194574 0.0014532993 0.15596992 -0.0037672832 0.43409592 0.28999424 0.3073483 -0.0092518
0.30283827 0.0024988973 0.004707435 -0.093526185 0.15008904 0.2983755 0.7532861 0.013495882
0.036494263 0.06852509 -0.40691492 -0.0046255486 -0.41440547 -0.0048805713 -0.0068146237 -0.015307518
0.20899822 -0.013658485 0.6623377 0.38456163 0.10794947 -0.021572765 -0.4604221 0.12260863
0.21334629 0.15148011 0.0055327415 0.4619414 0.30170768 0.055244163 -0.05200556 -0.11328518
0.022463616 -0.0009634931 -0.25479192 0.31886527 0.30720782 0.2754867 0.52790815 -0.5082867
-0.02767367 0.060691413 0.0020089413 0.29041678 0.35088637 0.21805353 -0.03155966 -0.43262345
-0.13854022 0.45643148 0.06464771 0.42029336 0.019709788 -0.052037057 0.3828359 0.37142092
0.026984764 0.31230316 -0.0036070189 -0.055704143 0.018686011 0.038494714 0.015474702 -0.09373952
0.074918546 0.009710193 -0.049116068 -0.026671398 -0.06781143 -0.015478935 0.0014590233 -0.257629
-0.28277612 0.056795124 -0.002210623 0.33010283 0.3196694 -0.02555471 0.015583811 0.2859166
0.31479138 0.1063836 0.07008541 -0.31590748 -0.07527478 0.15153876 0.07369837 0.10073362
-0.24870403 0.13874975 0.03460992 0.044549234 -0.06835286 0.019237947 0.03619205 0.17083973

fc3.bias f4 [2]
00000000: 2da9 4f3e 2573 373c
0.20279379 0.011196886
