results/results_1/agent1_critic.pth (torch, 185643 bytes, 5 tensors)

fcs1.weight f4 [256, 48]
00000000: 5791 453e 8820 dcbd d5b7 d8bc 50aa bfbd
00000010: c440 943d 8fbf 81bd c535 c1bc f04f 02bd
00000020: 9038 223e e6bd d1bd f7fb 4a3c b1cb ec3c
00000030: da18 e0bc fe7e f3bd 8bfa 883b e6be 0a3e
00000040: 21b0 3e3e 0d55 84bd bde5 923c 742b b13e
00000050: 2c95 36bd e769 48be ced1 393b 149e c93e
00000060: ab1e 293d dd43 ae3e 4bac a7bc 1ca5 ba3d
00000070: 62a4 0dbc a533 47bd 1b78 f43c 06b3 8c3d
00000080: 698a 343e 43de d83e 803c 3837 cb85 b23c
00000090: 6003 a4bb 65b5 28bd 934a 6cbc 0d14 94bd
000000a0: 6819 143e db07 e13e b2c7 16b9 b9d9 493d
000000b0: 8d6e 543c 93e1 5ebe d5af c7bc 4535 9d3d
000000c0: 8dcb 433d b2e9 853e bd92 333c 71c1 9cbd
000000d0: 13f2 1e3e fa8c 32bd 64e7 6fbb 47d9 2cbd
000000e0: ed1f 9a3c abc9 f53d ea70 95bc 56e6 2fbd
000000f0: 3fab 473d efac c3bc b760 073d be07 02be
00000100: 70d6 d0bc 2b80 a4bd b94f 2bbd 581c acbd
00000110: 5c95 bd3d f22a cdbd a529 48bc c9bd 8dbc
00000120: 760e fa3d ed5a 25bd bc03 22bd 2ece e23d
00000130: 1f3d c9bd 72e3 3fbd 203a 933c e865 323d
00000140: 5fbe 0e3e f8a6 32be e6ee 0e3d bfec 933d
00000150: 1fa8 28bd ee27 f3ba 66e2 0d3d 55ca ea3d
00000160: 3051 2bbd 4777 3abe d2c8 163d 972d 81bd
00000170: a8a9 10be 5716 89bd 5b93 dc3c c024 6abb
00000180: d699 f2bd 7cac f0be e41d 803c 157a c2bc
00000190: 1a0b dc3d 5e5b c13d c488 6fbb 1bb3 f83c
000001a0: 928f 4ebd 394b afbe 4f0f 1bbd 8275 6cbd
000001b0: 412e fe3c b429 9ebd 94d4 0bbb dd57 943b
000001c0: e149 0cbd 3545 b2be 87cc d2bb d899 1b3e
000001d0: 953c 95bd 87f8 24be dc63 b73d ac2e 2d3e
000001e0: 7ecc 1b3e 1d75 9d3e 275e ccbb 061f 273d
000001f0: 0965 babd 0e73 d03d 5f9e 943b b7f6 a63c
00000200: d813 8c3e fb37 ca3e e2c0 bbbd edd0 ec3c
00000210: 10c0 71bc 7c7d afbd d63e 3ebc 22bb 1e3d
00000220: 16ce cf3e 945d df3e acad 43bd 816f 17bd
00000230: dc20 af3b d1bb 1abe f2ba 54bd 2ebe 8fbd
00000240: 56b7 ba3d cc00 0abc fccc c23c 1f26 94bd
00000250: a54d e03d 5ca5 d1bd ea84 2cbc a226 2dbd
00000260: c2f3 033e f88c 943d a7a9 3bbd e669 4dbd
00000270: 24c4 8b3d a8cb 80bd 0467 9abb 95bb 633d
00000280: 0e24 bb3d 2914 913d d277 953c af2f a7bd
00000290: 7001 d5bc fcae b4bd ec88 49bd 0132 89bd
000002a0: bce8 173e a84b 073b 74ec 83bd 4494 54bd
000002b0: 0b82 edbb 7859 debd d684 9cbd cd0b df3b
000002c0: 9f7f 323e 8c8b 163d 2c30 6abd e3ae 1b3d
000002d0: 05c3 fdbc 45ed 0bbe 6604 bbbd d87c 8c3c
000002e0: f905 9b3d bbad b73c 179f 473b a929 9f3d
000002f0: 7780 9bbd 646e 95bd ac9e e7bc 12d2 973d
00000300: c0f3 0e3e ec57 173f 62fc 9a3c 806d 4a3e
00000310: 236d 9a3d a032 8d3c fd7c 913d 37d4 f53d
00000320: 1ded 753e f3fd 543f 6ac4 513d 95fb f03d
00000330: 1122 113d 8dbe b9bd 9a82 993d d25a dc3d
00000340: 7c6a 343e b2be 6b3f b2df 1d3c 2b82 8ebb
00000350: 62df 533d 2da1 9bbd 5e6b 263b 4e96 813d
00000360: f85c 053d 0b18 eebd 8325 fc3c cd3d 853e
00000370: fbb2 4fbd b76d 2bbd 582a 293d f50d 463e
00000380: 7f76 ea3c 1446 f9bc 38c4 ee3d 19df a53d
00000390: f84a 9fbd 5dee e5bd f8b8 de3d 8f1e b73d
000003a0: 257d 963d c09b a33c 09fa 723d 4871 ab3d
000003b0: c8e2 5bbd 355b 95bd 2ffc 163d 7a02 923d
000003c0: 5a4a be3d 2602 0dbe cdfa 7e3b af10 dbbd
000003d0: 0619 553d d503 c0bd f4b0 4dbd 7d29 89bd
000003e0: e494 853d a983 15be e6d0 41bc 6e01 f8bd
000003f0: 7b7c b3bc 56f6 c8bb ec9c 493b 09c3 c6bc
0.19293724 -0.10748392 -0.026454845 -0.093586564 0.072389156 -0.06335365 -0.02358521 -0.031814516
0.1584189 -0.102412984 0.012389175 0.028905721 -0.0273556 -0.11889456 0.0041802577 0.13549384
0.18621875 -0.06461535 0.017931813 0.34603465 -0.044575855 -0.19571649 0.0028353813 0.39378417
0.041289013 0.3403615 -0.020467898 0.09113523 -0.008645149 -0.048633236 0.029842427 0.068700835
0.17630924 0.42357072 1.0981341e-05 0.021792313 -0.005005285 -0.041188616 -0.014422077 -0.07230387
0.14462817 0.43951306 -0.00014379507 0.049279902 0.0129658105 -0.21765737 -0.024375835 0.07676176
0.047801543 0.26154858 0.010960278 -0.076540835 0.15522031 -0.043591477 -0.0036606425 -0.0421994
0.018814052 0.12001356 -0.018242318 -0.042944275 0.048747297 -0.023886172 0.03305122 -0.12698266
-0.025492877 -0.080322586 -0.041824076 -0.08403844 0.09257004 -0.10017957 -0.01221696 -0.01730241
0.122097895 -0.040369917 -0.039554343 0.11074482 -0.09826111 -0.046847768 0.017972052 0.043554217
0.13939808 -0.17446506 0.0348958 0.0722289 -0.041175958 -0.0018551329 0.03463974 0.11464373
-0.041825473 -0.18209563 0.03681261 -0.06307524 -0.14127219 -0.06693714 0.026925733 -0.003572747
-0.11845748 -0.47006595 0.015639253 -0.023739854 0.10744305 0.09441255 -0.0036550025 0.030358842
-0.050429888 -0.34237078 -0.037856396 -0.05772925 0.031027915 -0.07722798 -0.0021336423 0.0045270757
-0.034250144 -0.34818426 -0.006433073 0.15195405 -0.07286946 -0.1611043 0.089545935 0.16912335
0.15214726 0.30753413 -0.00623681 0.04080107 -0.09101302 0.10178195 0.004535481 0.020381315
0.2735889 0.39495835 -0.09167649 0.028908217 -0.014755264 -0.08568856 -0.011611661 0.038752683
0.4058692 0.43626082 -0.04777305 -0.036971573 0.0053444933 -0.15110709 -0.051936097 -0.07018696
0.09117 -0.008423042 0.023779385 -0.072338335 0.109523095 -0.10236618 -0.010529736 -0.04227317
0.12885955 0.0725345 -0.04581609 -0.05014982 0.0682452 -0.06288844 -0.0047119875 0.055598814
0.09137736 0.07083923 0.018245611 -0.08163392 -0.026001662 -0.08822438 -0.049202845 -0.066989906
0.14834875 0.002064446 -0.06441584 -0.05189921 -0.0072481683 -0.108569086 -0.07642524 0.0068068267
0.17431496 0.036754176 -0.057174847 0.03800858 -0.030976782 -0.1366473 -0.09131698 0.017149374
0.075694986 0.022421708 0.0030459815 0.07771618 -0.07592862 -0.07296446 -0.028273903 0.074131146
0.13960171 0.59118533 0.018919174 0.19768333 0.075403474 0.017236054 0.07103918 0.120033674
0.24016233 0.83199996 0.051212706 0.117667355 0.03543288 -0.09069548 0.074956134 0.1075951
0.17618746 0.9208785 0.009635853 -0.0043490133 0.051726706 -0.07599101 0.0025393586 0.063274965
0.032559365 -0.116256796 0.030779606 0.26023713 -0.0507078 -0.04185268 0.041300148 0.19341262
0.028620956 -0.030428924 0.116585195 0.08099193 -0.07777971 -0.11227105 0.10875124 0.089413755
0.07348088 0.019971728 0.059320483 0.08371216 -0.053683072 -0.07292787 0.036861595 0.071293786
0.09291525 -0.13770351 0.0038906813 -0.106965415 0.052025817 -0.09375731 -0.050217584 -0.066973664
0.06522539 -0.14601006 -0.01182959 -0.12109648 -0.021909943 -0.006132881 0.0030763699 -0.024262922

fcs1.bias f4 [256]
00000000: 6c38 ccbd 6ae7 963d 935b 9bbc 9f63 43be
00000010: 6c9b 73bd e22d 05bd 9ee3 49be 0f1c d93d
00000020: 78be 303d 2b72 35bd c7e9 3abe 8df7 efbb
00000030: 2fe3 613d 7916 2fbd c1b8 37be 856f 2cbe
00000040: c548 0ebe 8305 cebd 58fd 86be e404 fc3d
00000050: 8c1c a6bc 2a09 7dbe 0cc5 1c3d f154 2ebe
00000060: b984 f03c a1a6 09be 8ae6 eebc c1b3 1ebc
00000070: 43aa 54be bbfb 18be 1bb3 94be 126f f13d
00000080: a24a 113e be61 f83c eeb6 7e3d d832 7bbe
00000090: 2fa4 12be 2c75 5abd 67d4 95be 9bf2 04be
000000a0: cc9a 47bd 517b 0cbe 305f ffbd 9942 48bd
000000b0: 7860 49bd 41f6 20be 407b c5bd 4f2b 0b3c
000000c0: 1970 153d 5afc 01bd e954 30be eae7 e1bd
000000d0: 91fd 383b d630 4ebd a31c 7cbd fda4 0dbd
000000e0: 8ba6 c0bd 773d b9bd 764b 8abd 3d8c a6bd
000000f0: 608f 1ebd ea67 80bc 4e62 debb 18e5 d73d
00000100: 7663 38bd 748c 8abd e9bc 6bbe 7224 1cbe
00000110: 3e01 7cbe 1098 20be 9827 3c3c 0f5e 1bbe
00000120: 1b37 25be d15c c53d 970d 94bc ecf2 8aba
00000130: 169e 1abe f195 0bbd f057 26be 2fe4 6dbe
00000140: d834 45bd 7d22 27bd 827e a23c 7d99 86bd
00000150: f694 db3c 6dde 6dbe efc5 6ebe 73a3 d63d
00000160: c2fd 1abe df4f 43bd 902f 85be b72e cb3a
00000170: fc40 00bc 9266 9cbd 69fa f8bd c47d ebbd
00000180: 272d 893d 56f4 563c 3665 043b 2a26 b2bd
00000190: 2706 edbd 6476 89be 8ba1 3a3e 1104 bebd
000001a0: 37a2 30bd 7dd9 40bd c643 83be 4225 18be
000001b0: 1ee9 173e fe60 26be 519d 8fbe 4ab5 1cbd
000001c0: 4196 85be a11c 4abe c9aa 88be e1e5 49be
000001d0: ae29 8ebe 9c1b 81bd 274d 6ebe 64e7 3fbd
000001e0: ae48 2dbe 6366 24be 39c4 4ebe 242e 4abe
000001f0: 3f5c 8abe 0ee2 1c3d f002 45be 3d6f 5c3d
00000200: 8790 c0bb 0c98 f03b c28e a23c 367f 0cbe
00000210: f66a 7abe 7f57 81be f70f 293d 9f22 ba3d
00000220: cbc1 76be d00c f0bd 98bd 8fbc 0863 19be
00000230: 8cc0 6ebe 6d87 0cbe de53 33be 51fd 26be
00000240: 7d8a 9bbd 2252 15bd 8b95 fcbd bbd0 d0bd
00000250: cede 273d db7a a23c 3971 63bd b0e4 0cbe
00000260: 2b6a 88bb 502e f6bc 9c52 d0bd 78ab 95be
00000270: 3cd7 95bd 40cf 9abd 29b0 a4bc 5281 2ebd
00000280: 8ac8 03be bb47 babb 0564 e3bd f056 563d
00000290: 75b5 9bbe 57a9 a7bd 8587 31be 8a09 8d3d
000002a0: 05c8 0bbd 59bb 57be 1a30 133d 5bd4 05be
000002b0: 77d1 863d 8a22 bb3c 4017 babd d62a 18be
000002c0: cb8f 263d d519 9ebd b479 b4bb aae1 ebbc
000002d0: 219c d2bd acf6 2f3e 2462 eb3b 8dec d8bd
000002e0: bff2 18be 2b8a 7ebe 6522 a73d 71a7 b03d
000002f0: 15e0 11be 204c 9abd 99a0 a5bc 80c2 6d3c
00000300: 88e2 7bbd 9eb7 bebc 8706 6ebd 960d af3d
00000310: bac6 5cbe 706b 86bc a516 18be 098f 37be
00000320: c0f5 0abe b2eb d7bd 1ac7 4ebd 772a f7bd
00000330: 1179 993c 1c67 5ebc b817 17bc f5ec 71be
00000340: 2436 0ebe ecc5 883d c785 87be 79dc 95be
00000350: a593 7fbc 4d72 e03d 4454 9bbd f8a7 03bd
00000360: 1b7b 66be 1dc4 d4bc 3a87 42be 545c 11be
00000370: 7841 413d c7aa 60be 5167 95be a345 cebd
00000380: 4ba8 8e3d 4a55 3f3c ec80 ccbd 55f3 21bd
00000390: fa58 6b3d e4b0 8cbe b369 6fbe 5d5f a9bd
000003a0: 27bf abbd 0693 61be f117 36bd 595b 2fbc
000003b0: 6df2 c4bc 66e0 eb3d 7c2b d23b 1e31 25bc
000003c0: 02ca 013e ab79 abbe dcc9 883d 0a21 acbd
000003d0: 16bf 7dbe d3c5 eebd 289d 61be a458 3ebe
000003e0: 5157 0bbe d443 d43a 2104 4bbe 538e 38be
000003f0: 9c04 15be 060d 2ebe 2612 0cbe 1b6a 83be
-0.09971699 0.073683575 -0.018964564 -0.19080971 -0.059474394 -0.03251446 -0.19715735 0.10601055
0.043150395 -0.044298332 -0.18253241 -0.0073232115 0.0551483 -0.04274604 -0.17941572 -0.16839416
-0.13894947 -0.10059645 -0.2636516 0.1230562 -0.020277284 -0.24710527 0.038273856 -0.1702459
0.029360162 -0.1344247 -0.029162664 -0.009686411 -0.20768075 -0.14939778 -0.29042897 0.11788763
0.14188626 0.030320045 0.062186174 -0.24531114 -0.14320444 -0.0533344 -0.29263613 -0.12983172
-0.04873161 -0.13718916 -0.124693274 -0.048891637 -0.049164265 -0.15718938 -0.09642649 0.008494212
0.036483858 -0.0317348 -0.1721989 -0.11030562 0.002822731 -0.050339542 -0.061550748 -0.034581173
-0.094067656 -0.090449266 -0.06752674 -0.08132217 -0.03871095 -0.01567455 -0.006786621 0.10541743
-0.04501673 -0.067650706 -0.23021282 -0.15248278 -0.24609849 -0.15683007 0.011484049 -0.151726
-0.16134302 0.09636844 -0.018072886 -0.0010600961 -0.15099367 -0.034078542 -0.16244483 -0.23231576
-0.0481461 -0.040804375 0.019835714 -0.06572244 0.026804429 -0.2322938 -0.23317693 0.10480394
-0.15135863 -0.047683593 -0.2601285 0.0015501593 -0.0078279935 -0.07636751 -0.12157137 -0.11498597
0.06698065 0.013119778 0.0020201928 -0.086986855 -0.11573439 -0.26848137 0.18225686 -0.09278119
-0.04312345 -0.047082413 -0.25637645 -0.14857963 0.14835021 -0.16247937 -0.2804971 -0.03825883
-0.26091197 -0.19737484 -0.266928 -0.19716598 -0.27766174 -0.06304094 -0.23271619 -0.04685153
-0.16922256 -0.16054682 -0.2019204 -0.19744164 -0.27023503 0.03830152 -0.19239402 0.053817023
-0.005876604 0.007342344 0.019843463 -0.13720402 -0.24454865 -0.25262067 0.04127499 0.09088635
-0.24097364 -0.11721194 -0.01754646 -0.14979184 -0.23315638 -0.13723536 -0.17512462 -0.1630757
-0.07594774 -0.03645528 -0.123332106 -0.10196062 0.040983967 0.019833973 -0.0555279 -0.13759112
-0.004163047 -0.03005138 -0.101720065 -0.29232383 -0.07316443 -0.07559061 -0.020103531 -0.0426038
-0.12869468 -0.0056848205 -0.111030616 0.052329004 -0.30411878 -0.08186596 -0.17336853 0.06886585
-0.0341263 -0.21067561 0.035934545 -0.13069288 0.06582921 0.022843618 -0.09086466 -0.1486009
0.040664475 -0.07719771 -0.005507672 -0.028794128 -0.102836855 0.17183942 0.00718333 -0.105919935
-0.1493635 -0.24857394 0.08160857 0.08625687 -0.14245637 -0.07534051 -0.02021818 0.014511704
-0.061495334 -0.023280915 -0.058111694 0.08547513 -0.21560183 -0.016408652 -0.14852388 -0.17925657
-0.13570309 -0.10543002 -0.050482847 -0.120686464 0.018734487 -0.013574388 -0.009221964 -0.23625548
-0.1388784 0.066783756 -0.26469252 -0.2926977 -0.015599166 0.10959301 -0.07584432 -0.03214261
-0.22507899 -0.02597242 -0.18996897 -0.14195377 0.047181576 -0.21940146 -0.29180387 -0.10071876
0.06965693 0.011678049 -0.099855274 -0.0395387 0.0574579 -0.27478707 -0.23380165 -0.08270142
-0.08386069 -0.22028741 -0.044456426 -0.010702931 -0.024041379 0.1151741 0.006413875 -0.010082511
0.12674716 -0.33491263 0.066791266 -0.08404739 -0.24779925 -0.11658826 -0.22032607 -0.18588501
-0.13607527 0.0016194531 -0.19825794 -0.18023042 -0.1455254 -0.16997156 -0.13678798 -0.2566689

fc2.weight f4 [128, 258]
00000000: 13be b0bc 8682 b8bd 870d 443d 46ba 193d
00000010: caeb c6bd 722d 02bd d9be a23c 1e36 883d
00000020: 6174 b2bd 97c0 243c 33e8 073d e7dc 953c
00000030: 2a62 08bd eea9 363d de3b 603d e755 e43c
00000040: e7c3 a4bd 4c96 9c3d 0bcd de3c 4f53 313c
00000050: 747b 7fbd 7afe 2d3d 35ee eebb e41b 163d
00000060: e1d7 8ebd ca03 b2bb 949d 82bd 9abb e7bc
00000070: b26e a33d 0d1e ffbb 017b 1cbd a42e d8bb
00000080: 2019 31bc 97ca 5bbd 0282 98bd cf0b a0bc
00000090: f79e afbd 9cd6 873d caec 00bc 5775 a53c
000000a0: 101c 833d b943 87bd 23f6 1a3c 06d9 61bc
000000b0: 0697 79bd 0daa 8c3c d019 ccbd 4356 8b3d
000000c0: 22c6 e1bc 9760 2d3d 4c5f 37bd beaf 193d
000000d0: 1a3d b6bc a200 303d c3d7 593c 2562 7c3d
000000e0: bc32 723d 5547 203d 06b3 2f3d 1914 043d
000000f0: 83ea fbbc 016d 64bd 1548 4d3c be2b 953d
00000100: ec2c 6ebd d28f 86bd 1a33 14bb acd6 26bd
00000110: dd93 77ba 0b23 a53b d40c 1d3d a0a3 4ebd
00000120: a738 91bd 3661 29bd c387 7cbd 92ca 513d
00000130: 6b05 533c 6570 eb3c 5d19 02be 692b 68bd
00000140: 7818 683d 656b 08bb 1c9d 543d 896e e3bc
00000150: 229a abbd 4d31 71bd 7598 cf3c ac7f 14bd
00000160: 481e 5cbc 1f2f 833c e4a0 0d3b 4460 653d
00000170: 971c 8ebd 5025 423d c831 42bd c756 91bd
00000180: da8f 86bd 3576 0f3d 4eeb bebd cbd6 9c3d
00000190: 1eeb 56bd b960 bc3b d41c e5bd a514 0cbc
000001a0: 2b46 623b 6449 eb3b e66d 5b3d da38 a3bd
000001b0: 8cb9 0abd dd4e 37bb 51ed 663b a28f 23bd
000001c0: 4769 a33d 16f0 a83c 50c2 9cbd 42f8 913d
000001d0: 954a 6fbc cccc adbd dec0 4fbd f3bb 823d
000001e0: b874 2a3d 79c0 ec3c 7bf5 2dbd 1612 59bd
000001f0: 02f5 6b3d a95a a9bb ce95 5e3d 9c1e babd
00000200: c384 543d c36f a63d ebe2 87bd f708 973d
00000210: 7b22 05bd 61fb 8f3c 5d86 a33d db8e 073d
00000220: 28b8 58bd 7862 a33d 1441 b43c e01c dbbd
00000230: 8fcc febd a07b a1bd 52c5 503d f577 afbc
00000240: 8aa7 e0bd 71a0 473d 5725 023a 7b52 82bb
00000250: 12c8 e9bb e377 36bd 715b 81bd c56b 13bd
00000260: 86bf 9f3c fe56 9a3c f377 a8bd a6ee 2bbc
00000270: 68fc b13c ffc9 863d a312 4ebc 364d 803d
00000280: 7a6f 8cbd 3309 853d 42d0 45bd 5556 c2bd
00000290: 634d b9bd 8f13 813d e964 f03c 4f49 a9bd
000002a0: d0a9 c2bc 2e14 5bbd 12b5 da3b 3169 db3c
000002b0: eecb c2bd 7223 4d3d 0c13 6bbd 1b12 53bc
000002c0: df52 46bd b3b3 6abd 3c99 a23d c5ab 1f3c
000002d0: 1785 b23c 08a2 82bd 60b0 d8bd fcad b9bc
000002e0: ec0e 0e3c 928c 8a3d 69b2 21bd 282e debd
000002f0: 7e3b 253d 46ab 093d 8cf1 8bbd 80f1 8f3d
00000300: e0e9 cc3c 683e 8fbd 2f33 603c 54ba acbd
00000310: 5221 a5bc 0bbb d13c 9d9e 60bd bf1b 48bd
00000320: 1490 6d3d 0933 b3bc 073b 103d 09ff 41bd
00000330: f800 53bc 9655 84bd ed30 623d d0fa 76bd
00000340: da3c 77bd a39a 743d bfa1 763d 82fc 8d3b
00000350: 0364 6cbc 53c7 343d fcd1 823d 40b9 7f3d
00000360: c339 783c beea 433d b340 4e3d 2817 5bbd
00000370: 40e8 babd 9b4e 84bd 41b9 05bd 35b1 42bd
00000380: a95d 69bd da45 a4bd ea7a c53b 8d24 52bd
00000390: 06bc f6bb 8e2b a6bd eb51 86bd a1be b4bc
000003a0: 60c6 693c 48f7 31bd 4942 68bd b12c ea3c
000003b0: f172 45bd 4dee ec3c 5277 27bd 9c00 b7bd
000003c0: 7d25 16ba d8aa 423d 0394 c5bd a017 8d3d
000003d0: 457e 513d 88b3 e5bc 9826 01bd 2763 bd3b
000003e0: 2ec8 01bd 8426 63bd 9952 d2bd a56e c5bc
000003f0: 75a0 90bd 4bc9 98bd 450c 863d 9877 af3c
-0.02157501 -0.0900927 0.047864463 0.03753116 -0.09712942 -0.03178162 0.019866394 0.06650947
-0.08713604 0.010055683 0.033180427 0.018293811 -0.03329674 0.04459565 0.054744594 0.027872993
-0.08045178 0.07645854 0.027197381 0.010823085 -0.062373593 0.042479016 -0.00729158 0.036647692
-0.069747694 -0.0054325806 -0.06377712 -0.028287698 0.07980098 -0.0077855648 -0.038203243 -0.006597357
-0.010809213 -0.05366 -0.07446672 -0.01953688 -0.08575242 0.0663273 -0.007868955 0.020197554
0.06401837 -0.06604714 0.009458098 -0.013784653 -0.060935043 0.01717093 -0.09965861 0.068035625
-0.027560297 0.042328443 -0.044768617 0.037521116 -0.022245932 0.042969353 0.0132960705 0.061617035
0.059130415 0.039130528 0.04289534 0.03224573 -0.030751472 -0.055768017 0.012529393 0.07283734
-0.05814831 -0.065704 -0.0022613467 -0.04073207 -0.00094443356 0.005039578 0.038342312 -0.050449014
-0.07090884 -0.041352473 -0.06165291 0.051218577 0.01287971 0.028740117 -0.12704988 -0.056682024
0.05666396 -0.0020815965 0.051907644 -0.027762668 -0.08379008 -0.058884908 0.025341252 -0.03625457
-0.013434954 0.01601368 0.002161079 0.05600001 -0.06939047 0.047398865 -0.047410756 -0.070966296
-0.06570406 0.03502484 -0.093222246 0.07658156 -0.05247032 0.005748835 -0.11187139 -0.008549844
0.0034526687 0.0071803797 0.053571604 -0.07969828 -0.033868358 -0.002797059 0.0035236666 -0.0399319
0.079790644 0.020622294 -0.0765425 0.071274295 -0.014605184 -0.084863275 -0.05072104 0.06383505
0.041615218 0.028900372 -0.042470437 -0.052995764 0.057606705 -0.0051682782 0.054342084 -0.090878695
0.051884424 0.081267856 -0.06635078 0.07374757 -0.032503586 0.017575921 0.07984612 0.033095222
-0.05291 0.07977766 0.022003688 -0.10698867 -0.1244136 -0.07884908 0.05096943 -0.021419505
-0.109694555 0.048736993 0.00049646705 -0.0039771176 -0.007134446 -0.044547927 -0.06316269 -0.03599145
0.019500505 0.01884031 -0.082260035 -0.01049391 0.021726802 0.065814964 -0.0125776855 0.06264727
-0.068572 0.06495895 -0.048294313 -0.09489123 -0.090479635 0.06302559 0.029344993 -0.08265936
-0.023762614 -0.05348604 0.0066744173 0.026783558 -0.09511553 0.05008263 -0.05739121 -0.012882735
-0.048418876 -0.05730028 0.079393834 0.009745543 0.021791978 -0.06378561 -0.10580516 -0.02266597
0.00867055 0.06765093 -0.039476786 -0.10848647 0.04033994 0.033610605 -0.06833181 0.07028484
0.025013864 -0.06994325 0.013684078 -0.08433977 -0.02015749 0.025601884 -0.054838765 -0.048854586
0.05799873 -0.021874921 0.035212543 -0.04736236 -0.012878649 -0.06461637 0.05522244 -0.060297787
-0.060360767 0.059717786 0.060212847 0.00433308 -0.0144281415 0.044135403 0.063877076 0.062432528
0.01515049 0.04783129 0.05035467 -0.05348888 -0.091263294 -0.06460305 -0.032647375 -0.04753228
-0.056974087 -0.08021136 0.0060266154 -0.05130439 -0.0075297384 -0.08113776 -0.06558593 -0.022063555
0.014268488 -0.043448716 -0.05670384 0.028585764 -0.04820532 0.028922224 -0.040885277 -0.08935663
-0.0005727632 0.04752621 -0.096473716 0.06889272 0.05114581 -0.028039709 -0.031530946 0.005779642
-0.031685047 -0.055456653 -0.102696605 -0.024100611 -0.07061855 -0.074602686 0.06545309 0.021419331

fc2.bias f4 [128]
00000000: 289e 8abc 52dd 303e 61ff aebd 82f1 abbd
00000010: 5351 34be 232e b8bd 14a1 5ebd 06d4 96bd
00000020: 988f 6ebd 83a8 c8bd f9aa 09be ce0f d1bd
00000030: d35d 0f3e cf30 673c 9283 9fbd 82f6 99bd
00000040: 12a9 70bd 03fc a3bd d137 b8bd 4b4e 09be
00000050: 6503 7d3e 964a 39be 5139 debd f1da 20bd
00000060: 1d22 b3bd 6ea8 29bd 7ced 03bd b1f8 0ebe
00000070: 6ffc f8bd d8af 9cbd 801f 8bbc 8411 c9bd
00000080: 4a3f b4bd 98ab 9bbd 4e0b 65be e3dc 6ebd
00000090: 523c 8ebd 81ff e4bb 0402 a9bd ad65 38bd
000000a0: 9873 bbbd 73a5 bfbc e13c 9abd 87a6 d3bd
000000b0: aa9d 463d 7b10 fbbd 6490 9ebe 6131 11be
000000c0: 645e f3bd d7ee 44bd a0c7 7ebd 7aad 57bd
000000d0: 21c5 dcbd c5bc 09be 3227 95ba ffea eabd
000000e0: 426e e6bd 85b8 81be f7f5 b9bd e913 dfbd
000000f0: 23a3 34be 37b2 893e a021 57bd a8a6 8d3a
00000100: 8ea8 32bd fb0a fabd e1ee f5bd 66b9 bbbd
00000110: 72b5 1fbe d276 a3bd e992 05be b569 173e
00000120: fa1f 88bd 20be 90bd c1ce eabd cdda fb3c
00000130: 30d8 21be 0407 a5bd 0859 32bd 3955 00be
00000140: 9952 74bd 3887 66bd 86ea babd 53ef a3bc
00000150: 12bc 1cbe 1439 dcbd cb33 92bd 32ee 15be
00000160: a60b 003e b26b a4bd ec98 dcbd 3957 88bd
00000170: 6da1 a5bd 2f6e 45bd 84e3 1fbe a66f 4b3d
00000180: 3dd9 1d3d a560 fc3d 4dd6 0abe 3061 49bc
00000190: 80f8 29bd b230 9e3e 387a 8abd bb44 e3bd
000001a0: e376 663e 3284 0fbd a9b2 babd 4356 c1bd
000001b0: ee0d 82bd ebf2 33be 03d1 a4bd 02fe c6bd
000001c0: 6a2a 4cbe 50e1 c2bc d373 09be 4679 bebc
000001d0: 7f39 c2bd 0b12 0ebe a60b b6bd 31f1 d7bd
000001e0: 793e cebd afeb d6bd ccbb aebd 56b9 4dbd
000001f0: 3396 36be 2a4c d4bd de0d fabd 15f5 5d3e
-0.016921118 0.17271927 -0.085448034 -0.08395673 -0.17609148 -0.08993175 -0.054352835 -0.07364659
-0.05824241 -0.09797766 -0.13444127 -0.10208093 0.14000635 0.014110758 -0.07788767 -0.07517721
-0.058754988 -0.08007052 -0.08995021 -0.13408773 0.24708326 -0.18094859 -0.10850776 -0.0392713
-0.08746741 -0.041420393 -0.032208905 -0.13962056 -0.12157523 -0.07650727 -0.016982794 -0.09817794
-0.08801134 -0.07601088 -0.22367594 -0.058316123 -0.06945099 -0.0069884663 -0.082523376 -0.04501884
-0.09152907 -0.023394322 -0.07531143 -0.10334497 0.048490204 -0.12259003 -0.30969536 -0.14178993
-0.11883238 -0.048079338 -0.062202096 -0.052655675 -0.10779787 -0.13450916 -0.0011379479 -0.11470603
-0.11251499 -0.2533609 -0.09080117 -0.108924694 -0.17640357 0.2689378 -0.0525223 0.0010807114
-0.043617778 -0.122091256 -0.12008453 -0.09166221 -0.1559656 -0.079816476 -0.13044323 0.14786418
-0.06646724 -0.070675135 -0.114652164 0.03074398 -0.15805125 -0.08057979 -0.043541938 -0.1253251
-0.059649084 -0.0562813 -0.09126763 -0.02001158 -0.15306118 -0.10753074 -0.07138785 -0.14641646
0.12504444 -0.08028354 -0.10771355 -0.066572614 -0.0808743 -0.048200782 -0.15614134 0.049667023
0.038537253 0.12323121 -0.13558312 -0.012291238 -0.041496754 0.30896527 -0.067615926 -0.11097094
0.22506289 -0.03503818 -0.09116108 -0.09440281 -0.06350313 -0.17573135 -0.08047678 -0.09716417
-0.19938055 -0.023789078 -0.1342309 -0.023251187 -0.09483623 -0.1387407 -0.088889405 -0.105440505
-0.100705095 -0.10494172 -0.08531913 -0.05022558 -0.17830734 -0.1036609 -0.12209676 0.21675523

fc3.weight f4 [1, 128]
00000000: 22be 5c3a c9b9 e03d 864f 05bc b3c7 173d
00000010: c014 8bbd 9f63 ed3b b301 af3a 74a6 b83a
00000020: 7404 b3ba d54d e93b 2253 efbb ae89 a83a
00000030: b7dd 8d3c 6fba 0eba 9bdc 0539 bb04 1c3c
00000040: d5cc 64ba c173 023c 9bcb f6bd 6156 91bc
00000050: 035c eb3c 5b09 52bd 0c26 36bc da49 2bbc
00000060: ee1f a43b 19f1 fcbb 59da 983a 05c5 96bc
00000070: 4660 393a 8409 1bbc fdd1 423a 0183 773b
00000080: 19e2 0f3c 844c 39bc 1af6 3cbc 18f0 5bbc
00000090: 8b93 adbc d2c5 a1bc e238 14bc 3b69 db3b
000000a0: d452 c53b d13d 9bbc b7d0 d9bc 60ad 13bd
000000b0: 9010 92bd 1fd8 33bc 0ffd 0ebd 0ddb d9ba
000000c0: d402 cfbc 2666 5dbd 7cd2 63bb 5ee6 763c
000000d0: 2606 54bc 1016 96bc d17a ba3c b5d8 b0bc
000000e0: 782c 023b 729c 803c eca2 03bd aaa6 b63c
000000f0: 99e6 85bc c732 d0bb afdf 663a 16f2 6fbb
00000100: ba57 6cbc 1184 903b 6ada 76ba b14d 8ebd
00000110: 1451 28bc f7ce 41bc dda6 453a 7715 bd3c
00000120: d08d 8dbb 679f 17bc 9c7a 103a c17f 433d
00000130: 4075 db3c 48be cb3b 3f43 383c 14c8 4fbc
00000140: 3d2f 12bc ebb4 d2bb 94a5 e5bb d670 af3c
00000150: 9640 d43c 8f0b 973a e3d4 1dbc 8fa3 59bc
00000160: 34a2 d33c 6af8 493b ec73 94bd fc28 b4bb
00000170: 19df 073b dc57 fe3b 786e e3ba 4aa5 9b3c
00000180: 4bc2 0d3d 481d 59bc b669 633b 3fe0 8b3a
00000190: 097d a7bb c24b 8f3c aedb 073b c80e 66bc
000001a0: e303 a23c 425e 7bbb ff62 e13c 58fa 583b
000001b0: ce63 b43c b3b6 adbc 4a77 1bbc 2c70 99bc
000001c0: 9c25 f5bc 78f2 b03c aa6a 013c 9694 e3bb
000001d0: d9c5 263a 7b61 b4ba 1bcb 97bc 6c69 13bc
000001e0: d612 c53c 5a40 09bc 8b2e aa3c e8be ba3b
000001f0: db35 cc3c 28f2 34b9 0417 a63c d88f 803c
0.0008420666 0.10972936 -0.008136636 0.037055682 -0.06791067 0.007244542 0.0013351947 0.0014087693
-0.0013657943 0.007119874 -0.0073036114 0.0012858415 0.017317636 -0.0005444651 0.0001276605 0.009522612
-0.0008728032 0.007962168 -0.120505534 -0.017741384 0.028730398 -0.051278453 -0.0111174695 -0.010454619
0.005008689 -0.007719171 0.0011661752 -0.018404493 0.0007071536 -0.009462718 0.00074318034 0.0037767293
0.008781933 -0.011309747 -0.011533285 -0.013423942 -0.021188518 -0.019747648 -0.009046765 0.006695894
0.006021837 -0.018950375 -0.02658878 -0.036054015 -0.07132065 -0.01097682 -0.034909304 -0.0016621068
-0.025269903 -0.054052494 -0.003476291 0.015069572 -0.012940919 -0.018321067 0.022763642 -0.021587709
0.0019862931 0.015699599 -0.032137796 0.022296268 -0.01634531 -0.0063537094 0.0008807135 -0.00366128
-0.0144252125 0.004410275 -0.00094167015 -0.06948412 -0.010273237 -0.011829129 0.0007539818 0.023081524
-0.004319884 -0.009254313 0.0005511434 0.047729257 0.026789308 0.0062177517 0.0112465015 -0.01268198
-0.008922395 -0.0064302585 -0.007008264 0.021416109 0.025909703 0.001152383 -0.009633276 -0.013283624
0.02583418 0.0030818232 -0.07248673 -0.00549805 0.0020732342 0.0077619385 -0.0017351648 0.018999714
0.03460912 -0.01325161 0.003470046 0.0010671689 -0.005111341 0.017492179 0.0020730305 -0.01404161
0.019777244 -0.0038355743 0.027513025 0.00331082 0.022020247 -0.021205282 -0.00948889 -0.018730246
-0.02992516 0.021599993 0.007898966 -0.006945203 0.0006361879 -0.0013761962 -0.018529465 -0.0089973025
0.024056833 -0.008377159 0.020774147 0.0056990273 0.024928024 -0.00017256348 0.020274647 0.01569359
