results/results_1/agent1_actor.pth (torch, 185131 bytes, 6 tensors)

fc1.weight f4 [256, 48]
00000000: 76e3 a4be 5da9 f73e a410 163d 26a0 4dbe
00000010: 0140 3abe c083 313d d4c5 2a3d 6200 17be
00000020: e5ca 80be bc12 d03e a467 343e f4a4 edbe
00000030: 21da 6cbe dc12 373c 26b6 733e ee30 bfbe
00000040: 32a7 d2bd 825c 733d 68fd 563e 9cb1 2fbf
00000050: dec0 50be f869 653d 5678 7e3e 6ebf 1dbf
00000060: e6ec 45bd 277c b03e 07a9 86bc 5c51 c8be
00000070: 4be0 373e 27a2 1cbc d17a a03d 007f c5be
00000080: 55ba 2dbc c544 833e 176a 003e a328 edbe
00000090: ff6e 583e 7475 533c ee8c bd3d ef12 d5be
000000a0: 1ecf 49bd ddb7 ea3d 1ca6 843c 20df 00bf
000000b0: e023 5a3e 10e8 793d 5ab4 803d 0839 f1be
000000c0: fe27 6cbd 0338 dfbd f3c6 e73d 892b 7bbe
000000d0: ea4d c8ba 9246 bdbe b5a5 153e 30b4 62be
000000e0: 7f60 893c ee28 79be 894b 163d e330 4cbe
000000f0: e617 9cbc aaad 99be 6ce7 003e 5e5d 24be
00000100: 0875 94bc 3c1e 10be cc35 b4bd ca33 bd3d
00000110: 3f4b 803d 0b74 9cbe deae d1bd 13c8 423d
00000120: 3ea3 9d3d 3a76 1b3d db5d ac3e 906a dbbe
00000130: 2c17 3cbd 3606 c0be 1362 aa3e 57c2 f4be
00000140: 57b5 fa3d d0b8 29be 3eb1 413e f99b 5dbe
00000150: b8c4 643c 720f d1be 1b2c 263e 4a5f 90be
00000160: 86af c23d 3d27 94be 63b7 333d 8ea8 91be
00000170: d9e1 29be 5dc6 8fbe 0890 dcbc 3a97 7abe
00000180: df71 fb3c 781a 5dbe 648c 163d ea31 0abe
00000190: cd7b 983d f165 ff3b 63c0 123c 6f9a 2cbd
000001a0: 11c0 e73d 1b77 57be 93b1 bfbd 520f 973c
000001b0: 455d 8f3d 3a1e 123c de9b febd 734e 82bd
000001c0: ca81 8c3c cdd0 23be 441a fd3c 8951 8e3c
000001d0: f1b5 e63d 3187 323d 52fa 783c cfd8 033d
000001e0: a1a9 643e 161e 9ebd 7bb1 7d3e 24ec e63d
000001f0: 4557 e1bd 37c7 e93b fabd a13e 14f3 b63d
00000200: 0558 4b3e b61d 463d 0746 b23e e37e c23d
00000210: 0eac ecbd 1303 d33c 8fe6 d13e 0e48 61bb
00000220: 5c7c 193e 169f d6bd 98f4 a33e b876 1ebc
00000230: 2165 03be 7923 1d3c 5c87 da3e d7a5 29bd
00000240: e60b 523c e7db 62be 4c8a d63d 1d17 a4bd
00000250: 0c41 be3c 286f 243d 1a2a 1c3e bd48 15be
00000260: 963d b73d 7998 27be c543 8abd 89a4 703d
00000270: 1e82 393d c97a 5bbd ee35 b8bd cecc a63d
00000280: 20bc 5c3e 664c f1bd 8ad9 9d3c fc0f f3bc
00000290: 420c 633d 73ba 17be 263f 99bd e166 0ebc
000002a0: cd2e e83d 9df7 a5bd 144f 84be e298 343e
000002b0: cc0e f9bd 0d74 183b 207a 6cbe 42d4 313e
000002c0: 82e2 513e 02dd 5d3c 7196 ab3d 8d5b d93d
000002d0: 25b9 72bc b1ef c8bd 0aeb f13d 124c 273d
000002e0: 8f99 7b3e 2a08 8f3d 810b b73d cdac e13d
000002f0: cf64 7c3b 0acd 18bd a4f2 ae3b ffce c73d
00000300: 24db c4bd e12b 59bc 4562 053b 34aa 853d
00000310: b231 61be bf86 923d dfd7 8c3d 889d 203d
00000320: f3bf 343d 6ed1 9d3c 175e bdbd 2342 843e
00000330: 0512 9bbc ce94 c73d 787c 23be 09fb 983e
00000340: 6147 b23d 6765 e83d f78a 9a3a 27dd ad3d
00000350: 08b5 fd3c d967 863d 1590 323d d12f 993c
00000360: ba52 09bd 4558 103e c476 33be a861 e83e
00000370: 17e2 183e ef48 de3d 6e11 edbd bcfc 123f
00000380: 24d5 0cbc b584 353e 21c8 d13d 0c95 a33e
00000390: a2f7 483c be4f be3c c249 203e 29d2 833e
000003a0: b4c6 6a3d 2bcc 4a3e f751 5abe ca7e 8d3d
000003b0: 2fa6 dd3c 8a52 243d ae91 1abe 33e7 7c3c
000003c0: 1a5f e13d 84f4 2bbe 0d93 1e3e f2ad f8bd
000003d0: 0392 653e a303 8c3c b327 303e 67af fbbd
000003e0: 2c56 5a3e 9aa8 6dbe 6c57 cebc 099c 0abe
000003f0: 37f1 983e db1c 293b 3ccf 3abd cacc 0ebe
-0.3220479 0.483714 0.036636963 -0.20080623 -0.18188478 0.043338537 0.04169257 -0.1474624
-0.25154796 0.40639293 0.17617661 -0.46414912 -0.23130085 0.01117393 0.23799953 -0.37342018
-0.10285796 0.059414394 0.20995104 -0.68630385 -0.20386073 0.056009263 0.24850592 -0.61620224
-0.048321627 0.3446972 -0.01643802 -0.39124572 0.17956655 -0.0095601445 0.07835925 -0.38573456
-0.010603507 0.25638404 0.1254047 -0.46320066 0.21136092 0.012906421 0.09255396 -0.41616008
-0.049269788 0.114608504 0.016192488 -0.5034046 0.21302748 0.061012328 0.06284399 -0.47113824
-0.057655327 -0.10899355 0.113172434 -0.24528326 -0.0015282009 -0.36967903 0.14613993 -0.22139049
0.016769646 -0.2433202 0.03669313 -0.19940524 -0.019054364 -0.30015308 0.1258828 -0.16051242
-0.018122211 -0.14074033 -0.087993234 0.092383936 0.06264352 -0.30557284 -0.102384314 0.047554087
0.076971516 0.037954547 0.33665356 -0.42854738 -0.045920536 -0.3750474 0.3327795 -0.4780452
0.12241619 -0.16574407 0.18915269 -0.2164153 0.013962917 -0.40832096 0.16227762 -0.281977
0.09506135 -0.28936186 0.043876063 -0.2844891 -0.1659006 -0.28081027 -0.026924148 -0.24471751
0.030693946 -0.21592128 0.03675498 -0.13495603 0.07445488 0.007794135 0.008957001 -0.042139467
0.11315931 -0.21041529 -0.093600415 0.018439922 0.070002116 0.008918339 -0.12432073 -0.06362619
0.017151732 -0.1599762 0.030896313 0.017372863 0.11265171 0.04358596 0.0151964 0.032189187
0.22330333 -0.07720582 0.24774735 0.11275509 -0.110029735 0.007134344 0.31590253 0.08933082
0.19857796 0.04836818 0.34819052 0.09496858 -0.11556254 0.025758302 0.40996215 -0.0034375223
0.14988846 -0.10479562 0.32022548 -0.009671859 -0.12831546 0.009590977 0.42681396 -0.041417923
0.01282022 -0.22154199 0.10475597 -0.08012221 0.023224376 0.04014507 0.15250435 -0.14578529
0.089472935 -0.16366757 -0.06751207 0.058750663 0.045290105 -0.053583894 -0.08994661 0.08144532
0.21556139 -0.1178215 0.01926877 -0.029670708 0.05543161 -0.14817218 -0.07482748 -0.00869152
0.113370515 -0.08103869 -0.25841582 0.17636445 -0.121610254 0.002326253 -0.23093462 0.17366126
0.20496562 0.013541462 0.08378304 0.10613165 -0.01481465 -0.098113425 0.11812408 0.04084403
0.24570297 0.06983979 0.08937741 0.11019287 0.0038512235 -0.037304915 0.0053389836 0.09756278
-0.0961211 -0.01325509 0.0020352763 0.06526604 -0.21991614 0.07154607 0.06877112 0.039212734
0.04412837 0.019264903 -0.09246462 0.25831708 -0.01892949 0.09745179 -0.1596545 0.29879025
0.08705021 0.11347466 0.0011790682 0.08489447 0.030970111 0.06562776 0.04359444 0.018699558
-0.03352616 0.14096172 -0.17525774 0.45387006 0.14929996 0.10853755 -0.1157559 0.5741689
-0.008595739 0.17726405 0.1024325 0.3194965 0.0122660715 0.023231383 0.15653136 0.25746277
0.057318404 0.19804446 -0.2132033 0.06908949 0.027056782 0.040117778 -0.15094635 0.015435982
0.11004467 -0.16792494 0.15485783 -0.121425524 0.2241898 0.017091578 0.17202644 -0.12289315
0.21321934 -0.23208848 -0.02518817 -0.13536085 0.29871532 0.0025804553 -0.04560779 -0.13945308

fc1.bias f4 [256]
00000000: 8f18 b83d f6a7 a2bd a65f c8bd 7dd2 a1be
00000010: 0ff4 f9bd 78f7 b0bd 5adb 11be 12f3 213e
00000020: 68b3 14be 8399 42bd ff02 fabc bea5 be3d
00000030: 68ee 133e 1f38 76bc 564e 82bd 2075 7fbd
00000040: ff4c 943c 19c8 0fbe 8f43 60be 476e 463e
00000050: b5a3 e53d 44da ad3a d22e 88bc f491 4b3d
00000060: 9166 383c 1379 fdbd db51 bf3d 50c3 0b3d
00000070: 9df0 9ebd 5fe3 6abe 448d 3abe ed14 4e3d
00000080: 816e 023e 5aae cb3d c799 023e 62ce 78be
00000090: 6d7b 1fbe 9040 80bd 5442 adbd 1f0e eabc
000000a0: a696 c73d 313c 993c d0fe 6cbd cf3c 60bd
000000b0: fffd 05bd 18d6 c7bd bb49 96bb 95f7 d4bd
000000c0: 277e 063e e67b e53d 4f6f 96be f5fe 283c
000000d0: bf57 a63d 6ff6 cbbd e1df a5bd eb72 a1bd
000000e0: 10b6 863e b4d3 d1bb 1842 d63d 9875 7cbd
000000f0: f140 8fbd 00f6 51bc a1bf 4ebe 2641 38bd
00000100: f964 1a3e 717e 67bd 8cf9 94bd bdd1 c1bc
00000110: 4b03 12be 2ca0 a53d 9190 d13d 4232 ffbd
00000120: aabe a7bc ce25 8a3d ab80 a53d c9ec 0b3d
00000130: 05f2 f5bd 5ee1 12be 2ef6 f4bd 455a ffbd
00000140: 9275 753c 1c27 813d e395 da3d 7e83 eebd
00000150: 4bc2 6f3d 6da0 39be 4458 66bd 2b33 62bd
00000160: c3de e43d c0c0 f43d 4b41 22be 4882 50be
00000170: 9f4b 273e caff e7bb f756 4a3d 67ec d1bd
00000180: 41af 583d dbaf e7bc b09e f03c 72e5 75bc
00000190: 2412 c2bd fe3b 4cbe 2758 fc3d bcd1 613d
000001a0: 31ab cebc 0220 9fbd bc4c 9fbd 40f9 08be
000001b0: ac99 17bb 14a7 12bd 32df 47be 36cb d0bc
000001c0: afb3 c3bd 1142 6cbe a9ff c3bd 621f 693d
000001d0: 098e 99bd 4e6c f53d 5a66 60be 24b4 05bc
000001e0: 233b 37be 95dd d0bd d02e 63be 64ac c0bd
000001f0: d902 edbd 968b bb3d 1eae 29be a9d4 a9bb
00000200: 714e ba3d fc32 1b3e aba2 aebd 4d7d 23be
00000210: 722d 85bd a83a a3bd 9002 5abd dc6b b3bc
00000220: 2093 ca3c 093c d6bd 8552 7e3d 1152 12be
00000230: 759b 89bd ccdc debb 2a09 65bd 53be a8bd
00000240: 82d5 0abd b1c5 413c 6878 d03c 37a5 ed3d
00000250: 7b28 c53d 294f 153d 70e3 77bd fcd4 08be
00000260: 85cb 633d 4a24 193d 4c18 b73d c947 a5be
00000270: e710 28be 64c8 6abd 730b 02bd 469b d73a
00000280: 1cb9 5fbe 527d 19bd a261 32bd 9205 ecbd
00000290: ff0e 30be 6131 66bd ad0b dabd 65e5 023e
000002a0: 4eb4 ab3a c122 04bd b7be c73d 18cb 50bd
000002b0: d974 883c 58cc 4d3d e6a5 bfbd 9b9d 58be
000002c0: 1d3a 0b3e 0d84 f5bd 86d0 863d 926f 7ebd
000002d0: d54b 90bd fc2a bc3c b47b b53d 716c 16be
000002e0: 0abc 8abb 9d77 02be 641a e13d 9456 8a3c
000002f0: c4b0 12bc 95de de3d 137b 933d 903f e03c
00000300: 0c58 353d ecc1 503e 4787 79bc 2a97 03bd
00000310: 1112 ee3d e51d 38be 8e79 633c 5093 8bbd
00000320: ab86 9d3d b615 d8bc a82d 8c3b 0e5a 48bd
00000330: ea01 993d c907 d73d bb44 c23d 34a4 4fbe
00000340: d8df a3bd 9ff8 4f3d 7029 61be eb97 e7bd
00000350: a52c 423d e469 0a3d a870 1f3d 1545 403e
00000360: 69ef c4bd 53a1 e53c cddb 62be 728b 5fbe
00000370: 5cea 90bd 7487 e5bc fdcf 0ebe ebba 54bc
00000380: ee69 873d 762a ffbd 69fd bfbd 1084 1e3e
00000390: d5bb 543d 3d58 2bbe e95c 77be f5e9 853e
000003a0: a64d 3dbb 49d6 a5bd aec8 17be 33d3 e4bd
000003b0: c2f9 fabc a4c0 e13d a1d8 903d 7f35 56bd
000003c0: 5a86 ae3d 939b 123d 7c6e b53c 8d95 00be
000003d0: 57b6 48be 2052 9dbc d073 ebbc 84ed 85be
000003e0: 57a0 95bc 27a6 ad3d ff89 21be f923 9fbd
000003f0: cf99 70bd 72d8 ecbd 7782 9cbd 5745 49be
0.08989059 -0.07942192 -0.097838685 -0.31605902 -0.122047536 -0.08640951 -0.14243832 0.1581538
-0.14521563 -0.04750968 -0.030519007 0.093089566 0.14446414 -0.015028029 -0.06362598 -0.06236756
0.01810312 -0.14041175 -0.21900772 0.19378005 0.11212865 0.0013263901 -0.016623888 0.04969974
0.0112549225 -0.12376609 0.093417846 0.03412181 -0.07760737 -0.22938298 -0.18217951 0.050312925
0.12737466 0.09945364 0.12753974 -0.24297479 -0.15574427 -0.06262314 -0.08459917 -0.028571187
0.09745531 0.01870546 -0.057860196 -0.05474549 -0.032712933 -0.09757632 -0.004586426 -0.10398785
0.13134061 0.112052724 -0.29381797 0.010314693 0.08122205 -0.09959113 -0.08099342 -0.07883247
0.26310778 -0.006403411 0.10461825 -0.061635584 -0.069948085 -0.012814999 -0.20190288 -0.044984005
0.1507758 -0.05651707 -0.0727416 -0.023659581 -0.14259069 0.08087191 0.10232652 -0.12460758
-0.020476658 0.06745492 0.08081182 0.034161363 -0.12009052 -0.14343783 -0.119610175 -0.124683894
0.014981644 0.06306288 0.1067312 -0.11646174 0.0585349 -0.18127604 -0.05623652 -0.05522458
0.11175301 0.11950827 -0.1584522 -0.20362198 0.16337441 -0.007080053 0.049399342 -0.10250168
0.05290151 -0.028282097 0.029372543 -0.015008317 -0.09476116 -0.1994476 0.12321501 0.05513166
-0.025228115 -0.07769777 -0.07778308 -0.13376331 -0.0023132367 -0.03580387 -0.19518736 -0.025487524
-0.09555756 -0.23072077 -0.09570248 0.056914695 -0.07497794 0.11983548 -0.21914044 -0.008160625
-0.17893653 -0.101985134 -0.22185826 -0.09407881 -0.11572809 0.09157483 -0.16570327 -0.005182822
0.09096993 0.15156168 -0.0852712 -0.15965767 -0.06502809 -0.07970172 -0.0532251 -0.021902017
0.024728358 -0.104606695 0.062090416 -0.14289118 -0.06719104 -0.0068012234 -0.055916943 -0.082394265
-0.033895023 0.011826918 0.02544804 0.11603778 0.09626862 0.036452446 -0.060519636 -0.13362497
0.055614013 0.037388124 0.08940181 -0.3228133 -0.16412698 -0.057320014 -0.0317492 0.0016449473
-0.21847957 -0.03747303 -0.04355014 -0.115245 -0.1719322 -0.056199435 -0.10646758 0.1278282
0.00131 -0.032259706 0.09753173 -0.050974935 0.01665728 0.050243706 -0.093578145 -0.21153872
0.13596387 -0.11988077 0.065827414 -0.06211812 -0.07045714 0.022969715 0.08861485 -0.14689805
-0.004233842 -0.12740941 0.10991362 0.016886987 -0.008953277 0.10882298 0.07201209 0.027374059
0.04427342 0.20386475 -0.015230007 -0.032126583 0.1162454 -0.17980154 0.013883961 -0.06815207
0.076917015 -0.02637754 0.0042779036 -0.048914008 0.07471068 0.10499532 0.094857655 -0.20277482
-0.08001679 0.050774213 -0.21988463 -0.11308273 0.047405858 0.03379239 0.038925797 0.18776353
-0.09615976 0.028031027 -0.2215416 -0.21830538 -0.070759505 -0.02801869 -0.13946529 -0.012984018
0.06612001 -0.12459271 -0.09374506 0.15480065 0.051936943 -0.16732879 -0.24156536 0.26155058
-0.0028885393 -0.08097512 -0.14822647 -0.111730956 -0.030636672 0.110230714 0.07072569 -0.05229711
0.08521719 0.0357929 0.02214741 -0.12557049 -0.19600807 -0.0192042 -0.028741747 -0.26157773
-0.018264933 0.08478957 -0.15775298 -0.07770533 -0.058740433 -0.11564721 -0.07642072 -0.19655357

fc2.weight f4 [128, 256]
00000000: 6052 49be 545c 0f3d edc6 d33d 38e0 53bd
00000010: a298 c93d 5a7c 1fbe a7f9 36be cb2c 97bd
00000020: a080 0dbe a2c2 be3d 7936 283c ff21 94bd
00000030: 06d5 bcbe 578c 37be 68f3 443e 5b33 373d
00000040: 608d 6fbe 203f 033e f6e1 a1bd 1076 a2be
00000050: 5156 03be b37a 70bd 94eb 9f3c d5a8 8d3c
00000060: d4c3 ce3d 6c4a 353d 9766 debc 728d e1bc
00000070: b2d9 003e 0a66 503e 2372 073e c79e b23c
00000080: 444e f93d 8784 873e 221b 03be 9fed 1fbe
00000090: 97fe a03e 0443 483d f9e1 683e 5371 84be
000000a0: 4011 12be e55f 5bbe 3173 0b3e 987a 24be
000000b0: 15c9 a83b 1d01 ac3d 85df 4ebe bea4 a23d
000000c0: 3715 603e ff3e 393e 9208 813d 2492 143e
000000d0: 2fd7 2fbe 17d4 24bd 0111 92be 1ef8 9c3d
000000e0: faf4 c0be 6354 793e d789 18be cb29 503e
000000f0: 5910 e5bd cbb6 263e 2b71 76bd 5492 623c
00000100: 5873 44be da53 d03e f3fa adbe ec84 7bbd
00000110: 4e4a 4bbe 5e71 553d 45d0 433c 222a 69bd
00000120: a7cb b6bd 9a55 f0bd c420 093a 57b8 853b
00000130: aec3 9cbd 0113 3e3e 98e3 663e f9b5 8cbe
00000140: 1609 17be 6562 a5bd 20b0 a03e 68a6 c83d
00000150: 6495 0b3e fabe 1b3e 7af8 2abe 792b 5b3e
00000160: bd45 7dbe 291b 3a3e 3c0b 003d 4355 6fbe
00000170: a7fd f8bd efb3 aa3c 3c36 ad3c 49f9 29bd
00000180: dd86 8fbe 945b c43b bdf1 fdbd c1ad 8cbd
00000190: 318d 4639 6f06 9f3e f7b6 f63d 7964 d7be
000001a0: 1a92 ffbc 7229 8c3d d9ed 743e 1038 e83d
000001b0: 4945 88bd 131e 1cbf 628e b33e 4ddf 033e
000001c0: a61b da3d bbb8 28be 0691 b33c c5b8 1bbe
000001d0: e297 ecbd 3f1f 313d f2c8 2ebe 84b5 f03c
000001e0: e947 5dbc bf87 2dbe a6c2 743e 1049 033e
000001f0: 5cd3 0bbe 1160 473e ff84 d7bd d7d9 8bbb
00000200: b53e a0be bc1c 71bd 52d3 57be 3b33 70bd
00000210: 7706 b0bd 9cbf 913e 9f0b 35bd 95d8 adbd
00000220: a19b a9bd ce58 6f3c 1de2 88be cbed 5e3d
00000230: efd7 263d 418c 5d3d 5a92 333d 9a50 e0bc
00000240: d21d 963d 6422 5a3e 2499 67bd 808a 28be
00000250: f7b9 7f3e 4be7 31be 39fc 053e 0340 f03c
00000260: 29cd 803e 9fb7 253e 5757 39be 2fcd a53e
00000270: 6cbe 34be 60bf a4bd 55f9 313c 2327 88be
00000280: 08a6 81bc b288 17be 5d25 b9bc 665e 2bbe
00000290: fa39 e0bd 60c9 0fbe e219 903e 1fca 8cbe
000002a0: 8972 ee3d c8ec 0ebe 4d84 4c3e 8075 04bd
000002b0: 0573 bdbe f4e2 f53d ba50 123e b196 fabd
000002c0: 9054 04bd 8172 e6bd 3727 b0be d3a3 0d3e
000002d0: 7844 edbd af25 63be dd2c 0cbd 4ba0 a43d
000002e0: c4cb af3d 1d31 93be cfd4 41bd ad0f ac3b
000002f0: 5d9e e5ba 0cd2 403d 1772 f9bc 33b4 6abd
00000300: 7cbc b9bd 6534 01be dc09 86be 703e 913e
00000310: 74b3 81bd 04a9 6c3e b29f 91be 102a dcbc
00000320: 68a5 1ebd be59 cfbd 0bd9 4fbd a738 a43c
00000330: 9678 81be bf09 28bd 5a90 bdbe 5057 ad3e
00000340: d051 b0bd 9eb0 ac3e 5f7f 7d3d c156 81bc
00000350: 1135 36bd 7d61 e33d 466b 97be cfd7 13be
00000360: 8153 d2bd 0bf8 40bc 0466 063d 8a92 55bd
00000370: b9d4 da3c a5d5 abbe a148 863e f4d2 773e
00000380: 4b40 6b3d c630 30be c3b1 f1bd dc0a f9be
00000390: baac c83d c7bd 76be 53ab 2cbd 03ad 78bd
000003a0: 34c3 10be 3762 583e 2ada 6bbd 6e1e 663b
000003b0: c198 093e cd8d f3bd 680e 9cbd 6632 01be
000003c0: dcb4 3fbe c40a 4ebe 028a 5dbe ab26 88bc
000003d0: 9200 debd 0d03 813e 2ea6 983d 5f3b fd3b
000003e0: 461b 8cbe 6380 073e 82e1 84be 3400 693e
000003f0: 11e5 93be 94e3 42be 9e27 60bd 9b0e f3bd
-0.1966033 0.03500016 0.103406765 -0.051727504 0.098435655 -0.1557478 -0.17868672 -0.073815905
-0.13818598 0.09314467 0.010266894 -0.07233047 -0.36881274 -0.17924629 0.19233477 0.04472671
-0.23393774 0.12817049 -0.07904427 -0.317307 -0.12825896 -0.058710765 0.019521512 0.01729242
0.10095945 0.044260427 -0.027148528 -0.027533267 0.12583044 0.20351425 0.13227133 0.021804227
0.12173131 0.26468298 -0.12803319 -0.15617989 0.31444237 0.048892036 0.22742452 -0.2586771
-0.14264393 -0.214233 0.13618161 -0.16062391 0.005150924 0.0839865 -0.20202453 0.07941578
0.21883093 0.18090437 0.06300463 0.14508873 -0.1717193 -0.040241327 -0.28528598 0.07664512
-0.37686902 0.24348597 -0.14896332 0.20328443 -0.11184759 0.16280667 -0.06016652 0.013828833
-0.19184625 0.40688974 -0.33980522 -0.06140606 -0.19852564 0.05211007 0.011951511 -0.056924947
-0.08925562 -0.11735077 0.0005231018 0.004080813 -0.076545104 0.18561937 0.22547758 -0.27482584
-0.1474956 -0.08075408 0.31384373 0.097973645 0.13631207 0.1520957 -0.16696349 0.21403302
-0.24733634 0.18174423 0.031260714 -0.23372369 -0.12157755 0.020837752 0.021144025 -0.041497502
-0.2803258 0.0059923623 -0.123996235 -0.068690784 0.0001893535 0.31059596 0.120466165 -0.42068842
-0.031197596 0.068438426 0.23918857 0.11338818 -0.0665384 -0.6098339 0.35069567 0.12878151
0.10649805 -0.16476719 0.021919739 -0.15207203 -0.11552407 0.04324269 -0.17068842 0.029383428
-0.013505914 -0.16946314 0.23902377 0.1282084 -0.13654846 0.1947024 -0.10523414 -0.004267912
-0.31297842 -0.058865294 -0.21076706 -0.058642607 -0.08594983 0.284665 -0.044200536 -0.08488575
-0.08281637 0.014608575 -0.2673501 0.054425996 0.040733274 0.054088835 0.043840744 -0.027382184
0.073299065 0.21302181 -0.05654253 -0.16459084 0.24973284 -0.17373388 0.13084497 0.029327398
0.25156525 0.16183327 -0.18099724 0.32383105 -0.17650765 -0.080443144 0.010862668 -0.2659236
-0.01582624 -0.14798239 -0.022600824 -0.16735229 -0.10948558 -0.14041662 0.28144747 -0.27497956
0.116429396 -0.13957512 0.19972344 -0.03233862 -0.37001815 0.120061785 0.14288607 -0.12235773
-0.032307208 -0.11252309 -0.3440492 0.13832025 -0.11585325 -0.22182344 -0.034222472 0.08038386
0.08583787 -0.28748408 -0.04732209 0.005250892 -0.0017518509 0.047075316 -0.03044991 -0.057300758
-0.09069154 -0.12617643 -0.26179397 0.2836795 -0.06333056 0.2311135 -0.2844215 -0.026875526
-0.038731962 -0.10124539 -0.050744098 0.020046545 -0.25287312 -0.04102492 -0.37024194 0.33855677
-0.086093545 0.33728498 0.06188905 -0.015788438 -0.0444842 0.11102579 -0.2957403 -0.14437793
-0.10269833 -0.011777888 0.032812133 -0.052141704 0.026712762 -0.33561435 0.26227286 0.24201566
0.05743436 -0.17206106 -0.118014835 -0.48641098 0.0979857 -0.24095832 -0.042155575 -0.06071187
-0.14136964 0.21131216 -0.057581104 0.0035113352 0.13437177 -0.11892281 -0.07619935 -0.12616882
-0.18721336 -0.20121294 -0.21634677 -0.01662 -0.108399525 0.2519764 0.07453571 0.007728025
-0.27364558 0.1323257 -0.259533 0.22753984 -0.288857 -0.19032127 -0.054725282 -0.1186802

fc2.bias f4 [128]
00000000: 32ef 6fbd 91ae b1bc 780c e53c c57e d3bd
00000010: a710 0c3e 9709 a2bc cfaf a2bd 9c30 5cbd
00000020: 1fc8 863c 6275 8e3e c1f8 21be eb5d 1c3d
00000030: 2a8c 61bc 0336 ae3b 4e4d 5f3c 4fd1 06be
00000040: e839 0ebe 2f2d 12be 624e 3c3e b708 90bd
00000050: 17e0 48bd c4d0 54bd 2ec3 50bd 93c1 69bd
00000060: 6efe 233e 4878 e0bc 586c 643e 96b7 77be
00000070: 68f1 813e 3be4 f5bd af55 98bd 4be0 0c3e
00000080: b615 0dbe 1dae 323d 8fa5 133d befe 08be
00000090: 52fe 09be 1e48 b3bb 8e6d 9fbd 7175 ceb9
000000a0: 97b0 5ebd e351 9fbd 20e9 043d f7a8 02be
000000b0: 1aab bc3c debc b8bd 93ba 79bd 2c05 44bd
000000c0: 41b4 afbd bc29 2abe 5475 ad3b 2ce0 babc
000000d0: 59d2 27bd 94b4 1cbe 0a7d e2bc 3c36 9fbd
000000e0: 827e 37bd 1c6d 93bd 4054 b0bd 585c bdbc
000000f0: c96a d63c 73ad a63c 1ca0 96bd 2dd9 69bd
00000100: 192c 74bd 4100 27be c7da 173e a1df 4cbe
00000110: c80b 423b 8146 513d 96f3 ef3c 4f8b 04bc
00000120: c774 81bb 3d08 95bd 1d33 a0bd d758 b9bd
00000130: 24eb 6f3c 2e28 e8bd 1189 87bd 8211 c93a
00000140: 3148 96bd fb62 073e b5e6 ddbd e3e5 4bbe
00000150: 59d9 cabd 60b9 80bc 5b9e 6cbc 573a f1bb
00000160: 9aee 413c c03e b2bd 9538 8ebd 2b9e f13c
00000170: 276b 16be 1414 04be cf32 35be 2ef5 153c
00000180: e14b 7fbe 4f2c a7bd b9d4 233c f18a 63bb
00000190: 4410 f33d 3823 21bd 2fdb fcbd aaff 2ebe
000001a0: 69d6 d3bd f7ef 2abd c4cc 9a3e 0ebd aabd
000001b0: 270a bf3c f08d 02be 7265 4abd 0512 febd
000001c0: 675c f6bd dea1 8bbd fd07 b6bc 7009 a9bc
000001d0: de5f 1ebe f865 b93c e6e5 533c 1630 22bd
000001e0: 2d40 29be 74c1 9cbd 6252 0fbe 2c04 27bd
000001f0: fd82 723c da3f acbd c032 913c c8a4 a4bc
-0.058577724 -0.021689685 0.027960047 -0.10326914 0.13678227 -0.019779963 -0.07943689 -0.053757295
0.016452847 0.2782393 -0.15817548 0.038175505 -0.013766328 0.0053164973 0.013629271 -0.13165782
-0.13889277 -0.14275049 0.18389276 -0.07032912 -0.049041834 -0.051956907 -0.050967388 -0.057069372
0.16015026 -0.027401105 0.22306955 -0.24191126 0.2537949 -0.12006422 -0.07438218 0.13757436
-0.13777813 0.04362308 0.03604656 -0.13378426 -0.13475922 -0.0054712435 -0.07784568 -0.00039378883
-0.054367628 -0.077792905 0.032448888 -0.12759767 0.023030806 -0.090203986 -0.060968947 -0.047856495
-0.085793026 -0.16617483 0.0052935276 -0.022811972 -0.040972088 -0.1530326 -0.027647514 -0.07774016
-0.04479838 -0.07198545 -0.086098194 -0.023115322 0.026173966 0.020346379 -0.07354757 -0.05709188
-0.059612367 -0.1630869 0.1482955 -0.20007183 0.0029609073 0.05109263 0.029290956 -0.008089854
-0.0039506885 -0.07276962 -0.07822249 -0.09050148 0.014643464 -0.11335789 -0.0661794 0.0015340301
-0.07337988 0.13221352 -0.108350195 -0.19911914 -0.09904737 -0.015713394 -0.014442052 -0.007361691
0.011836672 -0.08703375 -0.06944386 0.029494366 -0.14689313 -0.12898284 -0.17695163 0.009152694
-0.2493129 -0.08162748 0.0099994475 -0.0034720267 0.11868337 -0.039340228 -0.123464935 -0.17089716
-0.1034363 -0.041732755 0.3023435 -0.083368406 0.02332027 -0.12749457 -0.049413152 -0.12405781
-0.12029343 -0.06817983 -0.022220606 -0.020634383 -0.15466258 0.02263163 0.01293323 -0.03959664
-0.16528387 -0.07654086 -0.1399627 -0.040775463 0.014801738 -0.08410616 0.017724395 -0.020098105

fc3.weight f4 [2, 128]
00000000: 3dae 51be 07e8 96bd 5cdf 76be 2add b1be
00000010: 7ba7 a43d 6eea 88bd cdbb 0bbe 2834 4a3d
00000020: c816 03be e638 a33e fad9 54bd 3302 c3bd
00000030: 3206 27be b4a1 c7bd 2780 62be 2ffe 7fbc
00000040: 4d9a 863e a9ff 2bbe d92e 383d 9059 8a3d
00000050: 2afe 013e 8b21 393e 742f 8cbe bd27 413c
00000060: d996 853e fc9c f3bd c4c7 663e 7f43 32bb
00000070: 6f94 933e caac 0fbd 0e67 c73c 5457 893e
00000080: 0237 9abd 8fae f6bd c6ed 863c ee7c efbc
00000090: aaf8 30be 0689 7cbd 2812 423c ef06 b4bc
000000a0: 2162 51bd e5bb a7bd 9de6 87bd 7413 e3bd
000000b0: 565e 8d3a d917 f5bd 0d82 e23d 3771 c8bd
000000c0: 71b6 7abd 5b6f febc d771 15be 47ad 94bd
000000d0: ddf2 ecbb 83f2 583d 7e8b 62bc 1302 81bc
000000e0: 8ae5 96bd 198d e2bc b476 bfbc 9f9d eabd
000000f0: c2c5 69be bf5c 02be 32cf a33d c3ee 58bc
00000100: a55f 13bb fda6 d4bd 470a 7f3e d556 373e
00000110: 30fa 113d 14ba aebd 7cac bcbd d98c 0fbe
00000120: 66bf a03d 3197 debd 0226 f1bd 9f16 39be
00000130: 0303 d7bd 859f 173e abf1 fabd e812 3dbe
00000140: ee57 0ebc 9f33 88be c862 e2bd b327 aebe
00000150: 6603 1a3e cecf fcbd a25c f1bd eeb1 19be
00000160: 0ec9 45bc 3177 a3bd a71c 52be f7cd 82be
00000170: df6f b4be 60d8 c5be b022 c6be 3d8d 95bd
00000180: b164 80be 86ef 17bd c074 c1bd f291 d1ba
00000190: da80 9c3d a13f 7dbe 7060 25be 20ab 94be
000001a0: 14b2 05be 6e89 5bbe 8ab4 da3d 1604 16be
000001b0: 1b73 d8bd 0b0d 9dbc e325 cebc eed8 d2bd
000001c0: bf8d aebd ccc0 92be 0bbd f23c eabc ee3b
000001d0: ffa0 46be 529c 233e 70ab a2bd 323b b8be
000001e0: 9b83 2e3e 1a0d 233c 0e6b 02be 8841 363e
000001f0: 0889 d43b 2216 68bd 3c9a 89be 4cf7 bcbd
00000200: bf5c 49bd e3a8 593e 4899 f23a da95 9cbc
00000210: 005e 343e 816b 3d3e b949 a83d e89b 31be
00000220: 645a 663e b8ac 983d f46a e1bb 896f bf3d
00000230: b76c 913d 570e e53d dcf7 0f3d 825e 043d
00000240: b3ca a8bc 47fb 7abd 2dae 163e 8637 1abe
00000250: 8bb5 ebbd f097 78bd 52f2 6f3d 0ab4 d13d
00000260: e396 2d3d f3e3 763d 8219 7e3d 4dc3 cc3c
00000270: e45d ac3d 9a02 1abe e2ff 3f3c 66f1 a73a
00000280: 2665 dabd 419d 323d a62e 7e3e 5549 aa3d
00000290: 24cb 8c3d eaae 683d e687 d83a a3e0 903d
000002a0: 23e0 1f3d cbcc 203c fb53 3fbe d9c0 9ebd
000002b0: 4116 22b9 daf3 9a3d 660d 6abe d8d9 9a3d
000002c0: 203d 223e 7f81 b83d db67 493d 1c65 0d3d
000002d0: 64e1 193c f117 a13c 1c71 393e 988d 3d3d
000002e0: 0fc2 c23d d1dc 693d 5e5e aa3d a475 e83d
000002f0: e26d 403d ba0d 273e 8da6 5b3e 3e2c e6bc
00000300: 062d e03b 6281 c8bd dfa8 613c 57ce 813d
00000310: 8bee 8abe 5553 9d3d 5cd3 a1be 0ca6 f23d
00000320: 5b83 80be df8c 233d 9f3b 243e 88c1 1a3e
00000330: 4400 ed3d ec31 e03d b542 2b3e 332d 0f3e
00000340: 32aa 8e3b 6455 5f3d 0ecc 1e3e 5e27 1bbc
00000350: c449 3bbe 813a bc3d c4c0 0e3e cbb5 cf3d
00000360: fde9 e03a 273d eabd 9ed4 323d 6f8d 223d
00000370: d047 b5bc 1499 a4bd e701 2bbd cfb8 933d
00000380: bdfc 323e c814 f53b 52c6 dc3d 35e7 2bbc
00000390: 50d2 cd3d 6578 6c3e b846 b13b cf35 c1bb
000003a0: c9fb 173e a28c 223e e1d1 363e ed84 973d
000003b0: fec9 6d3d 2059 48bd 3919 d2bc cd0f 973d
000003c0: b00b 0b3e cb5b 373d c0e1 52be 2009 153d
000003d0: 26ac d3bd 313f 35be 1228 183e 31b6 023d
000003e0: 9df7 b63d eccb 903d 13ad 183e 9608 41be
000003f0: 84d3 c53b 15d2 053e 48fb aebc fd20 213e
-0.20476623 -0.073684745 -0.24108642 -0.34739047 0.08039757 -0.06685339 -0.13645859 0.049366146
-0.12801659 0.31879348 -0.05196569 -0.09521904 -0.16310957 -0.09747639 -0.22119199 -0.015624567
0.26289597 -0.16796745 0.044966552 0.06755364 0.12694612 0.18079202 -0.27379954 0.0117892595
0.2609165 -0.11895177 0.22537142 -0.0027200875 0.28824183 -0.035076894 0.024341132 0.2682444
-0.07530023 -0.12045013 0.016470801 -0.029234376 -0.17282358 -0.061654113 0.011845149 -0.021975962
-0.051118974 -0.08190135 -0.06635783 -0.11087695 0.0010785561 -0.11967439 0.110599615 -0.09787219
-0.061209146 -0.031058958 -0.14594208 -0.072596125 -0.0072311 0.052965652 -0.013827203 -0.01574806
-0.07368 -0.027655171 -0.023372032 -0.11455845 -0.22829345 -0.12730692 0.07998504 -0.013240519
-0.0022487429 -0.10383413 0.24906264 0.17904218 0.035638988 -0.08531585 -0.09212586 -0.14018573
0.07849006 -0.10868681 -0.117748275 -0.18075036 -0.10498621 0.14806946 -0.12253126 -0.18464243
-0.008687956 -0.26601884 -0.11053997 -0.34014663 0.15040359 -0.12344323 -0.117852464 -0.15009281
-0.012071861 -0.07981718 -0.20518743 -0.25547764 -0.352416 -0.38641644 -0.3869834 -0.0730233
-0.2507682 -0.03709366 -0.094460964 -0.001598893 0.07641764 -0.24731304 -0.16150069 -0.29036808
-0.13056213 -0.21439144 0.10678966 -0.14649996 -0.105688296 -0.019171258 -0.02516455 -0.10295282
-0.0852313 -0.28662717 0.029631158 0.007285704 -0.19397353 0.159776 -0.07942855 -0.35982662
0.17042391 0.009951854 -0.1273615 0.17798436 0.006486062 -0.056661732 -0.26875484 -0.09226856
-0.049160715 0.21255831 0.0018508816 -0.019114424 0.17613983 0.1849804 0.082171865 -0.1734463
0.22495419 0.074548185 -0.006879205 0.093474455 0.07100814 0.11184376 0.035148486 0.032316692
-0.020604467 -0.061274793 0.1471488 -0.15060243 -0.11509236 -0.060691774 0.058580704 0.10239418
0.042380225 0.060275983 0.062036045 0.02499547 0.08416346 -0.15040055 0.011718722 0.0012813031
-0.10663824 0.043607 0.24822482 0.08314768 0.068746835 0.056807436 0.0016519993 0.07074096
0.039032113 0.009814451 -0.1868438 -0.077516265 -0.00015457814 0.07566042 -0.22856674 0.07561082
0.1584363 0.090090744 0.04917131 0.034520254 0.009392116 0.019664736 0.18109554 0.046277612
0.0950967 0.057095353 0.0831878 0.11350563 0.046979792 0.1631383 0.21450253 -0.028097268
0.0068413047 -0.09790303 0.013773172 0.06338184 -0.2713512 0.0768191 -0.31606567 0.11848077
-0.25100216 0.039929267 0.16038369 0.15112889 0.11572316 0.10947022 0.16724665 0.13982086
0.004353785 0.054524794 0.15507528 -0.009469835 -0.18289858 0.09190846 0.13940722 0.10142096
0.0017159578 -0.11437445 0.0436598 0.039685663 -0.02212897 -0.0803701 -0.04174986 0.07212984
0.17479225 0.007479284 0.10780014 -0.010492136 0.100498796 0.23092802 0.0054100417 -0.005896307
0.14842142 0.1587396 0.178535 0.073984005 0.058053963 -0.04891312 -0.025646793 0.07376061
0.13578677 0.044765275 -0.2059393 0.036385655 -0.10335569 -0.17699887 0.14859036 0.031912033
0.08933947 0.07070145 0.14909773 -0.18850932 0.0060371775 0.13068421 -0.021360055 0.1573524

fc3.bias f4 [2]
00000000: bfee 113e d355 d8bb
0.1425123 -0.006602028
