results/results_4/agent1_actor.pth (torch, 185131 bytes, 6 tensors)

fc1.weight f4 [256, 48]
0	0xbd5a4c50	-0.053295434
1	0xbd94b582	-0.07261182
2	0x3c8656fe	0.016398903
3	0x3bec5f5a	0.007213515
4	0x3cfcbba3	0.03085119
5	0x3c61b6ae	0.013776464
6	0x3cafc175	0.021454552
7	0x3d780b66	0.060557745
8	0xbcf03824	-0.029323645
9	0x3cf7111a	0.030159522
10	0xbd1b367c	-0.037893757
11	0xbd119d6d	-0.035550524
12	0xbcf2aea5	-0.029624293
13	0xbce962bb	-0.028489461
14	0x3cc406b4	0.023928978
15	0x3d620429	0.05517975
16	0x3c171ed1	0.009223656
17	0xbce7a163	-0.028275197
18	0x3b4bdd76	0.0031107343
19	0xbd8f5dbb	-0.070002995
20	0xbca1bf3e	-0.019744512
21	0x3d4b862d	0.049688507
22	0x3d2aab59	0.041667316
23	0x38d19b21	9.9947916e-05
24	0xbd225621	-0.03963292
25	0xbd62f39d	-0.05540811
26	0xbca03f73	-0.019561505
27	0xbd752f95	-0.05985983
28	0xbd07dc99	-0.033169363
29	0xbd203eaf	-0.03912228
30	0x3d9a1593	0.07523646
31	0xbd5e9c8b	-0.05434851
32	0x3cb95492	0.022623334
33	0xbc4df28a	-0.012570033
34	0x3d8b0ed7	0.0678994
35	0xbba036a0	-0.0048893243
36	0x3c1eaaab	0.009684245
37	0xbcdb319d	-0.026757056
38	0x3d0f8f0b	0.035048526
39	0x3d2ca56a	0.04214994
40	0x3bc447c9	0.005990003
41	0x3ae6886c	0.0017588264
42	0x3c2685ff	0.010163783
43	0xbd9f7142	-0.07785274
44	0x3cecd7a0	0.028911412
45	0x3d600447	0.05469158
46	0x3d68b72f	0.056815322
47	0xbd3ab8af	-0.045586284
48	0x3ca6575f	0.020305334
49	0x3bac33ca	0.005255197
50	0xbd4f5288	-0.050615817
51	0xbd1e6466	-0.038669966
52	0xbc6e63b4	-0.014550138
53	0xbd59b206	-0.053148292
54	0xbc909285	-0.017647991
55	0xbc721c79	-0.014777296
56	0x3d155d8b	0.036466163
57	0x3b3e2dc0	0.0029018968
58	0xbd8c506a	-0.06851275
59	0xbd057047	-0.03257778
60	0xbd6a0ca7	-0.057140972
61	0x3cfc7334	0.030816652
62	0x3ca9625d	0.020676786
63	0x3bceeb13	0.006314644
64	0xbcc56d9f	-0.024100123
65	0x3cc79eb6	0.024367671
66	0xbc2cefba	-0.010555202
67	0x3b163ceb	0.0022924494
68	0xbd57974a	-0.052634515
69	0xbcd2aa7e	-0.025716063
70	0xbccc5caa	-0.02494653
71	0xbd2e3c4a	-0.042537965
72	0xbce25296	-0.02762727
73	0x3d726334	0.05917664
74	0x3c43ad18	0.011943124
75	0xbc88607c	-0.01664757
76	0xbd06c0ef	-0.03289884
77	0xbd6faf18	-0.05851659
78	0x3c04348b	0.008069168
79	0xbd877885	-0.06614784
80	0xbaecea36	-0.0018075171
81	0xbd315372	-0.04329247
82	0xbc0a4851	-0.008440093
83	0x3d028f52	0.031874962
84	0x3d5531d1	0.05204946
85	0xbd9e6a58	-0.07735127
86	0xbd10a660	-0.035314918
87	0xbd09f92d	-0.0336849
88	0xbcdf1dbd	-0.02723586
89	0x3cc567d0	0.024097353
90	0x3d4178cf	0.047234353
91	0xbd13e691	-0.036108557
92	0xbd4f5a50	-0.050623238
93	0xba79fc76	-0.0009536216
94	0xbcc10dc6	-0.023566138
95	0x3b7005c2	0.0036624526
96	0x3ca4d9e3	0.020123428
97	0xbd8a0e4a	-0.06741007
98	0x3d776027	0.060394432
99	0xbd02ba75	-0.0319161
100	0xbb2c2593	-0.0026267513
101	0x3d8f8203	0.0700722
102	0x3d0583af	0.032596286
103	0x3d7972d3	0.06090052
104	0x3cdfc911	0.027317556
105	0xbd11b52e	-0.035573177
106	0x3a82e9d2	0.0009987897
107	0x3d8590a5	0.065217294
108	0xbc68a4e8	-0.014199473
109	0x3d6b3d57	0.057431545
110	0xbcf37ac8	-0.029721633
111	0xbc8a0579	-0.016848313
112	0xbcb5d8f7	-0.022198183
113	0x3cdfa416	0.027299922
114	0xbc918dc5	-0.017767796
115	0x3cd32a01	0.025776865
116	0x3cee356a	0.029078204
117	0x3d26be67	0.040708926
118	0xbd091561	-0.033467654
119	0x3d26452f	0.040593322
120	0x3c0953ad	0.008381766
121	0xbd9a6a9c	-0.075398654
122	0xbd2ae545	-0.041722555
123	0x3b02615f	0.0019894463
124	0xbd06f4db	-0.032948356
125	0x3d8e281c	0.06941244
126	0x3cd88a2e	0.026433077
127	0xbcaf9884	-0.02143503
128	0xbcf1f6d7	-0.029536648
129	0x3d31f52d	0.04344671
130	0x3c7f8343	0.01559526
131	0x3d0cec6e	0.034405164
132	0xbd007430	-0.031360805
133	0x3d981b9e	0.074271426
134	0x3d9e72a3	0.07736709
135	0xbd83136d	-0.064001895
136	0x3c1e6838	0.009668402
137	0x3ca6c1bc	0.020356052
138	0xbd044975	-0.032296617
139	0xbd020c73	-0.031750154
140	0xbd37434a	-0.044741906
141	0x3bdc02b3	0.006714189
142	0x3d98266a	0.07429202
143	0xbd820a4c	-0.0634962
144	0xbbea04f6	-0.0071417047
145	0x3d2a99f6	0.041650735
146	0x3a72cd93	0.00092622003
147	0x3c9e2bd6	0.019308012
148	0xbd4a135f	-0.04933488
149	0x3d17f747	0.037101056
150	0x3d475f03	0.048674595
151	0xbd3ddf46	-0.04635551
152	0xbd031385	-0.032001037
153	0xbcdc38a0	-0.02688247
154	0x3d2ddb51	0.042445485
155	0x3d1e1eb7	0.03860351
156	0xbc3b06f5	-0.011415233
157	0x3cf24ca1	0.029577555
158	0x3ca3ee4c	0.02001109
159	0x3d7b141f	0.061298486
160	0x3d028d30	0.03187293
161	0xbd055757	-0.032553997
162	0x3d8252a1	0.063634165
163	0x3ab5f71c	0.0013882848
164	0x3d1011ff	0.035173412
165	0xbd3a7aa8	-0.04552713
166	0xbcf98b76	-0.030462008
167	0x3cb73cd8	0.02236788
168	0xbbb0e5ab	-0.0053984723
169	0xbbfcf0b4	-0.0077191237
170	0xbd6ad5b3	-0.057332706
171	0xbcbc45d2	-0.022982512
172	0xbd48e9cd	-0.049051095
173	0xba3c28d8	-0.0007177717
174	0xbcf48a40	-0.029851079
175	0xbcd26ada	-0.025685716
176	0xba018cfe	-0.0004941969
177	0xbcdaa396	-0.026689332
178	0x3c25bc8d	0.010115755
179	0x3d598d8b	0.0531135
180	0x3d2b957f	0.041890617
181	0xbc74f7e7	-0.014951683
182	0x3d3618a6	0.0444571
183	0xbc4773e5	-0.0121736275
184	0x3c9c5581	0.01908374
185	0xbbf55ba9	-0.0074877334
186	0x3d1b1c0f	0.037868556
187	0xbb497010	-0.003073696
188	0x3cc58147	0.024109496
189	0x3d85d0fb	0.065340005
190	0xbd3d1ceb	-0.046170156
191	0xbc80a4f2	-0.015703652
192	0xbd8e71a9	-0.06955273
193	0xbd3c83b7	-0.04602405
194	0xbd76d335	-0.060260016
195	0x3cc32ff4	0.023826577
196	0xbd2761f4	-0.0408649
197	0x3a64d0c1	0.00087286165
198	0x3bd432a6	0.0064757643
199	0xbb11ec26	-0.0022266
200	0x3c1c4f8b	0.009540449
201	0xbd0b6804	-0.034034744
202	0xbc1847a6	-0.009294426
203	0x3cdf2643	0.027239924
204	0x3d201d91	0.039090697
205	0x3d2e018f	0.042481955
206	0xbd9ca429	-0.076484986
207	0x3d8aad08	0.06771284
208	0xbbfc5d4e	-0.0077015525
209	0x3d42c4c5	0.047550935
210	0x3c663119	0.014049792
211	0x3cdbff50	0.02685514
212	0x3d489751	0.04897243
213	0x3cf39ba2	0.029737297
214	0x3d6747f1	0.056465093
215	0xbd2122f9	-0.039339993
216	0xb9ae90da	-0.0003329579
217	0x3cfd0a2b	0.030888638
218	0xbd7e6046	-0.062103532
219	0xbd4fed05	-0.05076315
220	0xbcf3b992	-0.029751573
221	0x3d1b1799	0.0378643
222	0xbb2a7bfc	-0.0026013842
223	0x3d8e6866	0.06953506
224	0xbd043e8c	-0.03228621
225	0xbcfe25bb	-0.03102385
226	0xbd59f23f	-0.05320954
227	0x3d8bce9e	0.068265185
228	0xbd3b68d7	-0.04575428
229	0xbd0200a5	-0.031738896
230	0x3a6924cd	0.00088937284
231	0x3bcc343d	0.006231813
232	0xbd296948	-0.04136017
233	0xbc35c089	-0.011093267
234	0xbd73319f	-0.059373494
235	0x3d01a78a	0.03165392
236	0x3c145919	0.009054446
237	0x3b8a8543	0.004227312
238	0x3b3cec9e	0.0028827558
239	0xbcb43920	-0.021999896
240	0xbcd1694d	-0.025562907
241	0xbd777b42	-0.060420282
242	0x3d5d3259	0.054003093
243	0xbd2b870c	-0.041876838
244	0x3bddb7d0	0.006766297
245	0x3d860dac	0.065455765
246	0x3d91c2a5	0.071172036
247	0xbd318a24	-0.04334463
248	0x3c8605dc	0.016360216
249	0xbd3438dc	-0.043999538
250	0x3ca3864e	0.019961502
251	0xbd0d68b5	-0.034523685
252	0xbc38b955	-0.011274655
253	0xbb91139d	-0.004427387
254	0xb9f04161	-0.00045825078
255	0xbd1e2bbd	-0.03861593

fc1.bias f4 [256]
0	0x3c9974eb	0.018732509
1	0xbabde3a9	-0.0014487404
2	0x3a3ad6a8	0.0007127323
3	0xbdc3b7dc	-0.09556553
4	0xbd42b8ab	-0.047539394
5	0x3d1f0105	0.03881933
6	0xbd8a376e	-0.067488536
7	0x3dff69e8	0.12471372
8	0xbcbc9f55	-0.023025194
9	0xbd0c4600	-0.034246445
10	0xbdd51b37	-0.104055814
11	0x3d97e65e	0.07416986
12	0x3e11c347	0.14234649
13	0x3df3c653	0.11903062
14	0xbe088ceb	-0.13335006
15	0xbcdd86ea	-0.027041871
16	0xbd123281	-0.035692696
17	0xbd00070b	-0.031256717
18	0xbe0ae010	-0.13562036
19	0x3e129abf	0.14316843
20	0x3dd074a0	0.101784945
21	0xbddb2fee	-0.10702501
22	0x3d9737f8	0.07383722
23	0xbd50bfc1	-0.05096412
24	0x3de970a8	0.113984406
25	0xba957675	-0.0011403101
26	0x3d6e784a	0.058220185
27	0xbbf55938	-0.0074874423
28	0xbd1ba8e8	-0.03800288
29	0xbe034a8f	-0.1282141
30	0xbdfb99cd	-0.122851945
31	0x3dfceeb1	0.12350214
32	0x3e117774	0.14205724
33	0x3e0f7459	0.14009227
34	0x3db0cece	0.08633195
35	0xbe05c6ec	-0.13064164
36	0xbddb5721	-0.10709978
37	0x3d157465	0.036487956
38	0xbe0318cc	-0.12802428
39	0x3b22aa05	0.0024820578
40	0x3d67b240	0.056566477
41	0xbd263804	-0.040580764
42	0x3cb3316d	0.021874154
43	0x3c3c3074	0.0114861615
44	0xbd4a6245	-0.049410123
45	0x3a815b4d	0.0009869129
46	0x3d12432c	0.03570859
47	0xbdecd458	-0.11563939
48	0x3e0fca67	0.14042054
49	0x3e1686dc	0.14699882
50	0xbde5d38c	-0.1122199
51	0xbd0e06ca	-0.034674443
52	0xbb50b514	-0.0031846212
53	0x3bc812fd	0.006105779
54	0xbd59e36c	-0.053195402
55	0x3c09298d	0.008371723
56	0x3cfb0df1	0.030646296
57	0x3c9f878b	0.019473812
58	0x3d85c2a9	0.06531269
59	0x3c340ecc	0.010989856
60	0x3d2b7a12	0.041864462
61	0xbd09cfa1	-0.033645276
62	0xbcf7a0b7	-0.030228002
63	0x3d98fb66	0.074698254
64	0x3dcc8138	0.09985584
65	0x3b0f2947	0.0021844672
66	0xbdd99466	-0.10624008
67	0x3d726933	0.059182357
68	0xbdd298ca	-0.102830485
69	0x3d52a10c	0.051423118
70	0x3e13acbc	0.14421362
71	0xbde39a93	-0.11113467
72	0xbcd955cc	-0.026530169
73	0x3df0f680	0.11765766
74	0x3d22ae90	0.039717257
75	0x3e0e48c0	0.1389494
76	0xbd6a28db	-0.05716787
77	0xbc759a61	-0.01499042
78	0xbdb98d76	-0.09060185
79	0xbda6f0f1	-0.08151425
80	0x3d0fc88e	0.035103373
81	0x3e03e0c1	0.12878706
82	0x3e08ddcd	0.1336586
83	0xbd4a3877	-0.049370255
84	0x3dff57ab	0.12467893
85	0xbdc4be22	-0.096065775
86	0xbe0af193	-0.13568716
87	0x3caa3b85	0.020780334
88	0x3e1011ec	0.14069337
89	0x3de2cbe6	0.11074047
90	0xbdcb2df6	-0.09920876
91	0xbd379cb7	-0.04482719
92	0x3e0775ad	0.13228483
93	0x3da8f82d	0.08250461
94	0xbc1cbd3d	-0.009566602
95	0xbd6850c7	-0.05671766
96	0x3dbb6d13	0.09151664
97	0x3dd9c8a2	0.10633971
98	0x3dcc817e	0.09985636
99	0x3d95e157	0.07318371
100	0xbd64edac	-0.055890724
101	0xbe1e3d17	-0.15452991
102	0x3e0d98b0	0.13827777
103	0x3d22e82e	0.039772205
104	0x3b4bfeff	0.0031127331
105	0x3d754ac6	0.059885763
106	0xbd32914a	-0.04359559
107	0xbdcb7260	-0.09933925
108	0x3daa6ec5	0.08321909
109	0xbcdc0140	-0.026856065
110	0xbe08eee1	-0.13372375
111	0xbd31a854	-0.04337342
112	0xbcd4b8ce	-0.025967028
113	0xbdd3bf26	-0.10339193
114	0xbded89b8	-0.115985334
115	0xbcf52956	-0.029926937
116	0xbdf500f2	-0.11963071
117	0x3dac1e0f	0.08404171
118	0xbe0c9b59	-0.13731135
119	0xbd9fdf2b	-0.07806238
120	0xbdb98b83	-0.09059813
121	0xbd3be2b6	-0.045870505
122	0xbe170242	-0.14746955
123	0xbd2b4f00	-0.041823387
124	0xbda341df	-0.07971548
125	0x3dc526ca	0.09626539
126	0xbde01fa0	-0.10943532
127	0x3e109efb	0.14123146
128	0x3e130208	0.14356244
129	0x3cf780b5	0.03021274
130	0xbb964078	-0.004585322
131	0xbda84e9c	-0.082181185
132	0xbd8fd04f	-0.070221536
133	0xbdc31115	-0.095247425
134	0x3cc54354	0.024079956
135	0x3e0c9ec4	0.1373244
136	0xbd784dfe	-0.060621254
137	0xbdade4bc	-0.08490893
138	0x3cda3705	0.026637563
139	0xbe00d923	-0.12582831
140	0xbd3196f6	-0.04335686
141	0xbdc24006	-0.09484868
142	0xbdb32e32	-0.087490454
143	0xbd468c44	-0.04847361
144	0x3dc8e58e	0.09809409
145	0x3d66d197	0.056352224
146	0x3d454ab2	0.048166938
147	0x3df48ed0	0.11941302
148	0x3dbd3514	0.092386395
149	0xb7adc5d8	-2.0715335e-05
150	0x3d33df7e	0.04391431
151	0xbc6922fc	-0.014229532
152	0x3d8c4681	0.06849385
153	0x3d17be76	0.037046872
154	0x3d883a15	0.06651703
155	0xbe1978a6	-0.1498743
156	0xbc990747	-0.018680228
157	0x3d996c0d	0.07491312
158	0x3d5ee8a0	0.054421067
159	0x3d3ef200	0.046617508
160	0xbd659c15	-0.056057055
161	0x3d90a77a	0.070631936
162	0xbcac82bb	-0.02105843
163	0xbd8ddf91	-0.069274075
164	0xbdc7cf3f	-0.09756326
165	0x3c779220	0.0151105225
166	0xbde082b1	-0.109624274
167	0x3da0e1ad	0.07855544
168	0x3ba57f1e	0.005050554
169	0xbce9a647	-0.02852167
170	0x3dfdc80a	0.1239167
171	0x3b26080c	0.0025334386
172	0x3c7aca2f	0.015306993
173	0x3de1ea56	0.11031024
174	0x3c6c6985	0.014429455
175	0x3b7427ed	0.0037255243
176	0x3e077393	0.13227682
177	0xbe066557	-0.13124596
178	0x3d96c13d	0.07361076
179	0x3d1bbd7a	0.038022496
180	0xbc8000ab	-0.015625319
181	0x3d41c229	0.047304306
182	0xbb482211	-0.0030537883
183	0xbda5c0e5	-0.08093432
184	0xbde40839	-0.11134381
185	0xbdad66e1	-0.08466888
186	0x3e09906a	0.13433996
187	0x3defdc92	0.11711992
188	0xbc36cce2	-0.011157246
189	0x3d8bf983	0.068347
190	0x3d9c0757	0.076185875
191	0x3e044f85	0.1292096
192	0x3d187497	0.037220564
193	0x3dc497e1	0.09599281
194	0xbd0fcd3b	-0.035107832
195	0x3d090ddf	0.033460494
196	0xbdc4f9f1	-0.09617985
197	0xbe0ad05b	-0.13556044
198	0xbc82e158	-0.015976593
199	0xbe0416c8	-0.12899315
200	0x3d6e9a88	0.05825284
201	0x3dca4c07	0.09877782
202	0x3c8575eb	0.01629158
203	0xbe0a458f	-0.13503097
204	0x3d96f4f3	0.07370939
205	0x3dfd2ec1	0.12362433
206	0x3c835747	0.016032828
207	0xbe113164	-0.14178997
208	0xbd475965	-0.048669238
209	0x3e091ff0	0.1339109
210	0xbdc840d6	-0.097779915
211	0xbdd02283	-0.101628326
212	0x3ded0efe	0.11575125
213	0x3db51de7	0.08843594
214	0x3ac4ea7a	0.0015023493
215	0x3e12d581	0.14339258
216	0xbe01783f	-0.12643526
217	0x3d9abe9e	0.075558886
218	0xbe1bc750	-0.1521275
219	0xbd6eb05b	-0.058273654
220	0x3dde44b2	0.10852946
221	0xbdacc14d	-0.08435307
222	0xbe060c1c	-0.13090557
223	0x3c483ac7	0.012221045
224	0x3e1e513d	0.15460677
225	0xbd819e0a	-0.06328972
226	0xbe0b9919	-0.13632621
227	0x3da7d5ca	0.08195074
228	0x3df9e4af	0.12201821
229	0xbdaa02c0	-0.08301306
230	0xbd96567d	-0.07340715
231	0x3d7e2928	0.06205097
232	0x3d23bb56	0.03997358
233	0xbdcefb0d	-0.10106478
234	0xbca44678	-0.020053133
235	0x3c404d30	0.011737153
236	0x3c9433c0	0.018091083
237	0x3dbaf86e	0.091294155
238	0x3db634f0	0.08896816
239	0x3a4e4f38	0.0007870081
240	0x3dddb550	0.10825598
241	0xbe0064b7	-0.1253842
242	0x3d04fc14	0.032466963
243	0xbbe3f15f	-0.006956264
244	0xbdd89e99	-0.10577125
245	0xbd1f9895	-0.038963873
246	0xbd41f258	-0.047350258
247	0xbe02e8cb	-0.12784116
248	0x3c82485a	0.01590364
249	0x3e1cb540	0.15303516
250	0xbdb42625	-0.08796338
251	0xbc4774b1	-0.0121738175
252	0xbd0b69df	-0.034036513
253	0xbd9b0dd0	-0.07570994
254	0x3d93fd1d	0.07226012
255	0xbe0c2e0f	-0.13689445

fc2.weight f4 [128, 256]
0	0xbd48a90d	-0.048989344
1	0x3d37f4e6	0.044911288
2	0x3d7e3c61	0.0620693
3	0xbc0d4d76	-0.008624425
4	0xbc8b0a9a	-0.016972829
5	0x3c566711	0.013086096
6	0x3d49c2aa	0.04925791
7	0x3c16d752	0.00920661
8	0xbd3c8c18	-0.04603204
9	0xbd32d46b	-0.04365961
10	0xbb6b5d56	-0.0035913787
11	0x3d1a2ea8	0.03764215
12	0xbd9c770e	-0.076398954
13	0xbbe6a9f5	-0.0070393034
14	0x3daee466	0.08539657
15	0x3c025cfd	0.00795674
16	0xbd7d378e	-0.06182056
17	0xbd2c3f27	-0.042052414
18	0xbd182d2d	-0.037152458
19	0xbc8281e8	-0.015931085
20	0xbd9b2d08	-0.075769484
21	0x3d01ee88	0.03172162
22	0xbd433b0f	-0.047663745
23	0x3d2f24e8	0.042759806
24	0xbd5a0f8f	-0.053237494
25	0xbcaa750b	-0.020807764
26	0xbafb3b71	-0.0019167495
27	0x3d9762b3	0.07391872
28	0xbd6d529d	-0.057940114
29	0xbd4a85ec	-0.049444124
30	0xbd706d29	-0.058697853
31	0x3b4b2efa	0.0031003342
32	0x3db4d630	0.088299155
33	0x3c0c004e	0.0085449945
34	0xbd98701b	-0.074432574
35	0xbbe38700	-0.0069435835
36	0xbd032aee	-0.032023363
37	0xbd150659	-0.036383007
38	0x370d95d4	8.4391395e-06
39	0xbd1493d3	-0.03627379
40	0xbd7c5538	-0.06160471
41	0x3d9d1f85	0.076720275
42	0xbd930ec7	-0.07180553
43	0xbd95dd6d	-0.07317624
44	0xbcebdebc	-0.028792731
45	0xbd37c6b1	-0.04486722
46	0xbd52faf9	-0.051508877
47	0x3dc7fbac	0.097647995
48	0xbd899195	-0.06717221
49	0x3d953beb	0.07286819
50	0x3dca5789	0.09879977
51	0xbcd40aa0	-0.025883973
52	0x3d56a0f8	0.052399606
53	0x3cdcba75	0.026944378
54	0x3c4a8597	0.012360952
55	0xbce74d67	-0.02823515
56	0xbcc5c27b	-0.024140587
57	0x3d36947d	0.044575203
58	0x3b707b1e	0.0036694477
59	0x3d3fa2bc	0.046786055
60	0x3d0493bb	0.03236745
61	0x3cfa470f	0.030551462
62	0x3cec7bc6	0.028867614
63	0xbb09f338	-0.002104951
64	0x3da495be	0.080363736
65	0x3dbc7ee3	0.09203889
66	0x395f2cd6	0.0002128364
67	0xbd2281f0	-0.0396747
68	0xbceec02f	-0.029144375
69	0x3bd06ddf	0.006360754
70	0xbbcb4382	-0.006203116
71	0xbd2dd101	-0.04243565
72	0x3cf4c7ef	0.029880492
73	0x3d7d3170	0.061814725
74	0x3d42b110	0.04753214
75	0x3dcb8e9a	0.099393085
76	0x3c8faee1	0.017539443
77	0x3c49741c	0.012295749
78	0xbc18ca9f	-0.009325652
79	0x3aca5ef5	0.0015439676
80	0xbd2a95f2	-0.041646905
81	0xbc3fd6d1	-0.011708931
82	0x3d0ec207	0.034853008
83	0xbc11d6ce	-0.008901311
84	0x3c941f52	0.018081341
85	0x3d506516	0.050877653
86	0x3d8f1128	0.06985694
87	0x3d8f9aeb	0.0701197
88	0xbd92e201	-0.07172013
89	0x3d59accc	0.053143308
90	0xbd30183b	-0.042991858
91	0xbd89d275	-0.067295946
92	0xbd095898	-0.033531755
93	0xbc60fcc9	-0.013732144
94	0x3d2cbde4	0.04217328
95	0x3c9032c2	0.017602328
96	0xbd07a6cb	-0.03311805
97	0x3da0253e	0.078196034
98	0x3d0d4e7b	0.034498673
99	0x3dc178b6	0.09446852
100	0x3da8a3b1	0.08234347
101	0x3c846c9f	0.016165076
102	0x3d8383d7	0.06421631
103	0xbd7d29e9	-0.061807547
104	0xbd6bb3ef	-0.057544645
105	0x3da0bebf	0.07848882
106	0x3c8dc775	0.017307023
107	0xbc82df36	-0.015975576
108	0xbca8e4a6	-0.02061684
109	0xbdabc398	-0.08386916
110	0x3d8f7b08	0.07005888
111	0x3da6e9ac	0.08150038
112	0xbd3096e8	-0.043112665
113	0xbd8e6233	-0.06952324
114	0xbb5c2be6	-0.0033595501
115	0x3cb2f071	0.021843167
116	0xbd91f5df	-0.07126974
117	0xbc04a3d9	-0.008095705
118	0xbd6f861a	-0.0584775
119	0x3d1e87f6	0.03870388
120	0xbc862d80	-0.016379118
121	0xbd0b165f	-0.03395688
122	0xbd8b73fd	-0.068092324
123	0xbc28ddcb	-0.010306786
124	0x3dbdafd2	0.09262051
125	0x3c534e9c	0.01289716
126	0x3d611d53	0.054959606
127	0x3d04e07c	0.032440647
128	0xbd9b1188	-0.07571703
129	0x3d84a677	0.06477063
130	0x3d51caca	0.051218785
131	0xbdc3930a	-0.0954953
132	0xbc8a5c1f	-0.01688963
133	0x3d26c645	0.04071643
134	0x3da2a115	0.0794088
135	0xbd8a53b0	-0.067542434
136	0x3d07ba5b	0.033136707
137	0x3d3f3eaa	0.04669062
138	0x3d2a22dc	0.04153715
139	0xbc99fd0c	-0.01879742
140	0x3d83f46a	0.06443103
141	0x3d8de2dc	0.069280356
142	0x3dac280b	0.08406075
143	0xbd7332d6	-0.059374653
144	0x3dc79845	0.0974584
145	0x3d58e2d1	0.052950684
146	0x3d34fe91	0.044188086
147	0xbd2ffd88	-0.042966396
148	0x3d8edd30	0.06975782
149	0x3c6a66c4	0.014306728
150	0x3d369741	0.04457784
151	0xbd5b9f45	-0.053618688
152	0x3d308acd	0.04310112
153	0xbbde257c	-0.006779371
154	0xbc600eb0	-0.013675377
155	0x3db9a338	0.09064335
156	0x3c5e44de	0.013566224
157	0xbc7c7790	-0.015409365
158	0x3caddb7a	0.021222819
159	0x3cf0059d	0.029299552
160	0xbd105c28	-0.035244137
161	0xbca54f0e	-0.020179298
162	0xbbcdc8bd	-0.0062800334
163	0xbd85a225	-0.06525067
164	0x3dc86a75	0.0978593
165	0x3c2497a3	0.010045919
166	0x3d7b5cea	0.061367907
167	0x3da5275c	0.08064148
168	0xbd3249b0	-0.043527305
169	0x3d0b72ea	0.034045137
170	0x39e16990	0.00042993994
171	0xbd34fa52	-0.044184037
172	0x3cf601ad	0.030030096
173	0xbd993d9e	-0.07482456
174	0x3db2d80e	0.087326154
175	0xbcc22225	-0.023697922
176	0x3d45755f	0.048207637
177	0xbc6f6f6c	-0.014613967
178	0x3d573a6c	0.05254595
179	0xbc993af3	-0.018704867
180	0x3d96e759	0.07368345
181	0x3d6f9e64	0.058500662
182	0x3d9ae4fa	0.07563205
183	0x3da55d52	0.0807444
184	0x3d62ce31	0.05537242
185	0x3d92df0b	0.07171448
186	0x3d881aed	0.06645761
187	0x3a58521d	0.0008251982
188	0xbd27dc83	-0.04098178
189	0x3d953644	0.07285741
190	0x3dbbe8a7	0.09175234
191	0xbcec71d5	-0.028862873
192	0xbd5d6f2f	-0.05406111
193	0x3c55e71e	0.013055591
194	0xbcb26663	-0.021777337
195	0x3ca83791	0.020534309
196	0x3ccb88b8	0.024845466
197	0x3d907651	0.07053817
198	0x3be39d17	0.006946217
199	0xbd6201d1	-0.055177514
200	0xbd001b35	-0.031275947
201	0xbd347b3d	-0.04406284
202	0x3d8e8197	0.06958311
203	0x3da6c97b	0.08143898
204	0x3d58461b	0.052801233
205	0xbd12fb7b	-0.03588436
206	0xbd178416	-0.0369912
207	0x3da2f914	0.07957664
208	0x3bf2fd25	0.007415431
209	0x3daa5a02	0.08317949
210	0xbbb8f977	-0.005644973
211	0x3d0ca762	0.034339316
212	0xbd2829ce	-0.041055493
213	0x3d818d0a	0.06325729
214	0x3d4ea28b	0.05044798
215	0x3bc4d36b	0.0060066483
216	0x3d9504b5	0.072762884
217	0x3d14928d	0.036272574
218	0x3da06c1d	0.07833121
219	0xbd433d70	-0.047666013
220	0x3dbf16f6	0.09330551
221	0xbcf9833c	-0.030458085
222	0x3d312ad6	0.043253742
223	0x3c8dcd3f	0.017309783
224	0x3d6dd409	0.05806354
225	0xbd639d86	-0.055570148
226	0x3dc25f27	0.09490805
227	0xbcf30276	-0.02966426
228	0x3c9af6ec	0.01891657
229	0xbd8c0663	-0.06837156
230	0x3c41c822	0.011827501
231	0x3c936077	0.017990334
232	0x3c45d4d2	0.012074666
233	0x3da17376	0.078833506
234	0xbd45d21a	-0.04829607
235	0xbc9c30f2	-0.019066308
236	0x3c2266ec	0.009912234
237	0x3c23234b	0.009957145
238	0xbc89cda6	-0.016821694
239	0x3dc1997e	0.094531044
240	0x3d1d0cd9	0.03834233
241	0xbd4b1c1f	-0.049587365
242	0x3d96f46b	0.07370838
243	0x3bd51496	0.006502698
244	0xbd56db34	-0.052455142
245	0xbd256f86	-0.04038956
246	0x3da772a6	0.08176164
247	0x3d765e77	0.060148682
248	0x3d4899ad	0.04897468
249	0x3b3824c6	0.002809809
250	0xbd23d6a8	-0.039999634
251	0x3d7f04c2	0.062260397
252	0x3c622cdb	0.01380464
253	0x3daa3b1b	0.08312055
254	0xbd955d53	-0.07293191
255	0x3dc5db23	0.09660938

fc2.bias f4 [128]
0	0x3d05949b	0.032612424
1	0x3d07131c	0.03297721
2	0x3c5223db	0.012825931
3	0x3cc3c88d	0.023899341
4	0xbd3854b1	-0.045002643
5	0x3bfe8a09	0.00776792
6	0xbd498f1c	-0.049208745
7	0x3cb8565f	0.022502122
8	0xbb6f7c26	-0.0036542504
9	0x3c540a6b	0.012941937
10	0xbc5a8121	-0.013336451
11	0x3d84e46a	0.06488879
12	0xbd17396c	-0.036919996
13	0x3d242543	0.040074598
14	0x3d0fe0e9	0.0351266
15	0xbd4d598a	-0.05013422
16	0x39fde1a0	0.00048424024
17	0xba4c9876	-0.0007804701
18	0x3d1e4553	0.03864033
19	0xbbc5466d	-0.0060203583
20	0x3cebbe82	0.028777365
21	0x3cd1827d	0.025574917
22	0x3d0b7b58	0.034053177
23	0x3d27ed3e	0.040997736
24	0x3c035f7c	0.008018371
25	0x3c990019	0.018676804
26	0x3d1eaa8a	0.038736857
27	0xbd436c68	-0.047710806
28	0x3b48db55	0.003064831
29	0xbced4bfe	-0.0289669
30	0xbd2e52c8	-0.042559415
31	0xbc2f97fa	-0.010717386
32	0xbd128cdb	-0.03577886
33	0x3d40a8b9	0.047035906
34	0xbb6f83c6	-0.003654705
35	0xbd419c87	-0.047268417
36	0xbd3beda0	-0.045880914
37	0x3c2555e3	0.010091278
38	0xbd8bdf1e	-0.068296656
39	0x3d3f078d	0.04663806
40	0x3b0123ef	0.0019705256
41	0x3d336650	0.043798745
42	0x3d8598d6	0.06523292
43	0xbd4060df	-0.046967383
44	0x3ce9468c	0.028476022
45	0xbd46c930	-0.04853171
46	0xbce872e8	-0.028375104
47	0xbd65775e	-0.05602204
48	0xbc6b9745	-0.014379327
49	0xbcbe8b37	-0.023259742
50	0x3d88f0db	0.066865645
51	0x3d1924dd	0.03738867
52	0xbb1ef892	-0.0024257046
53	0xbc8f3d3a	-0.01748525
54	0xbcf7d71c	-0.03025394
55	0xbbcdc611	-0.006279715
56	0xbc90034d	-0.017579699
57	0x3d362854	0.044472054
58	0x3d0f2a4e	0.034952454
59	0x3d75c3c1	0.06000114
60	0x3d39af58	0.045333236
61	0x3d891d14	0.06694999
62	0x3bb55a17	0.005534421
63	0xbbe34d61	-0.0069367145
64	0xbd5d695d	-0.05405556
65	0x3cf8ef21	0.030387463
66	0xbb4c7f59	-0.0031203835
67	0xba933734	-0.0011231662
68	0x3d4b6eaf	0.049666103
69	0x3d6f357c	0.058400616
70	0x3d3e0ab4	0.046396926
71	0x3cc8f106	0.024528991
72	0x3d1ac251	0.03778297
73	0x3bf89118	0.007585656
74	0xbc7269e4	-0.014795754
75	0xbc929839	-0.017894851
76	0x3d8356f6	0.06413071
77	0xbb1a8fed	-0.0023584322
78	0xbd072ee7	-0.033003714
79	0x3d83582b	0.06413301
80	0xbd6b06a5	-0.057379384
81	0x3d82aa22	0.063801065
82	0xbd38e1a8	-0.045137078
83	0xbd48513d	-0.0489056
84	0xbcfb13c5	-0.030649075
85	0xbc8c9cac	-0.01716455
86	0xbbcd8433	-0.006271863
87	0x3d5404e7	0.051762488
88	0x3d8834d5	0.06650702
89	0x3cffdaf6	0.031232338
90	0xbd44d76c	-0.048057005
91	0x3d51ed8c	0.051251933
92	0xbcb28e8a	-0.021796484
93	0x3afa017e	0.0019073931
94	0x3bd7836a	0.006576945
95	0x3c977161	0.01848668
96	0xbd710f46	-0.058852457
97	0xbd6fda33	-0.0585577
98	0x3d88a8f3	0.066728495
99	0x3ce37fc4	0.027770884
100	0xbc8dd9fa	-0.017315853
101	0x3d86f63f	0.065899365
102	0xbce03681	-0.02736974
103	0xbc735a34	-0.014853049
104	0xbc846d1e	-0.016165312
105	0xbb87067e	-0.004120647
106	0x3d82ec4a	0.06392725
107	0x3c9c600b	0.019088766
108	0x3c4b54a5	0.012410318
109	0xbc648ada	-0.01394912
110	0x3d241a01	0.04006386
111	0xbd120a34	-0.03565426
112	0xbd26c476	-0.040714704
113	0xbcbe13b4	-0.023202755
114	0x3cbfead6	0.023427408
115	0x3d5c6b51	0.053813282
116	0xbd0534f5	-0.032521207
117	0x3d224270	0.03961414
118	0x3d5f3148	0.054490358
119	0x3c5601b5	0.01306193
120	0xbcd11ebc	-0.02552735
121	0x3bc7a12c	0.006092211
122	0x3b260b83	0.0025336451
123	0xbc9ac00a	-0.0188904
124	0x3c9a084e	0.018802788
125	0x3ca2cc50	0.019872814
126	0x3d1cd2c9	0.038286958
127	0x3c2570ff	0.010097741

fc3.weight f4 [2, 128]
0	0xbc6c1cce	-0.014411164
1	0xbc91564e	-0.017741349
2	0xbca2dac6	-0.01987971
3	0xbc2c600f	-0.010520949
4	0xbc60a632	-0.013711499
5	0xbc702ad9	-0.014658653
6	0x3ad714a1	0.0016409346
7	0xbc927e49	-0.017882483
8	0xbc86e400	-0.01646614
9	0xbbd8baf6	-0.0066140844
10	0xbc5faea2	-0.013652476
11	0xbc899e19	-0.01679902
12	0xbc8d34f1	-0.017237158
13	0xbc9262e7	-0.017869426
14	0xbc52e320	-0.012871534
15	0xbc2f8d17	-0.010714791
16	0xbc190408	-0.00933934
17	0xbba071bd	-0.004896371
18	0xbbfd923c	-0.0077383798
19	0xbc4919e9	-0.012274244
20	0xbc873281	-0.016503574
21	0xbc8dd0fa	-0.017311562
22	0xbc0ce0da	-0.008598531
23	0xbc660915	-0.014040251
24	0xbc6bc736	-0.014390757
25	0xbc7608c9	-0.015016743
26	0xbc0e9dbd	-0.0087046
27	0xbbbc75e4	-0.0057513583
28	0xbc75f57e	-0.015012143
29	0xbc8966be	-0.016772624
30	0xbc31fbed	-0.010863286
31	0xbbb7f9fc	-0.0056145173
32	0xbc39ae1d	-0.011333016
33	0xbc5364eb	-0.012902479
34	0xbc4ef37f	-0.012631296
35	0xbc961392	-0.018319879
36	0xbc8675d3	-0.016413605
37	0xbc10abc8	-0.008830018
38	0xbba89ecc	-0.005145883
39	0xbbe09191	-0.0068532904
40	0xbc9b9419	-0.018991517
41	0xbc5bce55	-0.013415893
42	0xbc726fbe	-0.014797149
43	0xbc8f5dee	-0.017500844
44	0x3aa7180c	0.0012748255
45	0xbc3aee60	-0.011409372
46	0xbca2264f	-0.019793658
47	0xbc3731cc	-0.011181306
48	0xbc8dd724	-0.017314501
49	0xbc744920	-0.0149100125
50	0xbc8bfb78	-0.017087683
51	0xbc3543ea	-0.011063555
52	0xbc997a50	-0.018735081
53	0xbc83aec7	-0.016074551
54	0xbc938682	-0.018008474
55	0xbc1f758d	-0.009732616
56	0xbc7720e3	-0.015083524
57	0xbc8b1433	-0.016977405
58	0xbc532c24	-0.012888942
59	0xbc8d795f	-0.017269788
60	0xbc76cea2	-0.015063914
61	0xbc865e3f	-0.016402362
62	0xbc2e3f8a	-0.010635266
63	0xbb922bd5	-0.0044607916
64	0xbc055569	-0.008138039
65	0xbc696a5f	-0.014246552
66	0xbc5465a4	-0.012963686
67	0xbc21db74	-0.009878982
68	0xbc8f99f5	-0.017529467
69	0xbc66ea35	-0.014093925
70	0xbc1b3ac0	-0.009474456
71	0xbc88e5c9	-0.016711133
72	0xbc933db1	-0.017973753
73	0xbc958269	-0.018250661
74	0xbcaf37c1	-0.02138889
75	0xbc1cb1a1	-0.009563834
76	0xbc9cf273	-0.019158578
77	0xbc830326	-0.015992712
78	0xbc8d1e72	-0.017226432
79	0xbc7d1776	-0.015447488
80	0xbc352053	-0.01105507
81	0xbc81fe2f	-0.015868274
82	0xbc5f4b6b	-0.013628821
83	0xbc37b75d	-0.011213151
84	0xbc9c7e36	-0.01910315
85	0xbc52edf5	-0.012874116
86	0xbc852521	-0.016253056
87	0xbc3d6d8b	-0.011561762
88	0xbc8d7d6a	-0.017271716
89	0xbc3f2eba	-0.011668855
90	0xbc240df4	-0.010013092
91	0xbc3d02ec	-0.011536341
92	0xbc13a1a7	-0.009010709
93	0xbc577e21	-0.01315263
94	0xbc5f3a85	-0.013624792
95	0xbc17aae1	-0.009257049
96	0xbc1f32f7	-0.009716741
97	0xbc04a9a5	-0.008097087
98	0xbc8c2628	-0.017108038
99	0xbc646363	-0.013939711
100	0xbc83f185	-0.016106376
101	0xbc8a3665	-0.01687164
102	0xbc08e894	-0.008356232
103	0xbbc03d60	-0.0058666915
104	0xbc367d4d	-0.0111382725
105	0xbc8d792a	-0.01726969
106	0xbc2384d1	-0.009980396
107	0xbcc0a827	-0.023517681
108	0xbc5c0918	-0.0134299025
109	0xbc8b4ec9	-0.017005341
110	0xbc758579	-0.014985436
111	0xbc8852a2	-0.016640965
112	0xbc9cf372	-0.019159053
113	0xbc0e64a2	-0.008690985
114	0xbc480ce6	-0.0122101065
115	0xbc699597	-0.014256856
116	0x3c8d6bfa	0.017263401
117	0xbc828152	-0.015930805
118	0xbc821919	-0.015881108
119	0xbc2ab249	-0.010418483
120	0xbc863e15	-0.016387025
121	0xbc918e56	-0.017768066
122	0xbc78b84a	-0.015180657
123	0xbb1f5e15	-0.0024317552
124	0xbb930035	-0.0044861087
125	0xbc9ae534	-0.01890812
126	0xbc6fc67a	-0.014634723
127	0xbbc4ff25	-0.006011861
128	0x3c7b38c2	0.015333356
129	0x3c48be89	0.012252458
130	0x3c3af728	0.011411466
131	0x3c46e2bb	0.012139018
132	0x3c888834	0.01666651
133	0x3c7c0a6e	0.015383346
134	0x3c59244b	0.013253282
135	0x3c721431	0.014775322
136	0x3c06e841	0.008234085
137	0x3c47b820	0.012189895
138	0x3c81e0ae	0.015854206
139	0x3c852149	0.016251223
140	0x3c5bfd62	0.01342711
141	0x3c72b736	0.014814189
142	0x3c622ade	0.013804166
143	0x3c6dfb7d	0.0145252915
144	0x3c9277a9	0.017879324
145	0x3c89058a	0.016726274
146	0x3c441a5d	0.011969176
147	0x3c22d9c1	0.009939612
148	0x3c1f64b8	0.009728603
149	0x3c662dc1	0.0140489945
150	0x3c59b245	0.013287132
151	0x3c48d292	0.012257235
152	0x3c8de022	0.017318789
153	0x3c70e67c	0.014703389
154	0x3c64a4cd	0.013955307
155	0x3c719f47	0.014747447
156	0x3c66eb88	0.014094241
157	0x3c828760	0.015933692
158	0x3c546200	0.012962818
159	0x3bf44f6a	0.007455756
160	0x3c223122	0.0098994095
161	0x3c5769f5	0.013147821
162	0x3c8b13a7	0.016977144
163	0x3c769d67	0.015052176
164	0x3c8663c3	0.016404992
165	0x3c654284	0.013992909
166	0x3c0d43b4	0.008622099
167	0x3c32aec2	0.010905923
168	0x3c88aaf9	0.016683089
169	0x3c525385	0.012837295
170	0x3caaedcd	0.020865345
171	0x3c824920	0.01590401
172	0xb9431610	-0.00018604868
173	0x3c49a43f	0.012307226
174	0x3c760382	0.015015485
175	0x3c234fe8	0.009967782
176	0x3c661dab	0.014045159
177	0x3c5e2974	0.013559688
178	0x3c8b6c39	0.017019378
179	0x3c60dcb3	0.013724494
180	0x3c5e770f	0.0135781905
181	0x3c6f3097	0.014598987
182	0x3c88f4bd	0.016718263
183	0x3c8a3bfb	0.016874304
184	0x3c5fff6a	0.013671735
185	0x3c5bf050	0.013423994
186	0x3c81048e	0.015749242
187	0x3c48b38f	0.012249841
188	0x3c49b164	0.01231036
189	0x3c61ff95	0.013793846
190	0x3c47fd0d	0.012206328
191	0x3bddedec	0.0067727473
192	0x3c31c661	0.01085052
193	0x3c69471a	0.014238143
194	0x3c92db8d	0.017926956
195	0x3c50424d	0.01271112
196	0x3c6c9f22	0.014442237
197	0x3c70f215	0.014706154
198	0x3c8b769d	0.017024333
199	0x3c8b8523	0.017031258
200	0x3c369ec6	0.011146253
201	0x3c583e81	0.013198496
202	0x3c440781	0.01196468
203	0x3c87f789	0.016597526
204	0x3c45da19	0.012075924
205	0x3c58d609	0.013234624
206	0x3c8f66e8	0.017505124
207	0x3c61f6dc	0.013791766
208	0x3c51c478	0.012803189
209	0x3c839980	0.016064405
210	0x3c7cf6eb	0.015439729
211	0x3c525654	0.012837965
212	0x3c448d59	0.0119965905
213	0x3c6baed2	0.014384942
214	0x3c647166	0.013943052
215	0x3c85bc57	0.016325159
216	0x3c702b32	0.014658736
217	0x3c88f75d	0.016719515
218	0x3c8251eb	0.015908202
219	0x3c73057f	0.014832853
220	0x3c42a1f5	0.011879434
221	0x3c47dc74	0.012198556
222	0x3c541cbe	0.012946306
223	0x3c4835db	0.012219871
224	0x3c1858d3	0.009298521
225	0x3c1c2d51	0.009532289
226	0x3c7ea3b5	0.0155419605
227	0x3c4f0bf2	0.012637125
228	0x3c900c4f	0.017583994
229	0x3c4b5f2d	0.012412828
230	0x3c91d116	0.017799895
231	0x3bfbba4d	0.007682121
232	0x3c6f6f99	0.014614009
233	0x3c8f3937	0.017483337
234	0x3c78066b	0.015138249
235	0x3c516d0e	0.012782348
236	0x3c614367	0.01374898
237	0x3c6fd760	0.014638752
238	0x3c8c3146	0.01711334
239	0x3c80a5b7	0.015704019
240	0x3c663ce0	0.0140526
241	0x3c35a549	0.01108677
242	0x3c853c94	0.016264237
243	0x3c6d82f5	0.014496555
244	0x3c9894d5	0.018625656
245	0x3c533964	0.012892101
246	0x3c895696	0.01676492
247	0x3c5921a8	0.013252653
248	0x3c8d4d8a	0.017248888
249	0x3c8c988c	0.017162584
250	0x3c6e4aa7	0.014544166
251	0x3c789e06	0.0151743945
252	0x3bc67034	0.006055856
253	0x3c78a296	0.015175482
254	0x3c81f954	0.01586596
255	0x3c529ab8	0.012854271

fc3.bias f4 [2]
0	0x3d7d30a7	0.061813977
1	0xbd8a10d7	-0.06741493
