results/results_4/agent1_critic.pth (torch, 185643 bytes, 5 tensors)

fcs1.weight f4 [256, 48]
00000000: 0789 69bc 845a ff39 8788 653d 2bcd 04bc
00000010: 87d6 163d fd33 cdbc 9149 713d 2ed1 5b3d
00000020: 7595 36bd e07f a63c cd61 9a3c 2b23 62bd
00000030: 547b a4bc 78a6 2ebd e944 2e3c 1b73 523d
00000040: 7d63 19bd e407 a43c 9338 133d 97ba dfbc
00000050: cc91 5a3b 3d4a 4cbd b4c5 aa3c 056d a73c
00000060: 86be 52bd ae82 7bbc 8985 fdbc a229 a63c
00000070: f382 dc3c 973a 29bc e29e 9e3c c6f5 0cbb
00000080: d220 6d3d 753e 453d 0c51 16bd ba05 153d
00000090: d83c 49bc fea1 0f3d 506f 51bd 4265 6cbd
000000a0: 8592 9d3c 8e71 ca3c f13e 393c 6706 6abd
000000b0: 9722 0fbd 7214 93bd 89c5 53bc b0eb f2bc
000000c0: 50b9 0bbd baf6 a63c de54 7dbc eea8 133c
000000d0: 6365 133d f502 ef3c 8870 f6bc bf93 313d
000000e0: 4e4d c9bc 629d 143d 2299 d93a 3c9d bc3c
000000f0: be79 83bc 1d0c 6a3c d9e5 583d 5dea 79bd
00000100: 5967 c9bc 71a1 6cbd fd9e 20bd 7a2c 38bd
00000110: 69ca 193c 1252 4bbd b865 1dbc 285a b23c
00000120: eff5 5abc 4aa2 c63c f804 eabc 51d2 d93b
00000130: 8fd1 ab3c 1d56 d43c 263c ed3c 1efc 77bd
00000140: 320f 673d e29d 1fbc e0d3 193d 33c1 d33b
00000150: de7f c13c 39c0 143d 66c7 183d ce33 483d
00000160: 1879 3abd 148a 2c3c 68f9 223d feee 30bd
00000170: 40ee 6dbd 0652 86bc 1cf4 f43c 1293 853c
00000180: 4f65 823d 3626 89bc 2cec c4bc dc6f 46bd
00000190: 105a 593d 7b3f 20bd 8a7d 31bd 9c37 b93b
000001a0: 9b4a 673b 2dd5 18bd 1d5f a1bc a02b 49bd
000001b0: e9b9 733c 22fc 9d3c fc44 833c 1753 573c
000001c0: 711a c1bc 9cf9 7cbb a280 31bd f928 253d
000001d0: 273b 7ebd 7d1e 54bc 50a0 573d eb7b 6b3d
000001e0: 239d 48bd 3358 0d3d dc63 f3bc 2a94 07bb
000001f0: 1e0e 16bd 3510 02bd 6c24 9bbc da39 b8bc
00000200: e683 27bd 8527 7fbc ce90 49bd c118 99bc
00000210: e515 b73a 0d59 313c 5dc3 fc3c 66e7 10bc
00000220: 623f 8b3d 29af 08bc 723d fe3c 4e56 303d
00000230: 69d1 b2bb 154c 41bb 3b22 dc3c ec26 213c
00000240: f632 97ba 079b 14bd 0b68 efba 4457 b6bc
00000250: fd33 473d 2fef 713c dd02 14bd 63cf ff3b
00000260: f176 003d 5519 cf3c e7d3 d7bc a044 45bd
00000270: f157 ce3c 2f20 5d3d 32cb 713c 69e1 6b3d
00000280: 72bd 23bc ae31 193d 2def 0e3d b396 0abd
00000290: 6ef3 56bd 007a ab3a 0756 05bd b236 9dbc
000002a0: 241e d63c b934 fabb 4731 2ebd a2c6 e0bc
000002b0: 99b6 5b3d 644e 0c3c 0b62 5fbd 8112 003d
000002c0: 40dd 343d d0cf 9e3c 3d18 2c3c 5f00 a5bc
000002d0: 91eb 453c a0fa a1bc 7ca5 c1bc b1f0 27bd
000002e0: b08a 3fbd 309f 76b7 17dc 2b3d 0a57 0b3c
000002f0: aa8e 4abd 22ba 873c 474b 2e3c 4335 a13b
00000300: c577 0cbc 746f 68bc e22d 55ba 5425 dd3c
00000310: 6883 e23c 8d3a f63c 1127 523d 0d7b 4fbd
00000320: c0fc 7a3d 9d3d 35bc aa7b d83c 01d6 02bc
00000330: 9da9 a63b 9630 f0bc db7e 4d3d b2ee 93bc
00000340: c2e8 e8bc c09b 97bc daab 213c 8d21 d6bc
00000350: bdbc a03c 954c a4ba 509b 353b 00ec 293d
00000360: d12f 883b ed0d 74bd 0652 0a3d 33a7 9a3d
00000370: 38a7 41bb 73d3 edbc 7069 353d f55f 0e3c
00000380: 9a6d fdbc 91c1 53bd adc5 0bbd 655e c6bb
00000390: 6e48 42bd 8777 50bd 0adc 2bbd 9c33 1b3b
000003a0: f573 d43c 33bc b5bb 3302 223d e1bb 943d
000003b0: 91c3 b0bc 2b37 ed3a 2908 8c3c 289a 763d
000003c0: 3068 e739 1c09 e1bc fb4d ac3c a68c acbc
000003d0: acbe 783d 02a1 2fbd a879 07bd c60f 9b3c
000003e0: 5efa 2cbc e550 fcbc 2759 ad3c f176 49bd
000003f0: e1d2 ecbc 43e0 563d 87ba 133d 772a 433d
-0.014253861 0.0004870483 0.056038406 -0.0081055565 0.036825683 -0.025049204 0.05890805 0.053666286
-0.044576127 0.020324647 0.018845463 -0.05520932 -0.020078339 -0.042639226 0.010636547 0.051379304
-0.037448395 0.020023294 0.035942625 -0.027310653 0.0033351062 -0.049875487 0.020846225 0.020437727
-0.05145123 -0.015350981 -0.030947464 0.020283524 0.02691791 -0.01032891 0.01936287 -0.0021508797
0.057892628 0.048155267 -0.036698386 0.036382414 -0.012282573 0.035066597 -0.051131546 -0.057713754
0.019234905 0.02471235 0.01130651 -0.057135012 -0.034945097 -0.07181634 -0.012925514 -0.0296534
-0.034112275 0.02038132 -0.015462128 0.009012444 0.03598536 0.029176215 -0.030082956 0.043353792
-0.024572995 0.036282904 0.0016601423 0.023024194 -0.016049262 0.014285115 0.052953575 -0.061014522
-0.024585413 -0.05777115 -0.039214123 -0.04496429 0.009386637 -0.049638815 -0.009606771 0.021771505
-0.013364299 0.024247307 -0.028566822 0.006647386 0.020973949 0.025919968 0.028959345 -0.060543172
0.056410976 -0.009742232 0.037555575 0.00646224 0.023620542 0.03631613 0.037299536 0.04887753
-0.04552564 0.010530967 0.039788634 -0.04319667 -0.05808854 -0.016396534 0.029901557 0.01630548
0.06366979 -0.016741853 -0.024038397 -0.04844652 0.053064406 -0.03912304 -0.043332614 0.005652381
0.003529227 -0.037312675 -0.019698674 -0.04911387 0.014875867 0.019285265 0.016024105 0.013142369
-0.023572179 -0.0038600927 -0.043335564 0.040322278 -0.06206813 -0.012946722 0.05264312 0.057491224
-0.048977982 0.03450794 -0.029710703 -0.0020687678 -0.036634557 -0.031753737 -0.018938266 -0.022488523
-0.040897273 -0.015573387 -0.049210362 -0.018688561 0.0013968317 0.010824454 0.030854875 -0.008844232
0.06799199 -0.008342543 0.031035159 0.043051057 -0.0054570925 -0.0029494811 0.026871791 0.00983594
-0.0011535573 -0.036280658 -0.001826526 -0.022258408 0.048633564 0.0147664985 -0.036135543 0.007806705
0.03136343 0.025280634 -0.02634616 -0.04816115 0.025188418 0.05398577 0.014757918 0.057588015
-0.009993898 0.037400894 0.034896065 -0.033835124 -0.052478246 0.0013082623 -0.032552745 -0.01919112
0.026137419 -0.0076356796 -0.042527463 -0.027438466 0.053640936 0.008563612 -0.05453686 0.031267647
0.044156313 0.019386202 0.010503826 -0.020141779 0.012080089 -0.019772828 -0.02363848 -0.041001026
-0.046763122 -1.4699806e-05 0.04195794 0.008504638 -0.04945246 0.016568247 0.010638065 0.0049196794
-0.008573477 -0.014186729 -0.0008132142 0.026995338 0.02765055 0.030057216 0.051306788 -0.05065446
0.061276197 -0.011062053 0.026426155 -0.007985593 0.0050861374 -0.029320043 0.050169807 -0.018058155
-0.0284313 -0.018506885 0.009867633 -0.026139045 0.019621247 -0.001253503 0.0027710982 0.041484833
0.004156091 -0.059583593 0.03376963 0.07551422 -0.0029549133 -0.02903149 0.044290006 0.00868987
-0.030936051 -0.05169827 -0.034124065 -0.006053733 -0.047432356 -0.05089524 -0.041957892 0.0023681885
0.025934199 -0.0055461167 0.03955288 0.072623976 -0.021577628 0.0018098106 0.017093735 0.06020561
0.0004413738 -0.027470164 0.021033278 -0.02106316 0.060728714 -0.04287816 -0.033075005 0.01892842
-0.010557739 -0.030800292 0.021160675 -0.049185697 -0.028909149 0.052459966 0.03606656 0.04764792

fcs1.bias f4 [256]
00000000: c0db ce3b aebe 823c 7aba 02bc b864 eabd
00000010: ac4e 38bd a224 103d 002e 9dbd 8632 073e
00000020: 9507 bcbc 373d 3ebd 802a afbd 9561 983d
00000030: a483 0e3e f03d ed3d eb07 16be d836 febb
00000040: 825c e2bc b4d2 0fbd 9377 05be e205 163e
00000050: 04b1 ea3d 45b1 d4bd e936 b53d 0dee 31bd
00000060: 8b6c 023e 42ed 45bc e11b 983d 08de 61bc
00000070: ffbc 1dbd 1b96 0dbe 6854 d7bd 34e1 103e
00000080: 0583 023e 0238 103e b8d5 d63d c655 04be
00000090: 3608 c1bd 0207 053d 46cc 0cbe b253 20bc
000000a0: d4ea 283d 7fe9 12bd de01 8c3c ab4c 133c
000000b0: 4ba9 65bd 1e48 b33b 9b91 f33c b54d 0abe
000000c0: bc10 fc3d c89d 0e3e 7c51 f8bd f236 16bd
000000d0: 65c8 57bc 2c6d 12bc d296 6abd 421f 433b
000000e0: 7c12 143d 8ccf 2b3d e778 a73d 0f04 8c3c
000000f0: 06d5 363d 0039 97bc b0d5 febc 0c80 813d
00000100: 34e9 e63d 4d4b d63b e6cd f2bd c4a1 413d
00000110: 4522 f5bd 60bf 5a3d ae4b 163e 45d9 d7bd
00000120: 4e6d abbc 0c6d 043e b31c 763d c0ea 073e
00000130: d7a3 a0bd 33c7 bfbc 5bdd cebd 1c49 a9bd
00000140: 7439 ed3c 0d07 fc3d 54cc 033e d7e9 57bd
00000150: 8cf8 f23d d645 d4bd ba4f 0ebe 9c36 2a3c
00000160: a254 f73d 6c5a d93d 8cff ecbd 3c19 f5bc
00000170: 069c f93d e744 823d e811 043b c0dc 7dbd
00000180: 97b5 a73d b269 e93d 8d54 c23d dbd2 873d
00000190: e833 89bd 0e85 1abe da03 083e f637 173d
000001a0: 7fda 633c ea5f 493d 5650 78bd b385 e1bd
000001b0: cc1d 9f3d 9497 9cbc 13fe 0fbe 6419 acbc
000001c0: 42a4 ecbc 7a5e ecbd fb9c f7bd d4fa 38bd
000001d0: 5056 fdbd 8797 8d3d 57b8 11be 83a8 98bd
000001e0: 4a41 e0bd aa25 5cbd 698d 11be c000 28bd
000001f0: 73c9 d3bd 7436 a63d 0c5a 05be a971 093e
00000200: 1dda 0d3e 7f8b dc3c 9365 2fbc 65cb 96bd
00000210: 921e 8abd 70b5 d6bd e71e ae3c 037f fd3d
00000220: 8108 7bbd 59c8 7fbd dbbf c53c 2d8a 0abe
00000230: f52c 66bd 2e9a bebd 2592 eebd 66fc 58bd
00000240: afca cf3d 351c 3a3d 9f1a 073d f97e fc3d
00000250: 90ca a83d 5edf cdba b8cc 083d 36ed 80bc
00000260: f871 8f3d 4259 033d 3af9 833d 3556 06be
00000270: 3200 08bd 41ae 963d a26b 5a3d 22f3 193d
00000280: ceaf 7cbd 262e a13d 6413 0cbd 027b b5bd
00000290: 2032 eabd 8db8 ba38 c718 f7bd 09fb ad3d
000002a0: 97a0 c73c c32c 0abd 921e 003e 681e 7abb
000002b0: 1374 363c 97a1 c23d 7994 b43c b012 a23b
000002c0: 964c 0f3e bbfa f2bd b3fd 903d b239 083d
000002d0: 2fd9 d7bc ae9b 143d 0375 883c 3c76 bcbd
000002e0: 8e35 cfbd 6be3 9abd 3ee2 013e 143d cc3d
000002f0: 6e32 5dbc 5c14 833d 297a be3d 1eca f53d
00000300: 2d50 0b3d 1ebb d23d f786 4dbd 0df5 e03c
00000310: c1ef c7bd 86f1 d3bd 2a32 02bd 61e8 e5bd
00000320: 8f8a 133d ac2c a73d 0c9f de3c 4d51 0fbe
00000330: 269b 7c3d ef93 e93d 958f bf3c 1b40 0bbe
00000340: 8a0f f7bc fb79 083e 236b 9bbd 658b ebbd
00000350: 4edc d33d e126 e03d 8286 3bbb d4f3 033e
00000360: 64fc 05be 8bba b33d 8292 13be 0405 3ebd
00000370: dad1 dd3d 6859 adbd d846 e3bd d5ba 8f3c
00000380: f75f 113e 0206 64bd c061 00be ed3a 943d
00000390: 74af ef3d 4930 b6bd 41ad 9ebd d77e 823d
000003a0: c1bd bf3c efb4 f9bd 6735 07bd 9045 c23c
000003b0: 7fb3 823b 4205 d53d 7699 8e3d d9b2 8d3c
000003c0: f8f2 d13d d075 0abe 01e3 f03c 210d b5bb
000003d0: 696c b6bd 8123 23bd 290a 53bd ac60 09be
000003e0: cf4e e93b 38c3 113e f633 c7bd c003 b5bc
000003f0: dd12 f8bc ad29 b9bd 6a36 7e3d 367e 12be
0.0063128173 0.015960064 -0.00797903 -0.11444992 -0.044996902 0.035191186 -0.076747894 0.13202867
-0.022952834 -0.046445098 -0.08553028 0.07440487 0.13917404 0.11584079 -0.14651458 -0.0077580027
-0.027632002 -0.03511305 -0.13033895 0.14650682 0.11459544 -0.10385374 0.08848364 -0.043439914
0.12736718 -0.012080492 0.074271925 -0.0137858465 -0.03851032 -0.13826792 -0.10514146 0.14148408
0.12745292 0.14083865 0.10489982 -0.12923345 -0.09425394 0.032477386 -0.13749799 -0.0097855795
0.041239575 -0.03586721 0.017090734 0.008990447 -0.056069653 0.0054712435 0.029732516 -0.13506205
0.12307879 0.13927376 -0.12124917 -0.036673494 -0.013170336 -0.008937161 -0.05727274 0.002977327
0.03615044 0.04194598 0.08177357 0.017091779 0.04463675 -0.018459797 -0.031107754 0.06323251
0.11274949 0.0065397383 -0.11855678 0.047273412 -0.11969427 0.053405166 0.14677307 -0.10539488
-0.020926144 0.12932223 0.060085963 0.13273144 -0.0784375 -0.023410415 -0.10100814 -0.08265898
0.02895806 0.12306032 0.12870914 -0.05271324 0.11863813 -0.10364883 -0.13897601 0.010388996
0.12076689 0.1061295 -0.11572179 -0.02991926 0.12187962 0.06360798 0.0020152275 -0.0619781
0.081889324 0.11397113 0.09488783 0.06632014 -0.066993535 -0.15089819 0.13282719 0.036918603
0.013907074 0.049163736 -0.06062349 -0.11011829 0.07769355 -0.019115247 -0.14061765 -0.021008201
-0.028886918 -0.115414575 -0.120904885 -0.045161083 -0.123699784 0.06913667 -0.14230476 -0.07454016
-0.10949953 -0.053746857 -0.142141 -0.04101634 -0.10341158 0.08115855 -0.13022631 0.13422264
0.13852735 0.026921986 -0.0107053695 -0.07363013 -0.06744112 -0.10483825 0.02125497 0.12377741
-0.061287407 -0.062446926 0.024139335 -0.13529272 -0.056195218 -0.09306751 -0.116489686 -0.05297508
0.10146081 0.045437057 0.032984372 0.123289056 0.08241761 -0.0015706827 0.03339836 -0.015738111
0.0700416 0.032067545 0.064440206 -0.13118823 -0.03320331 0.07357455 0.053325303 0.037585385
-0.061691098 0.0787013 -0.03419818 -0.088613525 -0.11435342 8.9035464e-05 -0.12065273 0.08495147
0.024368567 -0.033734094 0.12511662 -0.0038165096 0.011136073 0.09503477 0.022043454 0.0049460754
0.13994059 -0.11864229 0.07079639 0.033258148 -0.026348678 0.03628128 0.016657358 -0.09202239
-0.101176366 -0.07562908 0.12683961 0.09972587 -0.013500793 0.064003676 0.09300644 0.120014414
0.03401201 0.10289596 -0.05017754 0.0274606 -0.09762526 -0.10348801 -0.03178612 -0.112259634
0.03602081 0.08162817 0.027175449 -0.13995858 0.0616714 0.11405169 0.023383895 -0.13598673
-0.030158777 0.13327782 -0.07588794 -0.11501197 0.10344754 0.109449156 -0.0028614108 0.12885982
-0.1308456 0.087758146 -0.14411357 -0.046391502 0.10831042 -0.084643185 -0.11097497 0.017545143
0.14196764 -0.055669792 -0.12537289 0.07237802 0.11703387 -0.088959284 -0.07747889 0.06371849
0.023405911 -0.121927135 -0.033009913 0.02371481 0.0039886828 0.104013935 0.06962864 0.017297195
0.10251421 -0.13521504 0.029405119 -0.0055252467 -0.08907396 -0.03982878 -0.05152336 -0.13415784
0.0071199904 0.14234626 -0.09726708 -0.022096515 -0.030282432 -0.09041152 0.062063612 -0.14305958

fc2.weight f4 [128, 258]
00000000: 2485 a53c ae70 b4bd b8c0 4c3d 39df 0d3d
00000010: 2f6e b1bd c24c f7bc 7231 df3c ada0 803d
00000020: 97ac a7bd 0c25 a83c 8358 fd3c cd35 e93c
00000030: de29 0abd 773e 473d b315 5d3d 5ee7 863d
00000040: e2c5 95bd 7258 aa3d 5b56 1f3d ed22 e63c
00000050: 1a71 74bd 60d5 6e3d f2d5 9a3a d25c f93c
00000060: 6d39 87bd 0ca7 083d 36a3 cebc 956b fdbc
00000070: 62bb a23d 5594 e3ba 5582 94bc 0bfd d33b
00000080: b256 633c 5009 46bd 4965 0ebd 81a4 a8bc
00000090: 61fe a2bd 9baa a93d 4727 e3bb abe7 323d
000000a0: 56e0 863d e241 62bd 6dc0 903c e8a0 60bc
000000b0: eca2 76bd b6ef 583c f61b b6bd a5d2 913d
000000c0: 702f 26bd 2ba2 123d df8e 15bd 441a 253d
000000d0: e214 dcbc e959 673d 8fa0 433d 0428 713d
000000e0: 06f7 7f3d af67 293d 38c8 653d 801f 523d
000000f0: 9c6e 59bc d188 51bd 2011 593d 6c5a 9b3d
00000100: f97a 2bbd aa06 7abd 8728 07bb c853 24bd
00000110: 1008 963b 9f18 293c 368d 613d f84f 4dbc
00000120: 8e64 8dbd 4b1b 27bd ad0d 67bd 8a4f 723d
00000130: 7cc2 893d d517 1d3d e265 58bd 8473 4abd
00000140: 3bb6 843d 4fa0 f2bb df68 8c3d a82c adbc
00000150: cb9b 893c 0e9c 82bd 7e09 483d 8292 0e3d
00000160: 303a 31bc b45a 793d b71d a73c e78b 843d
00000170: 0546 83bd 51ca a13d 7a67 38bd cd88 e23c
00000180: e022 ac3b d1a2 333d 74ca 8ebd 16ac a73d
00000190: 1031 36bd 683e 903b fbe5 aabd 1603 8abb
000001a0: 3960 9c3b 1fb9 e6ba a19f 813d 4967 89bd
000001b0: d0de d8bc 3c75 0fbb a201 5a3b 94ed 0dbd
000001c0: 904f a83d b1c2 b83c 4825 90bd a011 773d
000001d0: aeb0 c7bb 68c8 89bd e158 5cbd b56a 873d
000001e0: c913 2a3d 097b 0c3d 5877 84bc 2800 6dbd
000001f0: 00a9 643d ca3e 093a 7710 8e3d f583 afbd
00000200: ff47 b23d 3e77 a83d 5d96 31bd d6ff 433d
00000210: 34dd 19bd 25f1 883c 0cd0 ab3d 6c2c 0a3d
00000220: 0e5e 62bd 3305 ae3d f389 c93c 2884 93bd
00000230: 7862 8fbd c3bd b6bd e1da 643d ac57 48bc
00000240: 7f93 a2bd 2dae ab3d 9ae4 e8b9 852c 0ebc
00000250: 0305 cdbb 4f5c 1c3b 76ce 7dbd 519b 43bc
00000260: a2fa ef3c d99e bb3c 18e2 a0bd 0fbd 25bb
00000270: 0995 d23c e425 a93d 3bfe ddbb f353 9e3d
00000280: 3e34 87bd d029 183d c72a 6f3c ff0b a43a
00000290: 481f b5bd 88e3 883d 39f6 f33c 2914 9abd
000002a0: 878e 0fbd 7892 7bbc a873 ad3c 551b 233d
000002b0: 7c2a 31bd 07c4 5c3d 213c 5abd 0f99 78bc
000002c0: 278e b1bc 7b01 39bd 7217 a33d 6834 153c
000002d0: c9fe c13c a831 7ebd 3a96 b0bd d297 afbc
000002e0: c43b 373c 18bd 883d 8ae4 0abd 0e0a a6bd
000002f0: f4e9 323d 175b 1c3d a751 233c f7d7 9a3d
00000300: 5991 8d3d 7b73 88bd 510f 473c 65f3 99bd
00000310: 9d4a 073a 09b3 8d3d 820b 58bd 012f b1bc
00000320: b88f 8d3d fa61 293d 3671 1e3d 4e5b 43bd
00000330: ee44 1fbc 742b 963c 69e6 793d 63c4 73bd
00000340: a9b8 09bd 5db3 783d 6fd8 7d3d 97f4 523c
00000350: 4a33 9e3a 0957 563d 44dc 923d ee9b 953d
00000360: fa79 b73c 626c 5f3d 10c4 693d 600e 5abd
00000370: ea89 bbbd d05c 89bd 1512 82bc e01c 50bd
00000380: f98e 88bd e123 a4bd 1dfe 553c 336d 62bd
00000390: 68c8 073c 727f b3bd d526 99bd bfd3 60bc
000003a0: de24 ca3c 22ad 34bd f3db 09bd 2f97 f23c
000003b0: d081 38bd 7c8f a93d e2a3 23bd e858 abbd
000003c0: c927 6f3d 1e43 843d 9b2a 93bd 3725 8f3d
000003d0: 0ed6 4b3d d1e8 0bbd 0001 1d3c 7d9b ad3d
000003e0: d5f3 c6bc 0721 5bbd c2f2 afbd 92bd f2bc
000003f0: 0382 95bd 6099 4fbd 78f4 9c3d b770 9f3d
0.020205088 -0.088105544 0.04998848 0.03463671 -0.08663594 -0.030187968 0.027245257 0.062806465
-0.08187216 0.020525478 0.030925995 0.028468037 -0.033731334 0.048643555 0.053975772 0.065870985
-0.07313134 0.08317651 0.038900714 0.028092826 -0.059678175 0.05830896 0.0011813028 0.030439768
-0.0660275 0.033362433 -0.02522431 -0.030935088 0.07945897 -0.0017362932 -0.018128553 0.006469374
0.01387565 -0.048348725 -0.03476456 -0.020586254 -0.07958675 0.082844935 -0.0069321725 0.043677967
0.065857574 -0.055238612 0.01766988 -0.013710238 -0.06021397 0.013240745 -0.08892052 0.071202554
-0.040572584 0.035799187 -0.036513206 0.040308252 -0.026865426 0.05648223 0.047760542 0.058876052
0.06249144 0.041358646 0.056099147 0.051299572 -0.013271 -0.05115587 0.052994847 0.07585606
-0.041865323 -0.06104151 -0.0020623521 -0.040118963 0.004578598 0.0103208115 0.05506631 -0.012531273
-0.06903945 -0.040797513 -0.056409527 0.059157886 0.06726548 0.038352806 -0.052831538 -0.04942657
0.0648007 -0.007404364 0.0685594 -0.021139458 0.01679792 -0.06377421 0.048837177 0.03480769
-0.010817096 0.060877517 0.020399911 0.06471997 -0.064098395 0.07899917 -0.045020558 0.027653122
0.005253181 0.043856446 -0.069722086 0.0818712 -0.044480383 0.0044019707 -0.083446465 -0.0042117937
0.004772213 -0.0017602778 0.06329275 -0.06709153 -0.026473433 -0.0021889945 0.0033265133 -0.0346504
0.082183 0.022553774 -0.07038361 0.060319543 -0.00609406 -0.067276776 -0.0537957 0.066121496
0.041522775 0.034297023 -0.016170189 -0.057861477 0.055825233 0.00052354916 0.06936734 -0.08570091
0.087051384 0.08225869 -0.04335629 0.047851406 -0.03756447 0.01671655 0.08389291 0.03373377
-0.05526548 0.084970854 0.024601912 -0.07202941 -0.07001203 -0.08922913 0.0558728 -0.012227934
-0.07938289 0.08382831 -0.0004442081 -0.0086776065 -0.006256701 0.002385873 -0.061964475 -0.011938886
0.029294316 0.022902893 -0.07855624 -0.002528969 0.025705831 0.0825918 -0.0067746914 0.07730856
-0.06601761 0.03714925 0.014597601 0.0012515782 -0.08843857 0.06684023 0.029780494 -0.075233765
-0.035048034 -0.015354745 0.021173313 0.039820988 -0.043253407 0.053897884 -0.05328 -0.015173211
-0.021674229 -0.045167428 0.07963456 0.009106733 0.023681061 -0.062059075 -0.086224034 -0.021434698
0.011183683 0.06676692 -0.033909358 -0.081073865 0.043680146 0.038172808 0.009968198 0.07560723
0.069124885 -0.06662651 0.012149648 -0.07517127 0.00051609596 0.06918914 -0.05274535 -0.021628859
0.06912178 0.041353203 0.038682185 -0.047694497 -0.009721024 0.018331267 0.061010752 -0.05951346
-0.03362337 0.06071793 0.061973985 0.012875698 0.0012069729 0.052329097 0.071709186 0.07305132
0.02239703 0.05454672 0.057071745 -0.053236365 -0.091571644 -0.06707156 -0.015877763 -0.050808787
-0.06667895 -0.08014656 0.013061074 -0.05527992 0.008287527 -0.08764543 -0.0747811 -0.013722359
0.024675783 -0.044110425 -0.033657026 0.029613106 -0.045045674 0.082793206 -0.039951213 -0.08366567
0.05838755 0.06458114 -0.07185861 0.0698952 0.049764685 -0.034157578 0.009582758 0.08476923
-0.02428619 -0.053498294 -0.08591224 -0.02963141 -0.073001884 -0.05068338 0.07663816 0.077851705

fc2.bias f4 [128]
00000000: 3f99 0f3d e2fb 4b3d ea64 36bd 4fc2 babc
00000010: af55 e8bc f904 5fbd 6cc2 08bd e30b d93c
00000020: e972 7a3c d7f7 25bd f399 6bbd b8d3 03bd
00000030: 89b8 86bd bacc 2f3d 1b04 c3bc 6ef3 ca3b
00000040: 90b1 0c3c 4dcb ba3a d1c3 9d3c adbb 473d
00000050: 55d5 5c3d af88 1cbc 6b32 91bd 9cee a13c
00000060: 03c0 f4bc 5b3d f7bb 6f90 303c 5c88 5c3c
00000070: 3c2a 70bd e7b7 7dbb 8189 303d efb2 41bd
00000080: b2fb 21bd a797 33bd 59bb 8abd 0973 213c
00000090: 568c 9ebc 246a e33c 197e 1fbd ec15 513c
000000a0: b68f 3e3d 2535 013d 1562 f43c 100a b4bb
000000b0: 5f61 60bc 3597 a9bc ec87 8fbb dfd7 f43c
000000c0: 31e7 56bd 195b e03c 1654 463c c24d fd3c
000000d0: 5ae8 0c3d 865b 2dbd d254 443d 7276 34bd
000000e0: 7377 61bc 01fb 6fbd f336 433d 2e91 15bb
000000f0: 7c82 3ebd 5db6 283d e1bd d43c 310e 2f3d
00000100: ab97 da3c 95bc 24bd 4b99 29bd a110 bbbc
00000110: fe02 2abd 64f1 053d aacb 803b 3ff4 a9b9
00000120: bf58 aa3c 631a 24bd 7725 4dbd fec8 a43c
00000130: a38d 2cbd 50e9 373c 6c03 1d3d bb2e 5cbd
00000140: 263a 22bc b4a7 0dbd 0923 94bc 9d9f 3f3d
00000150: 0cdd 5dbd 07d7 4cbc c14c 023d 1b59 17bd
00000160: 7ac9 583d ff3c e0bb 38ed b0bc c28d 01bd
00000170: 55a5 3ebd 0ec5 8d3c 268c 0a3d d26e 683c
00000180: b171 833b bb2c 3b3d 962c 1abd 69d9 8f3c
00000190: 6820 013d f142 3f3d 65fa 163d 13e0 efbb
000001a0: cb38 1dbb 1f39 233d 4156 8abd edc4 88bd
000001b0: 4413 6f3b 45f6 e6bb ee76 bebc d187 d0bc
000001c0: ba46 a7bc 872c 1d3d 4043 4cbd 21b3 c93c
000001d0: c94b 393d 0dbe 85bd 6f68 0abd 48ae 2abd
000001e0: cdaf febc 5827 343c bed1 53bd 65ee 4a3b
000001f0: a687 88bd b20d 6cbd 7ca4 1bbd 423b fdbc
0.035058256 0.04980076 -0.044529833 -0.022797732 -0.02836117 -0.0544481 -0.03338854 0.026494926
0.015286186 -0.04051956 -0.057519864 -0.032184333 -0.06578166 0.04291985 -0.023805669 0.00619357
0.008587256 0.0014251262 0.019258412 0.048762966 0.053914387 -0.009554072 -0.070896946 0.019767098
-0.029876715 -0.007545156 0.010776623 0.013460245 -0.058634028 -0.003871435 0.043099884 -0.047289785
-0.039546676 -0.0438458 -0.06774015 0.009854087 -0.019354027 0.027760573 -0.038938615 0.012761574
0.046523772 0.031544823 0.029831925 -0.0054943636 -0.01369509 -0.020701984 -0.004380217 0.029888092
-0.052466575 0.027387189 0.012105009 0.030920867 0.034401275 -0.04232361 0.047932453 -0.04405827
-0.013761389 -0.058588985 0.047659826 -0.002282213 -0.04651116 0.04118954 0.025969448 0.042738143
0.026683649 -0.04021891 -0.041405957 -0.022835078 -0.04150676 0.03270091 0.0039305286 -0.0003241617
0.02079427 -0.040064227 -0.050084557 0.020115372 -0.042127263 0.01122506 0.03833334 -0.053755503
-0.009901559 -0.034583762 -0.018083112 0.04678308 -0.054165885 -0.012502438 0.03181148 -0.036950212
0.052926518 -0.006843209 -0.02159749 -0.03162933 -0.04654439 0.017305877 0.033825062 0.014186578
0.004011356 0.045696955 -0.037640177 0.017559724 0.031525046 0.0466947 0.03685989 -0.007320413
-0.002399015 0.039849397 -0.06754733 -0.066781856 0.003647999 -0.0070484006 -0.02325007 -0.025455387
-0.020419467 0.038372543 -0.049868822 0.024621548 0.04523829 -0.0653039 -0.033791002 -0.041670114
-0.031089688 0.010995708 -0.051713698 0.0030964848 -0.06666498 -0.05763025 -0.03799866 -0.030912045

fc3.weight f4 [1, 128]
00000000: 42ec 9cba 9c93 62b7 75e0 d8ba a601 06bb
00000010: 393a 4038 0581 7db6 c66a 4a3a 790d 47ba
00000020: b7b9 cd3a 2c5b 043b ebe9 1cbb 3782 ea38
00000030: b6d6 ccb9 e7ea d73a 3485 43ba c203 2fbb
00000040: 09b7 72ba d8be 833a 6bc9 3b3b b74f 84ba
00000050: 5a83 0fba 5ead a9ba 3269 ebb9 fb07 3eba
00000060: cbf5 85bb bd58 c8b9 0338 c4ba c05f fdba
00000070: b0f2 4dbb e53b 873a 7bcc 793a 493a 8ab9
00000080: 59b4 9f39 7065 96b8 0034 5cb9 a13d deb9
00000090: df35 52bb 0963 7e3a 800e c93a f199 1e3a
000000a0: 1fc3 6138 2faf a7ba 81fa 1ebb e0f9 b73a
000000b0: 5520 12bb b497 b7b9 54a6 08b7 ebd3 c7b9
000000c0: b03c 1a39 38af 48bb a4f9 3fbb cd2f 2dba
000000d0: ea02 fe3a 1142 d939 a3db 59ba a442 fdb8
000000e0: dd4e 0d3b 19db aa38 559b 50bb 1943 b4b9
000000f0: 5999 79b9 0346 f4ba ebe1 c339 2c1e 183a
00000100: 0487 153b e633 803b 025f acba 31b2 183a
00000110: 2701 74ba 00b0 47bb f29a 9a39 b4e1 2638
00000120: 3511 74ba f471 17bb fe80 2bbb e454 33bb
00000130: 0c2e 1bba 6638 ef39 ff70 ddb9 8b66 473b
00000140: 2dce 9b39 f09a 8cba 253a aeba 6998 463b
00000150: 3ea4 07bb 0997 70bb 7ad0 d5ba d40a 3238
00000160: e6d2 0fb8 2e64 753a 1448 7cba fd81 a8ba
00000170: fef7 56ba 0eaa 9e39 ca39 2cbb b125 c5b9
00000180: c800 1d3b 4d18 3238 cbff 48b9 fc47 833a
00000190: 9790 833a f42e 2bbb d327 02bb 73ee 30bb
000001a0: 3c0d 893a acfa 0dbb c816 d5ba 23be 7938
000001b0: 8680 6eb9 a0b7 0a3b 0b44 823a 1cb4 17bb
000001c0: 94dd d5b9 2084 9bb9 1347 2bbb 08ca acba
000001d0: 36a2 aaba 4a39 79b9 0fbe 033b 28a0 25bb
000001e0: ea29 49bb bcc2 9aba 9443 7bba 4090 b4ba
000001f0: 1912 183b d160 2bbb 880f a0b9 f8f3 6e3a
-0.0011972266 -1.3505018e-05 -0.0016546386 -0.002044776 4.583059e-05 -3.7775037e-06 0.0007721599 -0.0007593255
0.0015695606 0.0020195944 -0.0023943137 0.00011182244 -0.00039069884 0.0016473205 -0.00074585085 -0.002670512
-0.0009258842 0.0010051383 0.002865399 -0.0010094558 -0.000547459 -0.0012945344 -0.0004490107 -0.0007249114
-0.0040881387 -0.00038213088 -0.0014970306 -0.0019330904 -0.003142517 0.0010317533 0.0009529066 -0.00026364837
0.00030461213 -7.1714516e-05 -0.00021000206 -0.00042389057 -0.0032075567 0.00097040884 0.0015339404 0.0006050161
5.38259e-05 -0.0012793298 -0.0024258199 0.001403626 -0.0022297103 -0.00035017508 -8.144958e-06 -0.0003811413
0.00014709192 -0.0030622017 -0.0029293085 -0.0006606549 0.001937953 0.0004143869 -0.00083106215 -0.00012076393
0.0021561899 8.147042e-05 -0.0031830866 -0.00034382267 -0.00023803617 -0.0018636588 0.0003736162 0.0005802836
0.0022816071 0.003912437 -0.0013150873 0.00058248924 -0.0009308033 -0.0030469894 0.00029488612 3.9787687e-05
-0.00093104254 -0.0023108693 -0.0026169415 -0.0027363831 -0.0005919642 0.00045627652 -0.00042236593 0.003042611
0.00029717517 -0.0010727327 -0.0013292475 0.0030303246 -0.0020697261 -0.0036711118 -0.0016312741 4.244859e-05
-3.429027e-05 0.0009360936 -0.00096237776 -0.0012856122 -0.0008200406 0.0003026281 -0.0026279562 -0.0003760285
0.0023956764 4.246114e-05 -0.00019168777 0.001001596 0.0010037598 -0.0026120516 -0.0019860163 -0.0026997596
0.0010456215 -0.0021664305 -0.00162574 5.9543305e-05 -0.00022745327 0.0021166578 0.0009938491 -0.0023148125
-0.00040791614 -0.00029662345 -0.0026134893 -0.0013182769 -0.0013018313 -0.00023767832 0.0020102297 -0.0025272463
-0.0030695149 -0.0011807303 -0.000958496 -0.00137759 0.0023204146 -0.0026150236 -0.0003052915 0.00091153337
