results/results_4/agent2_actor.pth (torch, 185131 bytes, 6 tensors)

fc1.weight f4 [256, 48]
00000000: b623 40bd 754b 89bd d1c3 9b3c b165 2a3c
00000010: 851d cb3c 2700 4e3c 492e c53c 738c 823d
00000020: e16e b9bc 3753 113d ad8c 0dbd 6f16 0ebd
00000030: 11ae 13bd 33a2 f3bc 4c5a df3c 278b 653d
00000040: 026c 36ba 94f5 2abd e384 a73b 6ace 54bd
00000050: 97a1 b4bc 88da 923d 1cde 323d b7ab 943c
00000060: 9025 0fbd 90be 58bd 6e74 9ebc bb77 02bd
00000070: 161b debc 512c 25bd 5688 9a3d 5ec9 d7bc
00000080: 9bcb dd3c 0782 1dbc ea20 8a3d 21d0 d33c
00000090: d702 843c 1571 e5bc 31b3 0d3d 2a4a 953d
000000a0: 7cbd 44bc 215c 60bc 9d10 273c b2ee 61bd
000000b0: f9b9 ff3c 9519 9d3d d6d9 683d ba89 bbbc
000000c0: 0dbf c33c 5b56 2e3c f16d 40bd 246b 31bd
000000d0: 1718 9ebc a470 63bd a792 65bc b11b 9fbc
000000e0: c367 263d 1bf2 fc3b a2b3 7cbd d9f1 17bd
000000f0: 552f 80bd 56cb e73c c33c e13c 8379 eb3a
00000100: 6640 f0bc 2e60 983c ab20 28bc de6d c33a
00000110: dca4 3abd 0350 63bc 22f5 c9bc a884 31bd
00000120: 65ab cfbc a0d6 803d 3716 0a3c 45cf 84bc
00000130: 999b e6bc b66d 79bd 543b 953b 3594 86bd
00000140: 410b 073a ccc1 21bd 200e dfbb 76af 0d3d
00000150: d383 6b3d 5294 a3bd 0ff6 09bd 1bb2 fdbc
00000160: b585 00bd 70b7 9c3c 6664 103d 0844 14bd
00000170: be4c 6cbd 3565 323c 4d9b 11bd 162e 6a3b
00000180: 84a9 973c abba 8dbd 0597 7c3d 6390 f4bc
00000190: 80f2 1c39 ac3c 913d 8fba 0a3d 8bf2 803d
000001a0: a3ab cb3c 8a33 1bbd 05c3 353b 60e0 8a3d
000001b0: 678e 29bc cbc5 713d 05f1 e4bc 168d 69bc
000001c0: 8f29 01bd 8d96 853c 9569 7ebc 73d7 c33c
000001d0: bbc9 063d b029 5a3d bfd1 ffbc e89b 1e3d
000001e0: 28c0 283c c8c5 a1bd 1de3 19bd c8a0 f7ba
000001f0: 2654 12bd c5e2 8f3d 768e fa3c c15e cfbc
00000200: f671 dfbc 1d61 1b3d 6266 953c ad78 f53c
00000210: d239 10bd d85f 9b3d d3db a33d 792b 8cbd
00000220: ab00 943a e661 923b e367 f9bc 7154 0abd
00000230: 50f2 46bd 43d7 9d3c 28f1 9b3d 4b2e 86bd
00000240: 20b5 7fbc 20f3 d03c 2fef ccba 76ef 843c
00000250: feae 47bd e5d7 173d 562c 3d3d 787d 4abd
00000260: dffc 58bd 67ca 4bbd dc8b 163d dc22 113d
00000270: 6b52 12bc c034 123d c89e 6a3c 4318 6e3d
00000280: 3be7 c13b 6806 74bd 97b3 7e3d b519 34bb
00000290: f1da 273d e3ab fabc 65b7 02bd 315a 953c
000002a0: a0d6 f1bb e74b 31bc fa85 70bd 2ca7 5abd
000002b0: 2e4e 4bbd a500 44ba d1ea ffbc b0b9 65bd
000002c0: 80bd 8bbb 767a 0fbd 82b4 4e3c 3f58 d43c
000002d0: 6268 213d 2ebe 10bc a256 403d 613e 21bd
000002e0: e4a1 4b3c a12d a9bc b5b4 ef3c 4da0 0abd
000002f0: 64ef 953c 5763 a43d 9e5e 60bd c65b 3ebd
00000300: a9f9 2fbd 72fc a3bc 8faf 7fbd d8db b03c
00000310: 68e3 84bd ff77 d5bc d54f 8d3b 8546 92bb
00000320: 1f56 203d f1ff cfbb d71a b03c 761b a73c
00000330: 7bf1 443c 21b2 603c fb28 3bbd aa54 793d
00000340: 3bdd 6e3b ea44 633d dfac 483c 0184 923c
00000350: aeab ee3c 8db0 cc3c e0e6 5f3d a2e0 45bd
00000360: 91dd e83c 176e 263d 800c 7ebd da2e a6bd
00000370: 81bf bbbb 6521 333c 553f 25bb 2260 203d
00000380: 68c6 79bb de88 a3bc 7f2a 58bd e215 333d
00000390: 470f 99bc aad5 77bd 1c8a ad3a a101 96bc
000003a0: 94e2 ecbc 907e bfbc e3c5 64bd 851d 123c
000003b0: 7baf ec3c 5438 09ba 2bd4 d13b b63c 37bd
000003c0: 3782 c5bc 5bb3 6fbd dcad 463d ca4e 38bd
000003d0: fdc6 0e3b db41 7b3d 6b80 863d e251 3ebd
000003e0: 87c8 833c d638 31bd a5e2 e03a 3bed 16bd
000003f0: 575b 57bc 1c93 f6bb 2c39 99bc 43b0 27bd
-0.046909057 -0.067038454 0.019014271 0.010400222 0.02479435 0.0125732785 0.024069922 0.06374445
-0.022635879 0.03547975 -0.034557987 -0.034689363 -0.036054675 -0.029740429 0.027264737 0.05604091
-0.00069588434 -0.041738108 0.005112277 -0.051954664 -0.022049708 0.07170588 0.04366885 0.018148286
-0.03494793 -0.05291611 -0.019342627 -0.031852465 -0.027112525 -0.040325467 0.07545535 -0.026341137
0.027074626 -0.0096135205 0.06744559 0.02585608 0.016114635 -0.028008023 0.03459472 0.07289536
-0.012008067 -0.01369384 0.010196832 -0.05515928 0.031216608 0.07670895 0.05684837 -0.022892822
0.023894811 0.010640706 -0.04697985 -0.043315068 -0.019298596 -0.055527344 -0.014012015 -0.019422384
0.0406263 0.007719291 -0.06169475 -0.03709588 -0.06259028 0.0282952 0.027494794 0.001796529
-0.029327583 0.01860055 -0.010261695 0.0014910062 -0.04556738 -0.013874057 -0.024653021 -0.0433394
-0.025350282 0.062909365 0.008428148 -0.016212115 -0.028150367 -0.060895644 0.0045541916 -0.06571237
0.0005151518 -0.03949146 -0.0068071038 0.03459116 0.057498764 -0.07987274 -0.033681925 -0.030968716
-0.031377513 0.019130439 0.035251997 -0.036197692 -0.057690375 0.010888387 -0.035548497 0.0035733036
0.018513449 -0.0692037 0.06166746 -0.029854005 0.00014967658 0.0709165 0.033869322 0.062962614
0.024862116 -0.03789095 0.002773465 0.067810774 -0.010348893 0.05902652 -0.027946958 -0.014254829
-0.031533774 0.01630714 -0.015528102 0.023906445 0.03290723 0.053262413 -0.031227944 0.038722903
0.01029972 -0.07899052 -0.037570108 -0.0018892521 -0.03572478 0.07025675 0.030585509 -0.025313737
-0.02727602 0.03793441 0.018237296 0.02996477 -0.03521139 0.0758664 0.080009125 -0.06844229
0.0011291703 0.004467237 -0.030445045 -0.033771936 -0.04857093 0.019267684 0.07614356 -0.065517984
-0.015607148 0.025506556 -0.0015635247 0.016227465 -0.04875087 0.037071127 0.04618486 -0.049436063
-0.05297553 -0.049753573 0.036754474 0.035433635 -0.008930783 0.035694838 0.014320083 0.058128607
0.0059174574 -0.059576422 0.06218299 -0.0027481143 0.040980283 -0.03059954 -0.03191318 0.018231483
-0.0073803216 -0.010821319 -0.05872152 -0.053382084 -0.049635105 -0.00074769027 -0.031239899 -0.05608529
-0.0042645335 -0.035028897 0.012616279 0.025920985 0.039406188 -0.008834405 0.04695762 -0.03936613
0.012428734 -0.02065164 0.029260973 -0.03384428 0.018302627 0.0802676 -0.054777734 -0.04647424
-0.042962704 -0.020017836 -0.062423285 0.021589205 -0.06488687 -0.026058195 0.0043124952 -0.004463973
0.03914463 -0.0063476493 0.021497173 0.020398837 0.012020464 0.013714344 -0.04569338 0.060871758
0.0036447782 0.055485643 0.012248247 0.01788521 0.029134598 0.02498653 0.05466354 -0.04830993
0.028425964 0.040632334 -0.06202364 -0.08114405 -0.005729616 0.010933255 -0.002521475 0.03915418
-0.0038112644 -0.019962724 -0.052774902 0.04372204 -0.018684043 -0.0605065 0.0013240012 -0.018311324
-0.028916635 -0.02337578 -0.055852782 0.008918171 0.02889227 -0.0005234529 0.006403466 -0.044735633
-0.024109943 -0.058520656 0.04850565 -0.044997014 0.0021786087 0.0613421 0.065674625 -0.04646481
0.01608683 -0.043267094 0.0017157389 -0.036847334 -0.013144336 -0.007524861 -0.01870402 -0.04093958

fc1.bias f4 [256]
00000000: 1f3d f33c 53ce e53a 7dff 263c 6a6a bcbd
00000010: a3ed 5dbd 98ee 2b3d 94d0 69bd 5cd5 fe3d
00000020: b661 27bd 1379 b5bc e4f7 bbbd 08de 993d
00000030: bccf 083e 62cc 043e 466b 15be b538 1fbc
00000040: ed5e 40bc dfd7 98bc d35f f6bd 31ae 203e
00000050: b66c f83d f427 b3bd a346 a83d 58ca f3bc
00000060: d1b5 f43d d14a 5abc 0939 7d3d a61c 033c
00000070: 9c22 edbc 7679 f5bd 4b7b 00be 6c16 073e
00000080: 490b 193e 29cf 1e3e 5247 e33d 9c9d ebbd
00000090: 669d c6bd 2954 3c3d 596a edbd 4834 8a3b
000000a0: cbc7 733d 4f0d 2bbd dc99 243d c999 8e3c
000000b0: c655 47bd 7691 b13b 276d 4b3d 67f7 d5bd
000000c0: 9a9a 153e 06c2 1d3e 935e f0bd 086b 3fbd
000000d0: 1823 acbc bf41 773c 3480 55bd 7971 023c
000000e0: 889a 0b3d 09ec c73c ba63 963d 461f 403c
000000f0: f5f7 0d3d cae8 bcbc a792 b9bc 294b b83d
00000100: 827e e03d 3bf6 253c e928 c5bd 83fc 7e3d
00000110: 2b5c c7bd cc87 643d a2af 1d3e 935e b8bd
00000120: 691c 953b f3df ee3d 0e81 7b3d eb9b 113e
00000130: 4deb 53bd c86d 0239 30b4 b9bd 921f a0bd
00000140: 1e9f 243d ff09 093e bdce 0f3e c058 14bd
00000150: b806 0e3e e47b abbd f1fa 08be 597c c03c
00000160: ab6b f33d aed3 f63d 4103 bdbd 4e1c 1dbd
00000170: 73cb 053e 7735 b33d 9ba1 243b 15f4 46bd
00000180: e124 cf3d 2bd8 d73d 07aa db3d db32 943d
00000190: c6fb 5ebd 0961 1fbe 6336 183e 5601 003d
000001a0: 80f2 023d 35a4 893d 9eb7 51bd 96dd b5bd
000001b0: 38a1 ce3d 35ba 81bc 84f9 00be d04f e8bc
000001c0: c461 9abc 45f8 d1bd 0709 c9bd b340 b1bc
000001d0: c1fc d8bd a677 b73d 346d 09be 0b95 95bd
000001e0: 1fab c8bd 0122 11bd 9827 1abe 8be6 20bd
000001f0: dce2 a5bd e3d3 c33d 13c1 dbbd 8c14 153e
00000200: a4a5 1c3e e05c bd3c 29be 023c 587e 95bd
00000210: 4d0b 85bd ab89 a9bd f33e e63c dd84 0f3e
00000220: c568 33bd 015b 94bd 12f7 1c3d 985e 05be
00000230: 0d36 13bd 56c2 c2bd 9a4d b7bd ba1d 61bd
00000240: 3315 c43d 2ea7 9b3d b61e 553d ede4 003e
00000250: 9a58 c63d 9564 e53b b696 5a3d cc70 cebb
00000260: d5c7 813d a541 293d b1c3 953d 124e 0ebe
00000270: 5261 35bc 28fa 953d b7c9 903d 74c3 f13c
00000280: bc64 2fbd 9621 a03d d534 35bd 7910 80bd
00000290: 6fa8 c0bd 78fc a13c 6754 d8bd 035a c83d
000002a0: 654d 113c 40aa 1bbd f4f2 073e e933 593c
000002b0: 5a9f d33c 6751 e43d a2a3 fa3c 9d18 f73b
000002c0: b30a 193e 9a94 02be 2605 c23d cccd 573d
000002d0: 7a48 2abc 3184 3d3d e7ac e13b 3a83 a7bd
000002e0: 39f5 dfbd c4d8 a8bd 0222 163e 0746 053e
000002f0: 1d86 53bb 2389 b73d 2e41 9a3d 8a16 0c3e
00000300: f446 093d b398 c43d c2ea cbbc b155 433d
00000310: 480c c9bd c2e2 0cbe 997c 38bc 92ba 02be
00000320: 2f53 843d eab2 e03d 65f9 483c f05a 16be
00000330: 01dd 9c3d c8a9 ee3d 1cb1 113d da29 06be
00000340: 36a0 36bd 9c10 193e 823e c2bd 737b babd
00000350: 09e4 ea3d 01c7 e33d 2267 223c e362 013e
00000360: a14b 01be ca71 aa3d 3eb3 17be cbe1 14bd
00000370: 7269 003e 2a25 a9bd 95ce c1bd bf3e 483c
00000380: ae22 213e 84cb 2ebd c193 ebbd 5b37 ac3d
00000390: 0a96 053e fa49 9ebd 0218 adbd bc39 673d
000003a0: 92f8 303d 1e50 c3bd 040b 91bc 88ad 2b3c
000003b0: e0a6 0b3d 71a1 c13d 5a04 c33d 449d 8b3b
000003c0: 50e5 cf3d e5b6 febd 508f 0a3d b56f 833c
000003d0: 4183 b4bd 6c21 1dbd 8a15 0fbd c3b0 02be
000003e0: 39e2 e43c 80dd 203e dc25 99bd 1f63 69bc
000003f0: b15e b5bc c709 8bbd 34de 8d3d c49c 09be
0.02969223 0.0017532803 0.010192749 -0.09199984 -0.054181706 0.041975588 -0.05708368 0.12443039
-0.04086467 -0.02215246 -0.09178141 0.07513052 0.13360494 0.12968591 -0.14591703 -0.00971811
-0.011741382 -0.018657623 -0.12029996 0.15691449 0.1213011 -0.08747855 0.08216598 -0.029759571
0.11948741 -0.013323502 0.06182197 0.008002436 -0.028947167 -0.119860575 -0.12547033 0.13192147
0.14945711 0.15508713 0.11097588 -0.11504671 -0.0969799 0.0459787 -0.1159255 0.004217658
0.05951671 -0.04176074 0.040185794 0.017407315 -0.048665784 0.0054189516 0.049664643 -0.10447579
0.14609757 0.15406045 -0.117367886 -0.046732932 -0.021012828 0.015091359 -0.052124217 0.007961624
0.03408292 0.024404543 0.0734324 0.011726206 0.0346603 -0.023060221 -0.022652937 0.08998711
0.109616295 0.010129507 -0.096269436 0.062252533 -0.097343765 0.05579357 0.1539903 -0.090024136
0.004550506 0.11663809 0.061402373 0.14219634 -0.051738072 0.00012438663 -0.09067571 -0.078185216
0.04019081 0.1338272 0.14043708 -0.03621745 0.1386975 -0.0837324 -0.13376977 0.023496794
0.118857704 0.120520934 -0.09229136 -0.03835707 0.13065891 0.08750432 0.0025120738 -0.04857262
0.10114456 0.10539278 0.107257895 0.072362624 -0.05443933 -0.1556436 0.14864497 0.031251274
0.031969547 0.06720773 -0.0512005 -0.08880155 0.10089344 -0.01583586 -0.12595183 -0.02835837
-0.018845446 -0.10252432 -0.09816175 -0.021637296 -0.10595084 0.08958368 -0.13420564 -0.07303818
-0.09798264 -0.03543282 -0.15054166 -0.039282363 -0.080999106 0.095618986 -0.10730185 0.1455862
0.15297562 0.023115575 0.007979908 -0.07299489 -0.06496296 -0.08278211 0.028106188 0.14015527
-0.043801088 -0.0724392 0.038321562 -0.13024366 -0.03594022 -0.09509723 -0.08950348 -0.05495999
0.09574356 0.07600246 0.05203124 0.12587328 0.09684868 0.0070005157 0.053366385 -0.0063000675
0.06336943 0.04132237 0.07312716 -0.13896969 -0.011070566 0.07323104 0.07069724 0.029512145
-0.042820677 0.07818906 -0.044239838 -0.06253142 -0.09407126 0.019773707 -0.105629735 0.097827934
0.00886855 -0.03800416 0.13276273 0.013257005 0.02583282 0.11148339 0.030595604 0.007540776
0.14945488 -0.12752 0.09473638 0.052686498 -0.010393256 0.046268646 0.0068870666 -0.08179326
-0.109354444 -0.0824447 0.1466141 0.13014995 -0.0032275983 0.08961704 0.07531963 0.13680473
0.03351493 0.095994376 -0.024892215 0.047689144 -0.098167956 -0.13758376 -0.011260175 -0.12766483
0.064611785 0.10971625 0.012266492 -0.14683127 0.07659341 0.11653477 0.035569295 -0.13101903
-0.044586383 0.14947742 -0.09484579 -0.09105577 0.114692755 0.11121941 0.009912284 0.12635379
-0.12626506 0.08322485 -0.14814469 -0.036348145 0.12540224 -0.082590416 -0.094632305 0.012221991
0.15735886 -0.042674556 -0.11502791 0.08408996 0.13045517 -0.07728954 -0.08451845 0.056451544
0.043205805 -0.095367655 -0.017705448 0.010478385 0.03409469 0.09454621 0.09522314 0.004260691
0.1015116 -0.12437228 0.03382808 0.016044477 -0.08814097 -0.03836195 -0.03493265 -0.12762742
0.027939903 0.15709496 -0.07477924 -0.014244824 -0.022139879 -0.06788974 0.069271475 -0.13438708

fc2.weight f4 [128, 256]
00000000: 3dbc 54bd 9636 f03c cd1b 513d 179b d3bb
00000010: 7c6f 8cbc f33b 4f3c 3f6f 2e3d 4f3f 1b3c
00000020: 923f 3dbd e385 31bd 9f78 5cbc 1ffe bf3c
00000030: 10b7 a9bd 70db dabb ecf9 b23d b5e4 ba39
00000040: cdc0 b1bd 5f65 27bd 68d9 54bd 7b6c 29bd
00000050: 58ad b7bd e546 c23c dc46 36bd fcf8 1b3d
00000060: 13ae 7dbd dfdf d7bc abbb f3b9 8a07 803d
00000070: a37d 92bd b4a0 69bd 95d1 9bbd 5b72 d7ba
00000080: c397 b03d 14d9 67bc 36e3 a0bd 7221 e5bc
00000090: cd4e 06bd d94a 3fbd 251a 833b 3e04 01bd
000000a0: bd79 9cbd 3df4 993d af5d bfbd 54ec b9bd
000000b0: 6e74 20bd 6e5d 2dbd 6f4f 8dbd 51d0 ba3d
000000c0: 6fb5 92bd 6073 9a3d 0349 ce3d 4b70 d0bc
000000d0: 9bc8 523d cc2e b83c 02bd 13bc ef19 47bd
000000e0: 2e64 c3bc 8bbc 053d 14d2 bc3b 1c59 0a3d
000000f0: 91df 093d bed3 c73c 0188 d93c 08b8 dfbc
00000100: b6f4 933d 25de c53d 26aa 2fbc e637 1cbd
00000110: d167 15bd a17f 44bc 0e12 74bb 6fa6 7dbd
00000120: 6a80 2f3d 51cd 6d3d 4de6 063d 54ed a93d
00000130: 6d72 853c faf6 593c d6af cfbc fe11 11bc
00000140: 352e 59bd ce93 00bd 62c2 0f3d 45df ecbb
00000150: 8cb0 973c 1ce6 5a3d ae00 903d c626 443d
00000160: 3e7d 99bd 7671 6a3d b5d4 64bd 93a7 83bd
00000170: b411 48bd a98a 44bc 4c69 243d 6075 4b3c
00000180: 573c 29bd 0870 953d 6567 133d 12bd c53d
00000190: 02fd a43d fcb9 623b c5ee 6d3d e031 92bd
000001a0: b8f9 8abd cf2c 9c3d 54af 953c 4a6e 74bc
000001b0: c89f 1fbd 1393 bebd c55b 8b3d 623c 803d
000001c0: d4a7 2cbd 5826 92bd cf28 93bc 8986 953c
000001d0: 6afe 99bd 6f68 f1bc 9281 88bd 7058 073d
000001e0: a604 03bd 1cfb 07bd 172a 8abd 8426 81bc
000001f0: bfcd c23d 5997 293c 06a6 773d e05c c43c
00000200: d917 c2bd 66ab 583d 57b3 d13c 521d c4bd
00000210: 8903 b3bc adc6 343d da9c 9e3d b8e2 84bd
00000220: dc5f 943c 0290 473d f62f 263d cbb5 a1bc
00000230: 76a7 853d d869 803d 2ffc a53d 4799 84bd
00000240: 149f b63d 6583 4c3d 64c4 323d a9e9 2dbd
00000250: 6032 943d a68e 783c e2ac 253d c9f8 72bd
00000260: f821 323d 6a4e b0ba 14fd 0abd 5a05 a13d
00000270: 8421 d33b ece4 f0bc 32f9 c13c 6770 8c3c
00000280: bf92 0fbd 6bd1 acbc 92e9 0ebc 77b2 8abd
00000290: 715a d13d 863b 283b 0e3a 263d a90f 923d
000002a0: 2f65 5dbd 1013 0f3d 2bfb 0abc 8ba7 26bd
000002b0: a8f7 5d3c b16b 92bd 6259 b93d 167f 2bbd
000002c0: 0689 ca3c 117b 7bbc f75a 453d 1ece 08bd
000002d0: d03b 8f3d 75bb 823d e183 753d 98cf 6a3d
000002e0: 47de 633d 3512 903d 1986 823d 780f 18bb
000002f0: d5b9 61bd f98b 8a3d d9d0 b73d 19fd 02bd
00000300: 281d 7bbd 4b98 5a3c f673 2bbd 13cb 473b
00000310: 1242 c73c 8ff8 8f3d 67b9 a0bc 300d 51bd
00000320: ea51 d1bc 61e0 30bd c938 6e3d 4a5d a03d
00000330: e1df 463d b14f 23bd dd1d 29bd 0e14 7a3d
00000340: cb15 4ebb 9e4c b23d 8f11 a1bc 4c6e b83c
00000350: f1df 1dbd 2f47 603d b716 433d b466 5d3b
00000360: 900b 773d 0835 0f3d 6a88 903d e070 55bd
00000370: 2650 c43d 3145 f8bc 5ed0 b93c 9775 473c
00000380: d178 3d3d d6af 99bd 4347 c13d 3a87 eebc
00000390: 14ed e03b b411 bfbd 9e5f 393c b80a b93b
000003a0: 740e 173a 6676 983d d695 38bd 33fe f5bc
000003b0: 58a1 e13b e626 033c ddf2 84bc b273 c33d
000003c0: 06ab a03c b88f 54bd 51d3 a43d 6dc0 9cbc
000003d0: 3633 83bd 639e 2ebd f40a a83d af41 7b3d
000003e0: a89c 233d 8fe2 aeb9 bea7 75bd 31a4 743d
000003f0: e9da f3bb 0767 963d 6b13 94bd 9f70 c03d
-0.05193733 0.029322904 0.051051904 -0.006457697 -0.017143004 0.01264857 0.04258656 0.009475543
-0.046203203 -0.043340575 -0.013456493 0.023436604 -0.082868695 -0.006678991 0.08739075 0.00035647085
-0.08679352 -0.04086816 -0.051965147 -0.04136322 -0.089686096 0.023715446 -0.04450117 0.038079247
-0.06193359 -0.026351867 -0.00046488395 0.06251438 -0.071528696 -0.057038024 -0.07608334 -0.0016437279
0.08622696 -0.014150877 -0.07855837 -0.02797005 -0.032789994 -0.04670224 0.0040009194 -0.031498186
-0.07640407 0.07517288 -0.093440406 -0.09078279 -0.039173536 -0.04232543 -0.068999164 0.091217645
-0.07163512 0.07541537 0.1007252 -0.02544417 0.051460844 0.022483252 -0.009017231 -0.048608717
-0.02385148 0.03265051 0.005762348 0.033776388 0.033660475 0.024392959 0.02655411 -0.027309433
0.07224409 0.09661511 -0.010721719 -0.038139246 -0.03647596 -0.01199332 -0.0037242207 -0.0619263
0.042847075 0.058057133 0.032934476 0.0829722 0.016289914 0.013303513 -0.0253524 -0.008854387
-0.053022582 -0.031390958 0.035097487 -0.0072287642 0.018516801 0.053442106 0.0703138 0.04788854
-0.07494591 0.05723711 -0.055866916 -0.064284466 -0.048845008 -0.01199595 0.04013948 0.012418121
-0.04131731 0.07296759 0.035987277 0.09655203 0.0805607 0.0034595719 0.058089036 -0.07138419
-0.06785911 0.07625734 0.01827208 -0.014918873 -0.03897074 -0.09305396 0.06804613 0.06261517
-0.04215224 -0.0713622 -0.017963795 0.018252628 -0.07519229 -0.029468743 -0.066653386 0.033043325
-0.031986855 -0.03319846 -0.06746309 -0.015765436 0.09511899 0.0103510255 0.060461067 0.023970068
-0.09477205 0.052897833 0.025598211 -0.09575905 -0.021852272 0.044134784 0.07744761 -0.06488556
0.018112116 0.04872132 0.040573083 -0.019740006 0.06526081 0.06270188 0.08104741 -0.06474548
0.089170605 0.049929995 0.043644324 -0.042459164 0.07236171 0.015170729 0.040448077 -0.05931929
0.043489426 -0.0013451104 -0.03393276 0.07862349 0.0064432044 -0.029406033 0.023678396 0.017143441
-0.035052057 -0.021095952 -0.00872268 -0.06772321 0.102223285 0.0025670244 0.04058271 0.07131893
-0.054051574 0.03493029 -0.008482735 -0.040687125 0.013547815 -0.07149447 0.090502515 -0.041869245
0.024723541 -0.015349166 0.048182454 -0.033399694 0.0699383 0.06383411 0.059940223 0.057326883
0.055631902 0.07034723 0.06373233 -0.002320258 -0.055108864 0.06764979 0.089753814 -0.031979654
-0.061307102 0.013341974 -0.041858636 0.0030486032 0.024323497 0.07029831 -0.019619657 -0.051037967
-0.025551755 -0.043182734 0.058159623 0.078302935 0.04855335 -0.03987092 -0.041288245 0.061054282
-0.0031446095 0.0870602 -0.019661693 0.022513531 -0.038543645 0.054755386 0.047629084 0.003378314
0.06031376 0.034962684 0.07057269 -0.0521096 0.095855996 -0.03030643 0.022682365 0.012174032
0.046257798 -0.07504241 0.0943742 -0.029117215 0.0068641994 -0.093295485 0.011314301 0.0056470297
0.00057623466 0.07444458 -0.04506477 -0.030028438 0.0068856888 0.00800488 -0.016229087 0.095435515
0.0196128 -0.051894873 0.08048118 -0.019134725 -0.06406252 -0.042631518 0.08205214 0.061341938
0.03994432 -0.00033356666 -0.059974425 0.059726898 -0.0074418676 0.0734387 -0.07230266 0.09396481

fc2.bias f4 [128]
00000000: 8c00 f13c 7de8 073d 4020 ba3c 1683 073d
00000010: 4edd 4dbd f6a6 6b3c 4b9a 6fbd c4ad ca3c
00000020: bac3 873a 6707 e23c cc67 4bbc 9950 873d
00000030: e078 11bd 63b9 343d b69d ab3c b993 5bbd
00000040: 6cc9 a43b 7111 013b 7c09 173d a4ea 843c
00000050: cc45 203d ccfd fb3c f48d f23c 562e 393d
00000060: 59c7 0d3c 1f75 c93c 6f17 593d 5b49 62bd
00000070: d337 843c 0eca dfbc c7e9 cebc 2bfc 1cbc
00000080: 44ae 01bd e4d8 6f3d 554a c0bb bf03 28bd
00000090: 424c 35bd b554 6a3b b43a 8bbd bb83 623d
000000a0: c975 bd3b 4afc 3a3d c792 843d 943e 3abd
000000b0: 8c46 e93c 5992 51bd 474d 7abc 74bc 50bd
000000c0: 3689 60bc 890a a8bc 2384 953d 08a1 013d
000000d0: 5668 c9b8 013e 3bbc 566f c3bc 1be5 abbc
000000e0: 016a 7bbc feda 4e3d aad7 ad3c dffd 743d
000000f0: 754e 523d 52a3 693d 3012 c73c a322 eabb
00000100: e232 12bd edbd be3c 3261 093c d320 f2bb
00000110: a2dc 4f3d 9375 6a3d 9b1c 573d c80b d63c
00000120: b45b 133d 3759 063c 27a4 07bc 9749 a5bc
00000130: 05e1 8f3d b29e c6b8 3d90 d3bc 48f8 893d
00000140: 0676 6fbd 226a 883d 6ee6 5fbd d19d 3bbd
00000150: 5ea1 afbc 6a33 0cba 20d5 ae3a 248c 313d
00000160: f57c 923d 5598 813c 7098 3bbd c500 203d
00000170: 1bc4 d7bc 84e4 573c 1a6c 623c 6a4c e63c
00000180: 6d7c 34bd 7fc8 83bd f65b 963d 4478 043d
00000190: bdfb 82bc 5ee3 953d 9ef1 d6bc 8665 8abc
000001a0: dc35 d5bc cd1c 1b3b d26a 743d 5dea d13c
000001b0: b4d7 cc3c 3981 5abc 2d3a 423d 19a9 03bd
000001c0: c55f 1bbd de96 cebc 2c35 9f3c 8990 5e3d
000001d0: c5fb 79bc 6976 2f3d 47f5 6d3d 4098 c13c
000001e0: 23d6 b2bc fc60 ef3b 6730 7e3b 9885 033b
000001f0: 40bf 963c 8730 b43c 80c6 2e3d ee36 843b
0.029419206 0.033180702 0.022720456 0.033083998 -0.05025988 0.014383068 -0.058496755 0.024741061
0.0010358014 0.02759142 -0.012414884 0.0660717 -0.035515666 0.04412211 0.020949226 -0.053607676
0.005028894 0.0019694234 0.03687428 0.016225167 0.039129063 0.030760668 0.029608704 0.045210205
0.008653485 0.02459198 0.053000864 -0.05524574 0.0161399 -0.027318027 -0.025257958 -0.009581606
-0.031660333 0.058556452 -0.005868236 -0.041019198 -0.04426218 0.0035756056 -0.06798306 0.05530141
0.0057818634 0.045650758 0.06473308 -0.045469835 0.028476022 -0.05116496 -0.015277213 -0.050960973
-0.013704589 -0.020512836 0.07300594 0.031647712 -9.603861e-05 -0.011428357 -0.0238568 -0.02098327
-0.0153450975 0.050501816 0.021221 0.059812423 0.051344354 0.05704052 0.024300665 -0.0071452423
-0.035693057 0.023283923 0.00838499 -0.007389167 0.05074752 0.057241034 0.052517515 0.026128665
0.035976127 0.008199981 -0.008278883 -0.020176692 0.07025341 -9.470935e-05 -0.025825614 0.06736809
-0.058462165 0.06660868 -0.054663114 -0.045804802 -0.02143925 -0.00053482375 0.0013338663 0.04334654
0.0715274 0.015819708 -0.045799673 0.039063234 -0.026338628 0.013177041 0.013819719 0.028112609
-0.044063974 -0.06434726 0.07341759 0.032341257 -0.015989179 0.073187575 -0.026238259 -0.016894113
-0.026026659 0.002366829 0.059672184 0.025624448 0.025005199 -0.013336473 0.047418762 -0.032143686
-0.03793313 -0.025218423 0.019434534 0.05433706 -0.01525778 0.042837534 0.058095243 0.023632169
-0.021830624 0.0073052626 0.0038786174 0.0020068642 0.018401742 0.021995796 0.042669773 0.0040348684

fc3.weight f4 [2, 128]
00000000: 0d3e 6dbc c455 8cbc af75 87bc 5894 2abc
00000010: 05f6 17bc 7df8 6fbc 7124 afbb 700b 8cbc
00000020: dfc0 23bc 6bff 7abc bd7e 50bc 3ca4 76bc
00000030: 2240 87bc 6bd2 90bc 4157 06bc f64c 22bc
00000040: 300d 3fbc ed78 ebbb d635 38bc 4462 84bc
00000050: b12b 9dbc bd9e 8bbc 885e 02bc 182f 66bc
00000060: 3519 89bc 1119 7abc 9aa7 9abc 92b4 eabb
00000070: 8297 94bc f0d2 86bc fb9d 8fbc 51cb ebbb
00000080: f465 64bc b4f7 77bc da2e 28bc def9 96bc
00000090: cfc6 7ebc 2713 a7bb ea49 e2bb 1c58 0bbc
000000a0: fb18 97bc 56c2 18bc db2f 54bc b017 88bc
000000b0: 0c18 a73a aac3 41bc f338 a3bc f53a 5fbc
000000c0: 7975 89bc fa1d 6bbc e510 8dbc 38bb 0fbc
000000d0: 42b6 90bc ca27 87bc 8b16 9fbc 0c7d f2bb
000000e0: 4788 70bc 7b69 88bc d8a5 2dbc 0d43 8bbc
000000f0: ccd4 7dbc 556e 19bc e002 6ebc b4eb b4bb
00000100: 2a31 82bc 5bd3 a7bb d265 8dbc 81ce 28bc
00000110: 51d3 89bc 886c 5cbc 3058 89bc 16aa 81bc
00000120: 4321 8abc 59fb 87bc 9a0c 96bc 3195 1abc
00000130: c5e9 98bc d376 82bc 1789 93bc 4bae 72bc
00000140: 5780 2dbc c36b 80bc d639 4fbc dd72 45bc
00000150: c80b 8ebc 27e9 8ebc 0445 8abc 1039 16bc
00000160: 5011 82bc ddd3 e4bb 64a9 21bc 8c97 14bc
00000170: 6a15 10bc d3c2 53bc 9546 6ebc 3460 40bc
00000180: e995 86bc baec 2fbc 1a9d 8bbc 44ac 61bc
00000190: dc6d 5cbc 1ef3 75bc 3092 09bc 4dea e2bb
000001a0: b36f 0ebc a034 8ebc 05ee febb 9c3c 8fbc
000001b0: 8cf3 82bc 0381 85bc bba0 97bc 0cbb 88bc
000001c0: b5c7 96bc f291 25bc 429d f0bb be1d 5cbc
000001d0: 13cd 91bc cf70 75bc 4c12 7cbc 227f 3bbc
000001e0: 8858 8abc 61c6 8bbc 6e35 6fbc 6ef8 99bc
000001f0: ce13 9cbb 8b26 8dbc 3710 5cbc 5ccc fdbb
00000200: 7c38 36bc fdbd 04bc e6ca 833c c27d 90bc
00000210: 32a0 033c 87c1 b33c fd6f 68bb de0e f33b
00000220: e9ee bbbb 2b30 a43c a126 993c 5811 873c
00000230: 8b06 173c 330b 8d3c 5cc3 f2ba c70e 023c
00000240: c669 ad3c 9921 8c3c cb7c 85bc b93c 813c
00000250: c306 6a3c 7e14 943b b319 3fbc 7b04 83bc
00000260: 21c7 b0bb fa94 8f3c 60f4 a73c 3822 1abc
00000270: f3d8 c03c 7672 b23b b15d 9a3c ba6e 3a3c
00000280: dcd7 36bc 3059 1c3c 507e 903c 65d1 7e3c
00000290: 33a7 ca3b 8c00 89bb b892 29bc 5794 9d3c
000002a0: ca55 af3c 1dd0 de3c bdf2 013c d05f a73b
000002b0: 1016 43b9 4d41 cabb e8ce b33c 81d4 18bc
000002c0: 0d7a 2e3b 727d aabb 73e8 933c f44c 1ebc
000002d0: e07e 3a3c e011 b03c e195 ab3c 18bc b1bb
000002e0: 3ba2 67bb 071d 853c 62ba e1bb 1bc3 67bb
000002f0: 5803 623b cbf9 4c3c cf81 a13c 427f 0abc
00000300: a2d1 3d3c ab81 87ba 9943 e93c 512f 7bbc
00000310: ffa5 d2bb 4184 e3bb ec7a 9d3c a678 e63a
00000320: 8951 66bc d4a9 0f3b 10e4 9f3c c010 b23c
00000330: a8f0 973c 9ce6 98bc ac84 a93c a1ad 53bc
00000340: 2ff0 713b 77be c93b 61c9 a1bb 3171 5e3c
00000350: 4839 903c 7292 903c 6ef2 a93c 47c2 963c
00000360: 33e2 9b3c fb2b 153b fa1c ad3c 263b c7bb
00000370: 39b9 fcbb 837e be3c 95d9 d1bb c810 c63c
00000380: 70f5 583c 550e 81bc bf04 c93c 1ac4 fabb
00000390: 25c3 c33c 6923 24bc 6a90 a23c 8d3d 013c
000003a0: 763d 1fbc c245 c33c 46d9 d33c a030 893c
000003b0: 4284 a63c 1d44 033a 0433 c73c b87d 143c
000003c0: e07b 7d3c f641 88bc dc74 b03c 068d 073b
000003d0: 9480 d13c 8d5c 41bc 118c b73c e755 9b3c
000003e0: 5e25 bc3c 9ae6 68bb c63b 653b 44f6 8a3c
000003f0: 7b63 e23b e2ae ab3b e5ab cb3c fd75 353b
-0.014480126 -0.01713074 -0.016535608 -0.0104113445 -0.009274964 -0.014646647 -0.0053449203 -0.017095298
-0.0099947145 -0.015319685 -0.012725529 -0.015053805 -0.016510073 -0.01767846 -0.008199514 -0.009906044
-0.011660859 -0.0071860463 -0.011243304 -0.016160138 -0.019185873 -0.017043466 -0.007957108 -0.014049314
-0.016735652 -0.015264765 -0.018878747 -0.007162639 -0.01813865 -0.016458005 -0.017531386 -0.007195868
-0.013940323 -0.015134741 -0.0102650765 -0.018429693 -0.015550329 -0.0050987187 -0.006905784 -0.008504894
-0.018444529 -0.009323677 -0.012950863 -0.016612858 0.0012748255 -0.011826435 -0.019924616 -0.013624896
-0.016779648 -0.014350409 -0.01721997 -0.008772664 -0.017665032 -0.016498465 -0.019419929 -0.0074001607
-0.014680929 -0.01665186 -0.010598622 -0.016999746 -0.015492629 -0.009364684 -0.014527053 -0.005521262
-0.015892584 -0.005121631 -0.017260466 -0.010303141 -0.016824396 -0.01345361 -0.016765684 -0.015828174
-0.016861564 -0.016599344 -0.018316556 -0.009434984 -0.018666157 -0.0159258 -0.018009705 -0.0148120625
-0.010589681 -0.015676385 -0.0126480665 -0.012051311 -0.017339602 -0.01744516 -0.016878612 -0.009168878
-0.015877396 -0.006983264 -0.009867046 -0.009069335 -0.008794168 -0.012924868 -0.014543195 -0.011741687
-0.016428905 -0.010737592 -0.017042685 -0.0137739815 -0.013453927 -0.015011577 -0.00839667 -0.0069249035
-0.008693623 -0.017359078 -0.007779839 -0.017484955 -0.015985273 -0.01629687 -0.01850926 -0.016690753
-0.018405775 -0.010105597 -0.0073429653 -0.013434825 -0.017797982 -0.014980509 -0.015385222 -0.011443885
-0.016887918 -0.017062368 -0.014600141 -0.018795218 -0.004763103 -0.017230293 -0.0134316 -0.007745309
-0.011121865 -0.008101937 0.01608796 -0.017638091 0.008033799 0.021942867 -0.003546714 0.007417544
-0.0057352674 0.0200425 0.018695178 0.016487762 0.009217869 0.017217254 -0.0018521356 0.0079380935
0.0211686 0.017105864 -0.016294857 0.015776025 0.014283839 0.0045190444 -0.011663842 -0.015993347
-0.0053948318 0.017527092 0.02050227 -0.009407572 0.02354095 0.0054457737 0.018843504 0.011378938
-0.011159863 0.009542748 0.017638355 0.015552853 0.0061844825 -0.0041809734 -0.010349922 0.019235773
0.021403212 0.027198846 0.0079314085 0.0051078573 -0.00018604868 -0.0061723352 0.021949247 -0.009328009
0.002662304 -0.0052029425 0.018055176 -0.009661902 0.011382788 0.021492898 0.020945491 -0.005424034
-0.00353445 0.016249193 -0.0068886736 -0.0035364095 0.0034486856 0.012510727 0.019715218 -0.008453192
0.011585625 -0.0010338327 0.028474616 -0.015331105 -0.0064284797 -0.006943256 0.019223653 0.0017583563
-0.014057525 0.0021921294 0.019517928 0.021736503 0.018547371 -0.01866465 0.020693146 -0.012919814
0.0036916842 0.0061567384 -0.0049373363 0.013576792 0.017605439 0.017647956 0.020745482 0.018403186
0.019028759 0.002276181 0.021131981 -0.006080049 -0.00771251 0.023253685 -0.0064041116 0.024177924
0.013242111 -0.015753904 0.024538396 -0.0076527717 0.023896763 -0.010018208 0.019844253 0.00788821
-0.009719243 0.023836974 0.02586044 0.016746819 0.020326737 0.0005007403 0.024316318 0.009063177
0.015471429 -0.016633015 0.021540098 0.0020683422 0.025574006 -0.011801851 0.022405656 0.01896186
0.022967037 -0.003553784 0.0034978255 0.016963132 0.0069088317 0.0052393535 0.02486224 0.0027688735

fc3.bias f4 [2]
00000000: 8bcf 7d3d 1c9e 96bd
0.061965507 -0.07354376
