results/results_3/agent1_actor.pth (torch, 185131 bytes, 6 tensors)

fc1.weight f4 [256, 48]
000000 53 c6 c4 be 5f 88 24 3f 65 7f 62 bd a8 2c b5 3e
       -0.3843256 0.64270586 -0.055297274 0.35385633
000010 6c 06 8e be 3b 4d 02 bf aa c9 4d bd e0 7c d0 3e
       -0.27739275 -0.50899094 -0.05024115 0.40720272
000020 32 34 be be ba aa 46 3f 14 8f 5f 3e 54 17 e4 3c
       -0.37149197 0.7760426 0.21831924 0.027843155
000030 4a 77 87 be 91 d0 6e bf d7 6e 8f 3e 42 d7 f2 3d
       -0.26458198 -0.93287 0.28014252 0.118574634
000040 1e 72 3b be 24 3d 5d 3f 4e 8e a6 3e 8b 49 ca 3e
       -0.18305251 0.8642142 0.32530445 0.39509234
000050 9e 7f 33 be 5a 17 d3 bf 14 4c ba 3e 69 2c ee 3e
       -0.17529151 -1.6491501 0.36386168 0.46518257
000060 47 72 0a bf 2f 16 a7 be 1d 98 21 be f5 e0 3a bf
       -0.54080623 -0.32634112 -0.15780683 -0.7299951
000070 88 d6 8c 3e 2b d6 0f bf 2f 09 81 bd c9 77 39 bf
       0.27507424 -0.5618617 -0.0630058 -0.724484
000080 9d 24 da be 3a 70 d8 be 71 8f 6d be 7e e6 18 bf
       -0.4260606 -0.42273122 -0.2319925 -0.59726703
000090 51 82 7a 3e 03 5f 6e bf 75 99 87 be d8 db 0c bf
       0.24463774 -0.93113726 -0.26484266 -0.55022955
0000a0 46 89 b1 be c7 ed de be 35 1b 80 be cc f2 06 bf
       -0.34675044 -0.43540785 -0.25020757 -0.5271423
0000b0 86 e2 3c 3e 5c 73 d2 bf b5 71 50 be fd 5f fd be
       0.18445787 -1.6441455 -0.20355876 -0.49487296
0000c0 8f a0 b8 be 8d 49 a0 bd 98 8b 26 be cb 7e 78 bf
       -0.36059996 -0.07826529 -0.16264188 -0.9706847
0000d0 13 48 2c 40 21 88 19 3f a2 c9 04 be fb 60 72 bf
       2.691899 0.5997334 -0.12967542 -0.9467923
0000e0 eb 4b 81 be 4a f4 dc bd 22 de 1a 3e 65 9a 85 bf
       -0.25253233 -0.10788782 0.151238 -1.0437742
0000f0 12 1d 3b 40 5a 54 3b 3f 9c 32 76 3e 0e a0 80 bf
       2.9236493 0.73175585 0.24042743 -1.0048845
000100 38 a3 fa bb 4a 9a 95 3d 85 d5 34 3d 99 6e f8 bf
       -0.0076488517 0.07304819 0.04414894 -1.9408752
000110 a8 0c 9f 3f b4 66 a6 3e d6 c5 f3 3c 63 2b fe bf
       1.2425737 0.3250023 0.029757421 -1.985699
000120 a6 14 6e be b8 77 49 bf b6 84 a0 3b bc 46 16 bf
       -0.23250064 -0.786983 0.004898633 -0.5870168
000130 75 51 2f c0 32 28 18 3f 91 52 86 3a f6 f2 22 bf
       -2.7393467 0.59436333 0.0010247995 -0.6365198
000140 9f ad 45 be 17 75 7a bf 06 3b 21 3e c5 01 01 bf
       -0.19304512 -0.97834915 0.15745172 -0.50393325
000150 7e 70 3b c0 90 a3 1f 3f 70 b5 05 3e 4c ca 11 bf
       -2.928741 0.6235895 0.13057494 -0.56949306
000160 87 2a 8f bd 6e c0 22 bf c0 4e 25 be f0 3c a5 be
       -0.06990533 -0.63574874 -0.16143322 -0.32273054
000170 3a 44 ac bf 60 14 b3 3e bd ce 6d be 23 e0 90 be
       -1.3458321 0.34976482 -0.23223396 -0.28296003
000180 d5 c1 3a 3e fa da 7e bf 61 a9 d1 be 82 fa 1a c0
       0.18238004 -0.9955288 -0.40949538 -2.4215398
000190 bd bd 0b bf 36 cb f9 bc fd e4 df be a6 09 15 c0
       -0.5458639 -0.030492406 -0.43729392 -2.328714
0001a0 9b d6 64 3e 00 a8 89 bf bc e2 a6 bd 65 cf fd be
       0.2234749 -1.0754395 -0.08148715 -0.49572292
0001b0 5a 69 b8 be 84 9b a4 3e 5d cd e5 bd 80 ea 13 bf
       -0.36017877 0.321499 -0.112208106 -0.57779694
0001c0 90 8d ac 3e 29 15 3e bf 82 74 6d 3e 6f 69 1e 3f
       0.33701754 -0.7425104 0.23188975 0.6187963
0001d0 ac 1a 83 be 9e 1d 3d 3f f6 60 5d 3e 2d 34 22 3f
       -0.25606287 0.7387332 0.21619019 0.63360864
0001e0 a1 ba a9 bd ed b2 25 bf 64 e3 ee be 89 94 c2 be
       -0.0828755 -0.64726144 -0.4665786 -0.38003948
0001f0 63 a2 02 3f 4c 33 ff bc 33 fe cb be d3 92 ce be
       0.5102903 -0.03115239 -0.39842376 -0.40346393
000200 49 90 20 be f0 e6 f4 be 46 41 2f be 5e b7 f8 be
       -0.1568004 -0.4783244 -0.17114744 -0.48577398
000210 7a 16 a1 3e b6 3a ad 3e db 01 e0 bd e7 8c 15 bf
       0.3146246 0.33833855 -0.10937854 -0.58418125
000220 7d 89 b2 bc 27 f2 c7 be fa ff cb be b7 a7 ec be
       -0.021794075 -0.39051935 -0.39843732 -0.46221706
000230 65 2b 76 3e 40 6a 34 3f 2a 6d 95 be c3 e8 fc be
       0.24039991 0.70474625 -0.29184848 -0.49396333
000240 5f 67 43 bf 73 92 fe 3e 59 ab 31 3e 5a ad 9d bf
       -0.76329607 0.49721107 0.1735052 -1.2318528
000250 a3 ca 61 40 dd 21 63 3f 9a 90 62 3e d6 14 a6 bf
       3.527993 0.88723546 0.22125474 -1.2975109
000260 0e 6c 53 bf 2e 34 02 3f e3 ce 2e 3b 4b 0d 6b bf
       -0.82586753 0.5086087 0.0026673607 -0.9181716
000270 87 23 93 40 fe c8 68 3f 0b f0 a1 bc c7 3d 65 bf
       4.598087 0.9093169 -0.019767782 -0.8954739
000280 7a a2 8b be ca e2 47 3f fd 71 56 3e 26 28 db bf
       -0.27272397 0.7808043 0.2094192 -1.7121627
000290 da 5a e2 3f 75 79 a3 3e 2f 2d ec 3d b4 78 d8 bf
       1.7683976 0.31928602 0.115320556 -1.6911836
0002a0 96 15 b6 be 61 cf b3 bf 89 db c0 3c bd 82 19 bf
       -0.35563344 -1.4047662 0.023542183 -0.59965116
0002b0 87 16 68 c0 37 73 59 3f 69 fd 50 3d e1 33 1a bf
       -3.626375 0.8494143 0.05102292 -0.6023541
0002c0 da e9 90 be 17 e9 a9 bf 20 6f b0 3d 7d f2 82 be
       -0.28303415 -1.3274258 0.086149454 -0.2557563
0002d0 fd 29 92 c0 22 63 5d 3f 8c c4 f6 3d bd 5f a4 be
       -4.5676255 0.8647939 0.12049207 -0.32104293
0002e0 2f 71 81 3d 5e cc 27 bf 03 39 27 3d 3b 10 96 3e
       0.06320416 -0.65546215 0.040825855 0.29309258
0002f0 40 c4 da bf ab 3c dc 3e d9 00 31 bd e4 98 8f 3e
       -1.7091141 0.43015036 -0.0432137 0.28046334
000300 b5 3c 1b bf c4 27 5c bf 3b 4a e7 3d e3 d2 02 c0
       -0.60639507 -0.8599818 0.11293455 -2.0441215
000310 a7 8e a7 40 61 13 32 3f 59 fb 37 3e cb 7d 04 c0
       5.2361636 0.6956082 0.17966975 -2.0701778
000320 4e 07 ec be e9 dc 4c bf d1 46 59 3e 9c 58 98 bf
       -0.46099323 -0.8002458 0.2121842 -1.1902041
000330 7d a8 8d 40 85 1b 32 3f 86 78 14 3e 4a 2a 93 bf
       4.4268174 0.6957324 0.14499101 -1.1497281
000340 e3 e3 bf be 60 4b 28 bf 43 39 75 be e0 d6 88 bf
       -0.3747855 -0.65740013 -0.23947625 -1.0690575
000350 69 aa f7 3f 99 25 21 3f f0 c9 49 be ed 4f 91 bf
       1.934888 0.62947994 -0.1970594 -1.1352516
000360 d5 41 e1 be ab 72 be bd d4 9d c4 3d d9 26 ee be
       -0.43995538 -0.09299215 0.09600416 -0.46514013
000370 2f d1 a9 c0 89 8b 3b 3f 1c 3d 1f 3e 09 8f b0 be
       -5.306785 0.7325979 0.15550655 -0.34484127
000380 8c 50 f5 be fa 4e 5a bd 6a 81 06 3e 25 52 b6 be
       -0.47913015 -0.053297974 0.13135305 -0.35609546
000390 14 df 8d c0 d9 1a 1f 3f 31 e7 3d 3e f5 14 d6 be
       -4.433481 0.6215034 0.18545224 -0.41812864
0003a0 9b 4e 19 bf c7 8e 0e bc c3 f3 74 be be fd 0f bf
       -0.5988557 -0.008701033 -0.23921113 -0.56246555
0003b0 9b 3c f0 bf f9 9d 1a 3f 65 33 35 be f9 b9 1d bf
       -1.8768495 0.603973 -0.17695387 -0.61611897
0003c0 38 a7 dd be 67 5e 09 3f d4 dc 33 bb eb 11 2f bc
       -0.4329164 0.5365967 -0.0027444856 -0.010685424
0003d0 87 fa a3 be 2b d1 22 bf 7f 59 6c 3c 69 1d 47 bc
       -0.32027075 -0.63600415 0.014425634 -0.012153008
0003e0 3a 18 eb be ef 78 f2 3e 32 20 61 be 01 fb 03 3d
       -0.4591692 0.4735789 -0.21984938 0.032221798
0003f0 e6 34 ab be 0b ef 9c bf 08 09 76 be 96 6f e6 3c
       -0.33438796 -1.226045 -0.24026883 0.02812938

fc1.bias f4 [256]
000000 a4 28 9b 3e 35 3e 92 3d 3b e9 d8 bd 70 3b f5 3d
       0.30304444 0.07140771 -0.1059136 0.119742274
000010 86 bf 10 3f aa 42 b7 3e a9 9b 14 be 91 4d a5 bb
       0.5654224 0.35793048 -0.14512505 -0.005044647
000020 42 f6 5e be 02 81 25 bf 38 84 0d be a3 95 93 be
       -0.21773627 -0.64649975 -0.13819969 -0.288251
000030 45 29 4f 3e 7c f9 17 3f bb 0e 11 be f2 cd 44 be
       0.20230587 0.5936506 -0.14165775 -0.19219187
000040 5c f7 a9 be 83 15 b9 be 88 89 85 3e 3a bc 8e 3e
       -0.33196533 -0.36149225 0.2608149 0.2787798
000050 20 ec 06 be 4f 4c 32 bc ac 69 22 3a 5d ae d0 be
       -0.13176012 -0.010882451 0.0006195556 -0.4075803
000060 4c 7d 4b be 96 0f db 3d 1a a4 45 be 05 7d ba 3d
       -0.19872016 0.10696332 -0.19300881 0.09105877
000070 22 ba 63 bd 35 5c 06 bf bd ab 47 3e 15 d4 9d be
       -0.055597432 -0.52484447 0.19499107 -0.30825868
000080 5d 39 22 3e f4 00 1e be 9a 83 a3 bd 7b 1b ee bd
       0.15842195 -0.15430051 -0.079840854 -0.11626335
000090 63 c6 f9 be a4 ed 9b be ff 51 fe be 14 77 c5 3e
       -0.4878417 -0.30454743 -0.49671933 0.38567412
0000a0 3a c1 ae 3c 56 16 e9 be 1a 8c 85 3e 03 fd 74 3d
       0.021332372 -0.45524853 0.26083452 0.059811603
0000b0 88 cf 12 bf c2 63 9a be 26 08 4c 3e 9a 49 b3 be
       -0.5734792 -0.30154234 0.19924983 -0.3501709
0000c0 79 09 9d 3d 68 70 c6 bd 3d 1e b4 3e b3 5c 7f 3c
       0.076678224 -0.096894085 0.3517932 0.015586066
0000d0 bb 65 01 3e fd ed e2 be 5e cb 42 be 20 51 8c be
       0.12636463 -0.44322196 -0.19022891 -0.27405643
0000e0 3b 26 05 bf 24 75 1a 3f 5a 9e dd 3e 71 12 ed 3d
       -0.5201146 0.6033499 0.43284875 0.11575783
0000f0 d1 8e d1 3e 9d 09 b5 3d 90 59 39 bf 6c 95 80 3d
       0.40929273 0.08839724 -0.72402287 0.062785
000100 67 cd 1f 3f 13 13 be be ce 8f fc 3d 6a d7 a4 be
       0.62422794 -0.37123927 0.12332116 -0.32195598
000110 5f 7d ce bd 8e b6 a2 be ed a6 c8 3c c2 bc be be
       -0.100825064 -0.31779903 0.024493659 -0.37253386
000120 50 9d ed be 4b e4 7c be 0e 6b d7 bd 48 39 99 be
       -0.46409082 -0.24696462 -0.10518466 -0.29926515
000130 80 e4 6e bc de c2 f0 be 62 a6 7f be f0 b7 92 be
       -0.014580846 -0.47023672 -0.24965814 -0.28655958
000140 a6 7c ad be a7 cd 27 bd 0d aa 44 3e cf 1e 5e be
       -0.33884162 -0.04096761 0.19205494 -0.2169144
000150 77 03 b2 3e 44 19 17 bf b1 37 a9 be e7 78 24 3f
       0.34768268 -0.5902293 -0.33050302 0.6424698
000160 0c ce e3 bc 2a 88 22 be a2 54 ac be 9c 98 a6 be
       -0.027808212 -0.15872255 -0.3365832 -0.32538307
000170 93 fb 4e be 5e 12 26 be dd 48 6c 3d 66 ee 09 bf
       -0.20213155 -0.16217944 0.057686675 -0.5387939
000180 33 31 6f 3e 42 9e d4 3e 15 c5 48 3e 2d 85 5d bd
       0.23358612 0.4152699 0.19606431 -0.054082084
000190 c8 fa da be 8e 1b a3 3d e7 66 4c be 5b 94 c9 be
       -0.42769456 0.0796424 -0.19961129 -0.39371
0001a0 66 3f 9b 3e c2 3e 2e bd 21 c1 ae be 3f f8 99 bb
       0.30321807 -0.04254032 -0.3413172 -0.0046987827
0001b0 b8 e0 c0 3e e4 e1 cf be 29 da d2 be 30 ec c5 be
       0.37671447 -0.40602028 -0.41182068 -0.3865676
0001c0 98 b7 c5 3d 08 9b 5c be b7 d0 19 be 65 a2 af be
       0.09654158 -0.21543515 -0.15021025 -0.34303585
0001d0 20 e9 91 bd 54 08 aa bc fa 94 15 be c5 48 9f be
       -0.07124543 -0.020755924 -0.14607611 -0.31110206
0001e0 2b ac b8 be c3 74 a6 be ac 4d e8 3e 2b 74 be 3e
       -0.36068854 -0.32510957 0.4537176 0.37198004
0001f0 ee 77 49 be 57 66 53 3e d6 15 e0 be 30 d2 d7 bd
       -0.19674656 0.20644508 -0.4376666 -0.10538137
000200 75 18 b8 be 13 e0 c6 be b3 03 68 be e1 ec 41 3e
       -0.3595616 -0.3884283 -0.22657661 0.18938018
000210 c0 03 d1 be 5e f3 7d be bc d9 aa be 99 77 aa bd
       -0.40823174 -0.24799868 -0.33369243 -0.08323593
000220 98 2f c3 be b9 f8 9b be 9d 9a 7d bd a1 dc f7 be
       -0.3812225 -0.30463198 -0.06191503 -0.48410514
000230 aa 24 3d be 39 5b 48 be 05 48 db be 3a 41 c5 3c
       -0.18471017 -0.19566049 -0.42828384 0.024078954
000240 12 c6 84 be 89 b5 8a be 77 4e 1d bf 51 62 34 3c
       -0.25932366 -0.27091625 -0.6144785 0.011009769
000250 68 6c bb 3e 04 6a 1c 3d f1 4f 21 be a5 e3 ca be
       0.36606145 0.038187042 -0.15753151 -0.39626804
000260 df 32 a1 be 08 bd 6e bd c6 18 96 be 6d 5a a6 3e
       -0.31484124 -0.058285743 -0.29315776 0.32490864
000270 9b 17 6d be f3 e4 1e bc f9 8e 30 be 2a 1f 5e be
       -0.23153536 -0.00969814 -0.1724204 -0.21691576
000280 9a 6b 51 be 0c 08 ee be d6 ab 0d bd cb 7e 46 3e
       -0.20451203 -0.46490514 -0.034587704 0.19384305
000290 50 77 0d be 29 ac 05 bf fc 93 17 bf f3 17 9d be
       -0.13815045 -0.5221582 -0.5921018 -0.30682334
0002a0 67 13 0b be e5 79 cd bd e8 5a 3d be 21 b6 f6 be
       -0.1358162 -0.10033015 -0.18491709 -0.48185828
0002b0 a1 dc 23 be 85 fe ab be 2f 89 0f be 8e a9 8f 3c
       -0.16002132 -0.3359262 -0.14017175 0.017536905
0002c0 a2 09 ad 3d 6d 06 ac bd 77 39 be 3e ac 04 e5 be
       0.08449103 -0.08399663 0.37153217 -0.44730127
0002d0 39 72 b3 3c 36 94 93 be 0f f8 fe 3d 07 a7 0b bf
       0.021905052 -0.28824013 0.12449657 -0.5455174
0002e0 63 22 69 3e 3e d0 d7 be a7 ea 06 be 88 cb c5 3e
       0.22767024 -0.42151064 -0.1317545 0.38631845
0002f0 fe a4 07 3e 20 8d cb be 97 8e 85 3d d0 7e 0c bf
       0.13246533 -0.39756107 0.065213375 -0.54881
000300 ff 4b 2b 3e b2 0f 17 3f 20 3b a4 bd 0b 5d 9f be
       0.16728209 0.59008324 -0.0801909 -0.31125674
000310 37 d0 fb be 61 ab 1e bf c9 3d f5 bb 30 4d 48 3e
       -0.49182293 -0.61980253 -0.007484172 0.19560695
000320 83 f4 4e 3e 4b f9 16 bf 6b b4 3b bd 15 3f 33 bf
       0.20210461 -0.5897414 -0.045826357 -0.7001813
000330 17 f0 00 bf 38 70 04 be d2 48 14 bf 3f e0 a4 3c
       -0.5036635 -0.12933433 -0.57923615 0.02012646
000340 c3 e6 3d be bc b0 a9 be 91 0e 2a bf 17 4d da bd
       -0.1854506 -0.3314265 -0.66428477 -0.10659235
000350 0d ab 70 be 19 53 43 be 7b 5f 79 be 78 0b 0d be
       -0.2350275 -0.19074668 -0.24352829 -0.13773906
000360 7e 9c 02 be 5a 07 a3 3d a6 fc 74 3c 32 88 e5 be
       -0.1275501 0.079603866 0.014952814 -0.4483047
000370 01 63 f6 3e d5 07 41 be 79 75 8e be 07 f7 ec 3e
       0.4812241 -0.18850644 -0.27824 0.46282217
000380 ac 14 2d 3e 32 31 a3 3d d1 0c 9f be f0 eb ae be
       0.16902417 0.07968368 -0.31064466 -0.3416438
000390 5a d8 cf be 74 e5 2c 3d 88 ff 85 3e 44 04 8d be
       -0.4059475 0.04221101 0.26171517 -0.27542317
0003a0 1b 8f 5f 3c 66 2a 35 bf 0c ef 24 be a7 16 e5 be
       0.013644959 -0.7076782 -0.16106814 -0.44743845
0003b0 8b 11 4c be b5 f0 09 be ac 76 fa bd 4e 49 8e 3c
       -0.19928567 -0.13470729 -0.12229666 0.017368939
0003c0 1c 50 16 be 1e ed cf be 2e fa 03 bf 76 93 36 3d
       -0.14678997 -0.40610594 -0.5155362 0.044574223
0003d0 a1 1e 50 bf 1e e8 4a 3e cf 4f 21 be d3 d6 9f be
       -0.81296736 0.19815108 -0.15753101 -0.31218585
0003e0 b5 57 84 3d ea 61 a2 3e 20 bb 15 be ea 75 ec be
       0.06462041 0.31715328 -0.14622164 -0.4618371
0003f0 1e be 9e be 6d 31 e6 3e 1e 66 3c be 22 5f c2 3e
       -0.31004423 0.44959584 -0.1839833 0.37963206

fc2.weight f4 [128, 256]
000000 31 09 a1 3e 3a 8f 27 bf 11 6a bf 3f d1 fd d1 bf
       0.31452325 -0.6545292 1.4954244 -1.6405584
000010 a6 5c 3e bf 2b 13 10 3c cc 31 10 3f 4d dc 3b 3f
       -0.7436012 0.0087936325 0.56325984 0.7338303
000020 bd de ca 3e 8e ef 8c 3f 37 21 5e 3f e8 66 94 be
       0.3962306 1.1010606 0.8676943 -0.2898476
000030 d0 9e b4 be 7b f2 af be 98 d4 4b bc 0b a4 e6 3d
       -0.35277414 -0.34364685 -0.012440823 0.112617575
000040 5d e4 b3 3e 3f f7 6f 3e b2 00 de be 2a 68 7a 3e
       0.35135165 0.2343416 -0.43359905 0.24453798
000050 13 56 f6 bd 96 92 9f 3e d4 15 98 3e 2f e6 eb bd
       -0.12028136 0.31166524 0.29704154 -0.115185134
000060 ef f2 f8 3d d2 ee 9b bd 19 d3 ee 3e 81 b7 59 bd
       0.12155711 -0.07613911 0.4664543 -0.05315352
000070 8c 10 00 3f f4 37 84 3e 1d f0 fe 3c b8 09 3e 3d
       0.5002525 0.2582394 0.031120354 0.046395987
000080 7c b6 bc bc 1b 8e ce be 2f 48 ec 3e dd 7d 87 3d
       -0.023036234 -0.40342793 0.46148822 0.066158034
000090 9b 8f 61 bd 0a 55 9b bd 11 eb 57 3e a0 42 44 3f
       -0.055068593 -0.07584579 0.21085764 0.7666416
0000a0 45 66 6f be b8 bb 85 3e 1c 7c c5 bf a5 75 40 3f
       -0.23378856 0.2611978 -1.54285 0.7517951
0000b0 3a 52 a6 3e 75 01 84 3f f2 51 1a bf 31 08 1f be
       0.3248461 1.0312945 -0.6028129 -0.15530469
0000c0 e9 0f 72 3e 7d 52 04 bf d5 aa 7a be 3b a4 c2 3d
       0.23638882 -0.5168837 -0.2447923 0.09503981
0000d0 98 87 d2 3d b6 fb 88 3d 2d 69 23 bd 6e 40 ee be
       0.10279769 0.06688635 -0.039895225 -0.4653353
0000e0 10 47 c7 bc 62 2e 28 bf f6 cd 50 3e b0 3b 88 3d
       -0.024325877 -0.65695775 0.20391068 0.066520095
0000f0 70 2f 4b bd 82 e8 3b 3f 79 3d 07 3e e1 00 15 3f
       -0.049605787 0.73401654 0.13207044 0.58204466
000100 3b ba c5 be d5 75 2f 3f dd 4b 58 be e4 fe 32 be
       -0.38618645 0.6853917 -0.2112269 -0.17480046
000110 ea 98 df 3e 98 79 27 3f b5 ae a3 bb 10 79 48 3d
       0.43671352 0.6541991 -0.004995192 0.04894358
000120 15 ea aa 3d 59 c8 f7 3e fd 57 2f 3d 77 3c 35 3f
       0.08345429 0.4839504 0.04280852 0.7079539
000130 b3 f9 5a bd 42 d1 b6 be b4 28 fc 3b 2b 5e ba be
       -0.053460788 -0.35706526 0.007695282 -0.3639997
000140 68 21 0f 3f 5e 14 e0 3e 23 39 82 3d ec 52 cb 3e
       0.5591035 0.4376554 0.06358554 0.39711702
000150 f3 55 31 3e da fe 49 3f 4d 37 91 3e 90 51 04 3d
       0.17317943 0.789045 0.28362504 0.032304347
000160 68 d4 62 3e ec 86 d6 be eb ba fd bd 23 76 4a 3f
       0.22151339 -0.41899812 -0.123891674 0.7908651
000170 dd e1 37 be 57 8c ef be a8 6c 16 3f 48 f6 d1 3e
       -0.17957254 -0.46786758 0.58759546 0.4100821
000180 f0 ee 95 3d 82 3c 84 be c8 28 80 3e 8f 7c 2b 3e
       0.07320964 -0.25827414 0.25031114 0.16746734
000190 3f ff cf 3e 11 97 b3 be 05 b7 3d 3c a5 ec df 3c
       0.40624425 -0.35076192 0.01157928 0.02733452
0001a0 2e 26 9f bf cc dd cd 3e 2f 1f 08 3f ed f3 8b 3e
       -1.2433527 0.4020828 0.5317258 0.27334538
0001b0 6c de f3 be 55 04 e3 bd 1f d6 9e 3e 0c 00 52 3f
       -0.47630632 -0.11084811 0.31022736 0.8203132
0001c0 a7 98 18 3e 2b 42 52 bf 83 19 c0 3e 68 84 ba 3e
       0.14901982 -0.82132214 0.37519464 0.36429143
0001d0 80 fa 72 3f 22 6a 87 3f a5 2e 07 bf dc d7 d8 3e
       0.9491348 1.0579264 -0.5280555 0.42352188
0001e0 c6 30 32 3d b4 17 96 3e 26 63 3d be dd dc 21 3e
       0.043503545 0.2931496 -0.18494853 0.15806909
0001f0 94 cc d8 3e 13 32 45 be 67 c2 68 3f 85 df d5 be
       0.4234358 -0.19257383 0.90921634 -0.41772094
000200 30 1d b2 3c 43 fd 95 3f 49 dd f7 bb d1 a7 68 bf
       0.021742433 1.1717914 -0.007564221 -0.9088107
000210 02 f7 c6 bd ed e5 74 be b1 b1 10 3e 3c 6a 7a 3e
       -0.09715082 -0.23915835 0.14130284 0.24454588
000220 86 f6 a8 3e 6c e7 1e 3f 29 ef 03 3f 0e 03 34 3f
       0.33000582 0.6207187 0.51536804 0.7031716
000230 7a 34 6f 3e cd 11 38 be ca 84 db 3e 2b 0a 78 3c
       0.23359862 -0.1797554 0.42874748 0.015139143
000240 6a 5a 81 3f 41 89 25 3e 87 73 ea 3d 6f c1 f9 bd
       1.0105717 0.1616564 0.11447816 -0.12195098
000250 51 f8 84 3d a2 f0 dc be 79 43 f9 be 5c bb 16 bf
       0.06492675 -0.43152338 -0.4868429 -0.5887964
000260 e0 d8 2e 3f f8 0b 02 3d 78 67 9d 3e 2a 17 7c bd
       0.68299675 0.031749696 0.30743003 -0.06154553
000270 37 d2 6c bc 92 0b 64 be e8 9b ce 3e 76 e1 36 3d
       -0.014454416 -0.22270039 0.40353322 0.04464861
000280 b3 3f df 3d a5 e9 0d 3e 01 1b b6 be aa cd 47 3d
       0.109008215 0.1385866 -0.35567477 0.04878012
000290 aa 09 96 3d d3 1f c2 be 11 dc f7 3e af 61 81 3f
       0.07326062 -0.37914905 0.48410085 1.0107936
0002a0 01 27 1b 3d 1e 36 0a 3d 12 4a b3 3e f9 71 21 3f
       0.037878994 0.033743016 0.3501745 0.63064533
0002b0 8f 34 86 be e5 ff 23 be 36 5d c1 3e 06 da 97 3e
       -0.26211974 -0.16015585 0.37766427 0.29658526
0002c0 79 28 fc 3e c5 62 aa 3e 3f 11 70 be e8 ae 2b be
       0.49249628 0.3327848 -0.23444079 -0.1676594
0002d0 8b 0b f9 bd 9a aa 83 3e d9 67 97 be db bf ad 3c
       -0.12160405 0.25716096 -0.29571417 0.021209648
0002e0 c5 08 a2 3e 95 52 d7 3e a1 cf 46 be a9 32 27 bd
       0.31647316 0.42055193 -0.19415142 -0.040819798
0002f0 3e f4 49 3d 11 ac 8c be df 57 41 3f b3 10 5d 3f
       0.049305193 -0.27475026 0.75524706 0.86353606
000300 97 14 2f 3f f0 3f 11 bf 9a 94 0f be 69 d5 07 3f
       0.6839079 -0.56738186 -0.14021531 0.53060013
000310 1e a7 76 be ea ff 63 3f d5 dc 4d 3f 1d ab 7b bc
       -0.24087188 0.8906237 0.8041509 -0.015360621
000320 48 f7 8a 3f 40 1b f9 3e 16 26 d7 3d 17 14 a8 3e
       1.0856714 0.48653603 0.10505311 0.32827827
000330 c9 8b 67 3f 18 46 27 3f f2 d8 9e 3e f0 c5 00 3f
       0.9044767 0.6534133 0.3102489 0.5030203
000340 12 bd b7 3d 05 a9 12 bd d7 5d 0e be 9e a8 4b bf
       0.08971609 -0.03580572 -0.13902985 -0.79554164
000350 4a d0 31 3f 86 b4 25 3e 7f ba e6 be ba b1 b9 bd
       0.6945845 0.16182145 -0.4506416 -0.09067102
000360 f1 ef 9e bd 9d 5e 65 bf b9 c1 6f 3f 37 ba 7f 3e
       -0.07760609 -0.89597493 0.9365497 0.24973379
000370 5a 32 51 3e 3f 19 f7 be f0 15 34 bf 7c fd a1 be
       0.20429364 -0.4826145 -0.70345974 -0.31638706
000380 c6 82 48 3e b5 29 90 bd 04 f6 0f 3f a5 79 45 3f
       0.19581136 -0.07039205 0.56234765 0.7713874
000390 0c a9 e7 3d 82 e1 5b be b8 66 85 bd 08 fa 02 3f
       0.1131154 -0.21472743 -0.06513733 0.5116277
0003a0 e1 c0 8c 3e a5 8c bb bd de b3 69 3d 52 b1 e8 3e
       0.27490905 -0.09157685 0.0570563 0.45447785
0003b0 22 09 b1 be 24 be 02 3e e7 82 b1 3c 46 0b 33 3e
       -0.3457728 0.12767845 0.021668864 0.17484769
0003c0 0f 45 a3 3d ff 28 cb 3d 26 99 54 3e 2f 52 61 bf
       0.07972156 0.09919929 0.20761546 -0.8801603
0003d0 5d f4 19 bf 4b 22 01 bf aa 28 6e 3d d9 1f 19 3d
       -0.60138494 -0.5044295 0.05814425 0.037383888
0003e0 df d6 5b 3e 1e 45 a6 be 89 8f a7 3d a9 09 2e 3e
       0.21468686 -0.32474607 0.08181674 0.16995873
0003f0 fa da eb 3e d0 4e 82 3e 83 d4 8c 3e 79 e1 02 be
       0.46065503 0.25450754 0.27505884 -0.12781323

fc2.bias f4 [128]
000000 47 cd 65 bf 52 3a cb 3e f2 ee a5 be a8 dd 1a bf
       -0.89766353 0.39692932 -0.32408863 -0.6049447
000010 2b ee 0c 3f fa 22 c3 bc 5b 07 8d 3e b4 e0 e9 be
       0.55050915 -0.023820389 0.27544674 -0.45679247
000020 49 9d 9b be 87 de 00 bf 23 b0 8e bd 01 97 bc 3e
       -0.30393437 -0.5033955 -0.06967189 0.36833957
000030 4d ab 42 be 03 08 15 be c0 a1 f3 3d 83 20 74 3e
       -0.19010659 -0.14553837 0.11896086 0.23840527
000040 cb 10 9d bc ab 52 40 3d fa cd ff be 1a dc 9c bf
       -0.019173047 0.04695384 -0.49961835 -1.225467
000050 7c b3 04 3d 1e 63 89 be 26 23 37 3e 40 bd ad bd
       0.032397732 -0.26833433 0.17884502 -0.08483362
000060 00 00 1f 3f 3a 67 34 be e9 db f6 3e 0a f5 dc bd
       0.62109375 -0.17617503 0.48214653 -0.10788925
000070 c5 ed 59 bd 67 d7 bb be 67 43 46 bf 18 8d dd bc
       -0.05320527 -0.36687776 -0.774466 -0.027044818
000080 57 a0 01 bf ad 87 7b bf 9f be 02 be 6e f9 7c bd
       -0.50635284 -0.982539 -0.12768029 -0.061761312
000090 ca e5 34 bf db 25 2e bd c9 c3 e2 3e 79 6a 70 3d
       -0.7066313 -0.04251657 0.44289997 0.05869529
0000a0 bf 0e 8d be 47 61 12 3c 0b 48 fd 3e ae ed 1d 3d
       -0.27550313 0.008934326 0.49469027 0.038556747
0000b0 f9 c4 82 3e 15 d8 cd 3e b2 46 ca bc 9a 00 ba 3e
       0.25540903 0.4020392 -0.024691913 0.36328584
0000c0 2b 57 37 be fc 1b 35 bf cb 3a 8a be 27 ca 82 bf
       -0.17904346 -0.70745826 -0.2699798 -1.0217942
0000d0 eb bf 17 be 83 37 79 3e 7c fa 50 bf a9 c1 96 bd
       -0.14819305 0.24337582 -0.8163221 -0.073611565
0000e0 f0 8e 34 bf 68 fa 29 bf ac 6c 0d bf b5 b2 c0 be
       -0.70530605 -0.66397715 -0.55243945 -0.37636343
0000f0 b0 d6 3b bf 3d 62 4b bf b4 43 4c bf 71 6a 09 3e
       -0.7337446 -0.79446775 -0.79790807 0.1341951
000100 55 0e 7c bd 87 33 e9 bd ea 48 7f bd bf 9d ef be
       -0.061537106 -0.11386781 -0.062325396 -0.46800038
000110 65 22 3b 3e 83 a4 37 be e6 6b 98 3c 74 4d 46 bf
       0.18274839 -0.1793385 0.018606137 -0.77461934
000120 e2 a5 1a bf 60 a7 ad bd e3 55 07 bf 39 cd 92 bd
       -0.6040937 -0.0847919 -0.5286543 -0.07168049
000130 3b 47 ea be bb fd 3b bd a2 40 18 be 92 15 01 3d
       -0.4575747 -0.045896273 -0.14868405 0.03151471
000140 89 18 8b bd 0d 4b b6 be 4b 00 b7 be 8c 6e 1c bf
       -0.06791789 -0.35604134 -0.3574241 -0.6110618
000150 44 7a 04 3f 3c d7 e7 be 41 98 a5 3e 3f 5d d9 3e
       0.5174906 -0.45281398 0.32342723 0.42453954
000160 7e ec f2 be de b3 1c 3e 8a bb 80 bd c6 b7 e9 bd
       -0.47446054 0.15302989 -0.0628577 -0.11412005
000170 3a dc f5 be 2c 9c 91 3e 78 f3 93 be 79 42 b0 3e
       -0.48019582 0.28439462 -0.2889669 0.34425715
000180 ee b7 04 3f 1b 2f 14 be 7a 7b d8 be 95 af 3d bf
       0.51843154 -0.14471094 -0.42281705 -0.7409604
000190 5f 24 c4 bd eb 64 30 3c 58 10 c4 bd 44 52 80 bd
       -0.0957725 0.010766248 -0.0957343 -0.06265691
0001a0 49 25 27 be 8b fa 7b bd 5c ff bf ba 16 bb 16 be
       -0.16322817 -0.061518233 -0.0014648247 -0.14719805
0001b0 4a 52 7d bf 52 05 cf be ad bd 83 3e 0a ae 36 bd
       -0.9895369 -0.40433747 0.2573065 -0.04459957
0001c0 db 85 08 3e c5 eb a1 3e 49 c0 0e be 58 23 7c 3d
       0.13332312 0.3162519 -0.13940538 0.061557144
0001d0 d6 82 97 bd e9 7f 81 be 86 5b 23 bf cc 4c 65 bd
       -0.07398002 -0.252929 -0.6381153 -0.055981442
0001e0 e7 78 06 bf 90 f1 1d bf c6 72 ea be 9a 57 8a 3e
       -0.5252823 -0.6169672 -0.4579069 0.2701996
0001f0 7d 40 6f 3d 1c 8f 3b bf 87 24 59 bf 5a 79 db 3d
       0.05841111 -0.7326524 -0.8482136 0.10716505

fc3.weight f4 [2, 128]
000000 25 15 79 be a6 41 b5 3e cb 58 f1 be 1e 93 8c 3e
       -0.24324472 0.35401648 -0.47138056 0.27455992
000010 cb 06 86 3f 88 75 b8 3b 29 2a a4 3e 44 fd 2b bd
       1.0470823 0.005629245 0.32063416 -0.04198958
000020 70 f7 d5 3d f0 56 f1 3e 4a 8f aa 3e a1 65 5f 3e
       0.104475856 0.4713664 0.33312446 0.21816112
000030 ef dc 16 bf 3f a8 97 3d 45 3d d0 3e 49 b0 01 3f
       -0.5893087 0.07405137 0.40671745 0.50659615
000040 7a 9c f9 bb 35 e2 a5 be 44 10 2e be fa 54 24 bf
       -0.0076175304 -0.32399145 -0.16998392 -0.64192164
000050 68 c4 fc 3c 46 90 db 3e 6f 97 35 3f 17 b8 53 bb
       0.030855373 0.4288351 0.70934194 -0.003230577
000060 7c 42 13 3f dd 75 57 3e bc 60 0f 3f 48 38 7a bc
       0.5752332 0.21041055 0.5600698 -0.015272208
000070 b5 94 02 3c 23 19 9a bc 34 12 32 bf 0f cb 0a 3c
       0.007970025 -0.018810814 -0.69559026 0.0084712645
000080 0b d9 10 bf 69 16 a7 be 32 68 02 bf 7a 38 2a bb
       -0.5658118 -0.32634285 -0.5094024 -0.0025973604
000090 50 84 73 3e d0 d7 79 3b 26 07 3c 3f 9b 04 c3 3e
       0.23780942 0.003812302 0.7344841 0.3808945
0000a0 cf e0 cf be fe 39 d0 bc ad d0 55 3f 6b 87 22 bf
       -0.40601203 -0.025418278 0.8352154 -0.6348788
0000b0 f8 8c 14 3f 81 68 bb 3e 36 fb 6d 3d e7 19 53 bf
       0.580276 0.36603168 0.0581009 -0.824614
0000c0 a3 14 04 3e 73 8e 00 bf 51 1f 11 3e 3e e0 0e bf
       0.12898497 -0.5021736 0.14172103 -0.55810916
0000d0 cb 5c dd 3d 4c 48 f8 3d 77 7d d9 be 14 1f 7d bd
       0.108087145 0.121231645 -0.42478535 -0.061797217
0000e0 35 9d 5b 3e 14 12 27 be 38 a8 b5 3c b3 13 af be
       0.21446688 -0.1631549 0.02217494 -0.34194717
0000f0 8b da 0a bf 98 25 d3 be 18 4f bb be 70 6b 7e bf
       -0.5423972 -0.4123962 -0.3658378 -0.99382687
000100 a7 fc c9 3c 5b 4f 66 bf e3 d2 6c bc f5 53 33 bf
       0.024656607 -0.89964837 -0.014454576 -0.70049983
000110 e8 6f 04 3f bb 8a 6e bf 08 50 2e 3c 7a 7c 97 3e
       0.51733255 -0.93180436 0.010639198 0.29587156
000120 5e 30 a0 be e4 4e 36 3d d5 4e 99 3d 28 ed ab 3e
       -0.312869 0.04450883 0.07485739 0.33579373
000130 97 f0 96 be bc 9a 9e ba 82 3f 19 bc 9f d8 12 3d
       -0.2948043 -0.0012100558 -0.00935352 0.035851117
000140 bb 19 ec bb 68 0e a6 3e b4 36 0f bf 9c 2a 11 bf
       -0.0072052157 0.32432866 -0.55942845 -0.5670564
000150 4b 17 df 3e 10 d9 47 be 49 f4 12 3f 54 24 68 bf
       0.4357246 -0.19516397 0.57404 -0.9068043
000160 3c fc 20 bf 82 1d 22 bf 8e 7d be bb fb b8 a3 3c
       -0.6288488 -0.63326275 -0.005813307 0.019985666
000170 a4 89 92 3d 83 0c e9 be 60 58 46 be fa cf b5 3e
       0.07155159 -0.45517358 -0.1936965 0.35510236
000180 05 ba 53 3f a7 ee 4a 3c 3a 5b 1a be c4 84 d1 be
       0.8270572 0.012386001 -0.15073863 -0.40921605
000190 69 5b ba bc ba 17 3d bd 5c 20 b5 3e f3 2d c4 3c
       -0.022748666 -0.046165206 0.3537625 0.023947692
0001a0 22 18 3c 3d b9 6b be 3b a9 69 2f bf 2c 89 ba 3e
       0.045921452 0.0058111814 -0.685206 0.3643278
0001b0 aa f6 b4 be cc 02 3e be a7 ba 3e bf 88 3b 56 bb
       -0.3534444 -0.18555754 -0.7450356 -0.0032689292
0001c0 ac 43 82 bf eb 42 07 3f 57 a2 14 bf df 36 96 bc
       -1.0176902 0.52836484 -0.5806021 -0.018336711
0001d0 3b 22 71 bc b5 22 8b 3e 8f 5e 39 be 2e 15 81 be
       -0.014717634 0.27174917 -0.18102477 -0.2521147
0001e0 fa 03 33 3e 5a e3 fc be 0c ad 68 3e cc d5 4b 3f
       0.17481986 -0.49392205 0.22722262 0.79623103
0001f0 f1 8a f1 3c e5 15 39 bf 91 4b 23 bf c4 c6 63 3e
       0.029485198 -0.72299033 -0.6378718 0.22243792
000200 d1 6d d2 3e a3 7b da bd b1 d3 e3 3d 3f 3a 27 3f
       0.41099408 -0.10668113 0.11124361 0.6532325
000210 38 a2 0c 3e c0 5f ab bc 88 02 52 be 9c 75 57 3e
       0.13733757 -0.02091968 -0.20508778 0.21040958
000220 1a e5 8b 3e 14 f5 fe 3e 3b e8 ee 3e 96 fa e2 3e
       0.27323228 0.49796355 0.46661553 0.44331807
000230 cc d9 54 3e d2 af 02 bc 51 f5 97 be 2a bf f3 bd
       0.20786208 -0.007976489 -0.2967935 -0.11901696
000240 b5 e3 f0 3c 3c 52 b9 3e 02 de 24 3d 46 c8 1d 3f
       0.029405454 0.36195552 0.040250786 0.6163372
000250 fd 94 c1 3d 53 b4 13 3f a9 32 e3 3e 5e 45 f5 bd
       0.094522454 0.5769703 0.44374588 -0.11976121
000260 5a 1c e9 3e 81 52 ae 3e b5 d9 3b 3d a4 6e 1e bb
       0.45529443 0.3404732 0.04586192 -0.0024174834
000270 f9 46 00 3c a7 7d cf 3e 80 cc 99 bf 0b ab c8 3c
       0.007829421 0.40525553 -1.2015533 0.024495622
000280 99 bb 2d 3e 14 c2 0b bf 31 d9 b3 be 2c b1 71 3c
       0.16966094 -0.54593015 -0.3512664 0.014751714
000290 3f b9 34 3e 3e 43 b6 3c da 83 04 bf a9 a0 f1 bc
       0.17648791 0.02224886 -0.5176369 -0.029495554
0002a0 5a c2 fa bf eb 8e 57 3c 15 83 08 bd 9a 93 92 3e
       -1.9590561 0.013156633 -0.033328135 0.28628236
0002b0 06 74 e4 3d 6e 26 91 3e ef 10 96 3d 21 aa 37 3f
       0.11154942 0.28349632 0.073274486 0.7174397
0002c0 9d 67 c4 3e 63 8c 00 3e ba a4 2c 3f af cc 37 3e
       0.383603 0.12553553 0.6743885 0.17949174
0002d0 55 fe 1f 3f ae 40 ad bd b0 47 cd 3e 6c 81 80 be
       0.62497455 -0.08459602 0.40093756 -0.2509874
0002e0 d7 c0 dd 3e a6 5c dd 3e 1a 36 75 bf 91 32 36 3e
       0.43311188 0.43234748 -0.9578568 0.17792727
0002f0 16 a9 7a bf 49 06 e8 3e 5d 33 12 bc e8 a8 19 be
       -0.97914255 0.45317295 -0.008923379 -0.15005839
000300 ff 60 3b 3d 4d 36 00 be 31 9e 4c 3d 92 5a 86 bf
       0.0457468 -0.12520714 0.04995555 -1.049639
000310 b3 63 3e 3e 8d 53 83 3e 41 44 84 bc 9f d8 7f 3f
       0.1859272 0.25649682 -0.016145827 0.9993991
000320 92 98 ec 3e 5a 1a 2a bd bb 9b 61 3e f5 b8 58 be
       0.46210152 -0.041529037 0.22032063 -0.21164306
000330 25 0e 70 be ef 7f 3e 3d fb b5 ca 3d 0d 55 64 3d
       -0.23442896 0.046508726 0.09897991 0.055745173
000340 79 55 1f 3c 91 19 8d 3f 21 fc 3b bf f3 b0 b7 bf
       0.009724968 1.1023427 -0.73431593 -1.4350876
000350 1e bc e7 be 01 6b 16 be 61 98 8b 3d d5 a1 9f 3e
       -0.4526071 -0.14689256 0.06816173 0.31178156
000360 81 60 a6 bf 6a dc 64 be a2 07 b0 3b 40 cc 17 3d
       -1.2998201 -0.22349706 0.0053720037 0.037060022
000370 12 20 0d bf 60 1d 4d 3f 06 bf 5b 3e c9 08 7a bd
       -0.5512706 0.8012295 0.21459588 -0.061043534
000380 5c 50 aa 3c b6 d4 96 bc 76 a2 af be b8 73 8b be
       0.020790271 -0.018411975 -0.34303635 -0.27236724
000390 ae 18 81 3c 09 89 3d bc a9 a8 55 3e 2a 74 b0 3c
       0.015758839 -0.011568316 0.2086512 0.021539766
0003a0 df 0d c6 3c bc 67 b0 3c dd e3 98 be 1a 15 09 3f
       0.024176536 0.02153384 -0.29861346 0.53547823
0003b0 a3 cf 40 3f 66 e6 7a 3d de 4f 58 3e b8 b7 e2 3b
       0.7531683 0.06125488 0.21124217 0.0069188736
0003c0 0a 16 49 be b8 53 03 3e 08 54 6d 3e 38 3f 31 3a
       -0.19637313 0.12824905 0.23176587 0.00067614345
0003d0 09 4e 67 bc c0 3f 79 3e 23 7c 74 bf a6 cd e6 bf
       -0.014117726 0.24340725 -0.9550192 -1.8031509
0003e0 fc 6c 20 3e b3 04 98 3d 09 2b c6 3e b1 c8 bf 3d
       0.15666574 0.07422771 0.38704708 0.09364451
0003f0 89 c2 84 3c 2b a0 7c 3e 1b 48 85 bf 51 57 c7 be
       0.016206043 0.24670474 -1.041263 -0.38933805

fc3.bias f4 [2]
000000 ef 31 10 3f 0e fa 1a be
       0.5632619 -0.15134451
