results/results_3/agent2_critic.pth (torch, 185643 bytes, 5 tensors)

fcs1.weight f4 [256, 48]
000000 88 47 31 3f 06 c3 36 40 21 b7 1d 3d 70 c0 ef 3d
       0.69249773 2.8556533 0.038504723 0.117066264
000010 48 be 71 bd 0e ce 04 c0 38 78 29 3d 98 21 37 3e
       -0.059019357 -2.0750766 0.041374415 0.17883909
000020 d7 8b 68 3f c6 4a 32 40 49 46 89 bc 6c 08 60 3e
       0.9083838 2.7858138 -0.016757147 0.21878213
000030 02 e7 9b be de 08 3c c0 e7 85 cc bc 92 97 a6 3e
       -0.30449682 -2.9380412 -0.024966193 0.32537514
000040 66 1d 5e 3f 15 2b 08 40 78 76 9a be cc 31 99 be
       0.8676361 2.1276295 -0.3016851 -0.29920805
000050 b9 70 92 be 61 59 05 c0 28 31 a2 be b4 be 80 be
       -0.28601626 -2.0835803 -0.31678128 -0.25145495
000060 99 77 63 bd 78 af 3a 3f 5c e8 95 bc 81 28 00 bf
       -0.05553398 0.72923994 -0.018299274 -0.50061804
000070 82 6a fb 3d de dc 03 c0 df 1e 03 3d 1a e7 05 bf
       0.12276174 -2.0603557 0.032011863 -0.5230576
000080 51 60 a5 3d 3f 72 52 3f ff 6c a4 bd d5 ef 28 bf
       0.080750115 0.82205576 -0.08028602 -0.65990955
000090 be 54 8b 3e cc 0f 37 c0 2d fc c1 bd 87 06 41 bf
       0.2721309 -2.8603392 -0.09471927 -0.75400585
0000a0 6f b9 c4 3d d4 99 3d 3f 81 14 f4 bc 48 a2 c4 3e
       0.09605681 0.7406285 -0.029794933 0.3840506
0000b0 95 41 82 3e be c0 06 c0 e7 4a 5d bd a6 b4 d2 3e
       0.2544066 -2.105514 -0.05402651 0.4115345
0000c0 4f b7 1f be 52 20 2e bb 77 5a 12 3d 98 1a 6b be
       -0.1559727 -0.0026569557 0.035730805 -0.22959363
0000d0 19 4a 68 be 27 a2 f4 3e 35 f0 ac 3c 21 ef 47 be
       -0.22684516 0.47779962 0.021110633 -0.19524814
0000e0 43 91 4a be e7 0d 1f 3c 18 04 5b bd 6f 40 e7 bd
       -0.19781975 0.009707904 -0.0534707 -0.112915866
0000f0 89 d2 fb bc ec c1 c1 be 6b a5 0e bb bc ae 49 be
       -0.03074004 -0.37843263 -0.0021766077 -0.19695562
000100 3b 6c 4e be 04 0d 43 be 8c 7c 18 be d6 27 17 bd
       -0.20158474 -0.19047934 -0.14891261 -0.036903225
000110 42 99 ad 3e 30 99 27 c0 2a 57 f4 bd 58 64 f4 3c
       0.3390599 -2.6187248 -0.11930688 0.029833004
000120 c2 bc 5d 3f 00 6d 4e be 67 5a e8 3d 7e c5 20 3e
       0.86616147 -0.20158768 0.11345368 0.15700337
000130 a1 4e 91 3e 61 f7 f2 3e 73 15 2f 3e b8 ef b7 3d
       0.28380302 0.4745436 0.17098026 0.089812696
000140 2e 44 55 3f 54 07 fc bd b3 88 d2 3d 64 9b a8 3c
       0.8330716 -0.12306085 0.102799796 0.020581909
000150 10 ec 1c 3d 70 79 b6 be 8f 02 d2 3d 97 04 81 3d
       0.038311064 -0.35639524 0.10254394 0.062997036
000160 e5 d3 22 3f 4a 7e 26 be 66 98 35 3c f3 0d c5 bd
       0.63604575 -0.16259113 0.011083698 -0.09621801
000170 81 88 c6 be 9c 78 25 c0 05 e3 9c 3a 70 62 16 bd
       -0.3877602 -2.5854864 0.0011969513 -0.03671497
000180 85 43 4d 3f 2f 95 c3 3e 08 b9 21 bd 24 87 ed 3e
       0.8018115 0.38199756 -0.0394831 0.46392167
000190 27 8f 24 3f e0 d5 9f 3e c5 bf 70 bd 06 9d 04 3f
       0.64280933 0.3121786 -0.058776636 0.518021
0001a0 3c 35 23 3f 1b 82 07 3f 87 00 cd bd f3 01 44 3d
       0.63753104 0.529329 -0.10009866 0.04785342
0001b0 64 92 77 3f 9c 44 5a bf a9 d6 83 bd c0 7d e1 3d
       0.9670775 -0.8526094 -0.064374276 0.11010313
0001c0 0f b2 ae 3e d6 ab 24 3f 31 59 9c bc c4 69 d6 3d
       0.34120223 0.643247 -0.019085499 0.10469392
0001d0 1f 1f 8d 3f 57 02 14 c0 6e 7a 9d 3d aa 92 f9 3d
       1.1025122 -2.3126428 0.07689367 0.12186177
0001e0 d8 ec 2c 3f 5a f1 d2 3e b6 07 93 bd b6 6b 75 be
       0.67548895 0.41199762 -0.07179205 -0.2396687
0001f0 4b 5a 20 bf 60 9b a3 3e be ef 79 bd 7b 2a 85 be
       -0.62637776 0.3195448 -0.06101965 -0.26008973
000200 99 93 31 3f 3d 15 55 3e aa 6a f2 bd 34 6e e8 bc
       0.6936584 0.20808883 -0.11836751 -0.028372861
000210 d8 67 73 bf e6 6e 5c bf c1 e2 1c bd 54 cc 97 bc
       -0.9508033 -0.8610672 -0.038302187 -0.018530048
000220 81 28 02 3f 86 f1 4e 3f 31 da 69 3c e2 34 b6 3e
       0.50843054 0.80837286 0.014273212 0.3558722
000230 79 c3 95 bf 71 5e 13 c0 89 a6 25 3c f6 32 a5 3e
       -1.1700279 -2.3026392 0.010110506 0.32265443
000240 61 82 f1 3e 2e 23 aa 3f 16 dd 48 be d1 c6 15 bf
       0.47169784 1.3291986 -0.19615588 -0.58506495
000250 b3 96 7f be e7 84 90 bf 75 ff 6b be 65 14 0e bf
       -0.24959831 -1.1290559 -0.23046668 -0.5549987
000260 11 04 2a 3f 7b 4b 81 3f 13 48 36 3d 9e 4c 25 bf
       0.66412455 1.010116 0.04450233 -0.64570034
000270 39 70 a7 be 84 af 83 bf dc 51 af 3d 06 3a 0a bf
       -0.32702807 -1.0287938 0.08560535 -0.53994787
000280 3b 2b 1d 3f 2b 96 80 3f 9b 6d 3d 3e ff ac 10 be
       0.6139409 1.0045828 0.18498842 -0.14128493
000290 9d 3e cf be 14 81 bd be 24 b9 f0 3d 35 ae 01 be
       -0.40477458 -0.3701254 0.11754063 -0.12664111
0002a0 7d 19 96 3e 77 d4 ae be e3 cb 72 3d a6 53 4d be
       0.2931632 -0.34146473 0.059276473 -0.2005144
0002b0 30 29 b4 3e 59 50 91 bf 0b 9a 41 3d f0 34 11 be
       0.35187674 -1.1352645 0.047266047 -0.1418035
0002c0 c4 57 bf 3e d5 29 61 be 12 0a fd 3b 8e 4b 68 be
       0.37371647 -0.21988614 0.0077221477 -0.22685072
0002d0 23 85 ba 3e 58 20 8d bf 55 6d d8 bc 75 a7 7d be
       0.364297 -1.1025496 -0.026419321 -0.24770911
0002e0 51 71 cf 3e fb 25 48 be 05 5e 02 be 59 00 a5 3f
       0.4051614 -0.19545738 -0.12731178 1.2890731
0002f0 b9 0e 9b 3e ce b0 b5 be 38 70 22 be c3 8a a4 3f
       0.3028467 -0.35486454 -0.1586312 1.2854847
000300 d8 34 ce 3e 83 21 2d bf f1 98 d1 bb ef 9a 00 bf
       0.40274692 -0.6762926 -0.006396406 -0.5023641
000310 a0 5f e5 3d 4a 1e 7f 3f f4 48 3b 3d 13 7c 14 bf
       0.1119988 0.9965559 0.04572387 -0.5800182
000320 71 03 b1 3e c9 5e f6 be d0 9c b9 3d c3 dd 0a 3e
       0.34572938 -0.4811919 0.09063113 0.13561158
000330 8d 9a b1 bd 9c d6 02 be 5e 3c ea 3d 4d 8d 00 3e
       -0.08672056 -0.1277718 0.114372954 0.12553902
000340 f0 5b f1 bd 80 9f ba be 05 f9 18 bd 51 e1 60 3f
       -0.11785114 -0.36449814 -0.03734686 0.87843806
000350 e6 25 78 be 7d 80 29 c0 9b 0a 36 bd f5 30 72 3f
       -0.24233207 -2.6484673 -0.044443708 0.9460595
000360 eb 6e 93 3e b6 1d 83 bf 1f fb 9b 3c 9d 7f 73 3d
       0.2879556 -1.0243442 0.019040642 0.059447873
000370 b6 cb b2 bd 86 fd 6f 3f 38 28 f2 3c dd 97 f1 bb
       -0.08730261 0.9374622 0.029560193 -0.00737284
000380 84 62 b5 3e 2c e5 8e bf 3f 36 17 bd c7 fb 8e 3d
       0.35426724 -1.1163688 -0.036916967 0.069816165
000390 0e c1 35 3d 93 ee 18 be e3 4d 37 bd e2 3b a0 3d
       0.044373564 -0.14934759 -0.044752013 0.07823922
0003a0 d3 64 f9 3e 9f 91 93 bf ef 41 12 be 3d 2f af be
       0.48709735 -1.1528815 -0.14282964 -0.34215727
0003b0 31 25 76 3e 45 4e 29 c0 b2 41 29 be 0d 8b b5 be
       0.24037625 -2.6454022 -0.16528967 -0.3545765
0003c0 9b 8e 00 3f c4 02 fa 3e 98 4a 04 be 86 ba a9 3d
       0.502176 0.48830235 -0.1291908 0.0828753
0003d0 ae b2 81 3e a0 64 6f 3e 3a b2 3b be 98 a0 fb 3d
       0.25331634 0.23378229 -0.18329707 0.1228649
0003e0 50 ab 18 3f c5 db d0 3e 9d 52 cc 3b ec 5e 3d be
       0.596364 0.4079267 0.006235434 -0.18493241
0003f0 47 1d 0e 3f 14 35 20 3e 22 2f ad 3c d4 6c b4 bd
       0.55513424 0.15645248 0.021140639 -0.0880982

fcs1.bias f4 [256]
000000 af 35 54 bf 7e 1d ff bd ed 68 40 bf 61 29 bc bf
       -0.82894415 -0.12456797 -0.75160104 -1.4700128
000010 a9 9e ad bd 82 6e 58 bf 90 49 ec bf 92 49 0c bf
       -0.08477528 -0.8454362 -1.845995 -0.5479976
000020 8f ce c0 bf 3a 66 ef be 79 fa 68 bf 4c a6 b6 bf
       -1.5063037 -0.4675768 -0.9100719 -1.42695
000030 c0 92 81 bf bd 18 29 bf 20 f8 9f bf 07 b3 a2 bf
       -1.012291 -0.6605337 -1.2497597 -1.2710885
000040 81 83 74 be 38 98 36 bf 78 24 2b bf cf c7 d9 be
       -0.2387829 -0.7132602 -0.6685252 -0.42535254
000050 20 84 70 bf b4 8b 0b c0 f9 f2 c5 be a3 42 03 c0
       -0.93951607 -2.1804018 -0.38661936 -2.0509422
000060 6b 77 1a 3f 4e a6 3b bf b5 6d 80 3e 0a a2 f4 be
       0.6033847 -0.73300636 0.250837 -0.47779876
000070 26 b2 7f bf 81 e1 cb bf cf 50 91 bf 4f 4e 18 bf
       -0.9988121 -1.5928193 -1.1352786 -0.5949449
000080 69 cb 3a bf c3 2a 12 bf d9 e5 31 3f 47 42 90 bf
       -0.7296663 -0.570965 0.69491345 -1.1270226
000090 df e0 90 bf 8a c2 49 bf 38 3e c2 bf fe 49 28 bf
       -1.1318625 -0.7881247 -1.5175238 -0.65737903
0000a0 34 6b a9 bf 64 34 b2 bf 18 fc 5a bf 93 aa 8f bf
       -1.3235841 -1.3922238 -0.85540915 -1.122393
0000b0 27 fe dc be 59 aa c6 3e e0 e1 e9 bf cf c5 4e bf
       -0.43162653 0.3880184 -1.8272057 -0.8077058
0000c0 35 b9 4a bf bb 2c 91 bf 62 84 4a bf 88 76 b5 bf
       -0.79188854 -1.1341776 -0.7910825 -1.4176798
0000d0 c3 7e 8e bc 92 89 fd be 88 20 57 bf 9e 57 1f be
       -0.01739443 -0.4951902 -0.84034014 -0.15560767
0000e0 54 e7 8f 3f d5 73 a8 bf ad c5 6b bf c3 36 0c bf
       1.1242471 -1.3160349 -0.92098504 -0.5477106
0000f0 b6 c3 9e be c3 01 aa bf 7b 2f 8a bf 72 c9 7d bf
       -0.3100869 -1.3281788 -1.079574 -0.99135506
000100 ca 6f 9b bf 9b a3 d6 bf b6 1b 8f bf 06 c0 7a bf
       -1.214349 -1.6768678 -1.1180332 -0.97949255
000110 30 09 b4 bf e7 dc 53 bf c9 75 bd bf 25 bc ba bd
       -1.4065304 -0.82758945 -1.480157 -0.09117917
000120 61 6a f5 be 48 75 1a bf 8e 10 a5 3e 37 80 ef be
       -0.47932723 -0.60335207 0.32239193 -0.46777508
000130 0b 49 0f be a8 c4 4d bf 9a f4 c2 bf f3 44 bd be
       -0.13992707 -0.803782 -1.5230896 -0.36966667
000140 c1 55 fb bb 4e d0 9d bf eb 67 6a bf ab 41 9b bf
       -0.007670135 -1.2329195 -0.91564816 -1.2129415
000150 db aa c3 be 75 2f d6 bf 94 2e 95 bf da b8 7b bf
       -0.3821629 -1.6733233 -1.165484 -0.98328936
000160 46 11 c9 3e 43 1c 25 bd 75 30 b5 bf 79 b1 81 bf
       0.3927099 -0.040310156 -1.4155413 -1.0132285
000170 d8 64 9f bf 46 7e a8 bf e1 74 61 be a0 20 fa be
       -1.245265 -1.3163536 -0.22017242 -0.48853016
000180 af 85 db 3e c7 31 c4 be 61 9b a4 bf ed 0b 87 bf
       0.4287543 -0.38319227 -1.2859918 -1.0550514
000190 a1 ca 2e 3e 40 1b 1b bf 49 cf aa 3e ec f2 96 bf
       0.17069484 -0.60588455 0.3336127 -1.1792884
0001a0 d8 7b 5e bf 1d bf 53 bf b2 9c 81 bf e2 65 60 bf
       -0.8690772 -0.8271349 -1.0125945 -0.8765546
0001b0 08 31 af be b7 1c 32 bf cc fe 14 bf db f7 7a bf
       -0.34217095 -0.69575065 -0.5820129 -0.9803445
0001c0 26 99 14 3e a2 42 6b bf 69 57 8f bf 0c 55 ac bf
       0.14511546 -0.9189855 -1.119855 -1.3463454
0001d0 5a 14 0a bf ba fd fa 3e 6e 2b ed bf 82 87 01 c0
       -0.53937304 0.49021703 -1.8528879 -2.0238957
0001e0 09 9d c1 be f2 62 3e bf fb 9d ee bf 5d 80 9d bf
       -0.3781512 -0.7436973 -1.8641962 -1.2304798
0001f0 bb 8a 13 bf d1 14 dd be fc 27 d5 be 0a cd 49 bf
       -0.5763356 -0.43179944 -0.41632068 -0.7882849
000200 78 98 64 bf 85 bd bd bf 25 03 45 bf 56 fd 23 bf
       -0.8929515 -1.4823462 -0.76957923 -0.64058435
000210 8d e3 d9 bf c0 c2 92 bf 91 c5 01 bf 8d 43 ce bd
       -1.7022568 -1.1465683 -0.5069209 -0.10071478
000220 5f 44 a4 bf 7a d7 73 bf 64 be f0 be 3b 1a c8 be
       -1.2833365 -0.95250666 -0.47020257 -0.39082512
000230 22 6c 5e 3e f0 98 a8 bf a6 3a ae bf 99 86 ab bf
       0.21720937 -1.3171673 -1.3611648 -1.3400451
000240 c8 08 a1 be 58 71 be bd 3b ea 2c bf b1 2b a8 bf
       -0.31452012 -0.09298962 -0.6754491 -1.3138334
000250 26 4f 8c bf d3 e9 6b bf 78 a5 d1 be 58 20 28 be
       -1.0961654 -0.9215366 -0.40946555 -0.16418588
000260 a1 94 c3 be 4c f8 83 bf b1 84 95 bf ec 24 c0 bf
       -0.38199332 -1.0310149 -1.1681119 -1.5011268
000270 fb a6 e0 bf eb b0 68 bf f3 08 89 be 48 c3 68 bf
       -1.7550958 -0.90894955 -0.2676464 -0.90922976
000280 f0 17 0f bf 3a 40 37 bf db 0a 19 bf 9b 1e ab bf
       -0.558959 -0.71582377 -0.5978219 -1.3368715
000290 d3 26 01 bf 52 af 58 bd 85 7f 5b bf 35 33 e4 be
       -0.50449866 -0.052901573 -0.85741454 -0.44570318
0002a0 5c 13 4f bf 34 ec 54 bf 86 88 46 bf 6c 86 0a bf
       -0.80888915 -0.8317292 -0.7755207 -0.5411136
0002b0 1c 05 8d bf 3c 2a 30 bf fc e5 da bf b8 5b bb bf
       -1.1017184 -0.68814445 -1.7101436 -1.4637365
0002c0 1a b0 50 bf c4 01 54 bf f5 59 e3 be 12 30 e5 bf
       -0.8151871 -0.82815194 -0.4440457 -1.7905295
0002d0 e3 bb 95 bf 22 f6 c5 3e 11 58 01 3f a8 76 ea bf
       -1.1697963 0.38664347 0.50525004 -1.8317461
0002e0 51 47 42 bf 8a e2 6b be 0e 6b 9a 3d ad 3e 11 3d
       -0.7589007 -0.23035637 0.0753995 0.035460163
0002f0 fd 3c cb bf 25 71 a1 bf 84 35 76 bf 93 83 8f bf
       -1.5877987 -1.2612654 -0.9617541 -1.1212028
000300 32 26 3b bf b2 10 4a bf 48 6b a4 be 72 82 85 bf
       -0.73105156 -0.78931725 -0.321131 -1.0430434
000310 7f a0 60 be c4 f8 06 be 3f 9d 44 bf 91 da 34 bf
       -0.21936224 -0.13180834 -0.7680244 -0.70646006
000320 ed 9d a9 bf 04 74 51 bf e4 f6 21 bf 5c 57 b5 bf
       -1.325132 -0.8181765 -0.6326735 -1.4167285
000330 e2 ac d5 bf 13 ba fc 3e f9 ca 5d bf a1 3b 21 bf
       -1.6693385 0.49360713 -0.86637837 -0.6298161
000340 ad fc 98 bf 20 fb 5e bf 9d fe b9 bf 9a 2c cb bf
       -1.195211 -0.87101936 -1.4530827 -1.5872986
000350 65 1b 59 3f fb 9b 97 bf c1 a0 7e bf 09 29 82 bf
       0.84807426 -1.1844476 -0.9946404 -1.0168773
000360 f3 4e 87 bf 91 b6 0c c0 32 ea ba bf b1 02 a0 bf
       -1.0570968 -2.198643 -1.4602721 -1.2500821
000370 12 32 00 bf 13 17 31 bf 42 d6 82 bf fe 73 28 bf
       -0.500764 -0.69175833 -1.0221636 -0.6580199
000380 e0 a8 e6 bf 63 fc 12 bf 47 b1 a3 bf 7f 6a 74 be
       -1.8020287 -0.5741636 -1.2788476 -0.2386875
000390 52 d6 bf bf 44 4c 94 bf fd 39 9d bf 05 66 b1 bf
       -1.498728 -1.1585774 -1.2283322 -1.3859259
0003a0 99 78 fa bd e8 2c e4 bf 89 bf 4d bf c7 a2 77 bf
       -0.122300334 -1.7826204 -0.80370384 -0.96732754
0003b0 ce 7a 47 bf af ad cf bf b1 c0 93 bf e3 68 cb be
       -0.7792176 -1.6224879 -1.154318 -0.3972846
0003c0 33 fd 99 bf 2a 1f 10 c0 57 c5 55 3f 13 f3 a5 3e
       -1.2030395 -2.251902 0.8350424 0.32412013
0003d0 c7 d5 7a bf 71 73 a3 3f 14 aa bd bf 16 19 d4 bf
       -0.9798245 1.2769605 -1.4817529 -1.6570156
0003e0 a9 bd 54 bf 43 ed c2 bf fc 4e f3 bf b6 3e 94 bf
       -0.831019 -1.5228657 -1.9008479 -1.1581638
0003f0 02 4d 1b bf ae 03 44 3e d4 ef eb be 27 1e b5 bf
       -0.6066438 0.19142029 -0.46081412 -1.4149827

fc2.weight f4 [128, 258]
000000 0f 54 be bd 00 6f 62 bb cf 75 72 3d a7 1b 02 bf
       -0.09293377 -0.0034551024 0.059194382 -0.50823444
000010 4e 2d 50 bf e1 43 ba 3e 48 3a a9 3c d9 40 8c 3c
       -0.8131913 0.36379912 0.020657673 0.017120766
000020 ba 44 11 be 8f 61 b3 bc fc 95 d9 bd 13 23 83 3e
       -0.14186373 -0.021897106 -0.106243104 0.25612697
000030 8b a8 cd be f2 d8 5e be 47 21 d5 bc 48 59 51 bf
       -0.4016765 -0.21762446 -0.026016844 -0.8177686
000040 ad c2 fe bd e9 d8 b2 be 1f 09 9d be 26 83 5d 3e
       -0.12439475 -0.34931114 -0.3067102 0.2163206
000050 68 c6 a6 be e6 b8 a3 3d 60 fe 97 bd 9f 56 6b bd
       -0.32573247 0.07994251 -0.07421565 -0.057455655
000060 01 f9 89 3e e1 a7 e0 bd 99 f1 0f be 3e 77 c4 3c
       0.26947787 -0.1096952 -0.14057006 0.02398264
000070 66 d2 71 3d 1c 1a 6b bc 7c b4 61 be 14 05 59 3d
       0.059038542 -0.014349487 -0.22041506 0.05298336
000080 24 21 8d be 57 0a 1c bf 30 67 88 bf 97 0b 64 3e
       -0.27564347 -0.6095328 -1.065649 0.22270046
000090 8f 57 01 bf d7 72 bf bf 3f 6d 18 3e 4c 4a 0f bf
       -0.5052423 -1.4956921 0.14885424 -0.55972743
0000a0 d6 6c 01 be 2e f1 be be 78 0b 1b 3c ab e6 fd bc
       -0.12639174 -0.3729338 0.009463184 -0.03099378
0000b0 cf df 01 bd e4 d6 15 3e 9c f5 f5 bd 5d 28 6d bf
       -0.03170758 0.14632756 -0.12009737 -0.92639714
0000c0 76 de fc 3d 06 80 4d be 93 20 5d bf 40 27 56 be
       0.123471186 -0.20068368 -0.8637783 -0.2091341
0000d0 9b f6 27 3d 8a 25 38 bf 54 ed 78 be 51 4a 2f bd
       0.041006666 -0.7193228 -0.24309283 -0.042795483
0000e0 c3 8f 17 3f c7 6d 2b 3e fe e0 48 bd 31 78 0c 3e
       0.5920374 0.16741095 -0.049042694 0.13717724
0000f0 bf ea b6 be 5c 0d 8b bc da 57 44 be af ca 86 3e
       -0.35725972 -0.016974144 -0.19174138 0.2632651
000100 31 01 fe bd 92 62 39 bf e1 c1 2a bf d5 af 35 be
       -0.12402571 -0.7241603 -0.66702086 -0.17742856
000110 ef 6b e8 bd 46 21 67 3c 3f 50 74 3c 86 64 9e bd
       -0.11348712 0.014107054 0.01491171 -0.07734017
000120 a6 d7 24 be 33 6d c8 3d f8 17 62 bf 22 d0 87 be
       -0.16097888 0.09786453 -0.88317823 -0.2652598
000130 74 b7 d5 3c 76 42 a3 bd a0 5f 0d bf 54 76 5c be
       0.026088454 -0.07971661 -0.5522404 -0.21529514
000140 92 d3 ba be 45 9c 44 3e 98 9a a0 be 8e 16 47 be
       -0.3648954 0.19200237 -0.31367946 -0.19442198
000150 6c 13 32 3d e8 77 2c be 85 be 4a 3d f6 82 0e bf
       0.043475553 -0.16842616 0.0494981 -0.5566858
000160 ee f7 20 be db 6f a8 bd 79 b1 8b 3c 4c 79 d6 be
       -0.15719578 -0.0822446 0.017052399 -0.41889417
000170 1b 37 3e be 1f d2 9c 3d cf bd b9 be 87 1d 0c 3e
       -0.18575709 0.07657265 -0.36277625 0.13683139
000180 a6 5d e0 3e aa 0a 2c 3e 87 8a e1 be d6 fb 5f 3c
       0.43821448 0.16800943 -0.44051 0.013670882
000190 49 76 8f bf 8f 4c d2 be 73 ba a6 3e 71 53 58 be
       -1.1207973 -0.41074035 0.32564124 -0.2112558
0001a0 be 08 60 bd d0 fd f7 be cc 86 0d be 38 ed 18 be
       -0.054695837 -0.4843583 -0.13820952 -0.14934242
0001b0 8c 73 95 be 30 e9 04 bf 6c 4b 18 be 0a df 0c bf
       -0.29189718 -0.51918316 -0.14872521 -0.5502783
0001c0 0b 7f 08 be 82 39 b3 be 5e b7 45 be 9b 93 e2 bd
       -0.13329713 -0.35004812 -0.1930823 -0.1106331
0001d0 4e b6 c2 be 84 11 b5 be b0 55 a7 bd 8b 7e 4d be
       -0.38029712 -0.35364926 -0.081706405 -0.20067804
0001e0 a3 91 28 bf 7a b7 08 bd 70 d6 83 bd cf 17 3e 3e
       -0.65847224 -0.033378102 -0.06437385 0.1856377
0001f0 11 12 02 be d0 04 21 3c b5 4c 17 bf 76 f4 b7 39
       -0.12702204 0.009827808 -0.5910142 0.00035086618
000200 77 c4 ff be 32 ad 97 3c 59 1e 7a bd 91 3d 46 be
       -0.49954578 0.018515203 -0.061064098 -0.19359423
000210 0f 4d 86 be f8 fb d6 be 33 63 ce 3e 4b 6b 09 3e
       -0.26230666 -0.41989112 0.40310058 0.13419835
000220 d1 c6 73 3d 5c f6 07 bf 0e 14 c7 bd 63 48 2b bf
       0.059515778 -0.5311029 -0.09720622 -0.6690733
000230 6a f9 48 bf 61 69 f7 3b f8 9f 94 3d e8 59 9e be
       -0.78505576 0.007550404 0.07257074 -0.30927968
000240 70 82 c5 bd 9a a6 1d bf 7a 15 c3 be 89 8f 97 bd
       -0.096440196 -0.6158234 -0.38102323 -0.07400424
000250 5b 7a a6 3d 53 70 a3 bc d8 80 9f 3d 2d 08 0f ba
       0.08128806 -0.019951021 0.07788247 -0.00054562354
000260 c8 f6 b3 bd 80 eb 89 bd 87 cc b4 bd 3d 7a ce bd
       -0.08787304 -0.06734371 -0.08828073 -0.10081909
000270 5a 6f 24 be 61 b5 84 3e 2d 97 84 bf 42 7b 0a be
       -0.16058102 0.2591963 -1.0358635 -0.13523582
000280 30 8f 8d bf df a5 3b be d2 89 d8 bd dc bb c6 bd
       -1.1059322 -0.18324994 -0.10573162 -0.097038
000290 4d 86 29 be 3d 1e 9f 3d 2c 43 a9 bd 99 0f 4d be
       -0.16555138 0.07769439 -0.08264765 -0.20025481
0002a0 0d 9a 50 bf 50 42 1c bf 4a 28 cd bd 9d 4c b9 be
       -0.8148506 -0.61038685 -0.1001745 -0.36191264
0002b0 26 5b bb be 4b b1 2f bf 55 57 81 be a9 75 ab be
       -0.36592978 -0.686299 -0.25261942 -0.33488205
0002c0 52 a1 eb be 89 85 83 3d c4 18 84 3e 08 ab 1a 3d
       -0.46021515 0.06421954 0.25800145 0.037760764
0002d0 50 15 96 3e 38 b4 46 be 60 66 ca bf a0 cb 0a bf
       0.29313135 -0.19404685 -1.5812492 -0.5421696
0002e0 c8 f7 35 bf a4 ee 20 3e 6c 7c 78 bf 66 4e c2 be
       -0.7108121 0.15716034 -0.9706485 -0.37950438
0002f0 17 94 c9 bd 52 fb 12 be 15 e3 0f be bb eb a2 be
       -0.09842699 -0.14353684 -0.14051469 -0.31820473
000300 f1 21 d3 be 43 de fb 3d 6d 07 9d be 62 ca 3a bf
       -0.41236833 0.122982524 -0.30669728 -0.7296506
000310 ec c4 f3 bd 73 1f 31 bf b2 6c a7 be 75 ff 79 be
       -0.11902794 -0.6918861 -0.32700115 -0.24413855
000320 f4 94 f0 bd 6e 6f 95 bd fe 30 13 bd 53 91 a6 bd
       -0.117471606 -0.07296644 -0.035935394 -0.08133187
000330 a4 e9 80 3d 39 d5 5d 3d 56 8a 0a bf 85 07 ed 3d
       0.062945634 0.054158423 -0.54117334 0.115737
000340 24 66 24 bf 84 e5 f2 bd 41 5c 80 3e c0 28 88 be
       -0.64218354 -0.11860183 0.25070384 -0.2659359
000350 dc b5 f2 be 77 bb 5d be c9 90 b1 bc 49 fb 52 3e
       -0.47404373 -0.21653543 -0.021675484 0.2060367
000360 83 4c 50 bc 16 12 5a 3d ed b1 6f bd ca 07 06 bf
       -0.012713554 0.053239904 -0.058519293 -0.52355635
000370 1a 78 07 be b7 3c 13 bd e9 80 7a 3d 9e 9a d8 be
       -0.13229409 -0.035946574 0.061158095 -0.42305464
000380 1a 91 25 be 09 7c 1b bd c5 9d 31 bd a2 ff ae be
       -0.16168633 -0.037960086 -0.04336335 -0.34179407
000390 0e 90 db be 6a 54 9d be 75 cc 0d 3e 71 ea 76 be
       -0.42883343 -0.30728465 0.13847525 -0.2411287
0003a0 1e 1d 52 38 9b 47 01 bf 1c 25 86 be 52 ef 2e 3d
       5.009502e-05 -0.50499886 -0.26200187 0.042708702
0003b0 f6 48 96 be b9 65 02 3e 93 12 c4 3e 76 f1 74 be
       -0.2935254 0.12734117 0.3829542 -0.23920235
0003c0 0a f8 81 bc a7 64 56 3d 0d b1 21 be 8b e6 4a 3e
       -0.015865345 0.052342083 -0.15790196 0.19814508
0003d0 55 12 94 3b 35 89 15 be d0 3d 56 bf d1 1c eb bd
       0.004518787 -0.14603122 -0.8368807 -0.11480106
0003e0 23 61 2d bf 7b f8 83 be 97 16 5d 3c e1 ce 04 3e
       -0.67726344 -0.25775513 0.013494155 0.12969543
0003f0 03 95 bd bf 02 b9 f1 be 1a 15 96 bd 4a 49 c2 bd
       -1.48111 -0.47211462 -0.073282436 -0.09486635

fc2.bias f4 [128]
000000 62 65 86 bf 68 82 8b be 49 d1 6a be 3a ce 58 be
       -1.049969 -0.2724793 -0.22931398 -0.21172419
000010 98 da d9 bf 67 4e 61 be 3d 37 4d be b6 1d b7 bd
       -1.7019835 -0.22002564 -0.20040603 -0.08941214
000020 d0 c8 f4 bd 5f 0c 47 be 5e bb 64 be 6f 18 5e be
       -0.119523644 -0.19438313 -0.223371 -0.21689008
000030 4b 6a 82 be 53 d4 d7 bd dd f7 4b be 11 21 96 be
       -0.2547172 -0.105385445 -0.19918771 -0.29322103
000040 60 e5 34 be 44 0d 3f be 19 1f e1 be f9 2b 07 be
       -0.17665625 -0.18657404 -0.43969038 -0.13200368
000050 49 e1 ab 3f 54 58 a8 bf 5b 35 68 be c3 1b 22 be
       1.3428127 -1.3151956 -0.22676603 -0.15830903
000060 23 18 59 be de 4b 06 be 5c 0e 79 be 27 1a ae bf
       -0.21200614 -0.13114879 -0.24321884 -1.3601731
000070 c3 82 69 be 2d 3a 45 be d0 d5 24 be 92 32 93 be
       -0.22803788 -0.19260474 -0.16097188 -0.2874952
000080 06 15 75 be 5f bf 53 be b8 db 1d 3f d4 a8 02 be
       -0.23933801 -0.20678471 0.6166339 -0.12759715
000090 3f 55 64 be e5 c5 bb be 6e 76 64 be ee ce 16 be
       -0.22298144 -0.3667442 -0.22310802 -0.14727375
0000a0 09 e9 59 be 82 6b 5d be b3 2d 1c be 2e 80 6e be
       -0.21280302 -0.21623042 -0.15251808 -0.23291084
0000b0 e4 2e 3b be 11 a8 38 be 3b 58 01 40 8d 04 03 be
       -0.18279606 -0.18032862 2.0210102 -0.12794705
0000c0 da fb 90 bf 6b 8e 3c be 45 cc 16 be 30 33 f3 be
       -1.1326859 -0.18413703 -0.1472636 -0.4749999
0000d0 83 e2 48 be 3e bc 71 be f7 dc 04 be 4c b4 7c be
       -0.19617657 -0.23606965 -0.12974916 -0.24678153
0000e0 45 a8 5f be b5 41 b7 be b0 aa 13 be 8e 8e 86 be
       -0.21841533 -0.35792318 -0.14420581 -0.26280636
0000f0 69 95 42 be 5b ec 2f bf 2f eb 2a 40 ae f2 59 be
       -0.19002308 -0.68720025 2.6706045 -0.21283981
000100 92 18 35 be 9f 1b 1f be 8d 97 6c be 17 42 97 be
       -0.17685154 -0.1553788 -0.23104687 -0.2954261
000110 22 09 c4 bf a2 b1 06 be d9 31 a6 3e 69 e3 1d be
       -1.5315287 -0.13153699 0.32459906 -0.15418781
000120 b3 30 62 be 7a 51 92 be c2 44 99 be 27 54 1c bf
       -0.2208889 -0.28577787 -0.2993527 -0.61065906
000130 e3 15 90 be 4f 51 75 be 2a f4 37 be 4a 5f 90 be
       -0.28141698 -0.23956798 -0.17964235 -0.281977
000140 6d eb e1 3f c4 3e f1 bf a3 6e be bf 43 14 11 be
       1.7649971 -1.884728 -1.4877514 -0.14167885
000150 f4 3b 7e be d6 ae c9 3f 75 25 0c c0 82 f4 88 be
       -0.24827558 1.5756481 -2.1897862 -0.26749045
000160 ea b7 5b bf 52 be 4a be c4 15 b5 be fa c9 26 be
       -0.85827506 -0.19799164 -0.35368168 -0.16287985
000170 52 f7 89 bf 6b 31 54 be 3d 5b 52 be 63 c4 57 be
       -1.0778601 -0.20721976 -0.20542617 -0.2107101
000180 ac 7e 29 be f5 90 82 be 9c a6 63 be 7d fa 52 be
       -0.16552228 -0.25501218 -0.22231525 -0.20603366
000190 5e 85 cc bd 13 0e 14 be 32 f5 5a be b3 70 fc bd
       -0.09986375 -0.14458494 -0.21382597 -0.12326183
0001a0 62 6a 46 be d6 41 77 bf d8 1d be be b9 07 8e be
       -0.1937652 -0.9658483 -0.37132144 -0.27740267
0001b0 99 34 17 be dd be 42 be dd bd e9 3e a3 ea 84 be
       -0.14766158 -0.19018121 0.45652667 -0.25960264
0001c0 74 ec 4c bf 1e f3 6e be 9e c0 9a be 6d 6c 1c be
       -0.800483 -0.2333493 -0.3022508 -0.15275736
0001d0 31 ab eb bd 25 b1 98 bf b1 53 50 be 70 1b 88 be
       -0.115072615 -1.192906 -0.20344426 -0.26583433
0001e0 aa d5 9b be 7e 5b 80 be 99 9c 51 be 08 a9 46 be
       -0.3043645 -0.25069803 -0.20469894 -0.19400418
0001f0 86 b7 6c be 0b 82 78 be 97 77 22 be c6 8f 67 be
       -0.23116884 -0.24268357 -0.15865932 -0.22613439

fc3.weight f4 [1, 128]
000000 46 5f 0a bc 8e 89 e3 bc 5b 96 18 3b 14 bf 77 3b
       -0.0084455665 -0.027775552 0.0023282978 0.00378031
000010 25 5f 4f bd 2a b7 a9 bc 60 37 56 bc 98 43 e1 3c
       -0.050627846 -0.020717222 -0.013074726 0.027498052
000020 b0 25 dc 3c 94 12 97 bc fd 60 93 3c fb 67 39 bc
       0.02687344 -0.018441476 0.017990584 -0.011316295
000030 c3 ee c2 3c 75 51 9c 3c 2f 87 81 3c 6f 9d 82 bc
       0.023795491 0.01908181 0.01581153 -0.01594421
000040 bf f4 27 bc ab bb ad bc 8a c8 a1 3c 06 8c 83 bc
       -0.010251223 -0.021207651 0.019748945 -0.01605798
000050 70 b1 12 bd 7d d4 a4 bc 92 7e ad 3c 7a ff dd bc
       -0.03581375 -0.020120854 0.021178517 -0.02709936
000060 c9 49 af 3c 2b 50 2e bd 2a 1a da 3c 39 a5 01 bd
       0.021397488 -0.042556923 0.026623804 -0.03165171
000070 1b c5 f2 3b 73 7a b3 3b d5 29 24 3c 27 be a6 3c
       0.0074087507 0.0054772436 0.010019739 0.020354344
000080 b1 62 47 3c 32 d0 a4 bc 8e db 0d bc 79 09 c8 3c
       0.012169526 -0.020118807 -0.008658303 0.02441858
000090 35 b3 0b 3a 5f 31 65 bc b9 9d b2 3c c4 a6 c5 bc
       0.0005329133 -0.013988822 0.021803724 -0.024127372
0000a0 92 22 75 3c 1d bc 9b 3c 52 91 4a 3c 06 b0 d1 bc
       0.0149618555 0.019010598 0.012363749 -0.02559663
0000b0 01 35 fd bb 6a 46 e3 bb 31 2a 74 3c e2 ba 88 bc
       -0.007727266 -0.0069358842 0.014902637 -0.016690675
0000c0 72 83 89 bc cd 58 42 3d 21 68 fa 3c af 07 8d 3c
       -0.01678631 0.04744797 0.03056723 0.017215578
0000d0 f8 d5 50 3b 28 60 18 bc 59 a8 db 3c d3 16 8c 3c
       0.0031865817 -0.009300269 0.026813673 0.017100727
0000e0 bc f4 a0 3c 16 83 3f bd dc 55 b1 3c ca 05 5d bc
       0.019647948 -0.046755873 0.021647386 -0.01349015
0000f0 e9 65 dc 3c c3 2c bc bc c5 e3 aa 3c 7d 28 c1 bb
       0.026904063 -0.022970563 0.020860562 -0.005894719
000100 20 83 08 3b d3 09 a1 bd 02 9c ea 3c c6 6a b5 3a
       0.002083011 -0.07863202 0.028638843 0.0013841025
000110 2d f1 b8 bc 7c 69 4b 3b 01 03 95 3c b5 c5 a3 bb
       -0.02257594 0.0031038215 0.018189909 -0.0049979337
000120 3e 00 c8 38 07 d4 ac 3c 46 45 89 3c 67 ea a0 bc
       9.536788e-05 0.021097196 0.016756665 -0.019643022
000130 9e 4b 33 bc 68 f1 b6 3c 0e d2 20 bd fc ad 83 bb
       -0.0109433215 0.022331908 -0.039262824 -0.0040185433
000140 d6 f3 f4 3b d0 fc e6 bc c4 a7 3d bd ee f1 01 bc
       0.0074753566 -0.028196722 -0.046302572 -0.007931216
000150 af d4 d3 bc 93 1a 2f bc 29 c6 3e bc fa 1e 96 3b
       -0.025858251 -0.010687488 -0.011643925 0.0045813294
000160 3c 56 f1 3a 7f ca b1 3c 06 38 25 bc 6e 75 b6 3c
       0.0018412541 0.021703003 -0.010084158 0.022272792
000170 06 b7 87 bd a2 70 a5 3c da ae 72 3c 3e bb 7a bc
       -0.06626706 0.02019531 0.014812196 -0.015303431
000180 53 e7 2a 3a b1 66 0a 3d e5 98 30 bc 9e 02 5b 3c
       0.00065194553 0.03378934 -0.01077864 0.013367323
000190 b6 d5 87 3c 0b 70 ed 3c a3 8a c5 bb 6f 61 18 bd
       0.016581398 0.02898409 -0.0060284897 -0.037202295
0001a0 52 64 bd bc 51 c6 b3 bc 9f a7 84 bc 20 88 9c bc
       -0.023119126 -0.02194515 -0.01619321 -0.019107878
0001b0 93 17 a1 bc 95 46 4e 3c d6 ae 19 bc 77 04 c7 3c
       -0.019664561 0.01259007 -0.009380063 0.024294121
0001c0 4f 4a 0e 3c b9 ba 81 3c b7 18 28 ba 0f 6b 98 3c
       0.008684709 0.015836107 -0.0006412374 0.018605737
0001d0 95 1b 01 3d d6 75 a5 3c 2b 47 63 bb 5a fd 84 3a
       0.031520445 0.02019779 -0.003467987 0.0010146305
0001e0 d5 67 bb bc f4 04 3e bc da ee 80 bb 80 65 43 3c
       -0.02287666 -0.011597861 -0.0039347233 0.011926055
0001f0 6f 05 86 3c c8 ff 86 3b a0 35 d2 bc 55 3c a9 bc
       0.016360013 0.004119847 -0.025660336 -0.020658651
