results/results_3/solved_agent2_actor.pth (torch, 185131 bytes, 6 tensors)

fc1.weight f4 [256, 48]
000000 6d 96 45 3e b6 2b de be 79 71 40 ba d6 94 88 be
       0.19295664 -0.43392724 -0.00073411275 -0.26676053
000010 83 98 03 3e 5f 1b 09 bf 8d 9a 8d 3b 19 8a 5a be
       0.12851147 -0.5355739 0.0043214024 -0.21341743
000020 fd 85 41 3e 80 a1 c9 be a0 5d 26 be 0d 80 5b be
       0.18898769 -0.39381027 -0.16246653 -0.21435566
000030 19 7b c4 bd eb ab 0a bf 5b 1e ce bd 2a 2f fd bd
       -0.095937915 -0.54168576 -0.100643836 -0.123625115
000040 c2 ce 96 3e 0b 21 c8 be 02 af 31 be 5d 5c f3 be
       0.2945462 -0.3908771 -0.17351916 -0.47531405
000050 c1 14 85 be ca 79 22 3d 66 33 0a be d3 77 cf be
       -0.25992396 0.03966693 -0.1349617 -0.40521106
000060 e1 1b 3d 3e 46 76 d9 3d 4c 78 a2 bd 63 10 2c 3f
       0.18467666 0.10618262 -0.07933101 0.67212504
000070 28 f8 05 be 1f a6 16 bf 6f 68 7d 3c 95 79 2d 3f
       -0.13082945 -0.5884723 0.015466793 0.67763644
000080 0d 51 5b 3e 72 12 8a 3e c3 6c eb 3d 51 0f 13 3f
       0.21417637 0.26967198 0.11495354 0.57445246
000090 47 a5 9b 3d 5d 3a 0a bf 29 25 a8 3d 37 1a 1f 3f
       0.075998835 -0.53995305 0.08210213 0.62149376
0000a0 70 94 c0 3e 5b 33 e2 3d 19 45 41 3e 96 19 aa bf
       0.3761325 0.110449515 0.18874015 -1.3289058
0000b0 35 c6 89 3e ba f7 36 3d 83 0a 71 3e 4e f8 a5 bf
       0.26909032 0.044669844 0.23539166 -1.2966402
0000c0 e4 0f 23 3e cd aa 97 be be 2e 03 be 3f e5 b8 bd
       0.1592403 -0.29622498 -0.128108 -0.090281
0000d0 da a2 9d 3d bb dd 70 3e 01 d9 c2 bd 1b f7 87 bd
       0.07697077 0.23522083 -0.095140465 -0.066389285
0000e0 4b 97 f5 3d d0 b2 d0 be d1 92 57 3c 21 8f e8 3d
       0.119917475 -0.40761423 0.013157562 0.11355425
0000f0 cc 3e 7d bf 75 4f e8 3e b4 9a d1 3d e4 1a 1c 3e
       -0.98923945 0.4537312 0.102345854 0.15244633
000100 9f 08 05 3d 11 3a ab be 17 95 a4 3c 3f 13 96 3e
       0.032478925 -0.3344274 0.020090623 0.2931156
000110 4c 5a fd bf a1 82 d7 3e ae c1 ba 3b 45 3e 7e 3e
       -1.9793181 0.4209185 0.005699358 0.24828441
000120 23 dc d6 3d db fe 0a 3f b1 e6 4e 3d 77 f7 8d bd
       0.104912065 0.5429513 0.050512973 -0.06931966
000130 4b cf fe bd 81 5e 6b 3e d8 08 3f 3d 32 58 f3 bd
       -0.12441882 0.22985269 0.046639293 -0.11882056
000140 0a d2 ca 3d c2 ff 6f 3e 19 6a 44 bd 84 f0 5c be
       0.09903343 0.23437408 -0.047952745 -0.21576124
000150 fb f0 7b 3f c5 ed b0 3e 56 3f 99 bd 56 09 90 be
       0.9841458 0.34556404 -0.074827835 -0.28132123
000160 54 c7 9b 3d e8 f8 82 3e 72 be 8d 3b fc f6 32 bd
       0.07606378 0.25580525 0.0043256814 -0.043692574
000170 ba 22 f0 3f 2b 30 e4 3e d9 23 88 bd be 82 80 bb
       1.8760598 0.44568 -0.066474624 -0.0039218357
000180 00 32 01 3e f8 a4 a9 3e 4a 87 fd 3b a0 38 f3 3e
       0.1261673 0.33133674 0.007737075 0.4750414
000190 4f 55 d4 bc b6 67 7f 3d 45 57 a4 bc 94 5f 11 3f
       -0.025919585 0.062354766 -0.020061145 0.56786466
0001a0 6e 46 c4 3d 3d 60 f2 3e 38 92 93 bc 9a 8d 1a 3f
       0.09583746 0.4733905 -0.018014058 0.60372317
0001b0 ea a0 5d be 46 aa 4e 3e f9 9c 47 bd 60 8b 05 3f
       -0.21643415 0.20182142 -0.048733685 0.52165794
0001c0 bf 99 c7 3d 1a 79 37 3f d0 ce 0b be 61 fc 16 3f
       0.097461216 0.7166916 -0.13653111 0.5897885
0001d0 a7 cc a7 be 17 e7 4e 3e a5 e2 1b be 4d c7 1a 3f
       -0.32773325 0.20205341 -0.15223177 0.6046036
0001e0 89 80 67 3e b2 48 32 3e b0 99 54 3d 86 c0 a0 3e
       0.22607626 0.17410544 0.05190438 0.31396884
0001f0 0c 30 1e bc b5 b3 7c 3d cb e0 f5 3d 3f c2 94 3e
       -0.00965501 0.06169482 0.120057665 0.29054448
000200 54 93 2e 3e 58 52 a8 3e 02 50 9b 3d 52 c6 14 3f
       0.17048389 0.32875323 0.0758362 0.5811511
000210 90 f9 2e 3e eb e8 5f 3e 43 e9 0c 3e 36 2a f7 3e
       0.17087388 0.21866195 0.13760857 0.48274392
000220 17 9f 97 3e df a8 dc 3e 84 ac 96 bd 82 ee a9 3e
       0.29613563 0.43097588 -0.073571235 0.3318978
000230 95 c7 9f 3e 65 17 2c 3e 9a 3d 07 3d 73 ad 99 3e
       0.31206957 0.168058 0.033017732 0.30015144
000240 0b 56 43 3e fc 3b 59 3e cd ac 4c 3e 5e e8 d5 be
       0.19075792 0.21214288 0.19987793 -0.41778845
000250 62 4d 4c 3e da db 57 3d cc 91 7d 3e f0 86 f7 be
       0.19951394 0.0526999 0.24762648 -0.48345137
000260 3a b0 23 3e b8 39 c6 3d 20 5e 9c bd ae 2e c9 bb
       0.15985194 0.09678978 -0.076351404 -0.006139598
000270 de d1 9e 3e 45 27 d6 bc 40 50 ca bd de 9e 87 3c
       0.3101949 -0.026141772 -0.09878588 0.016555246
000280 25 9e 62 3e 47 38 4e 3d 6b c1 c2 3c f1 49 7e 3d
       0.2213064 0.05034664 0.02377387 0.062082235
000290 de 3c d0 3e a9 6a de bd d1 04 90 bd d9 1c aa 3d
       0.40671438 -0.108601876 -0.07032169 0.083062835
0002a0 fd cf 54 3e bc 3c 3a 3f c3 a3 89 3e 56 e6 23 be
       0.20782466 0.72748923 0.26882753 -0.16005835
0002b0 76 86 98 be b4 cf 73 3c 9d b5 97 3e 06 ab 26 be
       -0.29790086 0.014881063 0.29630747 -0.16276178
0002c0 09 9c 5f 3e b0 59 2a 3f 67 af 7f bd 36 61 7e bd
       0.21836866 0.665431 -0.062423136 -0.062104426
0002d0 4f 37 8f be a3 bb 90 bd de 0c e6 bc d7 72 02 be
       -0.27971885 -0.07067039 -0.028082307 -0.1273912
0002e0 c3 6d 5a 3e 2d 1f 14 3f 47 32 d0 3c e5 4c 01 be
       0.21330933 0.5786007 0.0254146 -0.12626989
0002f0 44 e2 b1 be 9f 67 14 3b e3 1e 70 bd b7 3b 0e be
       -0.3474294 0.002264477 -0.058623206 -0.13889967
000300 42 44 96 3e e8 6f 18 bf 87 9f e2 bd df 0e d0 be
       0.29348952 -0.59545755 -0.11065584 -0.40636346
000310 89 30 08 bf 2c 74 a2 be d0 e5 33 bd d5 65 dd be
       -0.5319906 -0.31729257 -0.04392034 -0.43241754
000320 d7 47 e9 3e 98 7d 18 bf ce e9 28 3d 2a 44 e5 3b
       0.45562622 -0.5956664 0.0412386 0.006996651
000330 0c 59 11 bf 8c a7 59 be c0 98 d4 bc 5b 70 42 3d
       -0.567765 -0.2125532 -0.025951743 0.04747043
000340 4d 03 d2 3e e6 06 1e bf 2d a2 2f 3e e2 6b 40 be
       0.41018143 -0.61729276 0.17151709 -0.18791154
000350 b5 5e 11 bf 86 c2 30 3e 1f 11 5b 3e 31 1a 82 be
       -0.56785136 0.17261705 0.2139325 -0.25410607
000360 ca 8f 9a 3e ce ea 5f 3e 87 58 48 3e a1 93 ab be
       0.30187827 0.21866915 0.1956502 -0.3351107
000370 0f 3a ec 3e a2 83 8f be 55 a3 82 3e d1 f7 5b be
       0.46138045 -0.28030115 0.25515237 -0.21481253
000380 54 14 90 3e fb 69 df 3d 3c 16 7d be e3 99 bf bd
       0.2814051 0.10908886 -0.24715513 -0.093555234
000390 58 a4 0f 3f c7 d3 92 be 08 b0 45 be 5d 52 1f be
       0.56110144 -0.28677198 -0.19305432 -0.15558763
0003a0 15 44 29 3e 05 cd b0 bc dd 04 64 bd 10 fd 9c bd
       0.16529877 -0.021582136 -0.0556687 -0.07665455
0003b0 81 39 20 3f 2a a3 16 3e 59 dc d7 3b 79 6f 05 be
       0.62587744 0.1471068 0.006587547 -0.13030805
0003c0 31 36 04 3f ac c8 54 bf 82 72 30 3e 54 84 0b bf
       0.5164519 -0.831187 0.17231181 -0.5449879
0003d0 af 1e b3 bd ee 0a c9 be 36 07 42 3e 80 e4 0b bf
       -0.08746087 -0.3926615 0.18948063 -0.5464554
0003e0 d5 08 12 3f 49 65 3a bf b2 bb d3 3d c1 65 3a 3e
       0.57044727 -0.728108 0.103385344 0.18202879
0003f0 8d 9f bd bd d8 02 fc be 1a ea a9 3d 08 35 36 3e
       -0.092589475 -0.4922092 0.082966045 0.17793667

fc1.bias f4 [256]
000000 97 19 92 be 24 b4 38 3c 76 f3 4e be 29 1c 94 be
       -0.28535149 0.011273418 -0.2021006 -0.28927734
000010 6b 27 25 be 0d 40 a2 be 81 85 81 be ee 71 ab 3d
       -0.16128318 -0.31689492 -0.25297168 0.0837134
000020 aa 97 98 be c0 70 5b be 7a f9 97 be 90 3e ae be
       -0.2980321 -0.2142973 -0.29682523 -0.34032106
000030 89 36 10 be c4 29 28 be 1f 04 76 be b3 c3 12 3e
       -0.14083304 -0.16422182 -0.2402501 0.14332466
000040 df ec 79 be 50 01 09 be e2 c1 ca be c1 9d 61 3d
       -0.24406765 -0.13379407 -0.39601046 0.055082086
000050 e1 e6 45 be 42 5b 9b be db 9d 0a be 8a 15 e4 be
       -0.19326355 -0.30343062 -0.1353678 -0.44547683
000060 bd 73 f2 bd 2a 85 87 be 53 66 2a 3e c7 43 86 be
       -0.118384816 -0.26468784 0.16640596 -0.26223585
000070 ad 8f a0 be 24 9c a1 be 86 43 c5 be d0 3e ad bc
       -0.31359616 -0.31564438 -0.3852808 -0.021148115
000080 ea 00 91 3e 4f d7 1a be 1a 31 76 bc 45 ae d2 be
       0.2832101 -0.15121196 -0.015026355 -0.41148582
000090 8a 94 4a 3b 76 ae ad be ca d7 b4 be 93 11 88 be
       0.003091129 -0.33922166 -0.35320884 -0.26575908
0000a0 c2 bd 0b be 8d b5 73 be bd b6 10 3e 9c aa ce bd
       -0.13646606 -0.23799725 0.14132209 -0.10091135
0000b0 59 3e 58 bd e5 99 47 bd 48 9e 86 3c 1b 34 0a bf
       -0.052793834 -0.04873075 0.016432896 -0.53985757
0000c0 07 d0 0e 3e cc 04 fa 3d 13 c4 98 be 48 0d 03 be
       0.13946544 0.12207946 -0.29837093 -0.12798035
0000d0 96 cd 50 be 7f 88 39 be 4b a9 fc 3d 5c ff 20 be
       -0.20390925 -0.18118475 0.123369776 -0.15722412
0000e0 6b dd 12 be 85 01 80 be 96 fb 81 be 9d 6a 8c be
       -0.14342277 -0.2500116 -0.25387257 -0.2742509
0000f0 7d 8a aa 3c ef b0 48 be 0d ce ac be fd 5d 74 be
       0.02081799 -0.19598745 -0.33750954 -0.23863979
000100 79 95 bb be 2b 7d 72 be cf 87 9c be fa ef 94 be
       -0.36637476 -0.2368056 -0.30572364 -0.29089338
000110 9f e7 b9 be 5b ee b1 bd 34 cf af 3e 93 ae 9a be
       -0.36309525 -0.08688041 0.3433777 -0.30211315
000120 f8 f9 89 be a8 0d 9d be d6 6c 7e be 92 b5 65 bd
       -0.26948524 -0.3067448 -0.24846205 -0.056081362
000130 db 9b 9b be 5c 77 69 be a7 41 0a bf 24 57 dc be
       -0.30392346 -0.22799438 -0.5400643 -0.43035233
000140 0c 04 5a be 26 07 79 be 05 48 27 be 76 e9 84 be
       -0.21290606 -0.24319133 -0.16336067 -0.25959367
000150 ec cd 40 be 20 36 be be 15 f3 e4 be 6b b1 1c be
       -0.18828553 -0.3715067 -0.44716707 -0.15302055
000160 ca cf b0 3e b6 0f 9b bc 03 27 92 be fc 3a f0 bc
       0.3453353 -0.01892839 -0.2854539 -0.029325001
000170 d4 5b b3 ba ad 63 39 be 32 7f c2 be 81 2d a5 be
       -0.0013683983 -0.1810443 -0.37987667 -0.3226128
000180 71 f3 52 be bd e4 4d 3d 04 ee 91 bd ca 13 6f bd
       -0.20600678 0.05026697 -0.07125476 -0.05836848
000190 76 b2 16 be e3 4d 8f be 9d 25 fb bd 49 2a 90 be
       -0.14716515 -0.2798911 -0.122630335 -0.2815726
0001a0 90 cd 0d be 19 f3 48 3c 1c 52 da 3d 18 66 a6 be
       -0.13847947 0.01226499 0.10660192 -0.32499766
0001b0 2c 2c 19 bd 8b 2b d3 be ef f9 0b be 89 f3 a8 bd
       -0.03739564 -0.41244158 -0.13669561 -0.08249576
0001c0 1b 51 4e be c9 b5 36 be aa 85 9b be bc 04 69 be
       -0.20148127 -0.17842783 -0.30375415 -0.22755712
0001d0 02 8a 1c be 7c ef 9b be 42 cb 07 bf c5 4a bc be
       -0.15287021 -0.3045615 -0.5304452 -0.36775795
0001e0 18 6b a7 be 78 ca 40 be ea de f2 be cd c6 82 be
       -0.32698894 -0.18827236 -0.47435695 -0.25542298
0001f0 ac 34 dc be c3 c0 0b 3c 66 d8 b1 be 75 83 49 be
       -0.43008935 0.008529845 -0.3473541 -0.19679053
000200 cf 8e 55 be 0e d1 72 3e 3e 54 46 be 1a d9 0d be
       -0.20855258 0.2371256 -0.19368073 -0.13852349
000210 b8 9d bb be f5 a4 c6 be f8 3c 9d be f4 a7 f2 bd
       -0.36643767 -0.38797727 -0.30710578 -0.11848441
000220 16 69 a4 be d5 be c2 be 6f de 9f 3d 27 ed 12 be
       -0.32111424 -0.38036218 0.07806098 -0.14348279
000230 7d 0f 76 be ef bf 22 be 27 9e 40 be 72 03 2a be
       -0.24029346 -0.1589353 -0.1881033 -0.16602877
000240 03 bc c9 bd d2 3c 84 be 48 4f 81 be 21 33 41 be
       -0.098503135 -0.25827652 -0.252558 -0.1886716
000250 13 a2 ce bd d7 09 b2 3e 34 dc 10 3e 34 1f 89 be
       -0.10089507 0.34773132 0.14146501 -0.2678162
000260 1d d9 27 be 93 e3 0e 3e f9 6d 77 be 24 b3 e8 bd
       -0.16391416 0.13954 -0.24163045 -0.11362293
000270 0d d6 75 be d9 53 3e 3d 4d bc 8a be 1e 6e 36 be
       -0.24007435 0.046466682 -0.27096787 -0.17815444
000280 1e 0d f0 bd 2a ed 4e be e3 a6 a7 be bf ab 6f be
       -0.11721252 -0.20207658 -0.32744512 -0.2340536
000290 f0 a5 cd be 1a 22 6d be b9 e8 31 be 0a c3 59 bc
       -0.40165663 -0.2315754 -0.17373933 -0.01329113
0002a0 fe 8c 93 be 98 f2 c2 be 62 28 a3 bd c3 78 f4 bd
       -0.28818506 -0.3807571 -0.07966687 -0.11937096
0002b0 7a ac 34 be 22 41 7c be cb 3c 52 be bd b8 f5 bd
       -0.1764392 -0.24634221 -0.20531003 -0.11998127
0002c0 60 65 ef bc f1 a0 c6 be ca 57 5e be ec 7e 26 be
       -0.029223144 -0.38794664 -0.21713176 -0.16259354
0002d0 d7 8c 82 be ed d2 e2 bd 8e ae 1d be d8 e0 3c be
       -0.25498077 -0.11075387 -0.15398619 -0.18445146
0002e0 8d 4a cd be a1 b4 26 be c1 a5 3f be d4 3d 87 bd
       -0.4009594 -0.16279842 -0.18715574 -0.0660359
0002f0 33 e7 51 be 60 0e 07 be 9f 11 47 be 10 8a e9 bd
       -0.20498352 -0.13189077 -0.19440316 -0.114032865
000300 09 17 d4 be 76 bb 46 3e 46 c8 04 be d6 dd 73 be
       -0.41423824 0.19407448 -0.12967023 -0.23815092
000310 18 b7 82 be 28 29 a2 be 9b 5a ae bd 5a d5 b0 be
       -0.25530314 -0.31672025 -0.08513375 -0.34537774
000320 de b2 0a be 51 22 58 be 88 0d fd bd d5 63 ab be
       -0.13544795 -0.2110684 -0.123560965 -0.33474603
000330 45 d1 fc bb 5b b4 40 bc 46 b4 d2 3e 41 c2 91 be
       -0.0077153766 -0.01176175 0.41153163 -0.28468516
000340 dd a3 88 be 7a 83 e4 bd ef 0b a1 bd 44 6d cf be
       -0.26687518 -0.1115789 -0.07863604 -0.4051305
000350 21 b5 e1 3c 05 ad 1d bd 87 f3 75 be ad 54 bd bd
       0.02755219 -0.038495082 -0.2401868 -0.09244666
000360 d3 c1 cb be 58 fe 71 bd e7 fb 4b 3d 05 32 ca be
       -0.39796314 -0.05908045 0.04980078 -0.39491287
000370 57 45 1f be e0 09 8d be 90 fb 84 be 74 98 f8 bd
       -0.15553795 -0.27546597 -0.25973177 -0.12138453
000380 98 b2 0a be b6 4b 41 be 26 dd 99 be 5f 8e 75 bd
       -0.1354469 -0.18876538 -0.30051535 -0.05995023
000390 71 44 da bd cc 5b c1 bc d1 b1 85 be e7 0a d1 bd
       -0.106575854 -0.023603342 -0.26112226 -0.102071576
0003a0 18 fe 45 be 7a 4c 18 be 65 02 ca bd 79 70 85 be
       -0.1933521 -0.14872923 -0.09863738 -0.26062372
0003b0 2b 1c 1d 3b 0d 46 23 be c6 0f e1 bd de 43 70 bd
       0.0023973088 -0.15944691 -0.10989337 -0.058658473
0003c0 c9 94 8c bc ec f9 0a bf b4 9b 5a be a5 b8 05 bd
       -0.01716079 -0.542876 -0.21348459 -0.032646794
0003d0 34 ed 8e be ab d9 47 be 99 3f aa be 68 2e ae be
       -0.27915347 -0.19516627 -0.33251646 -0.3401978
0003e0 25 ab 81 be 70 a8 9b 3e 7f 9e de be 73 12 8d be
       -0.25325885 0.30401945 -0.43480298 -0.27553138
0003f0 cf 58 a6 be 14 9f 96 be 18 2c 0a be 47 79 19 be
       -0.3248963 -0.29418242 -0.13493383 -0.1498767

fc2.weight f4 [128, 256]
000000 3c 45 87 3e f4 44 81 3e 16 f4 be 3d d7 af 90 3d
       0.2642001 0.2524792 0.093238994 0.07064789
000010 44 c5 a1 be 93 fc 9f bd 91 62 e4 bd 2f 3a 81 be
       -0.31595814 -0.078118466 -0.111516126 -0.25239703
000020 8a 13 7f be 53 49 53 3d 54 1d 05 3e da 42 43 be
       -0.24909797 0.0515836 0.12999469 -0.1906847
000030 32 5e 69 bd 88 b8 b5 bd f7 f9 4b bc 05 bd 02 be
       -0.056974597 -0.08873087 -0.012449733 -0.12767418
000040 2a 8a 8c 3e 0c 10 a3 be ec af b2 bd 83 50 f2 be
       0.2744916 -0.3184818 -0.08724961 -0.4732705
000050 9b 7c f9 bd cc 7d 51 bc b5 8d f4 3d ea 25 f6 bc
       -0.1218197 -0.01278634 0.11941091 -0.030047376
000060 83 9e 7d 3d 2d 49 62 bd c6 73 7f be aa b2 bd 3d
       0.061918747 -0.055245567 -0.24946508 0.09262593
000070 79 ef 8f bd 9c 87 32 be e6 29 35 3c 07 28 e6 bd
       -0.07028098 -0.17434543 0.011057353 -0.11238103
000080 53 5e 6a 3e aa 0c c8 bc 79 01 d1 be d7 40 a3 3d
       0.22887544 -0.024420101 -0.40821436 0.079713516
000090 47 c5 4c be 85 e7 d9 bd d7 11 78 be b6 84 d5 bd
       -0.1999713 -0.10639862 -0.24225555 -0.10425703
0000a0 11 f7 9d bd 3c e8 6b bd e3 8b 92 3d c6 37 59 3f
       -0.0771314 -0.057594523 0.071555875 0.8485073
0000b0 bb 9a ea 3d bb 51 38 3e 1d b7 bf be bd 25 54 bd
       0.11455294 0.17999928 -0.37444392 -0.051793803
0000c0 5b 2e ce be 62 96 e7 3e 33 b9 98 be fa c7 75 be
       -0.4026974 0.4523192 -0.29828796 -0.24002066
0000d0 a2 37 89 be 9b 6e d6 bc ac 27 b1 bd 03 08 14 bc
       -0.26800257 -0.026175788 -0.08650145 -0.009035113
0000e0 70 b4 aa 3e af a1 1f 3e 89 06 e4 3d 1c 06 b4 bd
       0.33340788 0.15589021 0.11134059 -0.08790228
0000f0 3e aa 0b bf 97 a9 84 be da 8d f2 be 3e 7b 29 3e
       -0.54556644 -0.25910637 -0.4737385 0.1655092
000100 50 95 bc 3c c7 fe 26 be 33 0c 4f 3d 41 21 d1 bd
       0.023020416 -0.16308127 0.050548743 -0.10211421
000110 da 58 8f 3d 8e 11 12 be 0c 18 97 bd c0 ba 0f be
       0.06999369 -0.14264509 -0.073776335 -0.14036083
000120 82 7a e6 be e6 0b d5 bb 09 db 83 3e 77 50 f9 bd
       -0.4501534 -0.0065016625 0.25753048 -0.121735506
000130 19 42 3b 3e 3b 32 2b be 95 00 15 bd 64 15 0f be
       0.18286933 -0.1671838 -0.03637751 -0.13973004
000140 3e 0e 8d be 54 e8 2b 3e 38 e1 83 be 8f 7b 2c 3d
       -0.27549928 0.16787845 -0.25757766 0.042110022
000150 2b bc 3e be 3e c5 5b bc 5b b5 95 3d 29 a5 bc 3e
       -0.18626468 -0.013413725 0.073099814 0.36844757
000160 05 08 2c be 5c fd 0e be db 71 40 be 3b 80 3c bd
       -0.16799934 -0.13963836 -0.18793432 -0.046020728
000170 fc b4 7d be 7f c9 65 be 35 5c dc 3d 39 41 9c 3e
       -0.24776071 -0.22440146 0.107597746 0.3051851
000180 27 0d c9 bd 14 ea 8d 3e 0d 92 37 3e 5e 63 de 3d
       -0.09816962 0.2771765 0.17926808 0.108587965
000190 0b ef 08 3f 2b 66 55 bd 04 17 1c bd 48 1a 84 be
       0.5348975 -0.052099388 -0.038107887 -0.258013
0001a0 cc fa d4 be e9 fb dc bd 53 d1 c0 be de 4e d4 3e
       -0.41597593 -0.107902355 -0.37659702 0.4146642
0001b0 ae 87 16 be cc 7b a1 be 50 f1 f7 3e ce e2 58 3d
       -0.14700195 -0.31539762 0.48426294 0.052950673
0001c0 b8 7f 0f bf a7 11 6f be ea 23 90 3c cf b4 13 bc
       -0.5605426 -0.23346578 0.01759525 -0.009015276
0001d0 f4 62 99 3c 64 de 20 be 69 bc 10 be 00 fb 85 3d
       0.018723942 -0.15709835 -0.14134373 0.06542015
0001e0 3f 0e b5 bc 9a e2 61 bd 45 3f ca bd cb c8 a9 3e
       -0.02210152 -0.055147745 -0.09875349 0.33161005
0001f0 42 5e 2f be 98 4e d2 3c 74 93 f0 bd 4c 35 76 be
       -0.171258 0.025672242 -0.117468745 -0.24043769
000200 f4 8a 3b be 28 4f 96 3e fa c1 2d be f7 b8 a5 be
       -0.18314725 0.29357266 -0.16968527 -0.3236768
000210 20 63 00 be 9c b3 76 bc 74 3e d2 be 85 79 b8 bc
       -0.12537813 -0.015057471 -0.41063273 -0.022518883
000220 a6 8a 3c bd 9f 05 3c 3e f6 8e ae 3c 51 aa ad bd
       -0.046030663 0.1836152 0.021308403 -0.08479751
000230 f8 89 fd bd ed 9d 91 be 98 7b 72 be e2 89 15 be
       -0.12379831 -0.284408 -0.2367996 -0.1460338
000240 5b aa b2 3e 4a 0e 35 3d 33 2b 9a 3e 5a 60 70 be
       0.34895596 0.04420308 0.30111083 -0.23474255
000250 61 54 af bd fd 17 56 bc 0d 02 c3 bd a6 b0 07 be
       -0.08561016 -0.013067243 -0.095218755 -0.1325098
000260 80 14 3d be 9e 94 07 be 35 f2 8d be 21 42 c6 3e
       -0.18464851 -0.13240287 -0.27723852 0.38722327
000270 28 f5 c4 bd 3b 56 45 3e 2e f2 83 3e 95 ac 8c 3e
       -0.09617072 0.19271176 0.25770706 0.2747542
000280 12 56 d0 be 8f 28 46 be 69 22 c7 be 32 6a a4 be
       -0.40690666 -0.1935141 -0.3889344 -0.3211227
000290 5b 2f 63 3e 32 46 6b be 86 4b 41 bd b7 dd db be
       0.22186033 -0.22975996 -0.047191165 -0.42942593
0002a0 b9 70 1b bf ca 72 24 3e a5 f0 b0 bd 72 4d 2e be
       -0.60718876 0.16059414 -0.08639649 -0.1702173
0002b0 43 bf 15 3e c8 ba bf bd 2c e5 b2 3e 00 6f c4 bd
       0.14623742 -0.093617976 0.3494047 -0.09591484
0002c0 9a c7 a2 3c 54 da 11 3e 87 9d 31 be a6 b0 07 bf
       0.019870568 0.14243442 -0.17345248 -0.5300392
0002d0 52 b0 09 3e 72 67 e3 bd 04 ba 57 be 7c b1 71 3e
       0.13446167 -0.11103715 -0.21067053 0.23602861
0002e0 9b 7d 56 3e 4f ed 62 3f 58 4c 88 3e a5 35 f9 be
       0.20946352 0.88643354 0.26620746 -0.4867374
0002f0 3e e2 bb bd 2f a9 7f bd 9a 2e 40 3e a7 79 57 bd
       -0.09174012 -0.062417205 0.18767777 -0.05260625
000300 a3 0c 0d 3e 0e 12 06 be 91 a9 a8 be 85 41 ed 3c
       0.13774352 -0.13092825 -0.3294187 0.028961906
000310 70 63 63 bd c8 7e 45 bc 8a 4a 19 3e da fd f6 be
       -0.055514753 -0.012054153 0.1496984 -0.48240548
000320 2c d3 86 3c a1 51 cf be 34 0d e0 3d 45 e4 6d 3e
       0.016458116 -0.40491965 0.10940018 0.23231609
000330 8b be 89 3e 2b 7a 3a be f0 db 3f bf 6b ca 3f bf
       0.26903185 -0.18210666 -0.74944973 -0.7491824
000340 15 a1 19 3f 5b 32 48 3e 7b ec 17 bf 76 98 73 bd
       0.60011417 0.19550459 -0.59345216 -0.05947157
000350 85 c6 ea 3c 31 8a 41 be 9e 70 72 be 82 f2 ad 3e
       0.028659115 -0.18900372 -0.23675773 0.3397408
000360 6d 06 4d 3e a8 38 d2 bd f7 7d a2 3e ba 6e 21 3e
       0.20021982 -0.102647126 0.3173673 0.15764895
000370 f7 20 8d 3d f3 62 b5 3d 94 71 ee 3d 45 8b 8a be
       0.06891053 0.08856764 0.11642757 -0.2705938
000380 67 8c e2 bd 36 4c 9c be b0 1e a4 be c2 d1 b4 bd
       -0.11061936 -0.30526894 -0.32054663 -0.08829071
000390 e4 5e bb 3d c7 25 08 3e 8b 08 1b bf 77 25 05 3f
       0.09148958 0.13295661 -0.6055991 0.5201029
0003a0 f2 45 88 bd d0 e1 5f 3e 71 26 a7 3d 59 e7 06 be
       -0.06653966 0.21863484 0.08161629 -0.1317419
0003b0 8a 0b a2 be 97 cd b5 bd a7 61 cb be e7 4c c3 3c
       -0.3164943 -0.08877104 -0.3972294 0.02384038
0003c0 a9 2e 9d 3d 87 ad 97 bd 15 b5 b7 3e b8 57 96 bd
       0.07674915 -0.074061446 0.35880342 -0.0734095
0003d0 fd a3 95 3d a3 b9 61 be 63 dc 04 bd 7f 42 1a 3e
       0.07306669 -0.22043471 -0.03243674 0.15064429
0003e0 88 0b c1 3d 19 fb 96 3d c4 e8 d1 bd 0f 8c ec bd
       0.094260275 0.07372112 -0.10249475 -0.115501516
0003f0 49 23 23 be df 11 21 be c5 0d d7 bd da 3e 6a 3e
       -0.15931429 -0.15729474 -0.10500673 0.22875538

fc2.bias f4 [128]
000000 e0 24 e0 bd 70 c6 5d be f9 35 08 be 7e 8e 5a be
       -0.10944533 -0.21657729 -0.13301839 -0.21343419
000010 7b d5 56 be e2 f1 1d be 4f 67 b4 be d5 3f 40 be
       -0.20979874 -0.15424302 -0.35235068 -0.1877435
000020 c8 c4 81 be b3 8a bb be c4 d4 25 be 8c f0 00 bf
       -0.25345445 -0.36629257 -0.16194445 -0.50367045
000030 be f1 45 be b1 05 0d bf f3 a9 22 be bb a2 8d be
       -0.19330499 -0.5508681 -0.15885143 -0.27663216
000040 91 16 78 3e 66 c9 f3 be 12 a3 c5 be 95 06 41 be
       0.24227358 -0.47614592 -0.38600975 -0.18850167
000050 d5 97 c1 bd 12 e6 a9 be e4 ee 26 be d1 26 15 bf
       -0.09452788 -0.33183342 -0.16302067 -0.58262354
000060 f5 ef 8a 3e a2 fa b6 bd 1b 89 ed be ba 20 33 be
       0.27136198 -0.08934523 -0.46393666 -0.17492953
000070 ff bc 82 be b9 af 32 be f8 e6 56 be ca bd 07 bf
       -0.25534818 -0.17449845 -0.20986545 -0.5302397
000080 dd f0 42 be 4c 15 59 be 65 98 f5 be f7 ca b0 be
       -0.19037195 -0.2119953 -0.4796783 -0.3452985
000090 71 b2 1b be 5e 04 17 bd 2b c0 17 3d 77 6e c7 3c
       -0.15204789 -0.0368694 0.0370485 0.024344666
0000a0 67 d2 76 be 86 09 cd be 7f 0c e8 3d 9b ba 00 bf
       -0.241037 -0.40046328 0.113305084 -0.5028474
0000b0 5e 18 bc 3d 67 76 f1 bd 2e 16 a0 bd ae 78 3d be
       0.09184335 -0.117901616 -0.078167304 -0.18503067
0000c0 75 66 96 be c7 60 85 be 74 7c 9e bd 17 71 3f be
       -0.29375044 -0.26050398 -0.07738581 -0.18695484
0000d0 16 16 b8 be 6d 78 48 be 1d 4a 90 be 64 8f 85 be
       -0.3595435 -0.19577189 -0.28181544 -0.2608596
0000e0 18 ec ae be 45 32 84 be b3 29 83 be a0 48 91 be
       -0.341645 -0.25819603 -0.2561775 -0.2837572
0000f0 ed fd 16 be 74 68 b1 bd 07 1f fd bd a8 75 19 be
       -0.14745302 -0.08662501 -0.123594336 -0.14986289
000100 19 ec d3 be 2d 1b 99 bd 83 f4 7d bd 2c 96 9b be
       -0.41391066 -0.074758865 -0.062000763 -0.3038801
000110 68 41 34 bf 1c 3f da bc 23 6c 55 be be d3 b3 bd
       -0.704123 -0.026641421 -0.20842032 -0.08780621
000120 bd 37 f5 bd 98 85 df be 4a 16 47 bd 86 e1 38 be
       -0.11973522 -0.4365661 -0.04860524 -0.1805478
000130 18 70 a9 bd 3a 12 ed be c1 66 ad be fd ea 81 bd
       -0.08273333 -0.46302968 -0.33867458 -0.063436486
000140 e8 85 e8 bd 15 a1 b5 be 88 a6 48 be 5d 44 16 bf
       -0.113536656 -0.35474458 -0.19594777 -0.58698064
000150 f8 80 45 be d9 8d 8e be f3 39 f8 be 48 54 98 be
       -0.19287479 -0.27842596 -0.48481712 -0.29751801
000160 e7 40 93 be 42 d5 33 be 7f a0 8f be 9e 2c e8 be
       -0.28760454 -0.1756182 -0.28052136 -0.4534654
000170 28 6d 5f be 7a 5b 91 be 69 6b 81 be f2 c6 93 3e
       -0.21818984 -0.28390104 -0.2527726 0.2886272
000180 5b 13 4a be 90 ec 50 3e f5 fa 3d bb 44 91 a8 be
       -0.19733946 0.20402741 -0.0028988693 -0.3292333
000190 1e 85 9b be 92 d1 71 be 22 6e 2a be cb b4 a0 bd
       -0.30374998 -0.23615101 -0.16643575 -0.078469835
0001a0 3e 1d 61 bd 7a a2 52 be 8b 7e 24 be f8 9f 92 bd
       -0.05495953 -0.20569792 -0.16063897 -0.07159418
0001b0 ac 21 ae bd 6e 84 7f be fb a0 f8 bd f3 60 22 bf
       -0.08502516 -0.24952862 -0.121400796 -0.6342918
0001c0 76 0a 0d be a5 30 e0 bb d0 9b 14 be 3d c9 bc be
       -0.13773522 -0.0068417364 -0.14512563 -0.36872283
0001d0 d5 6b 9a be a5 85 05 be 4b 6e 5e bd c6 69 76 be
       -0.30160394 -0.13039263 -0.054304402 -0.24063787
0001e0 a2 4d 88 be c5 89 4c bf 3b ed d1 be 11 11 2d be
       -0.2662173 -0.7989772 -0.41001305 -0.16901042
0001f0 fc 62 12 be 6c 4e b0 be f7 95 8a 3a 2f 7f 12 be
       -0.14295572 -0.3443483 0.0010573257 -0.14306329

fc3.weight f4 [2, 128]
000000 60 80 c6 bb 95 47 86 bd 62 3b e7 3a 31 2e 52 bd
       -0.006057784 -0.06556622 0.0017641599 -0.051313583
000010 39 bf 43 3d ed a3 a4 3e fe 8f 34 be e8 68 46 3e
       0.047789786 0.32156315 -0.17633054 0.19375956
000020 b6 e0 92 3e 86 d4 02 be 3d 2f e3 3d 5a 12 43 bd
       0.28687066 -0.12776384 0.11092994 -0.047624923
000030 2d 8d 0c bd ed ad 78 be fe bf 52 3e 17 4c 4b be
       -0.034314323 -0.24285097 0.20581052 -0.19853245
000040 45 04 da be e9 98 9e 3c b4 77 68 bd b7 af 7b bd
       -0.42581382 0.019360023 -0.056754783 -0.06144687
000050 68 69 00 bd 21 1c ec bd 1a 35 98 3e 45 b6 d0 be
       -0.031350523 -0.11528803 0.29728013 -0.4076406
000060 da 72 cc 3d af 29 a4 3d 73 5e 52 bd 37 e4 28 3d
       0.09982844 0.08015763 -0.051359605 0.041233268
000070 eb 8d 98 be 0b d5 63 3e 09 b1 b7 bd 4a 79 4c be
       -0.29795775 0.22249238 -0.08969314 -0.19968143
000080 46 e2 2f bd 72 8b fa 3d 32 70 75 be 35 91 a9 3e
       -0.0429404 0.12233628 -0.2396858 0.33118597
000090 3b e5 d0 bd fd 5e 9c 3b 98 18 93 bc 56 15 f2 bd
       -0.10199972 0.0047720657 -0.017956063 -0.11820476
0000a0 f9 8c 59 3b d3 c7 fb bd 0d 5b 4f bd 58 e3 56 bd
       0.0033195599 -0.12293973 -0.050623942 -0.052462906
0000b0 16 72 1c 3d 1b 5e c7 bc 74 d2 70 bc f2 c8 51 3e
       0.03819474 -0.024336865 -0.014698613 0.20486811
0000c0 35 5f 14 be a7 64 21 3e f1 00 c0 bc 4e 4e 9d 3e
       -0.14489444 0.15761052 -0.023437949 0.30723804
0000d0 f3 b6 fe bc e5 15 27 bd 1b 17 a1 3e f8 3f 83 3c
       -0.031093096 -0.040792365 0.3146294 0.016021714
0000e0 ec 05 c4 bd 28 65 39 bb 07 d2 42 bd 24 da cc bd
       -0.09571442 -0.0028289054 -0.04756358 -0.100025445
0000f0 f9 a8 5d bc e3 ae fa bc 70 d0 ac 3b 2a 5b a0 3c
       -0.013529056 -0.03060097 0.005273871 0.01957472
000100 ae 21 0f bd 5e 49 61 3d 05 65 95 3e ae 22 2e 3c
       -0.03494423 0.05500161 0.29178634 0.0106283855
000110 bb e3 6f be 81 27 a8 3b a9 1c 37 3e 11 c7 c9 bc
       -0.23426716 0.0051316624 0.17882027 -0.024631055
000120 9b a1 d5 bc f8 3f 63 bd f9 82 ea 3d 8b 37 66 bc
       -0.026078036 -0.055480927 0.11450762 -0.014051328
000130 14 2a 2b bf e6 82 b4 bd a8 cb ea 3d 85 72 f6 bc
       -0.6686108 -0.088140294 0.114646256 -0.030083904
000140 1a f5 bb 3c 7e a5 8b bd f5 1f a1 bc f4 53 26 be
       0.022944022 -0.068186745 -0.019668559 -0.16242963
000150 6d 19 c2 bd 10 b3 62 be 1c 44 1b bd 6b 91 82 bd
       -0.09477506 -0.2213862 -0.03790675 -0.063753925
000160 1d 30 cc bb 80 ed 1a be b1 c9 35 3e ab 8c 4a bd
       -0.0062313215 -0.15129662 0.1775272 -0.049450558
000170 55 14 cd be dd 6d 32 be 97 a0 d7 bd fd b2 ac 3d
       -0.40054575 -0.17424722 -0.10528677 0.08432577
000180 08 26 fb 3d fa 56 6b 3d eb 5b 05 bc 68 26 6a 3b
       0.12263113 0.057455994 -0.008139591 0.0035728458
000190 ff f0 a7 3d 6f be 85 3e 8d 30 0d 3f 81 71 f4 3c
       0.08200263 0.26121852 0.5515221 0.02983928
0001a0 5d 48 bd 3c 79 c2 81 3d c0 bd 4e 3b 35 10 cd bb
       0.023105795 0.06335921 0.0031546205 -0.0062580355
0001b0 8a 9a c3 ba b9 5a 89 bb 51 05 c3 3c 9a 74 80 bd
       -0.0014923376 -0.004191723 0.023806246 -0.0627224
0001c0 7a 8c 83 be 6b 16 06 3d 06 d4 c5 bd 94 07 05 be
       -0.25693113 0.032736223 -0.09659581 -0.12991172
0001d0 fa 4a 42 3d 63 e2 da bc 35 f0 c2 bc 48 08 6e 3d
       0.047434784 -0.026719278 -0.02379618 0.058113366
0001e0 4a 44 7f bd 9a 6d e0 be 05 f3 ee bd 90 1e 7b 3d
       -0.062320985 -0.4383362 -0.11667446 0.061308444
0001f0 43 15 08 3e 16 a5 57 bd d9 f0 a8 3b 33 d3 af bd
       0.1328936 -0.052647673 0.0051556644 -0.08585205
000200 55 c3 2e bf 76 62 0d bc 4b c1 18 bf 35 3a 58 3e
       -0.68266803 -0.008629432 -0.5966994 0.21115954
000210 32 39 42 bf 18 a7 b7 3d 56 9f 3c be 03 d4 3e 3c
       -0.75868523 0.089674175 -0.18420157 0.011647227
000220 9b 63 d6 be 5e 02 1d bf 24 f8 5d 3e e3 ba 33 be
       -0.41872868 -0.6133174 0.2167669 -0.1755176
000230 90 7b 4a 3e f1 f7 f1 3d a4 72 16 3d 5d b7 a4 3e
       0.19773698 0.11814869 0.036730424 0.32171145
000240 0f 19 8f 3c 6e 32 0b 3f 37 e0 cd bb 00 d4 ec 3d
       0.017468004 0.54373825 -0.006282832 0.11563873
000250 97 ac 9b 3c 6e 28 7b 3e 11 b1 ea bc 37 7a 84 be
       0.019003196 0.24527141 -0.028648885 -0.25874493
000260 56 34 1f 3e 15 4c 08 3f a5 c4 00 3f 8e 13 f3 3d
       0.15547308 0.5324109 0.50300056 0.11868964
000270 8d f6 3c be 38 bd 4a be 8f 95 31 3e 0b ca 91 be
       -0.18453427 -0.19798744 0.17342208 -0.2847446
000280 c3 08 b0 be 9d 87 41 bd ee 95 99 bd 5d e3 ea be
       -0.34381685 -0.04724847 -0.074993 -0.4587659
000290 ff f9 ef 3b 25 51 fb 3c 7d 57 43 be f2 cb ba be
       0.007323503 0.030678341 -0.19076343 -0.36483723
0002a0 4e a0 12 3e 17 80 cb 3e 49 17 e5 bd 16 8d 65 be
       0.14318964 0.39746162 -0.11186082 -0.22417101
0002b0 41 a6 bb bd f4 04 6e 3c e3 6d 00 3c 0a 6e 50 3c
       -0.0916257 0.014527548 0.007838699 0.012721548
0002c0 37 a4 b2 3e c6 ae d5 bd 97 b3 00 bb 32 c3 3a be
       0.3489091 -0.10433726 -0.0019638294 -0.18238524
0002d0 46 08 0c 3e 8a e6 94 3d 06 31 cc 3e 57 79 61 3e
       0.13675031 0.07270534 0.39881152 0.22018944
0002e0 78 a0 69 be 1b 75 f1 3e 86 e0 aa be 52 a8 da 3e
       -0.2281512 0.47159657 -0.33374423 0.42706543
0002f0 0a 54 72 bf a0 68 ad 3e f6 87 88 3c 7f 2b cc 3e
       -0.94659483 0.33868885 0.016666394 0.39876935
000300 7f 14 07 3e 3e c5 69 bf 19 21 7a 3e 8a 94 c0 3e
       0.13191412 -0.9131659 0.24426688 0.37613326
000310 a1 a0 85 be 24 5f 0b bf 5e 0a 05 be 5e c1 9a 3c
       -0.26099113 -0.5444205 -0.12992236 0.018891033
000320 6d 59 0d bf 0c 6b f8 3c f0 3d 64 3e e7 cc 67 3d
       -0.5521458 0.030324481 0.22289252 0.056591894
000330 9a e2 95 be 92 36 9c 3d 7c eb f8 3d e1 2b 75 3d
       -0.29274446 0.07627596 0.1215429 0.0598563
000340 5a a7 e0 3c 7b 76 59 3e d4 c3 eb 3d 10 3f 0d 3c
       0.02742355 0.21236603 0.115119606 0.008620992
000350 04 59 40 3e 57 aa a0 bd 4b 0a 31 3e 8b db 83 be
       0.18783957 -0.0784499 0.17289083 -0.25753435
000360 b3 38 6d 3e a1 44 29 3d fc 40 45 3e ea 82 b3 3e
       0.2316616 0.041325215 0.19263071 0.35060817
000370 6d 72 c5 be c5 88 8f 3e 0c bf 95 be b3 66 e3 3f
       -0.38563862 0.28034034 -0.2924732 1.7765716
000380 ad 69 0d bf a4 9b 38 3f 2c d3 ea 3b b9 1d f3 be
       -0.55239373 0.7211249 0.007166287 -0.47483614
000390 22 77 18 3d 33 16 55 3e b0 80 1a bf 76 a4 11 bc
       0.03722299 0.2080925 -0.6035261 -0.008889308
0003a0 f3 c1 84 be 6e d4 25 3e f8 13 51 bf ee 7a fc 3c
       -0.25929222 0.16194317 -0.81671095 0.030820336
0003b0 a3 e9 a0 3d 34 57 94 3d 0b 68 27 3e 4c 6f 1f 3e
       0.07857063 0.07243195 0.16348283 0.155698
0003c0 68 4a 57 3e c5 b6 ea be 49 41 0a bd 2e aa a7 bd
       0.21024477 -0.45842567 -0.033753667 -0.08186756
0003d0 da 3a cd be f3 bd 74 3e e8 2d 66 3c a7 4f f8 bb
       -0.40083963 0.23900585 0.014049031 -0.0075778547
0003e0 bd 82 c2 bd b9 82 00 bf eb be 1e 3e 17 9e d8 be
       -0.094975926 -0.50199467 0.15502517 -0.42308113
0003f0 62 b1 a7 be af 96 be bd 06 ab da 3e 90 0f 17 bf
       -0.3275252 -0.09306084 0.42708606 -0.5900812

fc3.bias f4 [2]
000000 50 18 71 3d ed 71 03 3f
       0.058861077 0.5134571
