results/results_5/agent1_actor.pth (torch, 185131 bytes, 6 tensors)

fc1.weight f4 [256, 48]
000000 26 43 b5 3e 80 e2 86 bf 5e 5f 05 3e 68 b6 02 3e
       0.35402793 -1.0537872 0.13024661 0.12764895
000010 8d 64 10 3e fc ed 23 3f b8 8c 0a 3e d4 56 39 3e
       0.14100857 0.6403501 0.13530242 0.18099529
000020 ba 33 55 3e 11 91 7a bf af 3c 91 be a3 7f e1 3d
       0.20820513 -0.97877604 -0.2836661 0.11010673
000030 83 8d 58 be cf 32 d3 3f 6b 29 63 be 65 a9 4d 3e
       -0.21147732 1.649988 -0.22183768 0.2008415
000040 e8 c3 8f 3e ce 53 6a bf 78 13 98 3e 81 8f 05 bf
       0.28079152 -0.91534126 0.29702353 -0.52172095
000050 04 6f e9 be 9d 41 16 40 fe d0 ab 3e 2a 3b e7 be
       -0.4559251 2.3477547 0.33557886 -0.45162326
000060 6b 96 2c be a2 87 61 3e 16 e2 ac bd c8 e3 8f be
       -0.16854255 0.22024396 -0.0844156 -0.2810347
000070 7e c4 12 be 26 63 16 3f 4e 17 2a 3c 4c 11 8d be
       -0.14332768 0.5874504 0.010381533 -0.2755226
000080 62 00 0a be 76 f0 0e 3e 81 6e 00 3e 88 c7 84 be
       -0.13476709 0.13958916 0.12542154 -0.2593348
000090 12 22 44 3e 95 6b d3 3f de 95 bd 3d aa 64 59 be
       0.19153622 1.6517206 0.092571005 -0.21229807
0000a0 03 dc 90 bd 85 b5 b0 3e 78 44 5f be 6e 14 1e be
       -0.07073214 0.34513488 -0.21803463 -0.15437481
0000b0 4e 20 ee 3e 8d 93 16 40 fc 7e 2f be 21 14 fa bd
       0.46509022 2.3527558 -0.17138284 -0.122108705
0000c0 55 b7 f2 3e d1 ef 41 be 75 22 b9 3d 8c 72 6b 3e
       0.47405496 -0.18939139 0.09039775 0.22992915
0000d0 4c a5 66 bc 12 7c 14 be f5 a7 fc 3d fe f4 81 3e
       -0.014077496 -0.14500454 0.12336723 0.25382227
0000e0 0e 29 91 3e 05 fe af be a2 92 cb 3e 6f 77 2d 3f
       0.28351635 -0.3437349 0.3976031 0.67760366
0000f0 4c 9e 0f bf 9f 4d 67 3f 84 3d f9 3e 43 6c 37 3f
       -0.56100917 0.90352815 0.48679745 0.7164957
000100 36 0c b6 bd 99 5c 04 bf 2a 1c e1 3d 60 60 ef 3e
       -0.08889048 -0.5170379 0.109917 0.46753216
000110 dc 9b 50 bf 5c 6d f7 3f 70 a2 c3 3d 2b 6c d8 3e
       -0.8148782 1.9330249 0.09552467 0.42270026
000120 51 e5 3d 3e d9 e9 2a bf 45 17 b5 be 4c 38 8e bf
       0.18544509 -0.66763073 -0.35369316 -1.111093
000130 1c b4 08 bd a0 fb 19 be 33 13 b7 be 18 8e 94 bf
       -0.03337489 -0.15037394 -0.35756835 -1.1605864
000140 30 ea cc 3d fb 52 90 bf 27 44 03 3f f0 29 3e bf
       0.10005605 -1.1275324 0.5127587 -0.7428274
000150 cc 50 0e 3f 9f 9c 4b 3f 6f c6 f8 3e 9a f2 4e bf
       0.55592036 0.7953586 0.48588893 -0.8083893
000160 47 18 25 be e8 30 c2 bf 98 18 29 3d be ff fc be
       -0.16122542 -1.5171175 0.04128322 -0.49413866
000170 7c 2d 36 3f ca 98 fa 3f 03 cd f1 bc ac a2 e8 be
       0.71163154 1.9577878 -0.029516703 -0.4543661
000180 1c 36 09 3e d1 b4 c1 be 58 21 8c be c0 19 08 3b
       0.13399547 -0.37833264 -0.2736919 0.0020767301
000190 16 c1 9c be 06 2c 77 bf d2 5c 9a be ea 56 c2 3d
       -0.30616063 -0.9655155 -0.3014894 0.09489234
0001a0 23 81 21 3e fc a4 d9 be e4 4a fa bd e1 e8 48 3e
       0.15771918 -0.42508686 -0.122213155 0.19620086
0001b0 b9 aa 6a be 88 43 01 bf 4a 9a 1c be 02 bf e9 3d
       -0.22916688 -0.5049367 -0.15293232 0.11413385
0001c0 34 45 0a 3e ce 06 d0 be 91 45 b7 3d 6c 10 b1 3e
       0.13502961 -0.40630192 0.089488156 0.3458284
0001d0 ed b2 c9 bd cf 90 d0 be 77 1e 97 3d 7e a6 b8 3e
       -0.098485805 -0.4073548 0.073788576 0.36064523
0001e0 dc bf 11 3d b3 10 a7 bf aa 3c d0 be ed b5 a7 bf
       0.035583362 -1.3051971 -0.40671283 -1.3102394
0001f0 e1 89 8a 3e 48 57 77 bf 7c 57 ad be 75 b5 aa bf
       0.27058318 -0.96617556 -0.33855808 -1.3336626
000200 79 ba c5 bb 84 e8 bf bf 81 52 68 3f be 04 67 bf
       -0.006034192 -1.4992833 0.9075089 -0.9024161
000210 41 03 3c 3e e8 e7 f9 be d2 22 78 3f cb 1a 80 bf
       0.18360616 -0.48809743 0.9692813 -1.0008177
000220 0d 46 0d 3d f3 8d d2 bf da e6 54 3e 3f 32 f1 be
       0.034490634 -1.644957 0.20791188 -0.47108647
000230 b1 9d a9 3d 5d f8 e1 be 68 06 a1 3e 80 b9 00 bf
       0.082820304 -0.441348 0.314502 -0.5028305
000240 ba 0b ed 3e 3d da c2 be 92 94 e3 3e 62 c7 64 bf
       0.4629801 -0.38057128 0.44449288 -0.89366734
000250 c0 fe bd be 55 c8 56 3e 2a 07 fc 3e 41 96 75 bf
       -0.3710842 0.20974858 0.49224216 -0.95932394
000260 c7 40 f5 3e 77 a2 0b bf d1 a7 23 3f 5a 99 32 bf
       0.47900984 -0.54544777 0.6392794 -0.69765246
000270 f0 0d 0a bf 81 76 ae 3f a7 e9 1d 3f 1e ca 2c bf
       -0.53927517 1.3629915 0.6168465 -0.67495906
000280 a4 a1 e9 3e 82 b7 2b bf f7 c0 95 bd 81 d6 a8 be
       0.45631135 -0.67076886 -0.07312196 -0.32976153
000290 56 d2 1f bf 7b 51 28 40 91 3a 2b be f1 18 9e be
       -0.6243032 2.6299732 -0.1672156 -0.30878404
0002a0 9d b9 98 3e e7 84 00 be 77 5f 88 3e d3 64 11 3e
       0.29829112 -0.12550698 0.26635334 0.14198618
0002b0 5e a0 8b 3e d6 0d 30 3e 60 71 96 3e 57 a0 0e 3e
       0.27270788 0.17192778 0.29383373 0.13928352
0002c0 76 eb 92 3e d1 ef 1f be 22 03 b1 3d 6f 28 e0 3e
       0.28695267 -0.15618826 0.08643176 0.43780848
0002d0 51 db 11 3f 4d c3 a8 3f 08 58 f7 3d 55 bb be 3e
       0.56975275 1.3184601 0.120773375 0.37252298
0002e0 5b 14 64 3e 53 14 5b bd 4a a8 97 3d fe 38 e5 3e
       0.2227339 -0.05348618 0.074051455 0.44770044
0002f0 e4 fe 2e 3f 3d 6a 2f 40 4b 9b 23 bc 7e c1 de 3e
       0.6835768 2.7408593 -0.009985755 0.43506998
000300 0c b1 9c 3e 14 1f b1 bf 1a e1 13 3d 50 45 b2 be
       0.30603826 -1.3837609 0.036103345 -0.34818506
000310 14 65 0b be f7 6d 54 3f 37 9d d2 3d a5 9b bf be
       -0.13612777 0.82980293 0.102838926 -0.37423435
000320 dd 52 c3 3e eb 42 a0 bf 6b 5e 9d 3c a5 12 0a 3f
       0.38149157 -1.2520422 0.019210061 0.539347
000330 25 ca 97 be ba e8 03 40 05 8c 44 bd 2a 6f 14 3f
       -0.29646412 2.0610795 -0.047985096 0.5798212
000340 d8 30 8b 3e e9 db 85 bf 0a 27 04 3d ac ac f2 3e
       0.27185702 -1.0457736 0.032263793 0.47397363
000350 4d 9f d0 be 08 9c 58 40 ac f0 98 3d c3 c6 d0 3e
       -0.40746537 3.3845234 0.074677795 0.40776643
000360 8b 39 21 3e 8a a2 cd 3d aa 62 2c 3e 38 aa d9 bc
       0.15744607 0.100407675 0.16834512 -0.026570424
000370 3e 2c 86 3d 21 e6 5d 3f 88 4f 69 3e b3 f3 bf 3d
       0.06551407 0.86679274 0.22784245 0.09372654
000380 77 85 fa 3d 63 2f dd 3c c6 26 85 be 97 23 c7 3e
       0.12232488 0.027000135 -0.26006144 0.3889434
000390 d7 60 94 3e 67 51 fe 3f 51 e8 52 be 6f 60 a7 3e
       0.28980133 1.9868592 -0.20596434 0.3269076
0003a0 4d 8f 81 3d c3 7b 43 3e 94 a8 9c be 95 3c a0 3e
       0.063261606 0.1909018 -0.30597365 0.3129622
0003b0 8d 54 ee 3e 04 fa 56 40 2c 91 79 be 37 c4 84 3e
       0.46548882 3.3590097 -0.24371785 0.2593095
0003c0 80 81 46 bf 53 55 2d 3f 14 83 a5 bd ad bc 55 bd
       -0.7754135 0.6770832 -0.08081642 -0.05218189
0003d0 27 65 24 bf e8 3e bd 3e e1 59 82 bd 09 c0 5b bd
       -0.64216846 0.36962056 -0.06364799 -0.053649936
0003e0 1e df 99 be fc 25 16 3f 1b c6 11 bf 36 5f 0f bf
       -0.30053037 0.5865171 -0.5694291 -0.56004655
0003f0 33 60 7c 3f ea 9d a7 3e 69 00 17 bf 6f 6b 10 bf
       0.9858429 0.32737666 -0.58985 -0.5641393

fc1.bias f4 [256]
000000 d7 94 78 bd f1 19 d1 3d 34 cc 16 be 77 ab ba be
       -0.06068882 0.10210026 -0.14726335 -0.36458942
000010 6d 71 6e be e2 d5 f6 bd 2e 0f fa be 1f 27 3c 3f
       -0.23285456 -0.12052514 -0.48839706 0.73497194
000020 8d 1f d1 3e 71 e1 e8 3e 87 9f e6 bd f2 14 f3 bb
       0.40844384 0.45484498 -0.11260896 -0.0074182684
000030 07 a4 25 bd ea 54 cf 3b 7e b7 6a be c1 01 9f 3d
       -0.04043963 0.006327261 -0.22921559 0.077640064
000040 5d 86 22 3f 3a 34 ba bd 29 1d a6 be 04 ed 3d be
       0.6348627 -0.09091993 -0.32444122 -0.18547446
000050 d5 55 9b 3d 9b 57 16 bf 1b 6b fa 3e f7 c2 d2 3e
       0.075847305 -0.58727425 0.4890984 0.4116437
000060 da 7c a6 3e ee 00 02 bf 01 59 ff 3b 73 9d 1d 3e
       0.3251713 -0.5078267 0.0077925925 0.15392093
000070 39 52 e7 bd 49 66 b8 be 35 ba b4 be 0e 83 16 bd
       -0.112949796 -0.36015537 -0.35298315 -0.036746077
000080 48 b4 d7 bd ba fc 0b 3e 96 bb 1f be 42 32 a6 be
       -0.10532433 0.13670626 -0.15598902 -0.3246022
000090 6d 60 9d be 3e 43 cc bd af a8 6a be 94 7d e1 bc
       -0.3073763 -0.09973763 -0.2291591 -0.0275257
0000a0 4e 02 6f 3e 4d 2b 89 be d9 0c 25 3f e2 94 8c be
       0.23340723 -0.26790848 0.6447273 -0.2745734
0000b0 0d 95 95 be a2 7e 88 be a5 ef 73 be 72 49 30 be
       -0.2921528 -0.26659113 -0.23821886 -0.17215517
0000c0 e5 e2 e5 bd c6 ae 3a bd c1 bd e2 be b1 3b 6c be
       -0.11224917 -0.045576833 -0.44285396 -0.23069645
0000d0 86 8e d6 3e 9a e8 af 3e 5d 9f 83 be 09 66 af bb
       0.41905612 0.34357148 -0.25707522 -0.0053527397
0000e0 37 03 bc 3d 03 83 65 be 3b 11 b4 bd 41 65 37 3f
       0.09180301 -0.22413258 -0.08792349 0.71638876
0000f0 a3 ae a4 bd 12 b1 e9 bd 18 db 4c be 6c 92 c9 be
       -0.08041122 -0.114107266 -0.20005453 -0.39369524
000100 cd 26 bf 3c a6 3b 2d be 69 fd 4a be 81 11 06 3e
       0.023333931 -0.16917285 -0.19823231 0.13092615
000110 ad 71 8b be f0 b4 77 3c ae 4b 0a 3e d3 72 2e be
       -0.27235165 0.015118822 0.13505432 -0.1703599
000120 a9 03 0d 3e 9f 06 d9 bc 11 14 81 be aa af ab 3d
       0.13770927 -0.026492415 -0.25210622 0.08383115
000130 a7 b1 c8 bd 81 32 f4 3e e9 d1 e1 bd 0a 44 80 be
       -0.097995095 0.4769478 -0.11026365 -0.2505191
000140 e1 89 cb bd c2 6f a1 3e 3d 1a 0f be e8 d1 87 be
       -0.09938408 0.31530577 -0.13974853 -0.26527333
000150 e1 66 07 3e 39 a3 69 be 0c 94 be be a0 cf 54 be
       0.13222839 -0.22816171 -0.37222326 -0.20782328
000160 96 f7 58 3f 71 53 14 be 9b f6 b5 be 27 d6 d9 be
       0.84752786 -0.14484955 -0.35539708 -0.42546198
000170 5e 92 92 3d 86 36 ad bd 50 30 0f be 76 66 ca bd
       0.071568236 -0.08457665 -0.13983274 -0.09882824
000180 79 56 c7 3c 65 66 a0 be 4d 14 ba 3c 58 d0 c8 3d
       0.024333226 -0.3132812 0.022714758 0.098053634
000190 6b e9 24 bd f0 c5 ee be 96 b4 e4 3d 0e 34 db 3d
       -0.040261667 -0.4663539 0.111672565 0.10703288
0001a0 56 08 a6 3e e6 cd b9 bd 23 40 ca 3e 52 00 77 be
       0.32428235 -0.09072475 0.39502057 -0.24121216
0001b0 18 e3 08 be 40 ca 19 be 39 7a 88 be 3a 79 97 3e
       -0.1336788 -0.15018559 -0.26655748 0.29584676
0001c0 df c4 8c be 24 24 92 be a8 d8 d9 be d2 f0 57 be
       -0.2749395 -0.28543198 -0.42548108 -0.2108796
0001d0 df ae d0 3c 52 02 14 3f 61 26 43 3d 9c d2 8e 3e
       0.02547401 0.5781604 0.047644023 0.27895057
0001e0 e6 56 86 be 43 ac d0 bd b0 83 46 be a9 c7 2b 3d
       -0.26238173 -0.10189106 -0.19386172 0.041938458
0001f0 8d 5e 12 be 25 cc c7 3d c6 21 26 be 3c ce b9 bd
       -0.14293881 0.09755734 -0.16223821 -0.09072539
000200 ac 3d 88 bc f7 97 64 bc 79 5a 04 be 51 b5 b3 be
       -0.01663097 -0.013952247 -0.12925138 -0.3509927
000210 e7 ce 11 3f 07 a9 5f be 5c 0f 86 3d 97 bc 18 3d
       0.5695633 -0.21841823 0.06545898 0.03728923
000220 3f 2f 23 3f af d8 2e be db 41 a4 3e 72 fd ec 3e
       0.63743967 -0.17074846 0.32081494 0.46287113
000230 f9 8a 62 3d a7 11 a6 be 5f d4 db bd a0 3e df 3e
       0.055308316 -0.32435343 -0.10733866 0.43602467
000240 f0 b6 82 bc ff 4c 63 be d9 5a 4d 3c 56 fe 24 be
       -0.015956372 -0.2219734 0.012533867 -0.16112646
000250 55 7e 30 be 94 44 30 bd ff fc 38 be eb be e1 3e
       -0.17235692 -0.04303415 -0.1806526 0.4409097
000260 78 ec 72 be 22 79 24 3d f3 c0 90 3e af 38 62 be
       -0.23723018 0.040154584 0.2827221 -0.22091936
000270 31 3c cc be c9 27 8c be f5 ff c0 3d e4 c8 00 3f
       -0.39889672 -0.27374104 0.0942382 0.50306535
000280 b0 e7 3d be 04 9d 22 bc 6c 6c 07 3e 93 c4 c4 be
       -0.18545413 -0.009925131 0.13224953 -0.38431224
000290 f1 57 8d be 65 b9 e1 bd 28 a7 ae be 23 a8 48 bd
       -0.27606156 -0.11021689 -0.34111905 -0.048988473
0002a0 be af bd be 96 1f 41 be 8d dd b0 be 84 e4 2c 3e
       -0.37048143 -0.18859705 -0.3454403 0.16884047
0002b0 cb d7 23 be 2f 52 39 be cd d6 83 be f0 1b d7 3e
       -0.16000287 -0.18097757 -0.25749817 0.42013502
0002c0 d7 4b 3e be de 14 7e be d6 31 fd bb 03 b9 9c be
       -0.18583618 -0.24812648 -0.007726888 -0.30609903
0002d0 8d 70 26 3f 33 27 8c 3e 1b 04 53 be 8c 7a 1d 3e
       0.6501549 0.27373657 -0.20607035 0.15378779
0002e0 12 50 30 3e e5 44 82 be 66 c7 e4 3d fa e0 cf 3e
       0.17218044 -0.25443187 0.11170845 0.4060133
0002f0 70 4a 91 bb 47 5c db bd e8 0e c5 3e 89 d7 41 bd
       -0.0044339225 -0.1071096 0.38487935 -0.04732469
000300 f0 73 7b be 86 16 71 bd d2 49 57 3d ee 9f 89 3d
       -0.24555945 -0.05885937 0.052560635 0.06719957
000310 70 04 2a be ed 28 f8 be 41 f1 ce bd ce 3d a0 bd
       -0.16603255 -0.48468724 -0.10104609 -0.07824288
000320 a9 35 0f be 64 08 55 be 51 bf 03 be a6 78 a8 be
       -0.13985313 -0.20803982 -0.1286595 -0.32904547
000330 9e b1 36 be fc 33 6f 3e 89 a6 62 be 69 44 ab be
       -0.17841193 0.23359674 -0.2213384 -0.3345063
000340 06 59 22 3f 72 f4 6a 3d 61 62 3c be b3 54 46 3c
       0.6341709 0.057362027 -0.18396904 0.012105155
000350 c2 b2 b0 3d 9e 80 d5 be f5 03 1d 3e c5 01 0b 3f
       0.08627845 -0.4169969 0.1533354 0.54299575
000360 fc bf 3e be 6b 4b 23 bd 31 f2 b9 be 65 36 4c be
       -0.18627924 -0.039866846 -0.3631759 -0.19942625
000370 f3 eb 53 3e 94 2b c5 be f1 16 5c be d6 f9 bc 3e
       0.20695476 -0.3850981 -0.21493126 0.3690936
000380 f2 4e 2e be 8b 4f 18 be 2e 53 e0 be 45 dd d2 bd
       -0.17022303 -0.14874093 -0.4381346 -0.1029611
000390 a9 8f 4b bd 5b 93 98 3e 90 36 bb bd d9 d8 2e 3f
       -0.049697552 0.29799923 -0.09141266 0.68299633
0003a0 80 5c 3c bd 78 9c 56 be 12 1f 24 be ac 14 15 be
       -0.045986652 -0.20958126 -0.16027477 -0.14558667
0003b0 57 b1 03 be ea 75 6d be 5c bf 02 bc 8a 94 02 be
       -0.12860619 -0.23189512 -0.007980194 -0.12751976
0003c0 18 64 ff 3e 74 67 99 be 01 e2 87 be 93 05 a2 3e
       0.49881053 -0.2996174 -0.26539615 0.31644878
0003d0 28 4f 1b bd 92 53 48 be 49 e3 90 be 0d 43 93 b9
       -0.037917286 -0.1956313 -0.28298405 -0.00028087982
0003e0 45 03 d2 be 87 f3 1f 3f 53 f0 c0 be 07 28 e8 be
       -0.4101812 0.6248097 -0.37683353 -0.45343038
0003f0 94 9d 87 bc 30 34 d0 be 3a 1f 43 be 04 46 cc 3e
       -0.016554631 -0.40664816 -0.1905488 0.39897168

fc2.weight f4 [128, 256]
000000 ef ec 80 bd 3a b6 93 3d 6d 9c c3 3d 0b af b3 bd
       -0.062951915 0.07212491 0.0955132 -0.08773621
000010 2f d1 4b bd 7c 21 ab bd ae 15 3d 3a 03 00 ae bd
       -0.04976004 -0.08355996 0.00072130084 -0.08496096
000020 8e a5 d8 bd 3c f5 27 be c1 6c 3c bd 6d 59 08 bd
       -0.10578452 -0.16402143 -0.046002153 -0.033288408
000030 4c 90 fb bc b6 df d1 bc 44 04 a9 3d fa c5 5c bd
       -0.030708455 -0.025619369 0.08252767 -0.053899743
000040 db ab 0e be 86 22 b0 bd e7 11 e6 bd 6c ba 58 bd
       -0.13932745 -0.08600335 -0.11233883 -0.05291216
000050 7f 0d 33 bd cd 62 8d 3a 00 04 7f bd da 75 90 3c
       -0.043714043 0.0010786891 -0.062259674 0.017634321
000060 88 f4 ac bd 39 08 74 bd dd 0b 5c 3c 40 c4 67 3c
       -0.08445078 -0.059578154 0.013430563 0.014145911
000070 d6 d1 9e bd 5c c1 73 be 55 93 29 bd 5c ea b9 bd
       -0.07754867 -0.2380423 -0.041400272 -0.09077904
000080 20 00 b1 3d ae 56 35 bd ff e4 10 be 64 e1 af bd
       0.08642602 -0.044272117 -0.14149855 -0.08587912
000090 26 44 91 bb 99 35 25 bd 57 62 92 3d 64 70 45 bd
       -0.0044331728 -0.040334318 0.07147663 -0.048202887
0000a0 83 4e a9 bd d8 d7 01 3e 85 1a fe bd 32 64 14 bd
       -0.08266928 0.12679994 -0.12407402 -0.036228366
0000b0 25 ce 1f bd 2a 8b 47 bd 9f 0e 4d bd 9a 9f 01 3e
       -0.039014954 -0.0487167 -0.050062772 0.1265854
0000c0 57 ff 38 38 9e 88 ed bc 21 5f 39 3d ab 12 2c bd
       4.4106822e-05 -0.028995808 0.045256738 -0.04200999
0000d0 5b 2e ad 3c 64 37 99 bd 95 eb d9 bc b4 1c 34 3d
       0.021140268 -0.07481268 -0.026601592 0.043972686
0000e0 4a c3 a6 3d 13 d5 e5 bd 75 81 1e be 60 d7 8d bc
       0.08142717 -0.11222281 -0.15479071 -0.017314613
0000f0 fb 0f 72 3c e2 80 e6 bd 3a 15 0a bc b5 8a ea bc
       0.014774318 -0.11255051 -0.008427912 -0.028630594
000100 19 62 c2 3b fb 7e 04 3d 44 e1 00 bd 9d e6 48 bd
       0.0059321043 0.03234766 -0.03146483 -0.049048055
000110 a8 6f 7a bd 2d 08 ca 3c 64 6b 7a bd 97 ae 59 bd
       -0.06114164 0.024662102 -0.061137572 -0.053145017
000120 2b 6d 8a 3d fd 2f 8e bc bd 90 c6 3b 6d 40 4a bd
       0.067591034 -0.017356867 0.0060597346 -0.049377847
000130 ad 27 de bc 78 58 5b b9 85 32 14 bd 94 6b 8d bd
       -0.027118528 -0.00020918425 -0.03618099 -0.069052845
000140 18 16 fc bc 28 42 2a bc f1 2d 5c 3c 4e 6c 7e 3d
       -0.030772254 -0.010391749 0.013438688 0.062115006
000150 7e 11 a0 3c 4c 0e a6 3b d5 ba 0c bc c1 3d 07 3d
       0.01953959 0.0050676223 -0.008589466 0.033017877
000160 2c 8d 05 be e5 1e 16 3b 4f 44 d6 bd 8c 96 71 bd
       -0.13042134 0.0022906598 -0.104622476 -0.058981463
000170 1a 21 2a be 52 90 91 bd b5 95 c1 bc 12 21 48 bc
       -0.1661419 -0.07107605 -0.023630956 -0.012214916
000180 d2 dd b9 bd 1a 74 ae bb be 8a d1 3b 49 ef 5d 3d
       -0.09075512 -0.005323899 0.006394713 0.05418328
000190 74 03 13 bd 60 5c 17 3d 71 73 ed 3c b0 b8 8a bd
       -0.035891965 0.03695333 0.02898571 -0.067735076
0001a0 41 e4 94 bd 52 ca 21 3d de 80 0e 3c c6 f8 80 bd
       -0.072700985 0.03949959 0.0086977165 -0.0629745
0001b0 9d ed 15 bd 39 d7 5c bd 59 7f d5 3d ae 87 53 3d
       -0.03660356 -0.05391619 0.1042468 0.051643066
0001c0 0f a0 9d bd 98 28 ad bd 37 af bc 3b 93 6e 0a bd
       -0.076965444 -0.08455008 0.005758192 -0.033796858
0001d0 4f e8 00 be 66 95 27 bd c4 54 8f bd f6 9c df 3c
       -0.12588619 -0.04091396 -0.0699859 0.027296524
0001e0 5e c0 8a bc c6 e1 30 bd 9a 88 4b be 81 ea 93 bc
       -0.016937431 -0.043184064 -0.19876328 -0.018056156
0001f0 45 22 ab 3d 8a 53 02 bd c8 b4 76 3c 48 ac 61 bd
       0.08356146 -0.03181795 0.01505775 -0.05509594
000200 46 27 28 bd 0f ee a4 bc 85 f1 f7 bc ec b3 f2 bd
       -0.04105308 -0.020133046 -0.030266533 -0.118507236
000210 16 83 05 be 7e d9 88 3d d4 f7 54 3e 18 5b b2 bd
       -0.13038287 0.06682108 0.20797664 -0.08708781
000220 b0 d9 75 bd 1b a6 0b be 8c 8e 15 3b 65 e6 8e bd
       -0.060022056 -0.13637583 0.002282056 -0.06977538
000230 b2 b8 06 3c 46 b1 bb 3d 20 17 91 3c f8 ca a3 bd
       0.008222746 0.091646716 0.017711222 -0.079976976
000240 a6 91 f2 3d e7 4d 25 3d 8e c1 0b bd 34 e6 f0 bc
       0.118441865 0.040357497 -0.034120135 -0.029406644
000250 3d ab a3 3d d9 fb 24 bd 6d ba c8 3c 84 99 19 be
       0.079916455 -0.040279243 0.024502957 -0.14999968
000260 a6 b9 85 3d 8c 02 5a bd 9e 0a 8f bd dc f8 49 3d
       0.0652955 -0.053225085 -0.06984447 0.049309596
000270 4c ae d1 bd 4f 20 76 3d 48 94 43 bc bb 61 39 be
       -0.102383226 0.060089406 -0.0119372085 -0.18103687
000280 36 2c 6f bd c1 ba 88 3b e2 2e 41 bd 90 9f 03 bc
       -0.058391772 0.0041726534 -0.04716385 -0.008033648
000290 d1 f7 0d 3d 3c 5a 79 bd ac 2d 84 3d 7b 61 bd 3d
       0.034660164 -0.06087707 0.06454024 0.092471085
0002a0 77 73 fd bc f1 d0 95 3b b4 8f e7 bc 9a 68 92 bd
       -0.030938847 0.004572027 -0.028266765 -0.071488574
0002b0 f5 62 f6 bb 28 37 05 be 44 49 da 3d bf 6a 12 bd
       -0.007519121 -0.13009322 0.106585056 -0.035746332
0002c0 4e 33 02 3d 29 86 81 bd 0e 62 fc 3c 5c c3 04 3c
       0.03178721 -0.06324417 0.030808475 0.008103218
0002d0 71 59 36 3c 03 99 2a 3d 87 b1 3f bc ac 65 a4 3d
       0.011129723 0.04164983 -0.011700041 0.08027205
0002e0 55 80 eb bb 9f 77 21 bd 2c 86 27 3d ab 9c b9 bd
       -0.007186929 -0.03942072 0.04089944 -0.09063085
0002f0 64 db bb bd 5f 43 2b 3d 35 17 0a 3e 6f 11 46 bd
       -0.09172705 0.041812297 0.13485415 -0.04835647
000300 3a c4 85 bd 5b 13 2e bd cd 7a 93 3c e1 1f 80 3b
       -0.06531568 -0.042498928 0.018002892 0.0039100503
000310 e2 a4 92 bd 02 9f 78 bd 81 90 46 bc 4f bb cb bd
       -0.07160355 -0.060698517 -0.012119413 -0.09947836
000320 b2 7c 71 bd 5b cd 9e bd 3b d0 4c 3d fc ce 29 bd
       -0.05895681 -0.07754012 0.05000327 -0.04145716
000330 b1 e6 06 3d de 7b 5d bd 15 b0 16 bc f7 13 b4 3d
       0.03293485 -0.054073207 -0.009197255 0.087928705
000340 24 40 1e bd cd c7 a2 3d f8 c2 e9 3c 90 46 27 3c
       -0.038635388 0.07948265 0.028535351 0.0102096945
000350 5a 9c 92 bd 06 c4 eb bb 9a 5d 39 bb f1 51 a1 bc
       -0.07158728 -0.0071949987 -0.002828455 -0.019692393
000360 73 4f bf 3c f0 df 92 3d 78 fe cf 3c ac 0e 29 be
       0.023353314 0.07171619 0.025389895 -0.16509503
000370 d6 32 14 3d 8f 04 ab bd 9f f5 30 3d 1b 5c 91 bd
       0.036181293 -0.08350479 0.043202993 -0.07097646
000380 b5 4c b9 bc 35 e0 39 bd dc 61 ae 3d b5 b0 45 bd
       -0.022619585 -0.045379836 0.08514759 -0.048264224
000390 ba cf 22 bd 01 a9 8d bd c0 53 af bd 92 e8 0d bc
       -0.039748885 -0.069170006 -0.08560896 -0.008661406
0003a0 3d 5d d5 ba 14 d3 17 3e 2a 46 e3 bc 1c c5 8a 3d
       -0.0016278398 0.14826614 -0.027743418 0.06775877
0003b0 65 11 cf bc 03 9c 09 bd 25 88 cb bc ac 07 25 3e
       -0.025276849 -0.03359605 -0.024845192 0.16116208
0003c0 db 5e 0f 3d 15 da 31 be 3d 5d 0a bd e4 09 0b 3d
       0.03500257 -0.17368348 -0.033780325 0.03394498
0003d0 ed a1 37 be 6a f4 80 bd cb 46 53 3d 19 d0 fb 3c
       -0.17932864 -0.06296618 0.051581185 0.030738877
0003e0 be 02 f1 bd 37 05 73 bd da 5a 88 bd 93 46 25 3d
       -0.11768101 -0.059331145 -0.066579536 0.040350508
0003f0 90 eb 8a 3d 17 fb 8f 3c ab 53 0d be 33 83 bf 3c
       0.06783211 0.017575784 -0.13801448 0.02337799

fc2.bias f4 [128]
000000 dd c8 03 bc 21 a3 af 3b 68 ab d3 bc ed 27 3a bf
       -0.008043495 0.0053600227 -0.025838569 -0.7271717
000010 16 26 c5 3d a7 ca 85 be d2 0b 44 3e f0 96 3b bd
       0.09626405 -0.26131174 0.19145134 -0.045798242
000020 4d 86 c1 3c 67 0f 44 3f 2d 5b f7 be 23 90 63 bd
       0.02362361 0.76586 -0.4831175 -0.05555738
000030 2d 6c 84 bd b4 c4 d8 be 34 e7 90 bd a3 81 ab be
       -0.064659454 -0.42337573 -0.070753485 -0.33497342
000040 1b 3b 31 bd a2 37 62 bd eb 0a df be d9 f4 1c be
       -0.043269258 -0.055228837 -0.43563017 -0.15327777
000050 f1 06 2b bd 7d 11 18 3c 7f c2 32 bf 1c 39 ae 3c
       -0.041754667 0.009281513 -0.6982803 0.021267466
000060 e8 65 f1 3e 05 e0 d7 bd 46 08 54 bd 70 50 c7 bd
       0.4714806 -0.10540775 -0.051765703 -0.09732139
000070 e4 a1 23 be cb 6b 9a bd f0 2d 1f be f7 0b 3d bd
       -0.15979725 -0.07540091 -0.15544868 -0.04615399
000080 24 64 98 bd ec 32 5f be 64 75 be be ad 99 21 bf
       -0.07440975 -0.21796769 -0.37198937 -0.63125116
000090 61 5c da be bd 1a c4 bd 95 09 fe bd 87 14 e1 be
       -0.42648605 -0.095754124 -0.124041714 -0.43960974
0000a0 96 9c d8 be 50 23 2a bf d8 2f 1a be ea ca 1f bf
       -0.42306966 -0.6646013 -0.15057313 -0.62419
0000b0 8c e5 8f be c3 a4 d3 bd 94 c6 28 bd a3 70 de bd
       -0.28104818 -0.1033416 -0.041205004 -0.108613275
0000c0 6a 2b 71 bd a1 89 b6 bd 92 0b 9b 3d 77 3e a2 bc
       -0.058879294 -0.089129694 0.07570566 -0.019805176
0000d0 b7 80 5a bd 6b b9 09 be 4e 0c da be c3 ee 0e be
       -0.05334541 -0.13449638 -0.42587513 -0.13958268
0000e0 4e d5 9d bd d9 86 de be 3a 7a f8 bd 37 df ce be
       -0.077067 -0.43462256 -0.12132688 -0.40404674
0000f0 b8 f0 80 3d d9 37 57 3f e5 0a 89 bc 83 42 7c be
       0.062959135 0.8406959 -0.016728828 -0.24634747
000100 54 66 af be 55 4c 3c 3c f7 85 e8 be ea d3 43 3d
       -0.34257758 0.011492808 -0.45414707 0.04780952
000110 f1 84 73 3b 74 7f 60 bc 6c 82 5b ba 0e 31 7e bd
       0.0037158097 -0.013702262 -0.00083736214 -0.0620585
000120 fe 34 64 3e 4d c1 0a bf 1f 06 c1 be 6a 92 0e bf
       0.2228584 -0.54201204 -0.37699983 -0.5569216
000130 9a c4 01 3d e8 9c 10 be 47 64 0b bf 62 fb 82 bd
       0.031681634 -0.14122355 -0.54449886 -0.06395604
000140 f7 d7 33 bd 5b 8e b0 bb ab 8f 2e 3d a4 1c f0 be
       -0.043907132 -0.005388064 0.04261748 -0.4689685
000150 2d 1d 8c bd 02 fa 96 be 37 64 e3 be fa 45 33 bd
       -0.06841502 -0.29487616 -0.44412395 -0.043767907
000160 97 ab 60 3d ee ff a9 be 59 db 6c be bb a0 9b be
       0.05485114 -0.3320307 -0.2313055 -0.30396065
000170 64 3e ed bd f4 d9 af be d5 68 3d be c4 e7 9f bd
       -0.11584166 -0.34345973 -0.18497021 -0.07807878
000180 06 48 58 bd b6 f7 c8 3d b0 cd a9 be ce 06 2b bc
       -0.052803062 0.09812872 -0.3316474 -0.010438634
000190 77 fc e6 be 52 fe 56 3f 24 f0 46 bd 1a d7 be bd
       -0.4511449 0.8398181 -0.04856886 -0.09318371
0001a0 1e c6 ab be ee c7 81 be 12 38 78 3d 06 a5 5f 3d
       -0.3354959 -0.25347847 0.060600348 0.054600738
0001b0 00 ca 3a bd ae 25 5d be b0 72 1b be a2 20 de bd
       -0.0456028 -0.21596405 -0.15180469 -0.10846068
0001c0 ac b9 00 bf 6c 38 4a bd 64 c9 fa 3e e9 9a 13 3c
       -0.5028331 -0.049370214 0.48981774 0.009009101
0001d0 ef 55 a9 be 15 fb d1 bd 4c be a9 bc 8b f7 8f bd
       -0.33073375 -0.10252968 -0.020720623 -0.07029637
0001e0 c6 42 be be a1 4c 70 bd 5a c3 9e bd 2d 46 c3 be
       -0.3716032 -0.05866683 -0.07752104 -0.38139477
0001f0 e3 ea 6b 3b f8 51 c3 bc 8a 86 97 3c 2d 22 a7 3d
       0.0035998158 -0.023842797 0.01849677 0.081608154

fc3.weight f4 [2, 128]
000000 c1 11 05 bd dc d7 1b bd 81 54 59 3d 2b 13 b9 be
       -0.032487635 -0.038047656 0.053059105 -0.36147436
000010 e5 55 c8 3e ee 72 66 3e ea 2c 92 3c 1a 90 13 3f
       0.39128032 0.2250478 0.017843682 0.57641757
000020 cb 32 a0 bd 17 6c 6e 3f dd 58 af 3e a5 33 0d 3d
       -0.07822188 0.9313368 0.34247485 0.03447308
000030 6a 94 b3 bc d8 96 31 be 4c b3 74 3d 04 35 a8 3d
       -0.021921355 -0.17342699 0.059741303 0.08213237
000040 6e 79 b0 3c 43 37 20 bd 1b a0 9d 3e ca 7d 03 3c
       0.021542277 -0.0391152 0.30786213 0.008025596
000050 7f f5 0f 3d 31 7d a8 3c cb a9 b7 be d9 cb cf bc
       0.035146233 0.020567508 -0.3587173 -0.025365757
000060 e8 08 71 3f 0b 88 8c 3d 65 43 45 3b c4 4d 72 3c
       0.94154215 0.06861886 0.0030099985 0.014789049
000070 65 ef 8a 3e fe 81 54 bc a1 50 9b 3c a7 d9 eb bb
       0.2713577 -0.012970446 0.018959345 -0.007197577
000080 36 a0 80 bd 0a 2b 21 3a 50 88 71 3e c1 68 3b be
       -0.06280558 0.0006148076 0.23587155 -0.18301679
000090 b5 f9 7c bc 9b 6f d7 bc df 95 5c 3c d1 5e ca 3d
       -0.015440394 -0.026298335 0.013463466 0.09881366
0000a0 4b e3 2a 3e 32 16 e3 3e 44 aa fa 3e e0 ee 89 bd
       0.16688268 0.4435287 0.48958027 -0.06735015
0000b0 f9 73 31 bf e1 f5 58 bd 00 74 b4 bc b8 b8 a2 3b
       -0.69317585 -0.052968863 -0.02202797 0.004965868
0000c0 62 80 46 3c 80 84 5d 3d 53 e3 8b bc 43 88 9f be
       0.01211557 0.05408144 -0.01707617 -0.31158647
0000d0 ff 3e 41 bd 59 81 f8 bc 91 a8 61 3d 1f cf 34 3f
       -0.04717922 -0.030335115 0.055092398 0.7062854
0000e0 c0 74 bf bb 0a a5 67 3e 7b d0 34 3f 17 2f 30 bd
       -0.005842775 0.22621551 0.70630616 -0.04301366
0000f0 81 c0 df 3a 08 d8 53 3f f9 b2 14 bc 18 b0 0b 3e
       0.001707092 0.8275151 -0.0090758735 0.13641393
000100 a0 0c e3 3c 4c 83 8a bb 12 1b 0a 3e 61 c3 54 3c
       0.027715981 -0.0042270776 0.13486889 0.012986035
000110 63 58 3d bc 7f 71 cd bd a1 f7 f9 bc b8 46 91 3e
       -0.011556718 -0.10031413 -0.030513586 0.28374267
000120 34 9f 20 3f 1e bf 25 bd 77 e8 54 bf 07 d0 ad 3e
       0.62742925 -0.040465467 -0.83167213 0.33947775
000130 fd 16 13 bd 9a c2 c7 3d ff f7 72 be 8b d3 a0 bc
       -0.035910595 0.09753914 -0.23727416 -0.019632122
000140 af 89 d1 3c b1 97 e7 be ca 8f db 3c 4c 5f b7 be
       0.025578348 -0.4523292 0.026801962 -0.35814893
000150 b1 e7 d1 bc 02 b9 e8 3e 36 15 85 be dd 79 0d bd
       -0.025623174 0.4545365 -0.25992745 -0.034540046
000160 8b 4d 61 3c 55 14 90 3e 39 82 9e 3e d5 02 e7 be
       0.013751398 0.28140512 0.30958727 -0.45119348
000170 30 64 37 bd b1 e7 d2 3e f8 a9 d5 3d 8d 95 3c bc
       -0.04477328 0.41192392 0.104328096 -0.011510265
000180 df 81 1a bc f8 f6 fc 3e 5e 18 4d be aa 9f 94 3c
       -0.009430378 0.49407172 -0.20028827 0.01814254
000190 80 e5 43 bf 72 12 83 3f 41 02 d9 bc da 61 9a 3d
       -0.76522064 1.0240004 -0.026490333 0.07538195
0001a0 96 23 70 3e c7 57 9b be b6 c0 ce 3e 74 83 61 3e
       0.23451075 -0.30340406 0.40381402 0.22022802
0001b0 f0 ea 75 3b c4 29 b2 3d 6e 55 89 39 91 25 36 bc
       0.0037524067 0.086993724 0.00026194326 -0.011117355
0001c0 52 93 6e be 14 b3 d8 3c 1e e9 51 3f d7 4c 84 bc
       -0.23298386 0.026452579 0.81996334 -0.016149921
0001d0 cb 93 69 bf 2a c4 69 ba fc bc a2 3d 5a 6e ef b9
       -0.9124114 -0.00089174754 0.07946202 -0.0004566785
0001e0 b3 e4 a1 be d1 a0 2d bd 34 83 ef b9 f5 03 e1 be
       -0.31619796 -0.042389695 -0.00045683386 -0.4394833
0001f0 1d 63 69 bc 46 bd 1c bc 7a 47 61 3c 0f bf 2c 3e
       -0.014244822 -0.009566611 0.0137499515 0.16869758
000200 b7 cf 0b bd c6 03 a5 bd 73 5c 4f bc 2f 4c bd bd
       -0.03413364 -0.0805736 -0.012656319 -0.092430465
000210 c1 ac 57 be 23 f9 ac bd 93 48 8e be 81 19 70 bc
       -0.21061994 -0.084459566 -0.27789745 -0.014654518
000220 58 5c 8c bd 64 ef ce bd ad 39 2d be 50 1a eb 3c
       -0.06853551 -0.10104254 -0.16916533 0.02869907
000230 20 9b 50 bb 4a c5 2d be 83 d9 42 bd 26 a7 3b 3d
       -0.0031830743 -0.16969791 -0.047570717 0.045813702
000240 74 c3 4a bc 47 fa 29 3d 8e 8b 20 bd cb da 10 bd
       -0.012375701 0.04149845 -0.03919559 -0.035364907
000250 70 59 d2 bb 19 de 1b be e6 87 a7 be b1 f1 65 bd
       -0.006419353 -0.15221442 -0.3272087 -0.056138698
000260 da 4e 13 be 7d 43 c5 bd e3 ae 08 bd f8 23 f4 3d
       -0.14385548 -0.09632013 -0.03336991 0.11920923
000270 96 d8 ce bd c5 e3 d5 bb 68 ab 86 bd 77 cb ec bc
       -0.10099904 -0.0065273964 -0.06575662 -0.028905613
000280 03 3c 68 bb ee f5 01 bd dd f2 e2 3c 9f 00 3b be
       -0.003543616 -0.031728677 0.027703697 -0.18261956
000290 45 85 3f 3d 4b ad da 3d 74 f1 dd 3c 6d cc 4b 3e
       0.046757955 0.10677584 0.027092673 0.19902201
0002a0 8f 1a af 3b dc 6b b1 bb f5 2f 1f be 9f ee fe 3c
       0.005343742 -0.005414469 -0.15545638 0.031119643
0002b0 e2 1e 1c bc 33 7c c3 bd e4 e8 bc bc d5 eb 36 3c
       -0.009528847 -0.095451735 -0.02306027 0.011164625
0002c0 29 7b 81 b7 10 a9 a5 bb 21 62 56 bd bf ce 41 be
       -1.543535e-05 -0.005055554 -0.052339677 -0.18926524
0002d0 da a8 85 bd 44 93 85 3d 3d 0d 22 be c9 97 2f be
       -0.065263465 0.06522229 -0.15825363 -0.17147745
0002e0 a0 09 5a bd 0b 71 b9 bc a8 44 45 3e 7a a4 e0 bc
       -0.053231835 -0.02263691 0.19264472 -0.027422179
0002f0 1b 80 c8 bd c8 2d 27 be e4 4d 5e bd 83 ca eb bb
       -0.09790059 -0.16326058 -0.0542735 -0.007195772
000300 7b 28 1b bd eb f5 f4 3c 72 ce 3d bc 1c fa 2f be
       -0.037880402 0.02990242 -0.011584865 -0.17185253
000310 35 e8 ee bd 68 95 09 bd 87 96 c0 3c b2 b2 7d be
       -0.11665384 -0.03358975 0.023509277 -0.24775198
000320 7d 48 86 be bc 6c 96 bd ac 5c 12 be 63 96 aa 3d
       -0.2622718 -0.07344958 -0.14293164 0.08329465
000330 e9 30 9f 3c 82 d7 48 bd b1 e0 01 3e 60 28 20 bd
       0.019432502 -0.04903365 0.12683369 -0.039101005
000340 fc 6e 82 be d4 c4 91 bd 25 75 95 be b6 cc 4b be
       -0.254753 -0.0711762 -0.29190937 -0.1990231
000350 f7 57 a4 bc 4f e8 18 be 86 a2 94 bb dc 28 50 3e
       -0.020061476 -0.14932369 -0.004535976 0.20328087
000360 02 67 8b bc d6 13 d9 3d 30 29 e6 bc d7 15 ea bd
       -0.017016891 0.105994865 -0.028095812 -0.11429947
000370 63 2a fd bd 09 2e 3a be d4 17 9e bd ec fc a0 3c
       -0.123616 -0.18181624 -0.077193886 0.019651853
000380 49 03 50 be ca 5a 33 be e5 22 6b bc b9 99 06 bc
       -0.20313753 -0.17515102 -0.014351581 -0.008215361
000390 cd 0e 5f bd e2 60 c5 bd b2 b5 05 bc 4a cd 6f be
       -0.054457474 -0.096376196 -0.008160995 -0.23418155
0003a0 c8 7a a8 ba 84 ed fb bd bd 7c 1f 3c 46 8b 55 3d
       -0.0012853974 -0.12301162 0.00973433 0.052134775
0003b0 f6 f5 32 3c a1 03 ad be e0 54 93 bc d3 27 bf 3b
       0.0109228995 -0.3379183 -0.017984807 0.005833605
0003c0 4d d7 92 bd c3 28 83 39 b8 b8 0d bc 60 a4 91 bd
       -0.071699716 0.00025016637 -0.008649997 -0.0711143
0003d0 4e 39 fb bd 31 df 92 bd ad 2a 20 bc 31 19 17 bd
       -0.122667894 -0.07171477 -0.0097758 -0.03688926
0003e0 fd d1 61 be 80 67 63 3a 8c fb 40 bb 97 2f 15 3d
       -0.2205276 0.00086747855 -0.0029446809 0.03642234
0003f0 cd 48 b7 3c 97 56 ae 3c 29 fb b0 bd c4 49 78 bd
       0.022373581 0.021281524 -0.08641655 -0.060617223

fc3.bias f4 [2]
000000 c1 ab 19 3f 87 96 ec be
       0.600277 -0.46208593
