results/results_5/agent2_critic.pth (torch, 185643 bytes, 5 tensors)

fcs1.weight f4 [256, 48]
0	0xbf398ee0	-0.72483635
1	0xbf422820	-0.75842476
2	0x3c82a6fb	0.015948763
3	0xbf2468a6	-0.6422218
4	0xbec9986c	-0.393741
5	0x3f662b4f	0.89909834
6	0x3c9a2903	0.018818384
7	0xbf14986a	-0.58045065
8	0xbedd2dbd	-0.43198958
9	0xbf304135	-0.688495
10	0xbe0f52e7	-0.13996468
11	0x3ead886b	0.3389314
12	0x3e3bc80c	0.1833803
13	0x3d414b59	0.047190998
14	0xbe17bac9	-0.14817347
15	0x3ee41b33	0.44552
16	0xbd12d65c	-0.03584896
17	0xbf37fedd	-0.71873266
18	0xbbf51de0	-0.007480368
19	0x3d8298c0	0.06376791
20	0x3ea669c1	0.3250256
21	0xc03b3326	-2.9249969
22	0xbcb8f30a	-0.022576828
23	0x3de46315	0.11151711
24	0x3ed05238	0.40687728
25	0x3fd73f16	1.6816127
26	0xbcb1f1a0	-0.021721661
27	0x3dea5652	0.114422455
28	0x3eea3b8e	0.45748562
29	0x3f69f019	0.91381985
30	0x3cea320f	0.028588323
31	0x3dbc646c	0.091988415
32	0x3ef105bd	0.4707469
33	0x3fdae7e2	1.7102015
34	0x3c8b02fc	0.016969196
35	0xbddf6176	-0.10907261
36	0xbe5ceb60	-0.21574163
37	0x3dffcaa3	0.12489822
38	0x3b26343e	0.0025360729
39	0xbe500d6e	-0.20317623
40	0x3e986c0c	0.29769933
41	0x3fcb7f79	1.5898277
42	0x3dd1d61c	0.10245916
43	0xbeddc3fc	-0.43313587
44	0xbeb698df	-0.35663506
45	0xc03c9a9a	-2.9469361
46	0x3da0355c	0.078226775
47	0xbecfb216	-0.40565556
48	0xbe0dd0b3	-0.13849144
49	0x3eab17bc	0.33416545
50	0xbca17438	-0.019708738
51	0xbccad0a4	-0.02475769
52	0xbfa2528a	-1.2681439
53	0x3f3e3df9	0.7431331
54	0xbd0c9d8e	-0.034329943
55	0x3c1d0eda	0.00958606
56	0x3df84834	0.12123147
57	0x3ee1f1a1	0.4412966
58	0xbd049424	-0.03236784
59	0x3e89b374	0.26894724
60	0xbe3952e8	-0.18098032
61	0x3f158e90	0.5842066
62	0x3c9b095a	0.018925358
63	0x3e3d575f	0.1849036
64	0x3eb6eafc	0.35726154
65	0x3ee19b8d	0.44063988
66	0xbd4a84f8	-0.049443215
67	0x3e5d8567	0.2163292
68	0x3f9a5c4b	1.2059416
69	0x3e41233b	0.18861096
70	0xbca28044	-0.019836552
71	0x3e90ee39	0.2830675
72	0xbe460988	-0.19339573
73	0xbe6a935a	-0.22907773
74	0xbd5f74bc	-0.054554686
75	0x3e0ecbe8	0.13944972
76	0x3fa99d00	1.3251038
77	0x3f3d687b	0.7398755
78	0x3b42ad81	0.0029705467
79	0x3d93fc3b	0.072258435
80	0x3dba86ae	0.09107719
81	0xbf109b67	-0.56487125
82	0xbd5e403a	-0.05426047
83	0xbde7a622	-0.11310984
84	0x3e4113ae	0.18855163
85	0x3f1b3272	0.6062385
86	0xbd5f4cba	-0.05451653
87	0xbd90c6de	-0.07069181
88	0x3e305441	0.1721964
89	0xbfd950dc	-1.6977801
90	0xbd699574	-0.057027295
91	0xbec2a1ce	-0.38014072
92	0xbfa09841	-1.2546464
93	0x3e632def	0.22185491
94	0xbd890a9e	-0.06691478
95	0xbea42a9a	-0.32063752
96	0x3fd245f2	1.6427596
97	0x3f81504b	1.0102628
98	0x3d0a5a73	0.033777665
99	0xbf8e40a3	-1.1113476
100	0xbdc5442b	-0.09632143
101	0xc0293163	-2.6436393
102	0x3c6d4999	0.014482879
103	0xbf8753bc	-1.0572429
104	0x3ff7808e	1.9336107
105	0x3f63bd4e	0.8896073
106	0xbdaeed25	-0.085413255
107	0xbf8c7682	-1.0973666
108	0xbe268696	-0.16262278
109	0xc01ba118	-2.4317074
110	0xbd4b89c5	-0.049691934
111	0xbf847e99	-1.0351135
112	0x3fd0b2c2	1.6304553
113	0x3f70ea79	0.94107777
114	0xbdc4353b	-0.095804654
115	0x3e44bd9a	0.19212952
116	0xbf302437	-0.6880526
117	0x3e49ed77	0.19719492
118	0x3934b4b4	0.00017233455
119	0x3e56518e	0.20929548
120	0x3d84235b	0.06452056
121	0xbf5e3d79	-0.8681255
122	0xbe2a3dc2	-0.16625121
123	0xbf40d6d9	-0.7532783
124	0x3de6eb0c	0.112753004
125	0xc028b89f	-2.6362684
126	0xbe1f35b6	-0.15547833
127	0xbf461135	-0.77370006
128	0x3dfec752	0.12440361
129	0xbf8e531b	-1.1119112
130	0xbc02c2f8	-0.0079810545
131	0x3edb53aa	0.42837268
132	0x3e373008	0.17889416
133	0xc01c2bb6	-2.440168
134	0x3d93a0a2	0.07208373
135	0x3ee05d9c	0.43821418
136	0x3ea17fa7	0.31542704
137	0xbf815e8b	-1.0106977
138	0x3df98a0c	0.121845335
139	0x3f624c65	0.8839782
140	0x3f1edb41	0.62053305
141	0x3e542a4f	0.20719264
142	0x3df10330	0.11768186
143	0x3f59cbb1	0.85076433
144	0x3f8f60b0	1.1201382
145	0xbf1d1ce7	-0.61372226
146	0x3d726c10	0.059185088
147	0xbf11f888	-0.57019854
148	0x3ed06f21	0.40709785
149	0xbf77e804	-0.968384
150	0x3ccbc6a7	0.024874998
151	0xbf0a4627	-0.54013294
152	0x3f6fc1c2	0.93655026
153	0xbeee87fe	-0.4658813
154	0xbe83e0da	-0.25757486
155	0x3f6bded9	0.92136914
156	0x3e495a08	0.1966325
157	0xbfac699a	-1.3469727
158	0xbe5daa0e	-0.21646902
159	0x3f8377e9	1.0270969
160	0x3f804d4a	1.0023587
161	0xbeb8d325	-0.3609859
162	0xbcd01e88	-0.025405183
163	0x3f1a1cb2	0.60200036
164	0xbe851a82	-0.25996786
165	0xc00fe186	-2.2481399
166	0xbdbe26b1	-0.092847236
167	0x3f1ddc46	0.61664236
168	0x3e15d5e9	0.14632381
169	0xbf9400b3	-1.1562713
170	0xbdcc55b0	-0.09977281
171	0x3ebb0b63	0.36532125
172	0xbe9c1171	-0.30482057
173	0xbf797e9c	-0.97458816
174	0xbde4ee00	-0.111782074
175	0x3ed91a8b	0.42403063
176	0x3e52f972	0.20602968
177	0xbf78c553	-0.9717609
178	0xbd42eb2f	-0.04758757
179	0x3e8b6074	0.27222025
180	0xbe232f57	-0.15936027
181	0xbfb5da6c	-1.4207282
182	0xbda762a7	-0.08173113
183	0x3e80b242	0.25136
184	0x3e4a427e	0.19751927
185	0xbf49cc95	-0.7882779
186	0x3c0c0a89	0.008547434
187	0x3db072ab	0.08615621
188	0x3e21d5e9	0.15804256
189	0xc00ee786	-2.232881
190	0xbcba8bdb	-0.022771766
191	0x3da91b27	0.08257132
192	0xbd6ef937	-0.05834314
193	0xbf0e82fb	-0.5566861
194	0xbe08170c	-0.13290042
195	0xbe80da01	-0.25166324
196	0xbe97d00d	-0.29650918
197	0xbf17279d	-0.5904482
198	0xbda56f66	-0.08077888
199	0xbea89b06	-0.32930773
200	0x3e2a5caf	0.16636918
201	0xbef70b0f	-0.48250625
202	0xbdfdc81c	-0.123916835
203	0xbd8fe1e6	-0.070255086
204	0xbe1bb186	-0.15204439
205	0xc00e588d	-2.2241547
206	0xbdcd2752	-0.100172654
207	0xbda48294	-0.08032718
208	0x3edd2cec	0.43198335
209	0xbebc3b78	-0.3676412
210	0xbda1f7a2	-0.0790856
211	0x3f4ddbd0	0.8041353
212	0xbe32750d	-0.17427464
213	0xbfc967e5	-1.5734831
214	0xbdb07fd4	-0.08618131
215	0x3f5f2b4c	0.8717544
216	0x3f40bfd0	0.7529268
217	0xbf50fcad	-0.8163555
218	0xbde528fc	-0.11189458
219	0x3eebeb00	0.46077728
220	0x3ea474d3	0.3212038
221	0xbf2647af	-0.6495313
222	0xbdcf9d62	-0.1013744
223	0x3ec9b4b2	0.39395672
224	0x3f3f02c5	0.746136
225	0xbf5b9d41	-0.85786825
226	0xbd28ecff	-0.041241642
227	0x3e600144	0.21875483
228	0x3de0a907	0.109697394
229	0xc00fba15	-2.2457325
230	0xbd4902b1	-0.049074832
231	0x3e68a12b	0.2271773
232	0x3f51af1a	0.8190781
233	0xbecf1479	-0.40445307
234	0xbdc14506	-0.09436993
235	0x3f8fcc8d	1.1234299
236	0x3e307443	0.1723185
237	0xbfc90383	-1.5704197
238	0xbdef4339	-0.116827436
239	0x3f8e35a1	1.1110116
240	0x3e360aa6	0.177775
241	0xbf0a3572	-0.539878
242	0xbd5b2746	-0.05350425
243	0xbd5d14c0	-0.053974867
244	0x3d96cd1f	0.073633425
245	0x3f4b9e0d	0.7953804
246	0xbddc6424	-0.10761288
247	0xbc651d87	-0.013984091
248	0x3f1c90d6	0.611585
249	0xbf1c0107	-0.6093907
250	0xbd20fc5b	-0.039303165
251	0x3ef53cda	0.4789799
252	0x3e8b5c46	0.27218837
253	0x3fdd074e	1.7267854
254	0xbcc7dcc7	-0.024397267
255	0x3f1368b3	0.57581633

fcs1.bias f4 [256]
0	0xbf46805c	-0.7753961
1	0xbf069ec6	-0.5258602
2	0xbf5c3e1c	-0.8603227
3	0xbfa3e7fd	-1.2805172
4	0xbfae6469	-1.3624393
5	0xbe30cbaa	-0.17265192
6	0xbfd2d569	-1.6471378
7	0xbf08fbcb	-0.53509206
8	0xbf673a30	-0.9032316
9	0xbf5c16ac	-0.85972095
10	0xbf7d8c5f	-0.99042314
11	0xbf6d4eda	-0.9269844
12	0xbe60007b	-0.21875183
13	0xbefcc424	-0.49368393
14	0xc0077d14	-2.1170092
15	0xbf770413	-0.9649059
16	0xbfa6a565	-1.3019224
17	0xbe67d03f	-0.22638033
18	0xbf70bf26	-0.9404167
19	0x3d2090c7	0.03920057
20	0xbe40884b	-0.18801992
21	0xbf7d5fbf	-0.9897422
22	0xbecbdfc6	-0.39819163
23	0xbf1bde4b	-0.6088607
24	0xbf8b8d7a	-1.090255
25	0xbf8d3836	-1.1032779
26	0xbf3aee9f	-0.73020357
27	0x3f5fe8bb	0.87464494
28	0xbf4b0995	-0.79311496
29	0xbf997ed2	-1.1991827
30	0xbf1d1b78	-0.6137004
31	0xbf51057d	-0.81649
32	0xbe81369a	-0.2523697
33	0xbedf34b8	-0.4359491
34	0xbf886971	-1.0657178
35	0xbf1229ff	-0.5709533
36	0xbf9ebe07	-1.2401742
37	0x3f662b33	0.89909667
38	0xbf4b9c3d	-0.79535276
39	0xbe7ebfc0	-0.24877834
40	0xbe7dfdf7	-0.24803911
41	0xbfbfb322	-1.4976542
42	0xbf8bdd16	-1.0926845
43	0xbe335ca8	-0.17515814
44	0xbee7a1eb	-0.4524072
45	0xbeda6a94	-0.42659438
46	0xbf094cc7	-0.5363278
47	0xbffb2feb	-1.9623998
48	0xbefbea33	-0.49202117
49	0xbdd0f108	-0.10202223
50	0xbee572b0	-0.44814062
51	0xbe827977	-0.25483295
52	0xbeae186c	-0.34003007
53	0xbfb6e1c9	-1.4287654
54	0xbe2ef30f	-0.17084907
55	0xbfa15eab	-1.2607015
56	0xbf85c495	-1.0450617
57	0xbf9c19ca	-1.219537
58	0xbf926a02	-1.1438601
59	0xbee60c80	-0.44931412
60	0xbf22581b	-0.6341569
61	0xbf2c4693	-0.6729519
62	0xbf904f8b	-1.1274275
63	0xbfadb4cb	-1.3570799
64	0xbfa1f584	-1.265305
65	0xbf6cdde5	-0.92526084
66	0xbf5e3d01	-0.86811835
67	0x3f153c31	0.5829497
68	0xbf0c4c73	-0.5480415
69	0x3f91f5f9	1.140319
70	0xbf40406c	-0.750983
71	0xbf50dc0e	-0.81585777
72	0xbfc83e96	-1.56441
73	0xbfc3da83	-1.530106
74	0xbe836d91	-0.2566953
75	0xbf0e2a52	-0.55533326
76	0x3f300054	0.687505
77	0xbf0044c7	-0.50104946
78	0xbf8edb5a	-1.1160691
79	0xbfb9b007	-1.4506844
80	0xbf2903f6	-0.6602167
81	0xbf08ec94	-0.5348599
82	0xbf26f1e4	-0.65212846
83	0xbecb75ce	-0.39738315
84	0x3f0cbf12	0.5497905
85	0xbec3c453	-0.3823572
86	0xbf353ed1	-0.70798975
87	0xbf8219d1	-1.0164129
88	0xbf696305	-0.91166717
89	0xbfbdc66b	-1.4826177
90	0xbf1dc34c	-0.61626124
91	0xbf50136b	-0.8127963
92	0xbef3fdfa	-0.47654706
93	0xbf647c3f	-0.89252084
94	0xbf71834b	-0.9434096
95	0xbfa0e810	-1.257082
96	0xbdf0ccdf	-0.11757826
97	0xbf0c7350	-0.5486345
98	0xbdc3987b	-0.09550568
99	0xbfa002fc	-1.2500911
100	0xbf0548ca	-0.5206419
101	0xbf0a4c65	-0.5402282
102	0xbe76c840	-0.24099827
103	0x3e13084c	0.14358634
104	0xbf447934	-0.7674744
105	0xbd6c4158	-0.057679504
106	0x3f1bd30c	0.60868907
107	0xbf86747b	-1.0504297
108	0xbdd0bc91	-0.10192216
109	0xbfb20881	-1.3908845
110	0xbf922a83	-1.1419224
111	0xbf1d4441	-0.6143227
112	0xbe9182c0	-0.28420067
113	0xbf470df7	-0.77755684
114	0xbebe1338	-0.37124038
115	0xbfd6675b	-1.6750292
116	0xbd1f7af9	-0.038935635
117	0xbe03c92e	-0.12869713
118	0xbf894400	-1.0723877
119	0xbfa27722	-1.2692606
120	0xbfb8a1c9	-1.4424373
121	0xbe78719e	-0.24262092
122	0xbf525865	-0.8216613
123	0xbeaf0d42	-0.34189802
124	0xbf362431	-0.71148974
125	0xbf7404ad	-0.95319635
126	0xc01bdc05	-2.435304
127	0xbf8277c6	-1.0192802
128	0xbfe56c8c	-1.7923751
129	0xbfa38b6b	-1.2776922
130	0xbf942c9a	-1.1576111
131	0xbc56a76d	-0.013101441
132	0xbf2ae398	-0.6675353
133	0xbf36d9a6	-0.71425855
134	0xbe8efbcf	-0.2792649
135	0xbf81a763	-1.0129207
136	0xbf637ab8	-0.8885913
137	0xbf94db5c	-1.1629443
138	0xbf85e65e	-1.0460927
139	0xbf88ce40	-1.0687943
140	0x3f892048	1.0712976
141	0xbee74e25	-0.45176807
142	0xbf46ee0b	-0.77706975
143	0xbf81a3c1	-1.0128099
144	0xbf9db945	-1.2322165
145	0xbd3364d6	-0.043797337
146	0xbf9cbbc2	-1.2244799
147	0xbf72c7d4	-0.94836164
148	0xbf0a238d	-0.53960496
149	0xbd59e0d2	-0.05319292
150	0xbf862f12	-1.0483115
151	0xbdf47fe4	-0.11938456
152	0xbf918a85	-1.1370398
153	0xbf6fac3e	-0.93622196
154	0xbf3484b9	-0.7051502
155	0xbf1eeed4	-0.6208317
156	0xbf7b2043	-0.980961
157	0xbf8d8292	-1.1055472
158	0xbf87f48d	-1.0621506
159	0xbf128775	-0.5723794
160	0xbf61e306	-0.88237035
161	0xbf569adf	-0.83830065
162	0xbf23ae11	-0.6393748
163	0xbfb42162	-1.4072688
164	0xbf831d4c	-1.0243316
165	0xbfab9d85	-1.3407446
166	0xbf98dde1	-1.1942712
167	0xbe49af15	-0.19695695
168	0xbea43611	-0.320725
169	0xbe1b9e56	-0.15197119
170	0xbf15e073	-0.5854561
171	0xbf79b8d9	-0.9754768
172	0xbdf1edf1	-0.11812962
173	0xbf623890	-0.8836756
174	0xbf7d4b1f	-0.9894275
175	0x3e8aeb6c	0.27132738
176	0xbfa71c7b	-1.3055567
177	0xbf8512bb	-1.0396341
178	0xbf45e949	-0.7730909
179	0xbf98e263	-1.1944088
180	0xbfba6ebd	-1.4565045
181	0xbf859a89	-1.0437785
182	0xbf8e26a3	-1.1105541
183	0xbe6c6708	-0.23086178
184	0xbf68d7b8	-0.9095416
185	0xbeacdb8e	-0.33761257
186	0xbf87cf50	-1.0610142
187	0xbfb5de19	-1.4208404
188	0x3ea11202	0.3145905
189	0xbfa1560f	-1.2604388
190	0x3da428c3	0.08015587
191	0xbec6212b	-0.3869718
192	0xbf876718	-1.0578337
193	0xbf254b98	-0.6456847
194	0xbebf0003	-0.37304696
195	0xbf2255bd	-0.63412076
196	0xbf11ed69	-0.57002884
197	0xbeaa858a	-0.33305007
198	0xbf1e4919	-0.6183029
199	0xc00393f9	-2.0559065
200	0xbf560bd2	-0.83611786
201	0xbdb583a9	-0.08863003
202	0xbefb6ab5	-0.49104849
203	0xbf88deae	-1.0692956
204	0xbec7dc60	-0.3903532
205	0x3d938b19	0.07204265
206	0xbfa9a8fb	-1.3254694
207	0xbdb5f3c0	-0.08884382
208	0xbee148a5	-0.44000736
209	0xbf88dc1c	-1.0692172
210	0xbf3ae5fa	-0.73007166
211	0xbf14816d	-0.5800999
212	0xbf8e05ec	-1.1095557
213	0xbf7f4c29	-0.99725586
214	0x3deb413e	0.11487053
215	0xbe42478f	-0.1897261
216	0xbfa3024a	-1.2735074
217	0xbf20ba1f	-0.62784
218	0xbf56cefe	-0.83909595
219	0xbed02ab9	-0.40657595
220	0xbf78a7b3	-0.9713089
221	0xbf4d03a1	-0.8008366
222	0xbf0f3d48	-0.5595288
223	0x3edc822a	0.43068057
224	0xbf847de7	-1.0350922
225	0xbf9e93e6	-1.2388885
226	0xbfc0d6e1	-1.5065576
227	0x3e3f20f8	0.1866492
228	0x3e1acd58	0.15117395
229	0xbf9cbeeb	-1.2245764
230	0xbf9c9695	-1.2233454
231	0xbed49df7	-0.41526768
232	0xbf6efc3d	-0.93353635
233	0xbf5a12fd	-0.85185224
234	0xbd58ef6d	-0.05296271
235	0xbfbce3c4	-1.4757009
236	0xbf16c31e	-0.58891475
237	0xbf057d41	-0.5214425
238	0xbee4547a	-0.445957
239	0xbf14b8e4	-0.5809462
240	0xbfa9e4ef	-1.327299
241	0xbee3e9e8	-0.44514394
242	0x3ea29ec0	0.31761742
243	0xbf20fb92	-0.62883866
244	0xbf2499b3	-0.64297026
245	0xbe18dbb5	-0.14927562
246	0xbf90b263	-1.1304439
247	0xbf8fde9e	-1.1239812
248	0xbf914b5c	-1.1351123
249	0xbfa4f158	-1.2886152
250	0xbf78eb9f	-0.9723453
251	0xbf456f90	-0.77123356
252	0xbfac1fd2	-1.3447211
253	0xbf5a78d9	-0.8534065
254	0xbf510b9d	-0.81658345
255	0xbf224e25	-0.6340049

fc2.weight f4 [128, 258]
0	0xbd609432	-0.05482883
1	0xbdf40c7a	-0.11916442
2	0x3dafd3a6	0.085852906
3	0xbe05ca31	-0.13065411
4	0xbe540e0c	-0.20708483
5	0xbdc9da26	-0.09856062
6	0x3d6c7ad2	0.057734318
7	0xbdda28ab	-0.10652288
8	0xbdda696d	-0.106646396
9	0xbd606d3b	-0.05479167
10	0xbd89e002	-0.06732179
11	0xbc8237c1	-0.015895726
12	0xbc52cbe7	-0.012865997
13	0xbb13f705	-0.0022577655
14	0xbc796787	-0.015222437
15	0x3d8162e4	0.0631769
16	0x3d9c294f	0.076250665
17	0xbe0b71f0	-0.13617682
18	0xbd8f09d4	-0.069842964
19	0xbb2b1cc1	-0.0026109668
20	0xbdfeb09f	-0.124360316
21	0x3c4dd3be	0.01256269
22	0xbcaaa7f6	-0.020832043
23	0x39aa3af7	0.0003246886
24	0xbe02d69d	-0.12777181
25	0xbd319d4c	-0.0433629
26	0xbd854738	-0.065077245
27	0xbd19369c	-0.037405595
28	0x3d3d6345	0.04623725
29	0xbdebea02	-0.11519243
30	0xbe570858	-0.20999277
31	0xbd656cd0	-0.056011975
32	0xbdf4b932	-0.11949386
33	0xbcf18adb	-0.029485157
34	0xbd8017e4	-0.06254557
35	0xbda5cb44	-0.080954105
36	0xbdbaaf4f	-0.09115469
37	0x3dd6c1af	0.10486161
38	0xbd68d9e0	-0.056848407
39	0xbd2fafa2	-0.042892106
40	0x3d22610c	0.039643332
41	0xbdd41d01	-0.103570946
42	0x3c8c1763	0.017100995
43	0x3bbb8031	0.0057220687
44	0xbdf6812d	-0.12036357
45	0xbdc11fe0	-0.09429908
46	0xbeb4d67d	-0.35319892
47	0x3d4dbb73	0.050227594
48	0xbca301a9	-0.019898253
49	0x3e3b7770	0.1830728
50	0xbdab3709	-0.083601065
51	0xbced3edd	-0.02896064
52	0xbd408123	-0.046998154
53	0xbc9ccefa	-0.019141663
54	0xbd681699	-0.056662176
55	0x3c4696c1	0.0121209035
56	0xbdfb0125	-0.12256078
57	0x3b10df6e	0.002210583
58	0xbd4421f8	-0.047883958
59	0xbd87ae64	-0.06625059
60	0x3d07806a	0.03308145
61	0xbd8077a7	-0.06272822
62	0xbd67635d	-0.056491245
63	0x3cd3f3f0	0.025873154
64	0xbe628f7f	-0.22125052
65	0x3b8564e2	0.004070864
66	0xbd2aa2de	-0.04165923
67	0xbe923eeb	-0.28563628
68	0xbbefbc25	-0.0073161297
69	0xbd86383b	-0.06553694
70	0x3cd4c9ab	0.025975069
71	0xbd57d053	-0.052688908
72	0xbe036441	-0.12831213
73	0xbd95065f	-0.07276606
74	0xbdf810c6	-0.12112574
75	0x3ce6b5c6	0.028162848
76	0xbdf19ae4	-0.11797121
77	0xbd942933	-0.072344206
78	0xbd9a1313	-0.07523169
79	0xbdd0672e	-0.1017593
80	0x3903caf2	0.00012568737
81	0xbe7e1bdb	-0.24815314
82	0xbd03280a	-0.032020606
83	0xbc4258ee	-0.011862023
84	0xbcfc99ef	-0.03083512
85	0xbda194dd	-0.078897215
86	0x3d2d871e	0.042365186
87	0xbe0ae285	-0.13562973
88	0x3ca02ec7	0.019553555
89	0xbd24e1a6	-0.040254258
90	0xbccf28dd	-0.02528804
91	0x3c520a3d	0.012819824
92	0xbc2d1d77	-0.010566107
93	0xbc32bcc4	-0.010909263
94	0xbd987053	-0.07443299
95	0x3dab4caf	0.083642356
96	0x3c348174	0.011017192
97	0x3d6087c1	0.054816965
98	0x3ccc3b21	0.024930539
99	0x3c9c22bc	0.019059531
100	0xbdc03e68	-0.09386903
101	0xbb297858	-0.0025859084
102	0xbe429721	-0.19002964
103	0xbe1fdd83	-0.15611844
104	0xbe3ee4f5	-0.18642028
105	0x3e0f1ea6	0.13976535
106	0xbd3c51de	-0.045976512
107	0xbe7f312e	-0.24921104
108	0xbd7a13ae	-0.061053924
109	0x3c406dcc	0.011744928
110	0xbc0af844	-0.008482043
111	0xbdac3b01	-0.084096916
112	0x3d60396d	0.054742265
113	0x3c3e1a35	0.011602928
114	0xbdc679f1	-0.09691227
115	0xbd88c391	-0.06677926
116	0xbd8e28e4	-0.06941393
117	0xbdbf00e8	-0.09326345
118	0xbe2493d7	-0.16072021
119	0xbcae63f3	-0.021287894
120	0xbdc0aeb9	-0.09408326
121	0x3d01e9cd	0.03171711
122	0xbe2bc2c8	-0.16773522
123	0x3d7629c8	0.06009844
124	0xbb9926fe	-0.0046738377
125	0xbe865ae0	-0.26241207
126	0xbd536f8b	-0.051620048
127	0xbde043d3	-0.109504364
128	0xbd1dcf64	-0.03852786
129	0x3d2cf2ac	0.042223617
130	0xbdeec58e	-0.11658774
131	0xbc42ab29	-0.011881628
132	0xbda42886	-0.08015542
133	0xbc758394	-0.014984984
134	0x3e1f6187	0.15564547
135	0xbde24bc9	-0.11049611
136	0xbe6a3f3c	-0.22875684
137	0x3d23c53e	0.039983027
138	0xbd2f0b39	-0.042735312
139	0xbdeaed3c	-0.1147103
140	0xbd881c73	-0.06646051
141	0xbe55a16c	-0.20862359
142	0x3caccefd	0.021094793
143	0xbe568c35	-0.20951922
144	0xbdf3ac5e	-0.11898111
145	0x3dacb119	0.08432216
146	0x3b1e77ec	0.0024180366
147	0x3d37d8b0	0.044884384
148	0xbd2c8108	-0.04211524
149	0xbdf639b1	-0.120227225
150	0xbe3263e2	-0.17420915
151	0xbd5de40a	-0.054172553
152	0x3afe7f1e	0.0019416546
153	0x3b5fbab6	0.0034138388
154	0x3d8453a2	0.06461264
155	0xbe0c896b	-0.13724296
156	0xbd43071c	-0.047614202
157	0x3c8495fe	0.016184803
158	0xbe460d26	-0.19340953
159	0xbd42fb3c	-0.047602877
160	0xbe275f19	-0.1634487
161	0xbd241561	-0.04005945
162	0xbe44eeb5	-0.19231685
163	0x3d4ada0c	0.049524352
164	0xbe315684	-0.1731816
165	0xbe1f4028	-0.15551817
166	0x3c8efd59	0.01745479
167	0xbe13bed7	-0.14428268
168	0xbdb326b8	-0.087476194
169	0xbd04d98c	-0.03243403
170	0x3cd56bf9	0.026052462
171	0xbd8c6608	-0.068553984
172	0xbe30da9e	-0.17270896
173	0x3b5e6df3	0.0033940047
174	0xbe1c38d8	-0.15256059
175	0xbd430ca6	-0.047619484
176	0xbd38eea3	-0.045149457
177	0xbda20f1e	-0.079130396
178	0x3de1e367	0.11029702
179	0x3bf45842	0.00745681
180	0x3d69cc5d	0.05707966
181	0xbe7f4bba	-0.24931231
182	0xbe02cc93	-0.12773351
183	0xbdb5bf26	-0.08874349
184	0x3d6a5205	0.057207126
185	0x3cc16106	0.023605835
186	0xbe80d564	-0.25162804
187	0xbc4b5b5c	-0.0124119185
188	0xbe222fbc	-0.15838522
189	0x3d0f8cd1	0.035046402
190	0x3c91ba72	0.0177891
191	0xbd481a9c	-0.0488535
192	0x3c8a33f6	0.01687048
193	0xbe3920d1	-0.18078925
194	0xbd30fdca	-0.043210782
195	0xbd0256a7	-0.03182092
196	0xbe3c29e9	-0.18375362
197	0x3b8a85d0	0.0042273775
198	0xbde79939	-0.11308522
199	0xbc7a5894	-0.015279908
200	0x3d5f9a1a	0.054590322
201	0x3e177af7	0.14793001
202	0xbc93a52a	-0.018023092
203	0xbda86311	-0.082220204
204	0xbbb303f5	-0.005463118
205	0xbe880544	-0.26566517
206	0x3ce0c545	0.027437815
207	0xbdbef24e	-0.0932356
208	0xbe832741	-0.25615886
209	0x3df3fb91	0.11913217
210	0x3d815cfe	0.06316565
211	0xbda12338	-0.078680456
212	0xbe01623d	-0.12635131
213	0xbcec86ea	-0.028872926
214	0xbbac86ab	-0.005265077
215	0x3d5ce4ee	0.053929262
216	0x3d9280bd	0.07153461
217	0xbd20bcb1	-0.03924245
218	0x3d968037	0.07348674
219	0xbd99b8e3	-0.075059675
220	0xbd652622	-0.05594457
221	0xbe1b42e5	-0.15162237
222	0xbb9cbae8	-0.004783023
223	0xbe1be111	-0.15222575
224	0xbe7598cc	-0.23984069
225	0xbdbf490f	-0.09340107
226	0xbe158319	-0.14600791
227	0x3d932533	0.071848296
228	0xbe35a59e	-0.17738959
229	0xbdd61f94	-0.10455242
230	0xbeb48e4f	-0.35264823
231	0xbd8dfdee	-0.06933199
232	0x3dbaf622	0.09128977
233	0xbdef9903	-0.116991065
234	0xbd56c470	-0.05243343
235	0xbd7dae81	-0.061933998
236	0xbdd91f9f	-0.10601734
237	0x3d5ffafb	0.054682713
238	0xbe213a05	-0.15744789
239	0xbd8d8e4d	-0.06911907
240	0xbca64c51	-0.020300062
241	0x3d450ebc	0.048109755
242	0xbdc10b3d	-0.09425972
243	0x3e542836	0.20718464
244	0x3e26898f	0.16263412
245	0xbd141493	-0.036152434
246	0xbbcf6a3a	-0.006329802
247	0xbd29681e	-0.04135906
248	0xbe0b42cc	-0.135997
249	0xbdbccb2f	-0.09218442
250	0xbdac2ffe	-0.08407591
251	0xbd32d3d9	-0.043659065
252	0xbe8a036e	-0.26955742
253	0x3ce2171a	0.027598906
254	0xba7d14dd	-0.0009654293
255	0x3e28738d	0.16450329

fc2.bias f4 [128]
0	0xbc925e37	-0.01786719
1	0xbccdf055	-0.025139013
2	0xbe3a4900	-0.1819191
3	0xbdb535f0	-0.088481784
4	0xbe0dc39f	-0.13844155
5	0xbe1214bd	-0.14265724
6	0xbeab4c5c	-0.33456695
7	0xbd80eb35	-0.06294862
8	0xbda5d90c	-0.08098039
9	0xbe6dbcd8	-0.2321657
10	0xbe15b54d	-0.14619942
11	0x3ea35782	0.319027
12	0xbd46ada9	-0.04850546
13	0xbd3acafb	-0.045603734
14	0xbdd4fe72	-0.10400094
15	0xbc6b1ebb	-0.014350588
16	0xbd6dc53b	-0.05804942
17	0xbdfdbfed	-0.123901226
18	0xbd80e014	-0.062927395
19	0xbd12dcce	-0.035855107
20	0xbe2142e1	-0.15748169
21	0xbd5185af	-0.05115288
22	0xbe062065	-0.13098295
23	0xbd46bd1b	-0.04852019
24	0xbcc7bdd4	-0.02438251
25	0xbd8d0a2a	-0.06886704
26	0xbd532fa9	-0.051559124
27	0xbe1f5172	-0.15558413
28	0xbe274f50	-0.16338849
29	0xbdc7782d	-0.097397186
30	0xbd62beef	-0.05535787
31	0xbdcf55f7	-0.10123818
32	0xbe405f80	-0.1878643
33	0xbde4a28f	-0.11163818
34	0xbe21e155	-0.15808614
35	0xbe0dcf25	-0.1384855
36	0xbe36e543	-0.17860894
37	0xbd5d7c3d	-0.05407356
38	0xbe1840b4	-0.14868432
39	0xbda65eaa	-0.081235245
40	0x3d5c6e65	0.053816218
41	0x3d2e6bf9	0.04258344
42	0xbd61ecf3	-0.055157613
43	0xbe2cf62d	-0.16890784
44	0xbd9c18fa	-0.076219514
45	0xbe074483	-0.13209729
46	0xbd6d487b	-0.05793045
47	0xbcdf77d6	-0.027278822
48	0xbdf941b7	-0.12170737
49	0xbc992963	-0.018696493
50	0xbdc02bf4	-0.093833834
51	0xbd535840	-0.051597834
52	0xbd7788cf	-0.060433205
53	0xbdfdfea1	-0.12402082
54	0xbd472f1d	-0.048628915
55	0xbe27a1a9	-0.16370262
56	0xbe02f300	-0.1278801
57	0xbe211d7a	-0.157339
58	0xbac84f1c	-0.0015282365
59	0xbf1a036b	-0.60161465
60	0xbe06ace4	-0.1315189
61	0xbb4366b7	-0.0029815861
62	0xbf2cb872	-0.6746894
63	0xbc516425	-0.012780224
64	0xbde30b21	-0.11086107
65	0xbdf558bb	-0.119798146
66	0xbe219538	-0.15779579
67	0xbe1aa03a	-0.15100184
68	0xbe08d93c	-0.13364118
69	0xbcd419f6	-0.025891285
70	0xbe5e0d36	-0.21684727
71	0xbdcf1b2d	-0.10112605
72	0xbdd3fe69	-0.10351259
73	0xbdf952b4	-0.121739775
74	0xbd9555bd	-0.07291744
75	0xbdefb2f7	-0.11704057
76	0xbe02240d	-0.12709065
77	0xbd7cfa2c	-0.06176202
78	0xbcf81d4e	-0.030287411
79	0xbe224e2d	-0.15850134
80	0xbdb945b9	-0.09046502
81	0xc00d0f42	-2.2040563
82	0xbe1c3a08	-0.15256512
83	0xbd7e794d	-0.0621274
84	0xbe5ba455	-0.21449406
85	0x3ed6eda8	0.41978192
86	0x3dd65172	0.10464753
87	0xbdbe9726	-0.09306173
88	0xbd0d03b0	-0.034427345
89	0xba4b7f09	-0.0007762765
90	0xbe188c72	-0.14897326
91	0xbe066754	-0.13125354
92	0xbe0a15c3	-0.13484864
93	0xbdb46bbf	-0.088096134
94	0xbfe88f7a	-1.8168786
95	0xbd751f58	-0.059844345
96	0xbe023b79	-0.12718
97	0x3f0cc26e	0.54984176
98	0xbdf7fb17	-0.121084385
99	0xbda21bac	-0.07915434
100	0xbd6dd616	-0.058065496
101	0xbcfbb3be	-0.030725356
102	0xbd99508d	-0.07486067
103	0xbded608e	-0.11590682
104	0xbda4f427	-0.08054381
105	0xbceaad5f	-0.028647123
106	0xbe442743	-0.19155602
107	0xbe2e2df2	-0.17009714
108	0x3cf8c0b7	0.030365331
109	0xbdf71d43	-0.12066128
110	0xbe2b22df	-0.16712521
111	0xbdd8fc5c	-0.10595009
112	0xbdfac7f9	-0.12245173
113	0xbd82bb67	-0.063834004
114	0xbdc5e07d	-0.09661958
115	0xbd8b11eb	-0.06790527
116	0x3e4a0a40	0.19730473
117	0xbdcf0894	-0.10109058
118	0xbe06d114	-0.13165694
119	0xbdea4789	-0.114394255
120	0xbdba48b8	-0.09095901
121	0x3e2d6ed3	0.16936807
122	0xbdf727fe	-0.12068175
123	0xbd5128cd	-0.0510643
124	0xbe21b50f	-0.15791725
125	0xbe02e67f	-0.1278324
126	0xbe1b742a	-0.15181032
127	0xbdf04089	-0.11731059

fc3.weight f4 [1, 128]
0	0xbc1eb8fb	-0.0096876575
1	0xbc53cd49	-0.012927362
2	0x3c63c5c4	0.0139021315
3	0x3af4093c	0.0018618475
4	0x3cac20b8	0.021011695
5	0xbcd28260	-0.025696933
6	0x3bab9806	0.0052366285
7	0xbcafcbd9	-0.021459507
8	0xbc87c84e	-0.016575005
9	0x3c5dc557	0.013535819
10	0xbc44255d	-0.011971799
11	0x3c1bc83c	0.009508189
12	0xbc4df086	-0.012569552
13	0xbcbadd66	-0.02281065
14	0x3b36c1f7	0.0027886608
15	0x3c1ed9e4	0.009695504
16	0x3b0e325b	0.0021697495
17	0xbb23eee2	-0.0025014211
18	0x3cebf53d	0.028803462
19	0xbb4e03f5	-0.0031435464
20	0x3c6ecd8c	0.014575373
21	0xb9e6b700	-0.00044005364
22	0x3c8232f6	0.01589344
23	0x3c86413e	0.016388532
24	0x3c82be3b	0.01595985
25	0xbae2f0a6	-0.001731415
26	0x3ca6fe46	0.020384919
27	0x3a527c17	0.0008029355
28	0xbce7bbab	-0.02828773
29	0xbc3f451e	-0.011674194
30	0xba59038d	-0.0008278422
31	0x3a908c65	0.0011028169
32	0xbcf56490	-0.029955178
33	0xb8f21a04	-0.00011544305
34	0xbbffffd1	-0.007812478
35	0x3c05ea94	0.008173604
36	0x3cb13de5	0.021635959
37	0x3bf4bca4	0.007468777
38	0xbcbf5925	-0.023357937
39	0xbc1d1a64	-0.009588812
40	0xba9ca660	-0.0011951439
41	0x3c5f2ddf	0.013621776
42	0xbc7a1ed3	-0.015266138
43	0xbabab925	-0.0014245851
44	0x3c4caf56	0.012492975
45	0xbcd96397	-0.026536746
46	0x3b531acd	0.003221202
47	0x3c088be6	0.008334136
48	0xbb1a4a15	-0.0023542691
49	0xbcfd55ed	-0.030924762
50	0xbc3fceb1	-0.011706994
51	0x3b8dde62	0.0043294886
52	0xbc3e6c49	-0.011622497
53	0xbc5e9cd0	-0.013587192
54	0xbc53b31f	-0.012921124
55	0xbc907601	-0.017634394
56	0xbbac33bc	-0.0052551907
57	0xbc7b2cdf	-0.015330522
58	0x3c8bd642	0.01706994
59	0xbca516b6	-0.020152431
60	0x3c679f95	0.014137168
61	0x3b5a8d90	0.0033348538
62	0x3c636a6b	0.0138803525
63	0x3c228798	0.009920023
64	0xbc957cd6	-0.018248003
65	0xba1791ee	-0.0005781938
66	0xbc1d5912	-0.009603756
67	0xbbe9a55d	-0.0071303085
68	0xbcc1b642	-0.023646478
69	0x3cc8aae9	0.024495559
70	0xbb7a9137	-0.0038233527
71	0xbc333815	-0.010938664
72	0xbcae0728	-0.021243647
73	0xbcfe08ad	-0.031009996
74	0x38cfd68e	9.910493e-05
75	0x3b65e172	0.0035077003
76	0x3c92e462	0.017931167
77	0xbc9a3773	-0.018825268
78	0x3ba3920d	0.004991776
79	0x3c24d83c	0.01006132
80	0xbba6368a	-0.0050724195
81	0xbc57e7e6	-0.0131778475
82	0x3c9ccb44	0.019139893
83	0x3c1ffd75	0.009765019
84	0xbba9159f	-0.005160048
85	0xbc12df32	-0.008964347
86	0x3cd90c3d	0.026495093
87	0xbcb87704	-0.022517689
88	0xbc5155a2	-0.012776764
89	0x3bb62f12	0.0055598104
90	0x3c218952	0.0098594
91	0xbbedcfa7	-0.00725742
92	0xbbd1523b	-0.0063879765
93	0xbcd81d89	-0.026381271
94	0xbc9d5716	-0.019206565
95	0xbd01417d	-0.031556595
96	0xb91d2ae1	-0.0001498866
97	0x3c760c75	0.015017618
98	0xbac300ce	-0.0014877559
99	0xbc90d13f	-0.017677901
100	0xbcb6f022	-0.022331301
101	0x3bc3c34e	0.00597421
102	0xbbedbf56	-0.007255475
103	0xbc7a0857	-0.015260777
104	0x3ca62281	0.020280125
105	0xbc69c0f2	-0.014267193
106	0xbcc7917c	-0.024361365
107	0xbcaefc4b	-0.021360537
108	0xbcd33246	-0.025780808
109	0x3c665389	0.014058002
110	0x3c9cc3de	0.019136366
111	0xbc5a544b	-0.013325761
112	0xbc0b7e08	-0.008513935
113	0xbc82d15d	-0.015968973
114	0x3a30626b	0.00067285326
115	0xbcb5f254	-0.022210278
116	0xbc348e62	-0.011020275
117	0x3ce429c4	0.027851947
118	0xbcb78e16	-0.022406619
119	0x3c936672	0.017993186
120	0xbcc80b57	-0.02441947
121	0xbc2437d0	-0.010023072
122	0x3c947d4c	0.018126152
123	0xbcc28256	-0.02374379
124	0xbc9f7f0c	-0.01946976
125	0xbc92cdc2	-0.017920379
126	0x3d20b842	0.039238222
127	0x3ce7b95b	0.028286627
