results/results_5/agent1_critic.pth (torch, 185643 bytes, 5 tensors)

fcs1.weight f4 [256, 48]
0	0xbc939ef6	-0.018020134
1	0xbc740861	-0.014894576
2	0x3d56f9c0	0.052484274
3	0xbb8f886e	-0.0043802774
4	0x3d1635d6	0.036672436
5	0xbca94b4c	-0.020665787
6	0x3d62baca	0.055353917
7	0x3d6b136e	0.057391576
8	0xbd52e6be	-0.051489584
9	0x3ba5162f	0.005038045
10	0x3c8294c5	0.01594008
11	0xbd302f10	-0.043013632
12	0xbcb257c4	-0.021770366
13	0xbd17ea3f	-0.03708863
14	0x3bfd5592	0.007731148
15	0x3d823391	0.06357492
16	0xbd32d266	-0.043657683
17	0x3b9beb86	0.004758301
18	0x3d09ae59	0.033613537
19	0xbc43fb8a	-0.011961827
20	0x3aa81f5f	0.0012826732
21	0xbd3979e7	-0.04528227
22	0x3c97b159	0.018517183
23	0x3d1294f6	0.03578659
24	0xbd5ea8db	-0.054360252
25	0xbcf44037	-0.029815776
26	0xbd022f5c	-0.031783447
27	0x3d0ca01d	0.034332383
28	0x3cddc47b	0.027071228
29	0xbbc2d252	-0.0059454823
30	0x3c97c5b8	0.018526897
31	0x3c42efc7	0.011897988
32	0x3d5e00d0	0.054199994
33	0x3d055b17	0.032557573
34	0xbd1a35af	-0.037648853
35	0x3d6c2233	0.057649802
36	0xbc2d8413	-0.010590571
37	0x3d265e37	0.040617194
38	0xbd5553f3	-0.052082013
39	0xbd1548c9	-0.036446366
40	0x3c6fe6f6	0.014642468
41	0x3c1f976c	0.009740692
42	0x3bc81493	0.0061059683
43	0xbd1884d6	-0.037236057
44	0xbd06ba72	-0.03289265
45	0xbd89ac3b	-0.067223035
46	0xbc947d02	-0.018126015
47	0xbc1fd106	-0.009754425
48	0xbd180a83	-0.0371194
49	0x3d0c8322	0.034304745
50	0xb94bebed	-0.00019447478
51	0x3c98a316	0.018632453
52	0x3d2540b3	0.040344905
53	0x3ceaa932	0.028645132
54	0xbc72bc5d	-0.014815417
55	0x3d58fb11	0.05297381
56	0xbcfb2f78	-0.030662283
57	0x3d562d25	0.052289147
58	0xb91eab84	-0.00015131949
59	0x3c7204a3	0.014771613
60	0xbc883dee	-0.016631093
61	0x3c44a6bd	0.012002644
62	0x3d517a7f	0.051142212
63	0xbd8ddbe3	-0.06926706
64	0xbcde288d	-0.027118945
65	0xbd1e35c5	-0.038625497
66	0xbcc896be	-0.024485942
67	0xbdae4c1d	-0.08510611
68	0x3b7dbfe8	0.0038719121
69	0xbd811c94	-0.06304279
70	0x3ba7d1ad	0.005121431
71	0xbc967d47	-0.018370284
72	0xbcccd05e	-0.025001701
73	0x3cfb5eb2	0.030684803
74	0xbd3f39e0	-0.046686053
75	0xbc069c9d	-0.00821605
76	0x3c881aec	0.0166144
77	0x3ccffc5a	0.025388885
78	0x3c319ac3	0.010840121
79	0xbd9a6ecf	-0.07540666
80	0x3d3bbd9d	0.045835126
81	0xbc143c11	-0.009047524
82	0x3cc178e2	0.023617212
83	0xbd4117d2	-0.047141857
84	0x3cc6440c	0.02420237
85	0x3d0b66da	0.034033634
86	0x3cbf5ff0	0.023361176
87	0xbb9ae18d	-0.004726595
88	0xbd53153c	-0.051533923
89	0x3c490645	0.012269561
90	0x3cf4aff6	0.029869061
91	0xbdbf7ccb	-0.09349974
92	0xbd575797	-0.052573767
93	0xbcf4206c	-0.029800616
94	0x3ca3b121	0.019981923
95	0xbd0b4107	-0.03399756
96	0x3d8acc9f	0.067773096
97	0xbb8d220b	-0.0043070368
98	0xbd1939e1	-0.037408713
99	0xbd769494	-0.06020029
100	0x3d4874ca	0.048939504
101	0xbd235d33	-0.039883804
102	0xbd68415b	-0.056702953
103	0xbbc7eda6	-0.006101328
104	0x3bd7f30d	0.006590253
105	0xbcbc5b13	-0.022992646
106	0xbcc83995	-0.02444152
107	0xbd6f7eed	-0.058470655
108	0x3c81fe9e	0.015868481
109	0x3c898728	0.01678808
110	0x3c38d4fc	0.011281248
111	0x3b7817e6	0.0037856041
112	0xbca5d165	-0.020241449
113	0x3c1fec5e	0.009760944
114	0xbd1c72d0	-0.03819543
115	0x3d188161	0.03723276
116	0xbd7e86ce	-0.06214028
117	0xbc64f9cf	-0.013975575
118	0x3d6cae22	0.057783253
119	0x3d5ed453	0.054401707
120	0xbd4cd76c	-0.05001013
121	0x3d11edf8	0.035627335
122	0xbc6deb74	-0.014521468
123	0x3cb83cac	0.022489868
124	0xbd0528d8	-0.032509655
125	0xbd052ded	-0.0325145
126	0xbb75b200	-0.003749013
127	0x3b07aad4	0.0020701187
128	0xbd2e12ae	-0.042498283
129	0xbc4c76d9	-0.012479507
130	0xbd86b79a	-0.06577988
131	0xbc9f02ac	-0.019410454
132	0x39d3ed81	0.0004042201
133	0x3c086f16	0.008327266
134	0x3c6a0d21	0.014285357
135	0xbc1cbb46	-0.009566134
136	0x3d854c3d	0.06508682
137	0xbb84cbaf	-0.0040526013
138	0x3cd187de	0.025577482
139	0x3d81838d	0.063239194
140	0xbbb073f0	-0.0053849146
141	0xbb825c5f	-0.0039782966
142	0x3caf6ca8	0.021414116
143	0x3cf5f507	0.030024065
144	0x39dd0936	0.00042159267
145	0xbcb383b1	-0.021913381
146	0xbd0e46db	-0.03473554
147	0xbc4e2e0e	-0.0125842225
148	0x3d1a2d6b	0.03764097
149	0x3b75362f	0.003741633
150	0xbd8d673d	-0.06904457
151	0x3c8f3414	0.017480887
152	0x3d0f59f6	0.034997903
153	0x3d310173	0.043214273
154	0xbca7a933	-0.020466423
155	0xbd44c1d3	-0.048036408
156	0x3c979ded	0.018507922
157	0x3d1f16a5	0.038839955
158	0x3ca91052	0.020637665
159	0x3d6c6438	0.057712764
160	0xbc84285a	-0.016132522
161	0x3d18efff	0.037338253
162	0x3d3d42f4	0.04620643
163	0xbd2b4006	-0.041809104
164	0xbd4d6e4d	-0.05015402
165	0x3bf535d8	0.0074832253
166	0xbcae0481	-0.021242382
167	0xbcde8950	-0.027165085
168	0x3d076988	0.033059627
169	0xbae34484	-0.0017339145
170	0xbd09852b	-0.033574264
171	0x3cefe48b	0.029283782
172	0x3d845e95	0.064633526
173	0xbb214cee	-0.0024612504
174	0xbd3ab5e7	-0.04558363
175	0x3db43401	0.087989815
176	0x3d6321ff	0.055452343
177	0x3cc52ea9	0.0240701
178	0x3cce66c2	0.025195483
179	0xbd3b4611	-0.045721117
180	0x3c99afca	0.01876058
181	0xbd0f06ce	-0.0349186
182	0xbc12959e	-0.008946804
183	0xbd885b3b	-0.06658026
184	0xbd35e2fd	-0.044405926
185	0xbbb92de6	-0.0056512235
186	0x3d07165b	0.032980304
187	0x3c1af8f7	0.009458772
188	0xbd5413cb	-0.05177669
189	0x3cba5003	0.02274323
190	0x3ad9a383	0.0016604516
191	0x3bc0793a	0.0058738263
192	0xbc4b2ade	-0.012400357
193	0xbc6b81bd	-0.014374194
194	0xbc17908a	-0.009250769
195	0x3c87ff72	0.016601298
196	0x3cf5b814	0.029995002
197	0x3cdf5a5e	0.02726477
198	0x3d2f9796	0.042869173
199	0xbd7a0df3	-0.06104846
200	0x3d789104	0.060685173
201	0xbc5ba34f	-0.013405635
202	0x3ceed6e8	0.02915521
203	0xbc9e3e9a	-0.01931696
204	0x3b1ec6e0	0.0024227425
205	0xbcd4244c	-0.025896214
206	0x3d58ac8a	0.05289892
207	0xbcf0c247	-0.029389514
208	0xbcd1fe35	-0.02563391
209	0xbcbd18cd	-0.023083115
210	0x3cc6b564	0.024256416
211	0xbd01795e	-0.031609885
212	0x3cc48a27	0.023991657
213	0x3c08558f	0.00832118
214	0x3c8c92d1	0.017159851
215	0x3d13836b	0.036014
216	0xbbd317c8	-0.006442044
217	0xbd29e3a8	-0.041476876
218	0x3d07e8a4	0.033180848
219	0x3d4f5903	0.050621998
220	0xbbada67d	-0.005299388
221	0xbd0259cd	-0.031823922
222	0x3d33000e	0.043701224
223	0xbc84bae7	-0.016202403
224	0xbd38f998	-0.045159906
225	0xbd140ce6	-0.036145113
226	0xbd06a5ba	-0.032872893
227	0xbd3ba332	-0.045809932
228	0xbd375fa3	-0.04476894
229	0xbd427149	-0.04747132
230	0xbd26bc04	-0.04070665
231	0xbd192428	-0.037387997
232	0x3c78c557	0.015183768
233	0x3ba6fadd	0.005095823
234	0x3d2ec9db	0.042672973
235	0x3c94d9ec	0.01817032
236	0xbcd490fb	-0.025948038
237	0x3c3a8617	0.011384509
238	0x3ca59775	0.020213822
239	0x3bbc7b1d	0.005751981
240	0xbb6ac537	-0.0035823116
241	0xbd2a0fc5	-0.041518945
242	0x3d13b0e1	0.036057357
243	0xbc89078b	-0.01672723
244	0x3d8ad231	0.06778372
245	0xbd6c835f	-0.057742473
246	0xbc93df84	-0.018050916
247	0x3cbe94e8	0.023264363
248	0xbcdf1fa0	-0.02723676
249	0xbd67dd90	-0.056607783
250	0x3d02426f	0.031801637
251	0xbd62eafe	-0.055399887
252	0xbcbdad68	-0.023153976
253	0x3d26f4ce	0.040760808
254	0x3d3f505e	0.046707503
255	0x3d29b66a	0.04143373

fcs1.bias f4 [256]
0	0x3c2b189c	0.010442879
1	0x3c83300e	0.016014125
2	0xbc27b762	-0.010236593
3	0xbde54130	-0.11194074
4	0xbd45f647	-0.04833057
5	0x3d415d76	0.047208272
6	0xbd97f14a	-0.07419069
7	0x3e01f3e4	0.12690693
8	0xbcebcbae	-0.028783645
9	0xbd1a8888	-0.037727863
10	0xbdb451e0	-0.08804679
11	0x3d96c6a2	0.07362105
12	0x3e0df93a	0.13864604
13	0x3df380db	0.118898116
14	0xbe117c0b	-0.14207475
15	0xbbdbd9c4	-0.0067093093
16	0xbc5ad252	-0.013355808
17	0xbd1387e4	-0.036018267
18	0xbe074187	-0.1320859
19	0x3e151697	0.14559399
20	0x3dd52a17	0.104084186
21	0xbdedfbec	-0.11620316
22	0x3db26d21	0.08712221
23	0xbd1d2c38	-0.03837225
24	0x3dfd646f	0.12372672
25	0xbc663e9a	-0.014053011
26	0x3d950715	0.072767414
27	0xbc51df60	-0.012809604
28	0xbd0112e9	-0.031512175
29	0xbe101c3f	-0.14073275
30	0xbdcf7261	-0.10129238
31	0x3e0b744e	0.13618585
32	0x3e0263e3	0.12733416
33	0x3e11c995	0.14237054
34	0x3dda42ff	0.1065731
35	0xbe002b57	-0.12516533
36	0xbda75ad6	-0.081716225
37	0x3d0fae0a	0.035078086
38	0xbe13da1b	-0.1443867
39	0xbc3539b8	-0.0110611245
40	0x3d42be2c	0.047544643
41	0xbd362609	-0.044469867
42	0x3cd1fe3d	0.025633926
43	0x3bfa3daf	0.007636748
44	0xbd6e2d22	-0.05814851
45	0x3c235290	0.009968415
46	0x3d04b532	0.032399364
47	0xbdfe7236	-0.12424128
48	0x3e114cee	0.14189503
49	0x3e0d0f86	0.13775453
50	0xbe00f4bd	-0.1259336
51	0xbd1cbca8	-0.038265854
52	0xbc5c4691	-0.013444559
53	0xb9adb2fb	-0.00033130482
54	0xbd5ac47b	-0.053410035
55	0x3bae9002	0.0053272257
56	0x3d2a98df	0.041649695
57	0x3d2b438c	0.041812465
58	0x3d8be124	0.068300515
59	0x3cda6574	0.026659705
60	0x3d3f5fcc	0.04672222
61	0xbce47a2b	-0.027890285
62	0xbd03efb1	-0.03221101
63	0x3d82d2b9	0.063878484
64	0x3e0b698a	0.13614479
65	0x3c1720dd	0.009224144
66	0xbdf8c910	-0.12147725
67	0x3d4789b2	0.0487153
68	0xbddf95d0	-0.10917246
69	0x3d3ebf33	0.04656906
70	0x3e0bfea4	0.13671356
71	0xbde035e4	-0.10947779
72	0xbcae7c8c	-0.021299623
73	0x3e01902f	0.12652658
74	0x3d23c0f2	0.03997893
75	0x3e051d7c	0.12999529
76	0xbd932db2	-0.0718645
77	0xbc1f6f31	-0.0097311
78	0xbdc32f40	-0.095304966
79	0xbdc214e1	-0.094766386
80	0x3d17682a	0.036964573
81	0x3decc1b2	0.11560382
82	0x3e044685	0.12917526
83	0xbd30fc8b	-0.043209594
84	0x3e049a66	0.12949523
85	0xbdd47ee7	-0.10375767
86	0xbe101856	-0.14071783
87	0x3cfba46e	0.030718055
88	0x3dfd36dc	0.12363979
89	0x3dd6f28c	0.10495481
90	0xbdf7b6ea	-0.12095435
91	0xbcd88899	-0.026432322
92	0x3dfb49a4	0.12269905
93	0x3d823536	0.063578054
94	0xba89e5f6	-0.0010520804
95	0xbd8d6ea9	-0.069058724
96	0x3d35ac60	0.044353843
97	0x3df1865e	0.11793207
98	0x3d96f6f0	0.07371318
99	0x3d8298ec	0.06376824
100	0xbd8b2cfa	-0.06795688
101	0xbe144c0b	-0.14482133
102	0x3e065b9f	0.13120888
103	0x3d18d447	0.03731182
104	0x3c1a6eb0	0.009425804
105	0x3d420a76	0.047373258
106	0xbd8bcd13	-0.06826224
107	0xbdf35c25	-0.118828095
108	0x3da0c18c	0.07849416
109	0xbca3bf18	-0.019988582
110	0xbe104fad	-0.14092894
111	0xbcd592bb	-0.026070943
112	0xbcd00a69	-0.025395589
113	0xbdefc466	-0.11707382
114	0xbde8b511	-0.11362661
115	0xbd72ece2	-0.05930794
116	0xbdfa8b85	-0.122336425
117	0x3dabbe91	0.08385957
118	0xbe112a45	-0.14176281
119	0xbd8ec4ed	-0.06971154
120	0xbddb79f4	-0.1071662
121	0xbd5e8d91	-0.054334227
122	0xbe130e21	-0.14360859
123	0xbd8dc6d5	-0.0692269
124	0xbdde14e2	-0.10843827
125	0x3db5698b	0.08858021
126	0xbe095448	-0.13411057
127	0x3e046366	0.12928542
128	0x3e0b84ff	0.13624953
129	0x3cce6ce9	0.025198417
130	0xbc39dae5	-0.011343692
131	0xbd9591b0	-0.07303178
132	0xbdb2f711	-0.087385304
133	0xbddc2b67	-0.10750466
134	0x3cc1963e	0.023631211
135	0x3dfe6ff3	0.12423696
136	0xbd890856	-0.06691043
137	0xbd7b48d7	-0.061348762
138	0x3ca70485	0.020387897
139	0xbe09a408	-0.13441479
140	0xbd578aa6	-0.05262246
141	0xbdd4889d	-0.103776194
142	0xbe07b406	-0.13252267
143	0xbd40e2ee	-0.047091417
144	0x3dda9ae6	0.10674076
145	0x3d779a1d	0.06044971
146	0x3cec6501	0.028856756
147	0x3df9c1c7	0.12195163
148	0x3daffb7f	0.08592891
149	0x3bd43dbe	0.006477087
150	0x3cfd209d	0.03089934
151	0xbcd5bed4	-0.02609197
152	0x3d8d912e	0.069124565
153	0x3d01941f	0.0316354
154	0x3d659d36	0.05605813
155	0xbe10f4a9	-0.1415583
156	0xbd1117b4	-0.035422996
157	0x3d8201d7	0.06348007
158	0x3d6d01a6	0.0578629
159	0x3d04eee9	0.032454405
160	0xbd9838ee	-0.074327335
161	0x3dbbecfb	0.0917606
162	0xbd1487f0	-0.036262453
163	0xbdb59c4c	-0.08867702
164	0xbde1313a	-0.10995717
165	0x3a70e4ea	0.0009189384
166	0xbdf39a2c	-0.1189464
167	0x3db07b49	0.08617265
168	0x3c783c3d	0.015151081
169	0xbd2c1b52	-0.042018242
170	0x3dfeb1ea	0.12436278
171	0xbc0a3507	-0.008435494
172	0x3c90c06b	0.017669877
173	0x3db408f2	0.08790769
174	0x3cb4d4d5	0.022074142
175	0xbcb0551c	-0.021524958
176	0x3e08eacd	0.1337082
177	0xbdfc0c00	-0.12306976
178	0x3d895666	0.06705932
179	0x3cf7d685	0.030253658
180	0xbcab81cf	-0.020935921
181	0x3d1e893d	0.0387051
182	0x3c7b0cf7	0.015322915
183	0xbdbe254d	-0.09284458
184	0xbdd2dbf5	-0.1029586
185	0xbd9c47b2	-0.07630862
186	0x3e03f7f5	0.12887557
187	0x3ddebe72	0.10876168
188	0xbc14ab98	-0.009074114
189	0x3d7f7c1a	0.06237421
190	0x3dba2583	0.09089186
191	0x3e005ac5	0.12534626
192	0x3cfe5757	0.031047506
193	0x3dd689b1	0.10475481
194	0xbd64260f	-0.055700358
195	0x3d075a2a	0.03304497
196	0xbdc1cf57	-0.09463375
197	0xbdb78c16	-0.08962266
198	0xbce5934c	-0.028024338
199	0xbdf3c6e1	-0.119031675
200	0x3d2916ce	0.041281514
201	0x3dc01921	0.09379793
202	0x3cdeb4d7	0.02718584
203	0xbe10433d	-0.1408815
204	0x3d64e8d2	0.055886097
205	0x3df74886	0.120743796
206	0x3ce56898	0.028003976
207	0xbe0be2a7	-0.1366068
208	0xbcdf3234	-0.027245618
209	0x3e0819db	0.13291113
210	0xbda7ec23	-0.081993364
211	0xbde4cce9	-0.11171896
212	0x3ddbd648	0.1073423
213	0x3ddd6b0f	0.108114354
214	0xbbb11b6d	-0.0054048807
215	0x3dee6425	0.11640195
216	0xbe0edaf8	-0.13950717
217	0x3da64026	0.08117704
218	0xbe1686c8	-0.14699852
219	0xbd4aeb93	-0.049541067
220	0x3de3f1f5	0.11130134
221	0xbdae9153	-0.08523812
222	0xbde2d1dd	-0.110751845
223	0x3c9e6527	0.019335343
224	0x3e10b19c	0.14130253
225	0xbd83a6bd	-0.06428287
226	0xbdff9b38	-0.124807775
227	0x3d8eb10b	0.06967362
228	0x3ddc132a	0.10745843
229	0xbdb55698	-0.08854407
230	0xbda04286	-0.07825188
231	0x3d1bbf1b	0.03802405
232	0x3c4c896b	0.012483935
233	0xbdfba68e	-0.12287627
234	0xbce3ddb0	-0.02781567
235	0x3cadab93	0.021199977
236	0x3bea4b9b	0.007150126
237	0x3dd80b47	0.10549026
238	0x3da2117f	0.07913493
239	0x3caad4b5	0.02085338
240	0x3dcd0c3b	0.100120984
241	0xbe13b703	-0.14425282
242	0x3c96a9d6	0.018391531
243	0xbb9c9563	-0.0047785505
244	0xbdb588f2	-0.08864011
245	0xbd0373ae	-0.032092743
246	0xbd5126df	-0.05106246
247	0xbe13bec0	-0.14428234
248	0x3c5e2f48	0.013561077
249	0x3e15bc77	0.14622675
250	0xbdc4627f	-0.09589099
251	0xbc8077c0	-0.015682101
252	0xbcde35da	-0.027125288
253	0xbd9d94c8	-0.076943934
254	0x3d76a499	0.060215566
255	0xbe18b338	-0.14912117

fc2.weight f4 [128, 258]
0	0x3cb2dd1c	0.021833949
1	0xbdb36a96	-0.08760564
2	0x3d47c9c8	0.048776418
3	0x3d1e0c54	0.038585976
4	0xbdb281be	-0.087161526
5	0xbcff31ad	-0.031151617
6	0x3ccb86bd	0.024844522
7	0x3d8373dc	0.06418583
8	0xbdaae4b4	-0.08344403
9	0x3cc70327	0.024293495
10	0x3d05e0fa	0.032685257
11	0x3cf60bef	0.030034987
12	0xbd19c9de	-0.03754603
13	0x3d46be27	0.048521187
14	0x3d5582af	0.052126583
15	0x3d95b55b	0.073099814
16	0xbd97cb81	-0.07411862
17	0x3da98f51	0.082792886
18	0x3d07e2b8	0.0331752
19	0x3d029185	0.03187706
20	0xbd62c681	-0.05536509
21	0x3d6a78e9	0.057244215
22	0x3ab5848c	0.0013848706
23	0x3d14d672	0.036337323
24	0xbd8641f7	-0.065555505
25	0x3d0f71ff	0.035020825
26	0xbcadd11b	-0.021217873
27	0xbcefdef7	-0.029281123
28	0x3da31f0a	0.079649046
29	0x3a4d5e55	0.0007834186
30	0xbca69e6a	-0.02033921
31	0x3bdf33c4	0.006811591
32	0x3c7a1b2b	0.015265266
33	0xbd474e66	-0.04865875
34	0xbd07fd22	-0.03320039
35	0xbc975861	-0.01847476
36	0xbd9eefd4	-0.07760587
37	0x3daa4a6f	0.08314978
38	0xbbbc3dec	-0.0057446864
39	0x3d3970f0	0.04527372
40	0x3d86d02f	0.065826766
41	0xbd6b828e	-0.057497554
42	0x3cade6bb	0.021228185
43	0xbc5b0fb0	-0.013370439
44	0xbd675772	-0.05647988
45	0x3c9691d1	0.018380078
46	0xbdb4fb8b	-0.088370405
47	0x3d9647d1	0.07337917
48	0xbd129096	-0.03578242
49	0x3d14fcc4	0.03637387
50	0xbd0911a6	-0.033464096
51	0x3d1e0041	0.03857446
52	0xbcc2306a	-0.023704726
53	0x3d60661b	0.054784875
54	0x3d428fd7	0.047500458
55	0x3d7ef0fe	0.062241547
56	0x3d8328e2	0.06404282
57	0x3d3da172	0.046296544
58	0x3d6dceb4	0.058058456
59	0x3d5f2eda	0.05448804
60	0xbc8e3a60	-0.01736182
61	0xbd4e87e6	-0.05042257
62	0x3d60ccc4	0.05488278
63	0x3d9cdae6	0.07658939
64	0xbd3472b0	-0.044054687
65	0xbd80b878	-0.062851846
66	0xbbace4ba	-0.00527629
67	0xbce6c509	-0.028170126
68	0x3b3f0216	0.002914553
69	0x3c251e79	0.010078066
70	0x3d5ac844	0.053413644
71	0xbc1a41ca	-0.009415099
72	0xbd8c5701	-0.06852532
73	0xbd256e72	-0.040388532
74	0xbd623287	-0.055223968
75	0x3d77861c	0.06043063
76	0x3d918e79	0.07107253
77	0x3d1f2e49	0.0388625
78	0xbd468906	-0.04847052
79	0xbd49e2ff	-0.049288746
80	0x3d8a321c	0.06747839
81	0xbc205ab6	-0.009787252
82	0x3d9047e1	0.0704496
83	0xbca0d51c	-0.019632868
84	0x3cb5ef2c	0.022208773
85	0xbd96a6eb	-0.07356056
86	0x3d34e40b	0.04416279
87	0x3d4cf60b	0.050039332
88	0xbc1f6b97	-0.009730241
89	0x3d7f8f64	0.062392607
90	0x3cd53c6c	0.026029788
91	0x3d810037	0.06298869
92	0xbd6df49e	-0.058094613
93	0x3da14bbb	0.078757726
94	0xbd466597	-0.048436727
95	0x3d00ca38	0.03144285
96	0x3cbe7af7	0.023251994
97	0x3d3b7b8c	0.04577212
98	0xbd8586a6	-0.06519823
99	0x3da6fbfd	0.08153532
100	0xbd2d7654	-0.042349175
101	0x3bba786c	0.005690625
102	0xbdaed39f	-0.08536457
103	0xbb10adf0	-0.002207633
104	0x3bdb56d6	0.0066937013
105	0x3ab9217c	0.0014124359
106	0x3d85ee7c	0.06539628
107	0xbd7e05bd	-0.06201719
108	0xbcd50d81	-0.026007416
109	0xbb0c2a61	-0.0021387564
110	0xbb3b6b18	-0.0028597768
111	0xbd1d33dd	-0.03837954
112	0x3dabf068	0.08395463
113	0x3cbdc415	0.023164788
114	0xbd29787a	-0.04137466
115	0x3d6ff379	0.058581803
116	0xbb9ddff9	-0.0048179594
117	0xbd90ec78	-0.07076353
118	0xbd58e25d	-0.05295025
119	0x3d8684cf	0.065683
120	0x3d2e7a2e	0.04259699
121	0x3d104dd8	0.035230488
122	0xbc3e043c	-0.011597689
123	0xbd69fce0	-0.057125926
124	0x3d6c1558	0.057637542
125	0x3aa3f772	0.0012509658
126	0x3d8fc6ec	0.07020363
127	0xbdb1cfa2	-0.08682181
128	0x3da864e4	0.08222368
129	0x3dac4f66	0.084135816
130	0xbd4d3cac	-0.05010669
131	0x3d306242	0.043062456
132	0xbd50264d	-0.050817776
133	0x3ca551df	0.02018064
134	0x3da545a1	0.08069921
135	0x3d06fb98	0.032954782
136	0xbd4121b2	-0.047151275
137	0x3dabc06a	0.083863094
138	0x3cdf2cfa	0.027243126
139	0xbd98b41c	-0.07456228
140	0xbd8e9df7	-0.06963723
141	0xbdb31425	-0.08744077
142	0x3d5bda19	0.05367479
143	0xbc17f170	-0.009273872
144	0xbda484d4	-0.080331475
145	0x3dbcc93e	0.092180714
146	0xbaf39647	-0.0018584215
147	0xbc003a18	-0.007826351
148	0xbb9ea0e2	-0.004840956
149	0x3b558383	0.0032579608
150	0xbd62d7b4	-0.05538149
151	0xbc3194f6	-0.010838738
152	0x3ce5de09	0.028059976
153	0x3ced829f	0.028992949
154	0xbda0fd26	-0.07860784
155	0x3a18a611	0.00058230857
156	0x3cc99e2b	0.024611553
157	0x3da7f677	0.08201306
158	0xbbf89a80	-0.007586777
159	0x3da3a76f	0.0799092
160	0xbd837ebc	-0.06420657
161	0x3d271a53	0.04079659
162	0x3aa0906a	0.001225007
163	0x3a37869f	0.0007000956
164	0xbdacac51	-0.08431304
165	0x3d8de65a	0.06928702
166	0x3d01d761	0.031699542
167	0xbd97c579	-0.07410712
168	0xbcd937af	-0.02651581
169	0xbc47e116	-0.012199661
170	0x3cbc7da2	0.023009125
171	0x3d2f46e9	0.042792235
172	0xbd2475ef	-0.040151533
173	0x3d655049	0.05598477
174	0xbd51d932	-0.051232524
175	0xbc2cd5d5	-0.010549028
176	0xbc90cbdc	-0.017675333
177	0xbd23753c	-0.039906725
178	0x3da1892f	0.07887494
179	0x3c0f39f6	0.008741846
180	0x3ca15d10	0.019697696
181	0xbd8bb695	-0.06821934
182	0xbdb32137	-0.087465696
183	0xbcc1c980	-0.023655653
184	0x3c4ba26b	0.01242886
185	0x3d8875d7	0.06663101
186	0xbcff96d3	-0.031199848
187	0xbda4afa4	-0.08041313
188	0x3d342ebb	0.04398988
189	0x3d19ab03	0.037516605
190	0x3cd1fce8	0.02563329
191	0x3d997ab9	0.074941106
192	0x3d921a64	0.0713394
193	0xbd855677	-0.065106325
194	0x3c543f95	0.012954612
195	0xbd97a560	-0.0740459
196	0xba863157	-0.0010238093
197	0x3d89dfe1	0.06732155
198	0xbd506dde	-0.050886028
199	0xbc844a1c	-0.01614862
200	0x3d88fe8c	0.06689176
201	0x3d229eb9	0.03970215
202	0x3d2681ec	0.040651247
203	0xbd376f44	-0.044783846
204	0xbc47dde9	-0.012198904
205	0x3c9aca37	0.018895252
206	0x3d8483a3	0.0647042
207	0xbd68926a	-0.056780256
208	0xbcd32328	-0.0257736
209	0x3d7215d7	0.05910286
210	0x3d795a34	0.06087704
211	0x3c7bab99	0.015360736
212	0xbaaf1163	-0.0013356622
213	0x3d5c668b	0.05380873
214	0x3d97fdc9	0.074214526
215	0x3d95b800	0.07310486
216	0x3cc9f349	0.02465214
217	0x3d60222b	0.054720085
218	0x3d640068	0.05566445
219	0xbd5d6009	-0.054046664
220	0xbdb65b8d	-0.08904181
221	0xbd7f77f6	-0.062370263
222	0xbc82c8cd	-0.01596489
223	0xbd575a4e	-0.052576356
224	0xbd80ab57	-0.062826805
225	0xbda3820e	-0.0798379
226	0x3bf0cc51	0.007348575
227	0xbd66b362	-0.056323417
228	0x3c264e81	0.010150553
229	0xbdb63f99	-0.08898849
230	0xbd934937	-0.07191699
231	0xbc02e730	-0.00798969
232	0x3cdb64e7	0.026781512
233	0xbd302712	-0.04300601
234	0xbcd266a3	-0.025683707
235	0x3cea8778	0.02862905
236	0xbd32c9c7	-0.04364946
237	0x3db0d344	0.08634046
238	0xbd1ffa3b	-0.039056998
239	0xbdae11a5	-0.08499459
240	0x3d7d9cc3	0.061917078
241	0x3d81d9dd	0.06340382
242	0xbd8ddfe5	-0.0692747
243	0x3d8ab194	0.067721516
244	0x3d520567	0.051274683
245	0xbd0dff94	-0.034667566
246	0x3c3acc52	0.011401253
247	0x3dc215c4	0.09476808
248	0xbcc19bd4	-0.023633875
249	0xbd5d410c	-0.05401711
250	0xbda27819	-0.07933063
251	0xbcfd4211	-0.030915292
252	0xbd90a26c	-0.070622295
253	0xbd2651c7	-0.040605333
254	0x3da4700f	0.08029186
255	0x3d9ca6da	0.07649012

fc2.bias f4 [128]
0	0x3d171520	0.03688538
1	0x3d519127	0.05116382
2	0xbd20e1fc	-0.039278015
3	0xbcef8d4b	-0.029242178
4	0xbcbebd0a	-0.0232835
5	0xbd5b6039	-0.053558562
6	0xbd0f9120	-0.03505051
7	0x3ccb5796	0.024822038
8	0x3c2662eb	0.01015542
9	0xbd258492	-0.040409632
10	0xbd74444d	-0.05963545
11	0xbd10f7ba	-0.0353925
12	0xbd885a0e	-0.066578016
13	0x3d3439ba	0.044000365
14	0xbcc9d1b6	-0.02463613
15	0x3bb40671	0.005493932
16	0x3c5531ee	0.013012392
17	0xba787aec	-0.0009478766
18	0x3ca2742a	0.019830782
19	0x3d442b94	0.04789312
20	0x3d5ce8f7	0.05393311
21	0xbc3b3ca9	-0.011428037
22	0xbd830b6e	-0.063986644
23	0x3c810225	0.015748093
24	0xbce07f24	-0.027404375
25	0xbb9d0d08	-0.004792813
26	0x3c16d44d	0.00920589
27	0x3c9abe2a	0.018889505
28	0xbd8f2244	-0.069889575
29	0xbbc2d86b	-0.005946209
30	0x3d4ff7c5	0.0507734
31	0xbd3456f8	-0.044028252
32	0xbd244675	-0.040106256
33	0xbd308718	-0.043097585
34	0xbd8ae123	-0.06781223
35	0x3c347453	0.011014062
36	0xbca512fc	-0.020150654
37	0x3cf2f593	0.029658115
38	0xbd1740ca	-0.036927022
39	0x3c48fcd9	0.012267315
40	0x3d4dd201	0.050249103
41	0x3d20e6b4	0.039282516
42	0x3cec6ed5	0.028861443
43	0xbc193154	-0.00935014
44	0xbc2fb858	-0.010725103
45	0xbc47eafd	-0.012202022
46	0x3b44cac7	0.0030028091
47	0x3d184f92	0.03718526
48	0xbd5230fb	-0.051316243
49	0x3cb4ed06	0.022085678
50	0x3c560c42	0.013064446
51	0x3d02b1a4	0.031907693
52	0x3cde909f	0.02716857
53	0xbd36460c	-0.044500396
54	0x3d31d08c	0.043411776
55	0xbd49187a	-0.04909561
56	0xbc32d5e6	-0.010915255
57	0xbd850868	-0.06495744
58	0x3d2eccd3	0.042675804
59	0xbb16a24d	-0.0022984922
60	0xbd637f25	-0.055541176
61	0x3d31d2a2	0.043413766
62	0x3cf03dd9	0.029326366
63	0x3d05709a	0.03257809
64	0x3c2e2dcf	0.010631039
65	0xbd36530b	-0.04451279
66	0xbd17cc38	-0.037059993
67	0xbcb236b7	-0.021754606
68	0xbd3b2c9f	-0.04569685
69	0x3d1f28c9	0.038857255
70	0x3bfca4d0	0.007710077
71	0x3ac194e1	0.0014769101
72	0x3cb1429a	0.021638203
73	0xbd3592b7	-0.04432937
74	0xbd3cc44a	-0.046085633
75	0x3ca71a91	0.02039841
76	0xbd2c0de3	-0.04200543
77	0x3c92e8a7	0.017933203
78	0x3d166485	0.036716957
79	0xbd61cf94	-0.055129603
80	0xbc14d828	-0.009084739
81	0xbd1ee9a6	-0.038797043
82	0xbc969d55	-0.018385569
83	0x3d397cf8	0.045285195
84	0xbd6178ef	-0.055046972
85	0xbc58fa81	-0.013243319
86	0x3d0435d0	0.032277882
87	0xbd23e41f	-0.040012475
88	0x3d64c61b	0.05585299
89	0x3b41c6af	0.0029567888
90	0xbca39379	-0.019967781
91	0xbd0ae312	-0.033907957
92	0xbd4255cc	-0.047445104
93	0x3c6b9672	0.014379131
94	0x3ce0e066	0.027450752
95	0x3c18e5d5	0.00933214
96	0x3bea5ed1	0.0071524163
97	0x3d2fb3ce	0.042896084
98	0xbd3047ae	-0.04303711
99	0x3c8aaf6d	0.016929353
100	0x3cea8b1a	0.028630782
101	0x3d500adc	0.050791606
102	0x3cf8aa22	0.030354563
103	0xbbdb3090	-0.0066891387
104	0x3af73b1e	0.0018862223
105	0x3d0c478b	0.034247916
106	0xbd7ce9ef	-0.061746534
107	0xbd854a7e	-0.06508349
108	0x3bbbcc40	0.0057311356
109	0x3b8405ea	0.0040290253
110	0xbccbb7c7	-0.024867905
111	0xbcd72a0e	-0.02626517
112	0xbc8a8611	-0.016909631
113	0x3d1e69ec	0.038675234
114	0xbd2ed1ff	-0.042680737
115	0x3cceea74	0.02525828
116	0x3d1c90b5	0.03822394
117	0xbd933070	-0.07186973
118	0xbd16fe97	-0.03686389
119	0xbcd2d933	-0.025738334
120	0xbcdb9025	-0.026802132
121	0x3c5a5ebb	0.01332825
122	0xbd591158	-0.052995056
123	0x3ba6449d	0.0050740973
124	0xbd7a9b11	-0.06118304
125	0xbd5367a3	-0.051612508
126	0xbd2c0c77	-0.042004075
127	0xbcea1889	-0.028576152

fc3.weight f4 [1, 128]
0	0xbaa5046a	-0.0012589816
1	0xbb5274b7	-0.0032113024
2	0xbab8a256	-0.0014086466
3	0xba668cf0	-0.0008794805
4	0xba97f8d4	-0.0011594542
5	0xbabbbdea	-0.0014323567
6	0x3ad5d201	0.0016313196
7	0x3c028a19	0.007967495
8	0x3b310a95	0.0027014364
9	0xba0169d7	-0.0004936731
10	0xbb07716c	-0.002066697
11	0xb992f75c	-0.00028031587
12	0x3b2113b0	0.0024578385
13	0x3a8473e0	0.0010105334
14	0x3b1a2575	0.0023520861
15	0xbade21a1	-0.0016947278
16	0xbb6fc7d9	-0.0036587624
17	0x3a343f02	0.0006875844
18	0x3aaf9208	0.0013394961
19	0xbb2a5bc1	-0.002599463
20	0x3abecf78	0.001455768
21	0xbb17808f	-0.0023117398
22	0x3b1d6ab0	0.002401989
23	0xbada1650	-0.001663873
24	0xbaf21268	-0.001846862
25	0x3a6c7492	0.0009020056
26	0x3b58c206	0.0033074631
27	0xbb179fde	-0.002313606
28	0xba1cc4da	-0.0005980261
29	0x3b9949e1	0.0046779965
30	0xba2514e1	-0.00062973617
31	0x3b282b9c	0.002566076
32	0xbab9fe39	-0.0014190144
33	0xb937bb93	-0.00017522117
34	0xba8326cc	-0.0010006069
35	0xbac1b8a1	-0.0014779755
36	0xbb501eed	-0.0031756714
37	0xb9bbcbe9	-0.00035819344
38	0x3b5fa01a	0.0034122528
39	0x3aa8786f	0.0012853275
40	0xb8e740ea	-0.000110270295
41	0xbab74539	-0.0013982422
42	0xb9299e84	-0.00016176148
43	0xbb7f795f	-0.0038982255
44	0xbb981f4a	-0.004642402
45	0x394aecb4	0.000193524
46	0x3a30c030	0.00067425054
47	0xba6ef92d	-0.00091161096
48	0xbafa6dcc	-0.0019106208
49	0x3bab32f9	0.0052245823
50	0xba5d4ae5	-0.0008441641
51	0xba1ba3b7	-0.0005937176
52	0xbbb76b1d	-0.0055974857
53	0x3b2d4fef	0.002644535
54	0x398379c6	0.00025076995
55	0xbac2670a	-0.0014831733
56	0xba7aedf1	-0.0009572199
57	0xb9b4eef4	-0.0003451031
58	0x3ab4e11f	0.0013800001
59	0x3b896cde	0.004193886
60	0xba49102c	-0.00076699513
61	0xbae0207f	-0.0017099528
62	0x39176658	0.00014438608
63	0xbad54665	-0.001627159
64	0x3c8807ae	0.016605224
65	0xbc60be33	-0.013717222
66	0x3a73e371	0.0009303606
67	0xbaa66908	-0.0012696097
68	0xba382df5	-0.0007025891
69	0x3a044d1d	0.0005046891
70	0xbacb14ff	-0.0015493928
71	0xba217f8c	-0.00061606686
72	0x3aef2d8b	0.0018247826
73	0x38375726	4.3711763e-05
74	0xbb0c6007	-0.0021419541
75	0xbb5ff5f1	-0.0034173692
76	0xbaa0e235	-0.0012274446
77	0xbb273abc	-0.0025517186
78	0xbade910b	-0.0016980482
79	0x3aa415d4	0.0012518712
80	0x3c4e58fd	0.012594459
81	0xba415222	-0.00073746045
82	0xbac8dd77	-0.0015324791
83	0x3b22f4b0	0.0024865083
84	0xbaebf7e1	-0.0018002951
85	0xbb408caf	-0.002938073
86	0xbb138b14	-0.0022513317
87	0xba61d742	-0.0008615145
88	0xbae45190	-0.0017419327
89	0xbadfbcb3	-0.0017069787
90	0xba44a86f	-0.0007501905
91	0x3a34a15d	0.00068905
92	0xba44d277	-0.00075081683
93	0xba8df86d	-0.0010831483
94	0xbb85847c	-0.0040746313
95	0x3a5eef89	0.00085043214
96	0x3afa59d7	0.0019100261
97	0x3ae8bb2a	0.0017755975
98	0xb9b98e19	-0.0003539182
99	0xbac64f16	-0.0015129771
100	0x3ae98e7d	0.0017818954
101	0xbabf841f	-0.0014611519
102	0x3a0da53a	0.0005403344
103	0xbb32c83c	-0.0027279994
104	0x3a6569b7	0.00087514095
105	0x3c516884	0.012781266
106	0x3accc43c	0.0015622447
107	0xba1f6533	-0.00060804485
108	0x382f65bc	4.1818e-05
109	0xbbd5a519	-0.0065199253
110	0xbae0a059	-0.0017137631
111	0xbac56f0e	-0.0015063004
112	0xba855dfc	-0.0010175104
113	0xb9c3ce73	-0.00037347115
114	0x3a2fbc78	0.0006703804
115	0x3a17c9a1	0.0005790238
116	0xbb04466e	-0.002018358
117	0xba160aea	-0.0005723672
118	0x3ac61b91	0.0015114417
119	0xbc6b1be0	-0.014349908
120	0x3a65a1c3	0.0008759761
121	0xbb242e5e	-0.002505205
122	0x3be72440	0.007053882
123	0xba45302c	-0.0007522132
124	0xbbc41249	-0.005983625
125	0xbb037010	-0.0020055808
126	0x39be91b8	0.00036348193
127	0x3b14d846	0.0022711917
