results/results_5/agent1_actor.pth (torch, 185131 bytes, 6 tensors)

fc1.weight f4 [256, 48]
0.027010063 -0.15484051 0.053190447 -0.0049798586 0.06652459 -0.021360625 0.058246102 0.04836443
0.029196078 -0.06434608 -0.17426017 -0.007338026 -0.011372224 -0.016991913 -0.112437494 0.0833923
0.05912373 -0.11992664 -0.03231434 -0.031033635 -0.1306967 0.09019438 0.006242203 0.03906938
0.030783914 -0.12055231 -0.005637157 -0.086392894 -0.068842776 -0.07425936 0.089160405 -0.08088158
0.06681951 -0.1033031 -0.031096466 -0.02814656 -0.008567855 -0.015259504 -0.06394716 0.018892674
0.056028962 -0.089644715 0.00029830635 -0.07938473 0.13986352 0.095197484 0.04694986 -0.047118347
0.004131313 0.06675447 -0.07556167 -0.118844576 -0.008848995 -0.08104828 -0.042593885 -0.09495182
0.028105747 0.053419862 -0.015620672 -0.1632043 -0.047148757 -0.015756706 0.07356883 -0.12431191
-0.031246139 0.04757583 0.006066926 -0.11848101 -0.084737085 -0.076913945 -0.0083244005 -0.16331136
-0.035027668 0.17382056 -0.013313928 -0.015057689 -0.038599987 -0.08641659 -0.017187886 -0.064557895
-0.0034103126 0.061867427 0.060951784 0.041335545 0.042057216 -0.12392455 0.034076992 -0.024224283
-0.024257625 0.10894346 0.063391924 -0.06511915 -0.018520553 -0.052151516 -0.007408534 -0.02534814
0.047363512 -0.07311426 0.09055549 -0.017842023 -0.03379909 0.051251896 0.06275732 0.074974604
0.025093837 -0.09030191 -0.033285238 0.051500622 -0.015074573 0.10251332 -0.06400576 -0.030565077
0.027127152 0.029060313 -0.10063305 -0.03633811 -0.028086472 0.010040243 -0.11633288 -0.021521693
0.023551242 -0.07054054 -0.057210475 0.018907372 -0.0017760658 0.050592132 0.010945384 -0.004517101
-0.050203647 -0.0057817637 -0.020398008 0.020977546 -0.03048566 0.11935317 0.04137336 -0.07742951
0.06302607 0.02469073 -0.013061948 -0.08175627 0.012422791 -0.023954498 0.09352664 -0.11350227
0.0025106259 -0.072325684 0.108666986 0.032208554 0.038699362 0.025907636 0.1564154 -0.033455037
-0.013470286 -0.14267871 0.09845241 0.05139563 0.06797991 0.005965977 0.07601801 0.0740905
0.09202749 -0.08744007 0.14779991 0.041013792 0.071945444 -0.124915466 0.05370301 0.061993383
-0.012319134 -0.059121348 -0.015752008 -0.05098676 -0.13708526 -0.011911155 0.011729336 -0.05368998
-0.0010620465 -0.098528095 0.01535939 -0.024357766 -0.0375045 -0.038563244 0.049700744 -0.089644894
0.05030621 -0.055500973 0.017167026 -0.039863948 -0.0126625905 -0.01404828 -0.06687165 -0.05249392
-0.044071797 -0.1961734 -0.08558295 -0.045111597 0.033325996 -0.029582694 -0.01884722 -0.071164764
0.036284644 -0.18253523 -0.07673359 -0.011067697 0.12576282 -0.0035482063 -0.14392428 0.029405227
0.03598644 -0.04816298 0.07380398 0.023755947 -0.022533568 -0.007138537 0.116219245 -0.042439196
0.048682183 -0.049788862 -0.055611506 -0.21713778 -0.10394249 0.007408731 0.0038905614 -0.09683948
0.015796095 -0.11171965 -0.14171325 0.029403586 -0.13242638 -0.07776907 -0.087614305 -0.032629788
0.015256313 -0.07242467 -0.1051294 -0.032130264 0.08056039 -0.032648567 -0.042873066 -0.085784085
0.027724355 -0.11232511 0.112752035 -0.007036259 0.004113873 0.051474806 0.12992106 -0.008504054
0.061577298 -0.09155538 0.020871956 0.019500727 -0.020531343 0.0053973696 0.00045218258 0.015408417
00000000: 3544 dd3c 838e 1ebe 3ade 593d 152e a3bb
00000010: 0b3e 883d 7afc aebc 7793 6e3d c819 463d
00000020: 9d2c ef3c e1c7 83bd 4271 32be d373 f0bb
00000030: 9152 3abc a032 8bbc a145 e6bd 95c9 aa3d
00000040: b92b 723d 199c f5bd 0b5c 04bd 403a febc
00000050: 5bd5 05be d5b7 b83d 658b cc3b 3707 203d
00000060: 8c2e fc3c 21e4 f6bd e6b7 b8bb c2ee b0bd
00000070: 71fd 8cbd 4b15 98bd bb99 b63d 3ea5 a5bd
00000080: abd8 883d 9390 d3bd 04be febc 9d93 e6bc
00000090: 3060 0cbc 0003 7abc bbf6 82bd cfc4 9a3c
000000a0: a07e 653d a697 b7bd 0066 9c39 7694 a2bd
000000b0: 6238 0f3e e6f6 c23d 7f4e 403d 2bff 40bd
000000c0: f75f 873b 91b6 883d 14c0 9abd c964 f3bd
000000d0: 60fb 10bc a4fc a5bd ed76 2ebd 1a76 c2bd
000000e0: 063e e63c c9ce 5a3d d9ed 7fbc 071f 27be
000000f0: 0e1f 41bd 3514 81bc 41ab 963d 3e97 febd
00000100: e7f7 ffbc e0de 423d 10cd c63b 2ca6 f2bd
00000110: a38a adbd 0f85 9dbd 1163 08bc 183b 27be
00000120: 2c79 0fbd 04fe 313e a922 5abc 86b4 76bc
00000130: 051b 1ebd 2efb b0bd 9ccd 8cbc ee36 84bd
00000140: 8d7f 5fbb b368 7d3d 94a8 793d 764f 293d
00000150: 3044 2c3d 28cc fdbd 5194 0b3d 0172 c6bc
00000160: edb7 c6bc c01d df3d a0d3 813d 305d 85bd
00000170: 6ab8 97bc d49c 55bd 4ac3 f2bb e7a6 cfbc
00000180: 3e00 423d eebc 95bd 2875 b93d 6f29 92bc
00000190: ea70 0abd 82ed 513d e986 803d 498c 993d
000001a0: 9791 cd3c 35f0 b8bd 1a56 08bd 51f2 523d
000001b0: 58fb 76bc 81f2 d13d 7415 83bd 9d63 fabc
000001c0: c339 de3c e50f ee3c b318 cebd 45d7 14bd
000001d0: 9a15 e6bc d57f 243c ef3f eebd 434e b0bc
000001e0: 89ee c03c 8f77 90bd 8855 6abd a2e3 9a3c
000001f0: e1ca e8ba b239 4f3d 4554 333c 3104 94bb
00000200: 57a2 4dbd f374 bdbb b919 a7bc 1ad9 ab3c
00000210: 10bd f9bc 6f6f f43d 1d77 293d 5d93 9ebd
00000220: d013 813d 3744 ca3c c801 56bc d56f a7bd
00000230: f688 4b3c 393c c4bc e58a bf3d e173 e8bd
00000240: 5089 243b 7d1f 94bd cc8c de3d 1eed 033d
00000250: 3983 1e3d 403c d43c 5c2b 203e 2608 09bd
00000260: 79b2 5cbc 5e1a 12be 6ba1 c93d 3984 523d
00000270: 0d39 8b3d 3e7e c33b 55af 9b3d c3bc 973d
00000280: e978 bc3d c813 b3bd dc58 173e 14fe 273d
00000290: 2258 933d aed3 ffbd b0f7 5b3d c6ec 7d3d
000002a0: 31d6 49bc 3a29 72bd 5b0a 81bc 7ed7 50bd
000002b0: 1460 0cbe 0127 43bc 672c 403c 06ea 5bbd
000002c0: 5e34 8bba 19c9 c9bd f3a5 7b3c f089 c7bc
000002d0: 529e 19bd 7ef4 1dbd 0293 4b3d be97 b7bd
000002e0: e20d 4e3d fd54 63bd dda1 8c3c 6148 23bd
000002f0: c176 4fbc c22a 66bc 01f4 88bd dd03 57bd
00000300: a184 34bd aee1 48be 1d46 afbd f0c6 38bd
00000310: d780 083d 6857 f2bc 7c65 9abc d5be 91bd
00000320: 359f 143d 84ea 3abe 8026 9dbd 4955 35bc
00000330: f8c7 003e 0689 68bb e360 13be 3be3 f03c
00000340: 8466 133d 8b46 45bd 8b26 973d d59b c23c
00000350: 5198 b8bc 63ea e9bb 5b04 ee3d b9d4 2dbd
00000360: f866 473d 68ef 4bbd e4c8 63bd 5e59 5ebe
00000370: cddf d4bd f1c4 f23b caf8 7e3b c753 c6bd
00000380: d066 813c 46cd e4bd 471d 11be cadf f03c
00000390: c89a 07be 6445 9fbd 216f b3bd d0a6 05bd
000003a0: 9df5 793c 6353 94bd 154e d7bd 069b 03bd
000003b0: d9fc a43d 81ba 05bd ab9b 2fbd 91af afbd
000003c0: 301e e33c b50a e6bd 8aea e63d 6b90 e6bb
000003d0: abcd 863b 3fd7 523d 070a 053e 9654 0bbc
000003e0: 7a38 7c3d 6381 bbbd aafb aa3c fdbf 9f3c
000003f0: 5931 a8bc 6bdc b03b eb12 ed39 9673 7c3c

fc1.bias f4 [256]
-0.007669733 -0.0049145417 -0.0354704 -0.116327226 -0.08132187 0.004201682 -0.09308946 0.08743598
-0.043674238 -0.05536351 -0.015809502 0.030687466 0.09952597 0.10311237 -0.16002986 -0.047219712
-0.07116296 -0.06269432 -0.13774033 0.09973056 0.03719586 -0.14342415 -0.011456981 0.105879374
0.07665307 -0.0736004 0.061382454 -0.019335965 -0.08446771 -0.12176008 -0.0037423943 0.11033798
0.09309657 0.16420878 0.07204816 -0.17047678 -0.13263577 -0.021010121 -0.17437875 -0.03445341
0.071133986 -0.09130314 -0.004410206 -0.01490608 -0.10701093 -0.01729791 -0.036363438 -0.14126886
0.12515867 0.11921797 -0.08934014 -0.049945515 -0.018899547 -0.0393634 0.04088067 -0.06326835
0.027619936 0.015961524 0.04476789 -0.021744505 0.008233294 -0.05181109 -0.073784664 0.016386773
0.1332319 -0.04477261 -0.13613659 0.04981403 -0.17193432 -0.0030621828 0.13002113 -0.14805101
-0.060636997 0.112420656 -0.006076541 0.08862458 -0.078210786 -0.05073829 -0.1509004 -0.023140144
0.023115216 0.07471567 0.11050401 -0.09960993 0.09585578 -0.08003092 -0.14911243 -0.017053455
0.14540417 0.07425939 -0.14375284 -0.045199633 0.08333647 0.064175695 -0.06907015 -0.089910746
0.04446413 0.13417605 0.06461703 0.06398764 -0.08147268 -0.21459317 0.11151861 -0.01707607
-0.03724509 0.03542093 -0.04288799 -0.14328635 0.04375502 -0.058086794 -0.14646874 -0.05051285
-0.041321896 -0.09388268 -0.12531395 -0.060283206 -0.13274941 0.019347697 -0.20670074 -0.14206244
-0.09449965 -0.08419106 -0.19145468 -0.04984074 -0.065976754 0.08750055 -0.13284008 0.111336865
0.124606505 0.007836941 -0.035648897 -0.12996967 0.041593675 -0.15598297 -0.046274133 0.11166089
-0.060785294 -0.06809918 6.4660344e-05 -0.18911383 -0.061614208 -0.08298582 -0.108374685 -0.0561297
0.105907366 0.035613094 0.057252426 0.12477024 0.049284473 0.007438435 -0.0063665016 -0.06285459
0.0034175455 0.122627206 0.030102259 -0.17002058 -0.04673082 0.0406351 -0.009139299 0.027344791
-0.0721583 0.09883566 -0.0474266 -0.1338289 -0.096512504 0.016393926 -0.12796703 0.052114826
0.022405123 -0.060686894 0.08686421 0.019453054 0.0054891217 0.07510744 -0.014323544 -0.03512254
0.09634866 -0.15512964 0.0807299 0.0136787705 -0.050121363 0.037895977 0.00042989574 -0.123564914
-0.100701384 -0.0958282 0.13647227 0.061988607 -0.0671735 0.05706439 0.18794388 0.088517085
0.0062145945 0.10056923 -0.08659646 0.030497076 -0.091643766 -0.14612038 -0.04171684 -0.14808685
0.044150475 0.03168743 0.021747226 -0.10752503 0.016379585 0.10768865 0.0070404583 -0.17643069
-0.05758449 0.19074324 -0.11835743 -0.0673359 0.08407823 0.09342999 -0.04531363 0.14411408
-0.142865 0.06766571 -0.13755329 -0.03956294 0.10356253 -0.09710889 -0.17682138 0.037062526
0.13452117 -0.07362884 -0.2090498 0.04729685 0.07182505 -0.14447165 -0.1102068 0.017112458
-0.028032951 -0.16215912 -0.05129071 0.12068574 -0.03784706 0.09246645 0.042557444 -0.09335793
0.056950055 -0.147545 0.06091841 -0.04767011 -0.10491135 -0.08663605 -0.037380937 -0.19277461
0.05850698 0.1081479 -0.14090571 -0.045922916 -0.03842508 -0.1174424 0.052137695 -0.13499084
00000000: 6252 fbbb 2a0a a1bb 6949 11bd f83c eebd
00000010: 158c a6bd 43ae 893b b0a5 bebd a311 b33d
00000020: c2e3 32bd d9c4 62bd ee82 81bc 4864 fb3c
00000030: 46d4 cb3d 942c d33d dede 23be 7569 41bd
00000040: e3bd 91bd e165 80bd cd0b 0dbe 893f cc3d
00000050: b05a 183d c8dd 12be 10b6 3bbc 49d7 d83d
00000060: 49fc 9c3d cebb 96bd 2b6c 7b3d 7566 9ebc
00000070: 68fd acbd 595d f9bd f542 75bb e1f8 e13d
00000080: 6aa9 be3d 5926 283e fc8d 933d 7791 2ebe
00000090: acd1 07be 6b1d acbc 5890 32be 051f 0dbd
000000a0: b2ae 913d 24fd babd 7d83 90bb a238 74bc
000000b0: 8c28 dbbd 59b4 8dbc d4f1 14bd c9a8 10be
000000c0: 9829 003e 8d28 f43d f7f7 b6bd ab93 4cbd
000000d0: 39d3 9abc 843b 21bd 7d72 273d d692 81bd
000000e0: 3443 e23c bec1 823c 895e 373d 8821 b2bc
000000f0: f0e4 063c de37 54bd 6a1c 97bd 8e3d 863c
00000100: f16d 083e 7c63 37bd 6467 0bbe cc09 4c3d
00000110: 8d0f 30be e7ae 48bb 4224 053e af9a 17be
00000120: 805e 78bd cd3c e63d b81d c7bb ce80 b53d
00000130: fa2c a0bd f4d2 4fbd a285 1abe 6690 bdbc
00000140: 1f5c bd3c 8704 993d ed4f e23d 4a00 ccbd
00000150: 0950 c43d 40e7 a3bd eeb0 18be b0b3 8bbc
00000160: d5e4 143e 4f15 983d f233 13be 4023 39bd
00000170: 50ac aa3d 8c6e 833d a774 8dbd 2023 b8bd
00000180: 0520 363d 7265 093e ef55 843d f40b 833d
00000190: 26db a6bd 50be 5bbe de63 e43d 1de3 8bbc
000001a0: 4f8e 18bd 8915 113d 51ab 2fbd a8b9 12be
000001b0: 7738 333d 6bec 6dbd e7fb 15be 90e6 4ebd
000001c0: 2641 29bd 9045 c0bd 4d52 00be 86eb 76bd
000001d0: 76ef 07be 107f 9e3c 5ca9 53be d178 11be
000001e0: 0889 c1bd 5d6c acbd b20c 44be ce25 4cbd
000001f0: d21e 87bd 7d33 b33d 3b07 08be 9504 e43d
00000200: b231 ff3d 8366 003c 9404 12bd c516 05be
00000210: 215e 2a3d 00ba 1fbe f289 3dbd 77ae e43d
00000220: 00fa 78bd 9577 8bbd 429a 8738 0ea7 41be
00000230: 2e5f 7cbd 78f4 a9bd 8cf3 ddbd 42e8 65bd
00000240: f6e5 d83d 09df 113d 8581 6a3d 8a87 ff3d
00000250: 84de 493d 1ebe f33b 169e d0bb e8b9 80bd
00000260: e6f8 5f3b f923 fb3d 0399 f63c e019 2ebe
00000270: d168 3fbd fe70 263d 00bd 15bc 2f02 e03c
00000280: bbc7 93bd 5a6a ca3d 6542 42bd 710a 09be
00000290: 59a8 c5bd 8e4c 863c ca09 03be 5b76 553d
000002a0: f38a b73c d292 78bd dde5 b13d 035c 9f3c
000002b0: 17de b33b eed1 993d 4cad 6abc a7dc 0fbd
000002c0: 7252 c53d 4eda 1ebe b855 a53d ec1c 603c
000002d0: 0f4c 4dbd d038 1b3d a163 e139 9a0f fdbd
000002e0: 873c cebd 9341 c4bd 63bf 0b3e c4e7 7d3d
000002f0: 4392 89bd 5abc 693d 5c74 403e 7248 b53d
00000300: cca3 cb3b 3ef7 cd3d 7c59 b1bd 01d5 f93c
00000310: baaf bbbd 95a0 15be 47df 2abd 14a4 17be
00000320: 21d7 343d aeca 013d 3d27 b23c 1536 dcbd
00000330: 7b2e 863c de8b dc3d a5b3 e63b 3faa 34be
00000340: b7dd 6bbd 3252 433e 6165 f2bd 68e7 89bd
00000350: 3531 ac3d 3958 bf3d c99a 39bd a492 133e
00000360: 344b 12be 5294 8a3d c5da 0cbe c00c 22bd
00000370: 9718 d43d 07e1 c6bd aa10 35be e0ce 173d
00000380: ebbf 093e b8ca 96bd 2711 56be 57ba 413d
00000390: 0319 933d 60f0 13be 1ab4 e1bd 6d2f 8c3c
000003a0: 5ca5 e5bc 0a0d 26be 3516 52bd 162a f73d
000003b0: 8505 1bbd 0d5f bd3d b750 2e3d 7132 bfbd
000003c0: 7644 693d 0916 17be 9585 793d bc41 43bd
000003d0: c3db d6bd 3e6e b1bd c11c 19bd b566 45be
000003e0: 04a5 6f3d a57c dd3d 9649 10be ab19 3cbd
000003f0: 9e63 1dbd a485 f0bd 568e 553d 0a3b 0abe

fc2.weight f4 [128, 256]
-0.02846053 0.016879754 0.08055903 -0.016011503 0.0292707 0.024477376 0.03848076 0.011416411
-0.041416273 -0.034345176 0.11573473 0.045195807 -0.052397843 -0.007415807 0.10823753 -0.0054739593
-0.049375653 -0.017706309 -0.05868053 -0.0063570393 -0.057021823 0.022844018 -0.11117351 -0.008139751
-0.05407501 -0.0024670013 0.0026600326 0.0843781 -0.06485717 -0.029208029 -0.1310597 -0.034487203
0.09367528 0.0654721 -0.06484793 0.005646753 -0.023236245 -0.015834644 -0.004273964 -0.039725598
-0.117546715 0.07144997 -0.05469507 -0.05851911 -0.027984718 -0.054622754 -0.01800831 0.11434013
-0.03651959 0.0897025 0.12042987 -0.025826177 0.04421857 0.05525574 -0.022019163 -0.037309118
-0.024027063 0.055960763 -0.015200846 0.09485585 0.031428277 0.013673045 0.030147022 -0.014798912
0.02448176 0.1108543 0.008231636 -0.034663398 -0.020023445 0.0014970719 0.026312063 -0.0089573255
0.083628766 0.033734117 0.064635545 0.08894833 0.01954166 -0.0029625744 -0.008895956 -0.014676258
0.009136417 -0.014021623 0.052938502 0.021582603 0.028636567 0.07404816 0.091922194 0.07991182
-0.052590463 0.1233729 -0.027060963 -0.06765848 0.034171257 -0.0106203295 0.08265625 0.019975452
-0.043004457 0.008520049 0.035774447 0.090798125 0.08168237 -0.04610578 0.09941163 -0.058786605
0.0043608905 0.1189489 0.016760862 -0.0038862568 -0.0019825085 -0.091298126 0.10954179 0.09467481
-0.037822653 -0.06676077 -0.05467038 0.03631318 -0.028194407 0.019302476 -0.06546983 -0.01767894
0.013679864 -0.026463607 -0.050224815 -0.05033027 0.12035196 -0.006387758 0.14514701 0.029403975
-0.105314545 0.06314579 0.058864668 -0.052808646 -0.07620342 0.052275565 0.110853195 -0.054858092
0.05158508 0.06041329 0.046105776 -0.0080038095 0.07160583 0.08750275 0.08413196 -0.037570935
0.14720128 0.019897109 0.10655029 -0.01782554 0.09112883 0.023810348 0.06710608 -0.031876445
-0.031267498 -0.043761678 -0.0053718765 0.095325954 0.04709252 0.030410727 0.03918174 -0.0034631025
-0.0044962796 -0.09609631 -0.04535194 -0.04230327 0.13589083 0.02430377 0.1310453 0.1058996
-0.1340606 0.031231925 -0.009857152 0.00068393786 0.04975531 -0.03135742 0.085792795 -0.029686013
0.046955954 -0.036366597 0.08338577 -0.0026516442 0.0680563 0.09327944 0.03039608 0.07318922
0.05981693 0.060716487 0.10438517 0.018139858 -0.031182347 0.06472809 0.0102504045 -0.022948029
-0.03033151 0.024594156 -0.050142698 0.03487606 -0.016853789 0.083222926 -0.0050958665 -0.0859456
0.035490256 -0.027424127 0.09882063 0.1517224 0.057074144 -0.013186037 -0.0022663397 0.09205752
-0.0481872 0.12296016 0.02233968 0.04695944 -0.010735148 0.10749606 0.056787055 -0.022216864
0.06748744 0.04954089 0.10214035 -0.075791806 0.08835762 -0.005537241 0.034435574 -0.08061315
0.04816947 -0.023208361 0.050822414 -0.014006369 0.017944999 -0.06866724 0.013391479 0.019082842
0.058313135 0.07919291 -0.06181346 -0.04920925 0.026372008 -0.014428887 -0.0027228286 0.054644406
0.04653025 -0.04835925 0.11572556 0.024829978 -0.04733911 -0.034425087 0.10588528 0.06651466
-0.025149776 0.022922838 -0.06376942 0.0933149 0.037708107 0.110690676 -0.0608554 0.052453086
00000000: 0f26 e9bc 6947 8a3c 22fc a43d 8e2a 83bc
00000010: 1bc9 ef3c c784 c83c 009e 1d3d e60b 3b3c
00000020: 1ca4 29bd 87ad 0cbd 5506 ed3d 3d1f 393d
00000030: 1f9f 56bd 4c00 f3bb a3ab dd3d e65e b3bb
00000040: 203e 4abd d20c 91bc ff5a 70bd b64e d0bb
00000050: b78f 69bd 6123 bb3c f0ae e3bd 975c 05bc
00000060: c27d 5dbd 6aad 21bb f153 2e3b 6dce ac3d
00000070: d6d3 84bd ad45 efbc 8434 06be 7442 0dbd
00000080: d3d8 bf3d 3d16 863d fece 84bd 6608 b93b
00000090: f059 bebc a8b7 81bc 9c0c 8cbb 4fb7 22bd
000000a0: 55bc f0bd 5d54 923d f007 60bd bcb1 6fbd
000000b0: 3540 e5bc 1cbc 5fbd 2a86 93bc 282b ea3d
000000c0: 9195 15bd f2b5 b73d f0a3 f63d 6b91 d3bc
000000d0: 881e 353d d853 623d 8861 b4bc 72d1 18bd
000000e0: 67d4 c4bc 1d37 653d f80c 79bc c943 c23d
000000f0: f0ba 003d e804 603c e3f6 f63c 2377 72bc
00000100: f98d c83c 9407 e33d fcdd 063c 35fb 0dbd
00000110: 3508 a4bc 6639 c43a 658c d73c bfc1 12bc
00000120: 8f45 ab3d c92c 0a3d a45f 843d 8b2a b63d
00000130: d515 a03c c027 42bb 58c0 11bc b074 70bc
00000140: e9b0 153c f3ba 65bc 0bd6 583d 00ce b03c
00000150: 3c97 ea3c 90a6 973d b441 bc3d cfa8 a33d
00000160: 1969 57bd eeaa fc3d f4ae ddbc 8790 8abd
00000170: 29f7 0b3d e400 2ebc ae47 a93d 8fa3 a33c
00000180: 7125 30bd ad97 0b3c 3a88 123d 5ef4 b93d
00000190: 1649 a73d 6ad9 3cbd 5398 cb3d 39ca 70bd
000001a0: cde5 8e3b 7b9b f33d 134e 893c 92b0 7ebb
000001b0: f9ec 01bb 83fa babd 7257 e03d dee4 c13d
000001c0: edeb 1abd dfb9 88bd 0cee 5fbd 21bd 143d
000001d0: f5f7 e6bc 3a20 9e3c 0c15 86bd 6dd3 90bc
000001e0: 8221 603c 35ca d8bc 89b8 4dbd 1d27 4ebd
000001f0: 177b f63d 6650 d1bb 6ba1 143e 9be0 f03c
00000200: 27af d7bd 9452 813d 141c 713d e14d 58bd
00000210: 8a10 9cbd e71e 563d 0007 e33d e1b2 60bd
00000220: e04a 533d ed73 773d 69d9 3c3d 6922 03bc
00000230: 14a6 923d a434 b33d 614d ac3d fbe3 19bd
00000240: efbb 163e 43ff a23c 0a37 da3d de06 92bc
00000250: c1a1 ba3d eb0d c33c ea6e 893d e090 02bd
00000260: 5912 00bd 723f 33bd 9106 b0bb 413a c33d
00000270: 16e4 403d eb1f f93c 087d 203d 38f5 62bb
00000280: 8755 93bb 24ce c4bd f5c2 39bd 3246 2dbd
00000290: f726 0b3e b318 c73c bd30 063e e4e1 d83d
000002a0: 2f47 09be 18da ff3c e47f 21bc 4b4a 333a
000002b0: 39cc 4b3d a370 00bd 22b4 af3d 1530 f3bc
000002c0: e354 403d 24f5 14bd 29c6 aa3d 35c7 2dbb
000002d0: 1a61 8b3d 4b09 bf3d 3301 f93c 3be4 953d
000002e0: 9902 753d dab1 783d e4c7 d53d 0a9a 943c
000002f0: 1f72 ffbc 2990 843d 50f1 273c 81fd bbbc
00000300: c979 f8bc af79 c93c 6e62 4dbd 33da 0e3d
00000310: f510 8abc c870 aa3d 3afb a6bb 3f04 b0bd
00000320: 3b5e 113d 90a8 e0bc 7862 ca3d 1e5d 1b3e
00000330: 94c6 693d 3f0a 58bc df86 14bb a788 bc3d
00000340: f15f 45bd 89d2 fb3d b401 b73c 8b58 403d
00000350: 79e2 2fbc e526 dc3d 8b99 683d 2400 b6bc
00000360: db36 8a3d 63eb 4a3d f62e d13d bc38 9bbd
00000370: d7f4 b43d bf71 b5bb 510c 0d3d 8218 a5bd
00000380: 5a4d 453d 761f bebc 2a2b 503d f87a 65bc
00000390: 6401 933c 69a1 8cbd ef67 5b3c 9f53 9c3c
000003a0: c1d9 6e3d e42f a23d 1c30 7dbd a38f 49bd
000003b0: 1c0a d83c 2367 6cbc 7c71 32bb d0d2 5f3d
000003c0: 8196 3e3d 5914 46bd 8601 ed3d 3d68 cb3c
000003d0: a8e6 41bd 5201 0dbd 62da d83d d738 883d
000003e0: e706 cebc adc8 bb3c 8b99 82bd e21b bf3d
000003f0: d173 1a3d cbb1 e23d 8343 79bd 0cd9 563d

fc2.bias f4 [128]
-0.022034151 -0.05340352 -0.021320969 -0.025356065 -0.06546947 -0.04155326 0.09844834 -0.06643269
-0.06516997 -0.07012852 -0.05369252 0.026130902 -0.09627482 -0.012033837 0.0018922564 -0.060832474
0.20684677 -0.035030253 0.0044675656 -0.05437742 -0.031230923 -0.0371884 0.044669926 -0.029687924
-0.0204039 -0.05161042 0.25507617 -0.065735064 -0.034223966 -0.1082095 -0.12688987 -0.016604172
-0.1244916 0.028463658 -0.024654604 -0.08186665 -0.07692515 -0.011938212 -0.06872989 0.04079202
-0.0481659 -0.018820388 0.1843581 -0.09527455 0.028476022 -0.071546204 -0.062082894 -0.09085795
-0.075725704 -0.11194149 -0.01246083 0.021470282 -0.048538994 -0.086453274 -0.075278156 -0.04150327
-0.07110509 -0.04135186 0.008179671 0.0046339044 -0.010299598 0.011823306 -0.0037498467 0.13117889
-0.0936406 0.019068861 0.20829329 -0.010911934 -0.0016073637 0.0047720983 0.028449332 -0.04185898
-0.018255696 -0.06468533 -0.064687535 -0.06126543 0.0021501167 -0.045839094 -0.084825315 0.00040300252
-0.06732359 -0.0021342726 -0.101343885 -0.06941244 -0.09512651 -0.039596662 -0.07258154 -0.009730859
0.009609684 -0.021093143 0.019186547 0.022047693 -0.029428754 -0.02681362 -0.0005601172 -0.0023240745
-0.08418786 -0.07988921 0.01302995 -0.02475184 -0.07758705 0.13472219 0.030163134 -0.012350774
-0.023792572 -0.056570604 0.113479815 -0.0633035 -0.060842 -0.071447216 -0.01790863 -0.10678689
-0.11154306 -0.054616056 0.010982549 0.0017673309 -0.063585654 -0.027029593 -0.01208407 -0.0313476
-0.09578278 -0.043681275 -0.044499543 -0.04560928 0.01879305 -0.03155139 0.0018982807 -0.011839067
00000000: f780 b4bc a6bd 5abd 50a9 aebc 86b7 cfbc
00000010: dc14 86bd c033 2abd 499f c93d dd0d 88bd
00000020: d577 85bd 8b9f 8fbd b0ec 5bbd 7910 d63c
00000030: bc2b c5bd 9229 45bc 9705 f83a 792b 79bd
00000040: a4cf 533e e27b 0fbd a864 923b dcba 5ebd
00000050: fed7 ffbc dd52 18bd d0f7 363d 1734 f3bc
00000060: 1426 a7bc 7365 53bd 5899 823e 1ba0 86bd
00000070: 6e2e 0cbd f19c ddbd 6bef 01be 7905 88bc
00000080: 74f5 febd 9e2c e93c 74f8 c9bc b4a9 a7bd
00000090: ef8a 9dbd 7e98 43bc 42c2 8cbd 8815 273d
000000a0: 9b49 45bd 372d 9abc 5fc8 3c3e 4e1f c3bd
000000b0: 8c46 e93c d186 92bd a24a 7ebd bc13 babd
000000c0: 1416 9bbd 9441 e5bd 8228 4cbc 72e2 af3c
000000d0: d3d0 46bd 6a0e b1bd 6f2b 9abd 55ff 29bd
000000e0: 8c9f 91bd 9160 29bd 0704 063c 02d8 973b
000000f0: a5bf 28bc 8ab6 413c fdbf 75bb c253 063e
00000100: a5c6 bfbd 4d36 9c3c d64a 553e f8c7 32bc
00000110: 2dae d2ba 435f 9c3b 930e e93c 5274 2bbd
00000120: f88c 95bc be79 84bd e67a 84bd 76f1 7abd
00000130: f9e8 0c3b c6c1 3bbd e5b8 adbd 154a d339
00000140: f3e0 89bd 27df 0bbb 628d cfbd 1c28 8ebd
00000150: b0d1 c2bd 1c30 22bd a1a5 94bd 2e6e 1fbc
00000160: f071 1d3c 87cb acbc 1b2d 9d3c 5d9d b43c
00000170: 9214 f1bc 3da8 dbbc d4d4 12ba 804f 18bb
00000180: af6a acbd f49c a3bd 927b 553c 5fc4 cabc
00000190: f6e5 9ebd 9df4 093e ad18 f73c e75a 4abc
000001a0: a4e8 c2bc 94b6 67bd 1b68 e83d 44a5 81bd
000001b0: 7635 79bd eb52 92bd 1fb5 92bc 16b3 dabd
000001c0: b070 e4bd 16b5 5fbd 26f0 333c c9a5 e73a
000001d0: 3239 82bd 2a6d ddbc 43fc 45bc 5766 00bd
000001e0: c329 c4bd 23eb 32bd 2745 36bd ccd0 3abd
000001f0: e2f3 993c 083c 01bd bbcf f83a a5f8 41bc

fc3.weight f4 [2, 128]
-0.0103240125 -0.023354106 -0.026658287 -0.011215568 -0.021126183 -0.04180237 0.04000092 -0.024577755
-0.04421699 -0.0041669724 -0.0062958477 -0.01826074 -0.01549046 -0.017336307 -0.000501088 -0.005630339
0.07047149 -0.0034879462 -0.024348782 -0.028613316 -0.033906274 -0.04954095 -0.010594497 -0.013184748
-0.040783007 -0.015356323 0.09637053 0.008037721 -0.038070854 -0.024278818 0.011059488 0.03250742
-0.016132658 -0.021906674 0.0041049137 -0.06375222 -0.018024046 -0.008794699 -0.0058930526 -0.015328022
-0.02665536 -0.010819205 0.08479858 -0.026441649 0.0012748255 -0.007003147 -0.02947241 -0.012480711
-0.0014669822 -0.0074719577 -0.017052298 -0.007294191 -0.0058501204 -0.014019534 -0.036580253 -0.00689044
-0.020013526 -0.022060359 -0.0034214046 -0.029726338 -0.019553676 -0.043353587 -0.015136906 0.13582318
-0.012551138 -0.008958129 0.06511591 -0.0053768773 -0.013686493 -0.010970162 -0.027164394 -0.016508605
-0.015811395 -0.013048345 -0.025029426 -0.0068978136 -0.01916464 -0.019469941 -0.0145618245 -0.0018630495
-0.01084223 -0.021114007 -0.010499508 -0.02592632 -0.030911496 -0.031093614 -0.025284445 -0.012317621
-0.017892884 -0.013601608 0.029604277 -0.014293654 -0.006526551 0.004059664 -0.024182117 -0.020419832
-0.007103143 -0.005107456 -0.0056547723 -0.01021799 -0.023559786 0.02679315 0.0351125 -0.0054463954
-0.004549209 -0.03166788 0.02608183 -0.02807885 -0.012016184 -0.0137226265 -0.020243071 -0.029580932
-0.02575597 0.0009477164 -0.0012504121 -0.020436144 -0.0043296656 -0.016056335 -0.015329899 -0.00055906374
-0.0014084402 -0.019875592 -0.018839851 -0.015800614 -0.008143868 -0.02983558 -0.039840654 -0.006794792
0.025657257 0.0062822914 -0.0049701585 0.013436463 0.023026392 -0.0019154719 0.113845535 0.00961946
-0.0070316643 0.009174101 0.016872063 0.014313514 0.012729658 0.012149508 0.010691591 0.013061372
0.22687446 0.03274955 0.012726911 -0.006611858 -0.0111259725 -0.0067497804 0.013613506 0.0066247564
0.07066684 0.011823884 0.24613453 0.022990797 0.008212111 0.01241377 0.013138735 0.0065443567
-0.0011695853 -9.170302e-05 0.01891507 -0.0005912741 0.012819357 0.01732206 0.008536611 0.043391794
0.014040295 0.014133806 0.13963388 0.012876078 -0.00018604868 0.0039808727 -0.011043854 0.004483056
0.013301669 0.013314284 0.016101953 0.02369704 0.012296694 0.0125518255 0.004388898 0.018268796
0.011604956 0.012389093 0.014413903 0.00710448 0.010000871 -0.0021841165 0.013380442 0.04640343
0.009948141 0.010117207 0.20758677 0.013999646 0.00813199 0.013266703 0.019572724 0.01714103
0.0050436803 0.008589056 0.002632944 0.015532332 0.00832622 -0.011357608 0.012306381 0.005692722
0.002736055 0.012573459 0.013597638 0.0053294683 -0.0089378245 -0.015056932 0.0077149607 0.014945545
0.012793815 0.016146883 0.044234347 0.011141736 0.00985557 0.046498537 0.00015431173 0.008193995
0.023730475 0.008013525 0.018375084 0.01020796 0.0152279595 0.037095357 0.03251335 0.008503802
0.014686028 0.013509435 0.052203625 0.003979244 0.009840688 0.012665819 0.019294593 0.009740444
0.010840291 0.014471147 0.012565762 0.009050659 0.038652174 0.0030561546 0.013906519 0.0065080984
0.012272204 0.016650604 0.013670595 -0.0046182084 0.0069887396 0.011184753 0.004335443 0.011689922
00000000: 0c26 29bc 1c51 bfbc 7b62 dabc 80c1 37bc
00000010: d110 adbc f638 2bbd 01d8 233d 4a57 c9bc
00000020: e01c 35bd 198b 88bb 664d cebb 8c97 95bc
00000030: b3cb 7dbc df04 8ebc 725b 03ba b57e b8bb
00000040: 5b53 903d 0796 64bb 1977 c7bc 7966 eabc
00000050: 4ee1 0abd 74eb 4abd 8b94 2dbc d704 58bc
00000060: 150c 27bd 1699 7bbc ea5d c53d a5b0 033c
00000070: 2ff0 1bbd 5fe4 c6bc db32 353c 8026 053d
00000080: a328 84bc a075 b3bc 8382 863b 8690 82bd
00000090: 2aa7 93bc a417 10bc 821a c1bb 6222 7bbc
000000a0: 575c dabc 0943 31bc e1aa ad3d 289c d8bc
000000b0: 0c18 a73a a87a e5bb 2070 f1bc e57b 4cbc
000000c0: c147 c0ba 53d7 f4bb 43b1 8bbc 1c04 efbb
000000d0: 5eb2 bfbb 30b2 65bc 2dd5 15bd 33c9 e1bb
000000e0: 68f3 a3bc edb7 b4bc a539 60bb a684 f3bc
000000f0: 082f a0bc 8893 31bd c900 78bc 3b15 0b3e
00000100: 4aa3 4dbc 1ec5 12bc 7d5b 853d 8430 b0bb
00000110: 503d 60bc 32bc 33bc dd87 debc 0e3d 87bc
00000120: e686 81bc bac8 55bc 830a cdbc 0e07 e2bb
00000130: 2aff 9cbc 6d7f 9fbc b894 6ebc 9131 f4ba
00000140: 9ca3 31bc 48f7 acbc 2106 2cbc 6f63 d4bc
00000150: 1b3a fdbc 09b8 febc 5321 cfbc d9cf 49bc
00000160: 1994 92bc 47d9 5ebc ab84 f23c ee2f 6abc
00000170: aedc d5bb ee06 853b 9319 c6bc 7e47 a7bc
00000180: 7bc1 e8bb 725c a7bb ab4b b9bb 5b69 27bc
00000190: 7400 c1bc 4f7d db3c 20d2 0f3d ad77 b2bb
000001a0: 8811 95bb 2eb6 01bd 90a9 d53c 9e05 e6bc
000001b0: 87df 44bc ded4 60bc ccd4 a5bc b653 f2bc
000001c0: 2ffe d2bc 2c70 783a dee4 a3ba b369 a7bc
000001d0: dedf 8dbb 9388 83bc 422a 7bbc 228e 12ba
000001e0: 699b b8ba 23d2 a2bc 0856 9abc 4a70 81bc
000001f0: dc6d 05bc bf69 f4bc f42f 23bd d9a6 debb
00000200: 2b2f d23c aedb cd3b b6dc a2bb 9c24 5c3c
00000210: d8a1 bc3c 9210 fbba d927 e93d f19a 1d3c
00000220: e069 e6bb f84e 163c 4837 8a3c 3b83 6a3c
00000230: 0e90 503c bb0e 473c c82b 2f3c 5dff 553c
00000240: c751 683e 6424 063d 8984 503c 49a8 d8bb
00000250: b649 36bc 432d ddbb 2f0b 5f3c 7c14 d93b
00000260: c7b9 903d f7b8 413c b10a 7c3e 3257 bc3c
00000270: 178c 063c 2063 4b3c d943 573c 0b72 d63b
00000280: c54c 99ba af50 c0b8 c7f3 9a3c bcff 1aba
00000290: 4808 523c fee6 8d3c 24dd 0b3c 98bb 313d
000002a0: 4409 663c 7b91 673c 2ffc 0e3e 2ff6 523c
000002b0: 1016 43b9 fb71 823b 48f1 34bc 99e6 923b
000002c0: 3eef 593c 2824 5a3c 3ee8 833c 4b20 c23c
000002d0: 1378 493c 2ca6 4d3c bfd0 8f3b 71a8 953c
000002e0: b722 3e3c 9ffb 4a3c 4a28 6c3c b3cc e83b
000002f0: b1da 233c 6523 0fbb a439 5b3c 8611 3e3d
00000300: 87fd 223c a4c2 253c a091 543e c55e 653c
00000310: 0a3c 053c 965c 593c fa56 a03c 586b 8c3c
00000320: 7545 a53b 1db9 0c3c 788d 2c3b 527b 7e3c
00000330: b36a 083c 4315 3abc b4a0 493c 038a ba3b
00000340: 634f 333b e900 4e3c a1c8 5e3c d2a2 ae3b
00000350: f46f 12bc 5ab1 76bc c8cd fc3b 29de 743c
00000360: 269d 513c 7846 843c 132f 353d d48b 363c
00000370: 4279 213c 4075 3e3d bdce 2139 1b40 063c
00000380: 6a66 c23c 294b 033c 5887 963c 4a3f 273c
00000390: b17e 793c 4df1 173d b82c 053d 8853 0b3c
000003a0: aa9d 703c ad56 5d3c 78d3 553d 5164 823b
000003b0: d63a 213c 4c84 4f3c b20f 9e3c 6296 1f3c
000003c0: 7a9b 313c 6418 6d3c a0e0 4d3c 3749 143c
000003d0: be51 1e3d c449 483b 2bd8 633c e341 d53b
000003e0: 5b11 493c d966 883c a2fa 5f3c 5754 97bb
000003f0: cc01 e53b 4140 373c 5510 8e3b 1687 3f3c

fc3.bias f4 [2]
0.10065689 -0.058297455
00000000: 3325 ce3d 50c9 6ebd
