results/results_5/agent1_critic.pth (torch, 185643 bytes, 5 tensors)

fcs1.weight f4 [256, 48]
000000 bd 00 a2 3d ef 99 7c 3e d7 bd 1b 3d 43 da 33 3f
       0.07910297 0.24668096 0.038022842 0.70254916
000010 5a 58 80 be a9 f2 32 bf e5 7e 27 3d 6f aa 43 3f
       -0.25067407 -0.6990152 0.0408925 0.76431936
000020 37 c4 09 bd 57 fd d8 3e 08 ff e5 bd 93 38 d1 3e
       -0.03363439 0.42380783 -0.11230284 0.40863475
000030 3a 74 bd 3d 22 88 83 be 86 ce f6 bd be e5 03 3f
       0.09250684 -0.256898 -0.1205111 0.51522434
000040 07 3a d8 bd ec 1d fc 3e 85 00 68 be 68 73 a3 3d
       -0.10557943 0.4924158 -0.22656448 0.07980996
000050 0a b9 4d 3e 21 67 ec be 84 75 77 be fa 9d 02 3e
       0.20090118 -0.4617243 -0.24165922 0.12755576
000060 26 96 30 3f 9d 0f 08 be 6c b8 d0 bd bb 73 13 be
       0.6897911 -0.13287206 -0.10191426 -0.14399616
000070 08 fb a0 3e 07 2e 2f bf ff 5d 53 bd 87 6b 2a be
       0.31441522 -0.6842961 -0.051603314 -0.16642581
000080 69 95 75 3f 61 66 c7 3d 32 1c 08 3c e6 1c 58 3f
       0.95931107 0.09736324 0.008307504 0.84419096
000090 91 bb ff bd d4 7e 37 be 99 b8 c8 bb 62 06 40 3f
       -0.12486947 -0.17919475 -0.0061255214 0.7500974
0000a0 3e 29 82 3f 31 1b 7c 3e 4c 29 21 3d 6f 70 0d 3f
       1.0168836 0.24619748 0.039346024 0.55249685
0000b0 14 17 6e be b2 a2 f7 be 24 a4 77 3c 6b 79 14 3f
       -0.23250991 -0.48366314 0.015114818 0.5799777
0000c0 ec 83 6a 3e 7b 5a 8a 3f 32 2d 46 3b b1 22 34 3e
       0.22901887 1.0808862 0.003023934 0.17591359
0000d0 6b 4e c1 3d d3 c9 00 c0 6a 02 3e bc 29 4d 57 3e
       0.09438785 -2.0123184 -0.011597255 0.21025528
0000e0 af d2 85 be 18 cf 5f 3f aa 20 03 bd 0e c8 b5 3e
       -0.261373 0.87425375 -0.032013573 0.35504192
0000f0 88 90 2b 3f 2c e9 8d 3d e1 f1 9d 3c fc c0 8a 3e
       0.6701741 0.0692924 0.019280376 0.2710036
000100 a7 cf 9c ba f5 82 12 3f fb 5b 70 be 32 66 ef be
       -0.0011963741 0.57231075 -0.23472588 -0.46757656
000110 7e 15 3d 3f 73 ee 93 3f 39 0a 52 be e3 3a cd be
       0.7386092 1.1557144 -0.20511712 -0.4008399
000120 45 b2 09 3f 74 da 80 3e 99 81 8e bd 37 1f 91 3d
       0.5378764 0.25166667 -0.069583125 0.07086032
000130 04 4e 19 bd 23 ff 00 c0 c3 8c 45 bc fd 6c 70 3b
       -0.037427917 -2.0155723 -0.012057486 0.0036686056
000140 cf a6 be 3e fd 3d 38 be 06 b2 e8 bc 3c 19 87 3e
       0.3723664 -0.17992397 -0.0284052 0.2638644
000150 64 a0 29 bf eb 07 bb 3d bc ca ea bc 9e d0 9c 3e
       -0.6626036 0.091323696 -0.028661124 0.30627912
000160 04 ba 50 3e 98 e8 58 bf 1d 9a b7 3c 5a c9 82 bf
       0.2038346 -0.8472991 0.022412354 -1.0217698
000170 54 8d 49 bf d9 2f 98 3f 74 36 4d 3c 55 57 76 bf
       -0.78731275 1.1889602 0.01252519 -0.9622701
000180 5d 37 52 3f 44 00 c7 3e 86 40 5c be 67 07 e5 3d
       0.8211573 0.3886739 -0.21508989 0.111830525
000190 25 b8 06 bf bd dd 92 bf 7a 02 70 be fc e9 29 3e
       -0.5262473 -1.1473919 -0.23438445 0.16593164
0001a0 d6 44 07 bc 21 b3 f7 be 7e c1 ce 3d f2 e7 e4 36
       -0.008256158 -0.48378852 0.100954995 6.8219315e-06
0001b0 7a 54 a2 3e 1c 81 c6 3e 74 f5 0b 3e a0 05 7f 3d
       0.31705076 0.38770378 0.13667852 0.062261224
0001c0 98 02 31 3f dd b5 ea be 4c 21 ab be ab 3f 1f 3e
       0.6914458 -0.45841876 -0.3342384 0.15551631
0001d0 a9 eb e6 3d 7b 12 cb 3e cc fa 73 be d7 d4 30 3e
       0.11275417 0.39662537 -0.2382614 0.17268692
0001e0 a1 c1 f7 3f c8 db 8f 3f d5 50 c5 bd 22 1b 26 bd
       1.9355966 1.1238947 -0.09634558 -0.04055322
0001f0 e1 ec 0a 3f 4f ec 91 bf bf 41 af bd 88 bb 79 bd
       0.542677 -1.1400241 -0.08557462 -0.06096986
000200 5d 3b 5e 3f 2d 2e 32 be 4d 81 08 3e 95 2b 08 be
       0.8680933 -0.17400427 0.13330574 -0.13297875
000210 a6 ff 99 be 68 2c c2 3e 67 7d 5a 3e b4 2d fc bd
       -0.30077857 0.37924504 0.213369 -0.12313405
000220 6d 6d d6 3f d7 a0 69 bc ae df 44 be df 29 0d 3f
       1.6752144 -0.014259539 -0.19225952 0.55142015
000230 d1 9a 38 be 93 30 d0 3e 0a 23 49 be 1e a9 04 3f
       -0.18027808 0.4066206 -0.19642273 0.5182055
000240 39 79 46 3e ef 34 e2 be 35 8f d7 3d 20 0a ed bd
       0.1938218 -0.4418101 0.105253614 -0.11574197
000250 63 46 7d be b6 0f b3 bf 15 4b 91 3d a9 77 af bd
       -0.24733882 -1.398917 0.07094399 -0.08567745
000260 0f 47 54 3e ea 2f b9 be 0e 45 92 3d e0 a8 cc 3d
       0.20730232 -0.36169368 0.071420774 0.09993148
000270 14 d0 e7 be 33 bb 0e c0 44 73 e6 3d 0d 9e 52 3e
       -0.4527594 -2.2301757 0.11252454 0.20568104
000280 1b 09 ae 3e ae df 81 bd 1c f6 87 bd 16 d2 74 3f
       0.33991322 -0.06341492 -0.066387385 0.95633066
000290 54 96 65 bf 06 c0 93 bf ef 0b 09 be 00 92 78 3f
       -0.8968251 -1.1542976 -0.13383459 0.9709778
0002a0 6d 55 10 3f 53 38 56 3c 92 d3 41 bd d4 9f 5a 3d
       0.5638035 0.013074952 -0.04732091 0.05337508
0002b0 6d 00 b3 3e 3a db b3 bf 8c 04 73 bd a7 8b e5 3d
       0.34961262 -1.4051278 -0.059330508 0.11208277
0002c0 0c 36 08 3f 24 30 c5 3c 76 a4 65 3d 7f a9 ee bd
       0.5320747 0.024070807 0.056065045 -0.116534226
0002d0 bc e4 fa 3e c1 73 13 c0 0d 93 b3 3c 54 b0 0c be
       0.49002635 -2.30394 0.021920705 -0.13739139
0002e0 12 cf 00 3f e4 6d 50 3e a4 90 75 3e 44 d4 bc 3b
       0.50315964 0.2035442 0.23980957 0.0057626087
0002f0 f6 7d 4b 3f ea cb 91 bf c0 7d 55 3e 38 b7 0e 3b
       0.79489076 -1.1390355 0.20848751 0.0021776687
000300 1d b9 22 3f a8 80 c0 3f 0a 30 4f bd e2 a5 e3 3e
       0.6356371 1.5039263 -0.050582923 0.44462496
000310 dc b7 70 3e 60 0f 8a bf 30 93 c9 3a 1c e4 bb 3e
       0.23507637 -1.0785942 0.0015378948 0.3669747
000320 33 0d 41 3f 0f 65 bd 3f ba 77 95 3d 12 56 fd 3d
       0.75410765 1.4796466 0.07298227 0.12369932
000330 f9 56 2c be c2 9d 8f bf aa 17 c6 3d b8 b4 e8 3d
       -0.16830052 -1.1220019 0.09672482 0.11362594
000340 56 b5 10 3f 6a 92 aa 3f 60 c0 09 be 09 72 e9 be
       0.56526697 1.3325932 -0.13452291 -0.45594814
000350 51 5f db be d4 9a 35 bf c0 04 11 be 8f d2 c6 be
       -0.42846158 -0.70939374 -0.14161968 -0.38832518
000360 05 09 9f 3f 25 89 f2 3f 11 46 4a 3d ac 17 e4 3e
       1.2424628 1.8948103 0.049383227 0.4454931
000370 60 6d 57 be 8a 9f 91 bf 1f 5c 75 3d ee e1 c1 3e
       -0.21037817 -1.1376812 0.059902307 0.37867683
000380 15 78 8f 3f 88 f9 1b 40 bf ea 58 3e a2 35 4f 3e
       1.1208521 2.4371052 0.21183299 0.20235303
000390 32 fa 00 3e ae 60 92 bf 79 e5 50 3e 4c d5 57 3e
       0.12595442 -1.1435754 0.20400037 0.2107746
0003a0 63 8d ab 3f cb bd 10 40 84 d4 83 3e 76 50 e6 3d
       1.3402523 2.261584 0.25748074 0.112458155
0003b0 e1 5e da 3e 02 d2 34 bf bc a9 70 3e 80 e2 cc 3d
       0.42650512 -0.70632946 0.23502249 0.10004139
0003c0 16 b9 8a bf fb 47 18 3f 40 4a 39 3d 07 e3 69 bd
       -1.0837734 0.59484833 0.045236826 -0.057101276
0003d0 55 ca 25 3f 7c 27 d9 3c 3b 5b 11 bc b5 2a 8c bc
       0.6476186 0.026508085 -0.008871849 -0.017110208
0003e0 2b 24 3f bf 1f 9e 27 3f 2a 3f 14 bc e7 23 52 bd
       -0.7466456 0.6547565 -0.009048263 -0.05130377
0003f0 fe 47 1c 3e cb 51 8e bf 49 ef bf 3b 67 80 3a 3d
       0.15261838 -1.1118711 0.0058573824 0.04553261

fcs1.bias f4 [256]
000000 a1 94 74 bf 81 87 5d bf 71 80 a6 bf c5 61 3b bf
       -0.9553929 -0.8653489 -1.3007947 -0.7319606
000010 3a 08 8a bf 90 ef 3b be 22 ab bc bf 1b fa 66 3e
       -1.078376 -0.18353105 -1.4739726 0.22556345
000020 d7 7a ae bf 81 bc 2e be c2 1f 59 bf 95 93 b5 bf
       -1.3631238 -0.17064096 -0.84814084 -1.4185663
000030 5a 07 ab be 13 29 8e bf 2a 24 9b bf 42 55 3a be
       -0.33404046 -1.1106285 -1.2120411 -0.18196586
000040 e3 11 a7 be 18 ab 6f bf ad 41 87 bf 48 5f a2 3f
       -0.32630834 -0.93620443 -1.0566918 1.2685328
000050 4c 29 11 3f 9c 39 b6 bf b2 44 5b 3e a0 cd 88 be
       0.5670364 -1.4236331 0.21412924 -0.2671938
000060 64 e7 5a 3c 31 34 b6 bf 30 7c 53 bf c4 97 15 bf
       0.013360832 -1.4234678 -0.8261137 -0.584347
000070 15 db a6 bf c2 06 07 c0 8a d6 37 bf d8 ce ac bf
       -1.3035609 -2.1097875 -0.71811736 -1.3500624
000080 ad 3f 29 be f4 73 a3 bd 18 d5 16 bf 6f 12 11 bf
       -0.16528197 -0.07981101 -0.58918905 -0.5666875
000090 87 23 d0 bf a3 67 7b bf 5a 70 d4 bf f1 e2 6b bf
       -1.6260842 -0.9820501 -1.6596787 -0.9214316
0000a0 01 17 19 bf 66 6e 4c bf 21 28 7f bf 31 d0 3e bf
       -0.59800726 -0.79855955 -0.99670607 -0.74536425
0000b0 7f 9a a5 bf 08 97 1f bf 77 32 54 bf 39 de 43 bd
       -1.2937773 -0.6233983 -0.82889503 -0.04781935
0000c0 df 4e ad bf ca e4 e9 be ec c1 bf bf 48 25 96 bf
       -1.3539695 -0.45682365 -1.4981055 -1.1730127
0000d0 9b 50 19 be 61 6f 0f 3f e6 a4 f3 bf dd 33 72 3d
       -0.14972155 0.56029326 -1.9034698 0.059131492
0000e0 35 62 fb 3e da 79 b9 bf 93 91 e5 be 81 e0 91 be
       0.49098364 -1.4490311 -0.44837627 -0.28491595
0000f0 ac 84 93 bf fa 8b fe be ac c5 1f bf 3a 16 56 bf
       -1.1524863 -0.4971617 -0.62411 -0.83627665
000100 00 b4 86 bf 5d 99 d5 bf a2 e9 49 bf 92 65 8c 3f
       -1.0523682 -1.6687428 -0.7887212 1.0968497
000110 55 06 96 be 8d a2 8d be 2b 85 bb bf 87 77 9b bf
       -0.29301706 -0.2766308 -1.4650015 -1.2145852
000120 48 5b 0c c0 3c 88 cc bd 4b 6a 5c bf 80 98 93 3d
       -2.1930714 -0.09986922 -0.8609969 0.072068214
000130 60 5f cd be 4a 24 cf be c4 ec 42 bf 6f 1d 52 be
       -0.40111828 -0.40457374 -0.76142526 -0.2051904
000140 78 45 6a 3e 08 59 a6 be df 8f 2d be f3 bb 47 bf
       0.22878063 -0.324898 -0.16949414 -0.7802116
000150 08 f4 08 c0 9b fc c2 bf d4 68 a8 bf a5 fa 4a bf
       -2.1398945 -1.5233339 -1.3156991 -0.79288703
000160 5d 2e 06 3e 3c 3f 91 be 73 73 36 be 94 1d cd be
       0.13103624 -0.28368556 -0.17817478 -0.4006163
000170 d7 b2 81 bf 1a 5c 41 3e 54 ed 47 bf af 18 79 bf
       -1.0132703 0.1888279 -0.7809651 -0.9730329
000180 c7 4c 1c bd d1 bd 1f c0 46 3d e9 bf 49 be 64 bf
       -0.038159158 -2.4959605 -1.8221824 -0.8935285
000190 10 70 12 3f 0b f4 8b bf a2 3b ca bd a3 f6 a8 bf
       0.57202244 -1.0933851 -0.09874655 -1.3200268
0001a0 4a 69 60 bf a3 9a bf be 50 70 c8 be 31 a6 47 bf
       -0.8766066 -0.37422666 -0.39148188 -0.7798796
0001b0 76 95 97 bf 5f 3c c4 be 86 3c a1 be fc 87 99 bf
       -1.1842487 -0.3832731 -0.31491488 -1.1994624
0001c0 f3 8e f0 bb 7f f7 0f bf 5a 8e 6a 3e 01 05 5b bf
       -0.0073412596 -0.56237024 0.22905865 -0.8555451
0001d0 3d fe 12 c0 b3 fd 9c bf 70 8f 1b bf 93 4a 3a bf
       -2.2967675 -1.2264923 -0.60765743 -0.7277004
0001e0 90 98 d9 bf fe 8e c0 bf 17 66 ce be f4 ae 71 bf
       -1.6999683 -1.5043638 -0.40312263 -0.9440758
0001f0 24 68 aa bf 40 80 f7 bf e8 5d 88 bf 9c ed 07 be
       -1.3313031 -1.9336014 -1.0653658 -0.13274235
000200 e6 e7 b4 bf 27 73 2e bf f6 21 9d be a8 41 83 bf
       -1.413327 -0.6814446 -0.30689973 -1.0254412
000210 a9 c6 ea bf 98 40 de bf d0 4a ea bf 0e ac 79 bf
       -1.8341876 -1.7363462 -1.8304081 -0.9752816
000220 43 53 75 bf d1 4a 90 bf b5 bc 8a bf b6 a3 c7 be
       -0.9583017 -1.1272832 -1.0838839 -0.3899209
000230 19 62 a4 3e ee e8 24 bf 39 c6 c4 bf f4 2e c5 be
       0.32106093 -0.6441792 -1.5372993 -0.38512385
000240 a5 08 8f bf 4d 33 17 bf 5f ea 8a bf 82 50 9e bf
       -1.1174513 -0.59062654 -1.0852774 -1.2368319
000250 87 6a fa be 97 f9 23 be eb 51 89 be 97 30 5a bf
       -0.489094 -0.1601318 -0.2682031 -0.8523039
000260 50 cc c7 3e 7d 4d 17 be 0a 18 21 bf 00 f0 77 bf
       0.39023066 -0.14775653 -0.62927306 -0.96850586
000270 df 1d 40 bf d8 80 47 be b5 2b a9 bf bf 7d 34 bf
       -0.7504558 -0.19482744 -1.3216463 -0.70504373
000280 b0 c4 2c 3d 6a d2 bc bc f1 1f 11 bf 60 d0 8d bf
       0.042179763 -0.023049552 -0.56689364 -1.1079216
000290 b5 a7 d4 bd e2 61 90 bf 4a b3 18 3f f3 fd 4e be
       -0.1038355 -1.1279871 0.59648573 -0.20214061
0002a0 d2 70 7c 3e de 53 8c bf eb a9 00 bc d5 17 9a bf
       0.24652413 -1.0963094 -0.007853012 -1.2038523
0002b0 19 9b 34 3f 3d 6a af bf c8 29 89 bf e7 94 7f bf
       0.7054916 -1.3704296 -1.0715876 -0.9983658
0002c0 6c 08 c8 bf 39 7a 1d bf 97 b8 6a be 59 44 fb be
       -1.562757 -0.6151462 -0.22921978 -0.49075583
0002d0 a6 8d 11 bf 5e e2 a8 bd 1f 48 c2 3e 08 e0 90 bf
       -0.56856763 -0.08246301 0.3794565 -1.1318369
0002e0 6f 40 b5 bf d6 1d 5c bf 91 76 61 bf b6 73 0e bf
       -1.4160289 -0.85983026 -0.8807154 -0.5564531
0002f0 6c 44 f7 bf de 1e c9 bf 55 59 30 bf 72 39 5c bd
       -1.9317756 -1.5712545 -0.6888631 -0.05376572
000300 8b 76 96 be b5 84 33 bf fd ff 84 bf f5 58 73 bd
       -0.29387316 -0.7012437 -1.0390621 -0.059411008
000310 56 8b e5 3e 1e 5d cc be 22 6f 7b bf ba 91 6a bf
       0.44832867 -0.39914793 -0.9821645 -0.9162861
000320 47 91 08 bf 36 2a 6b bf f4 35 26 3f 22 68 5f bf
       -0.53346676 -0.91861284 0.64926076 -0.8726827
000330 dc 95 3a c0 9e ee 16 bf 3c 21 86 bf 78 c4 0d bf
       -2.9153967 -0.5895785 -1.0478892 -0.5537791
000340 f6 7c 07 bf ec 13 07 bf 38 59 79 bf bb 32 c1 be
       -0.5292505 -0.52764773 -0.9740176 -0.37734017
000350 63 06 a1 bf 3e 8b fc bf 39 64 e7 3e 45 dc 3c bf
       -1.2580074 -1.9729993 0.4519365 -0.73773605
000360 bc bd c9 bf ea 13 e9 be ce 0c ba bf fc ca 98 bf
       -1.5761027 -0.45523006 -1.4535158 -1.1936946
000370 5e 14 ab be ba e6 b8 bf 69 af 00 bf 2e a4 e4 be
       -0.33413976 -1.4445412 -0.50267655 -0.4465651
000380 e3 de cc 3c 1a 67 7a bf 57 2e 14 3e 2e da 4a 3f
       0.025008624 -0.9781357 0.14470802 0.79239166
000390 d7 b3 89 bf 61 c4 85 bf 1c d3 b7 bf 1c e2 78 bf
       -1.0758008 -1.0450555 -1.43613 -0.97220016
0003a0 3c 9a 91 bf d1 ea 66 bf 7d bd 39 bf cf 5f 0c bf
       -1.1375194 -0.9020205 -0.7255476 -0.5483369
0003b0 1a 13 b8 3d 54 57 80 bc 76 2c 7b 3e 39 16 62 bf
       0.08988018 -0.015666641 0.24528679 -0.8831516
0003c0 e7 d1 ad be 12 37 f5 bf 9e e0 14 bf 01 b7 96 3d
       -0.33949205 -1.9157431 -0.5815524 0.07359124
0003d0 ec 3b a6 bf 2e f4 34 3f c2 e1 91 be df ed d4 be
       -1.2987037 0.7068509 -0.28492552 -0.4158773
0003e0 1f 8b dd be 93 db 8a bf b0 57 4d bf e1 1e 0c bf
       -0.43270203 -1.0848259 -0.80211926 -0.5473462
0003f0 cf b9 1f bf 82 2a 3d be 43 c0 8e bf e1 ea f2 be
       -0.62392896 -0.18473247 -1.1152424 -0.47444823

fc2.weight f4 [128, 258]
000000 e9 b9 0f bd 1f 4d 18 be 8b 40 0e be 23 ad d5 bd
       -0.035089407 -0.1487317 -0.13891809 -0.10433414
000010 10 18 11 3e 29 15 50 ba 9b 53 cd bd 2a 4b dc bd
       0.14169335 -0.00079377234 -0.10025712 -0.10756524
000020 6a ad b9 bd ce 87 b0 bc da 82 72 bc 63 19 23 be
       -0.09066279 -0.021549132 -0.014801705 -0.15927653
000030 d1 f7 82 be a8 7a 61 3e a4 c5 54 3d a1 c7 d7 bd
       -0.25579694 0.22019446 0.051946297 -0.10536123
000040 0c 8f 9f be 57 10 f3 bd cd b2 0d bd 91 d9 6c 3d
       -0.31163824 -0.11868351 -0.034594346 0.057824675
000050 a8 44 c5 3c b3 9e 1a bd d5 f8 96 bd fc 85 9b bd
       0.02408059 -0.037749004 -0.0737168 -0.07593915
000060 02 c3 a1 bd 37 d8 b1 bd 7f e3 15 be 98 c0 ec bd
       -0.07898523 -0.08683818 -0.14637564 -0.11560172
000070 0b bc 82 3d 1b d6 19 bd 92 56 20 be a7 59 a3 3b
       0.063835226 -0.037557703 -0.15658024 0.0049850526
000080 d4 62 7a bc 07 e8 4b be 05 25 3a be dc b7 08 be
       -0.0152823515 -0.1991273 -0.18178184 -0.13351387
000090 ab 4e 13 be 8a 08 2c bc 00 be 61 be af cd 43 3d
       -0.14385478 -0.010500083 -0.22045135 0.047803577
0000a0 7c 90 b7 bd f5 2c d6 bd d1 76 a0 bc fc 07 f5 bc
       -0.08963105 -0.104577936 -0.019587906 -0.029911034
0000b0 82 0c 93 bd 45 bc c3 bd 55 08 7b be c7 4b 00 bb
       -0.0718012 -0.09557394 -0.24514897 -0.0019576417
0000c0 2e 95 54 be ff 40 9b 3d 77 44 be bd 09 a5 f2 bc
       -0.20760033 0.075807564 -0.092904024 -0.02961971
0000d0 b1 f4 51 be 50 6f 62 3e 48 fc d8 bd f5 ba 97 bc
       -0.20503499 0.22112775 -0.10594994 -0.018521765
0000e0 cc 87 b3 bd b8 05 e4 bd 65 13 58 3d 22 8c b2 3d
       -0.087661356 -0.11133903 0.05275287 0.087181345
0000f0 58 d5 94 bd 34 5a d3 bd 29 cc f3 bc 96 00 da 3c
       -0.072672546 -0.10319939 -0.029760437 0.026611608
000100 84 84 0f be 40 4d cf bd 3e 4b c2 3d 2b 4d 2f bd
       -0.14015394 -0.10122156 0.094870076 -0.042798202
000110 15 8a 05 bd b7 f9 b1 bd 33 68 ae 3c 25 39 00 3b
       -0.03260239 -0.086902075 0.02128992 0.001956531
000120 c3 40 81 be 25 42 f5 bc 2a ab 41 be 28 e7 0f 3d
       -0.25244722 -0.029938767 -0.1891295 0.035132557
000130 bb 71 6f 3d 22 60 24 3c 2d bf 21 ba bb 0e 63 3c
       0.05845807 0.0100326855 -0.000617015 0.0138584925
000140 c8 bf ed 3c f3 aa 92 be 94 b6 a8 3c 7c d3 24 bd
       0.029022112 -0.2864605 0.020594873 -0.04024075
000150 b4 ae d3 bc b2 49 6c be 37 d8 40 bd 62 e9 49 be
       -0.02584014 -0.23074988 -0.0470812 -0.19717935
000160 51 2e f3 bc ea af 8d 3b ee 01 e4 39 a4 72 99 bd
       -0.029685171 0.004323949 0.00043488987 -0.07492569
000170 e5 87 a7 3d 7d 34 c7 3c f8 82 91 3d 62 57 09 be
       0.08180217 0.02431702 0.071050584 -0.1341224
000180 fc 67 6c bd 9f cd 2e bd a0 43 19 3d ed b2 37 bb
       -0.057716355 -0.042676564 0.037418008 -0.0028030232
000190 15 ed 22 be ea 2f 9c bd 22 c4 57 bd c6 28 36 be
       -0.15910752 -0.076263264 -0.05267728 -0.17788991
0001a0 b1 56 20 bd 62 3a 08 be b2 89 30 3d 6f 87 fa 3c
       -0.039145175 -0.13303521 0.043100066 0.030582158
0001b0 37 ef 5d bd 0e 86 34 3e f2 ba 27 3d 87 6e 08 be
       -0.05418321 0.17629263 0.04094977 -0.13323413
0001c0 a4 ef 0f 3e f5 0d 66 3c ff e1 3e be bb ee 59 bd
       0.1405626 0.014041414 -0.18640898 -0.053206187
0001d0 02 e0 10 be 93 6d cc bd cd b4 fc bd c8 3a 1a bb
       -0.14147952 -0.09981837 -0.123391725 -0.0023533572
0001e0 ab 59 a7 bd 09 b6 b4 bd 1a 55 3c be 29 b0 89 3c
       -0.081714 -0.08823783 -0.18391839 0.016807633
0001f0 37 67 e4 3c 7a 10 4d bb 1d de 4d be 31 ee f4 bd
       0.027881248 -0.0031290338 -0.2010426 -0.11959494
000200 72 4a 33 be 08 17 a7 3d 2d f2 52 3d af 57 c1 38
       -0.17508867 0.0815869 0.051500488 9.2192895e-05
000210 73 b1 69 be 80 dc c6 bd f4 9a 9a bd 49 d2 a4 bd
       -0.22821598 -0.09710026 -0.07549086 -0.08047921
000220 aa 14 cc bd 70 b4 b4 bc 5c b2 bf b8 95 60 c0 bd
       -0.09964879 -0.022058696 -9.140812e-05 -0.093934216
000230 2b 1b 4b be 71 a5 ef bd cd 3b fe 3d 9d 3a b3 3b
       -0.19834583 -0.11701477 0.1241375 0.0054696337
000240 f0 f6 8d be 1c 9f 11 bd 35 06 88 bd cb 83 cf bd
       -0.2772746 -0.03555213 -0.06641809 -0.101325594
000250 94 32 e5 3c f8 2b f3 bc e0 57 c1 bd a2 49 86 3d
       0.02797822 -0.029684052 -0.09440589 0.06557013
000260 56 ad 35 be c4 12 03 be 13 cf f1 bd c8 0a 1f be
       -0.17741904 -0.12800127 -0.118070744 -0.15531456
000270 22 b7 48 3d 57 ea 83 3c 38 e7 00 be 8c b5 39 bd
       0.049002774 0.016102953 -0.12588203 -0.045339152
000280 b0 18 30 be b6 22 ca bd 67 fb 65 bd 9f 5e 48 3d
       -0.17196918 -0.09869902 -0.05614796 0.048918363
000290 88 87 0d bd 01 ac 43 be e6 69 c7 3d 19 1a a4 bc
       -0.03455308 -0.19108583 0.097369954 -0.020031976
0002a0 7e 11 ab bd b3 5c 15 3d 92 81 e1 bc e2 a6 2d 3c
       -0.08352946 0.036465358 -0.027527604 0.01059887
0002b0 18 bd 8c be 6c 36 ab 3d 31 cf e3 bd 0e 6d 7c 3d
       -0.27488017 0.083599895 -0.11123503 0.06162744
0002c0 b3 07 b7 3c 49 5b 24 be 89 cd 11 be 87 53 6d bd
       0.022342538 -0.16050448 -0.14238562 -0.057940986
0002d0 99 ad 63 bd 89 78 c1 bd e1 8a 44 be 2a 7a 6b 3d
       -0.055585478 -0.094468184 -0.19193603 0.05748955
0002e0 b0 45 f6 3c c0 70 3d bd 14 80 17 3d 09 45 63 be
       0.030062526 -0.046250105 0.03698738 -0.22194304
0002f0 e6 ad 6e 3c 12 b0 de 3d 3c 7d 64 bd 49 8d 0f 3c
       0.014567828 0.108734265 -0.055783495 0.008761712
000300 3b 0a 72 bd 63 00 82 bd b4 fa 2a 3d 02 f5 16 bd
       -0.059091788 -0.0634773 0.041742995 -0.03685475
000310 86 f8 d5 bc 13 73 37 be 13 1f 03 be 76 14 66 3d
       -0.026119482 -0.17914991 -0.12804823 0.056171857
000320 40 d0 3e be 47 5b 80 bd 48 43 ae 3c 1e c3 27 be
       -0.18634129 -0.0626741 0.021272317 -0.16383025
000330 f4 21 f9 bd 70 ac bd be 7f b3 13 be a1 ec 07 be
       -0.12164679 -0.37045622 -0.14423941 -0.1327386
000340 14 0c 54 be 6c 86 22 be e9 03 02 3e 72 86 0a 3d
       -0.20707732 -0.1587159 0.12696804 0.033819623
000350 18 aa 8d bc be 7b a3 3d a0 4c be ba 69 c8 51 3d
       -0.017293021 0.07982586 -0.0014518686 0.051216517
000360 6d ba 0c be 04 06 c8 bc 5d 2b bb bc cf 4b 37 bd
       -0.13742991 -0.024416931 -0.022847826 -0.04475003
000370 4a 59 54 be 8f c4 33 3d ea 63 80 3c 27 59 8c 3d
       -0.20737186 0.043888625 0.015672643 0.06852942
000380 46 7e 27 bd 55 1f 60 be 09 b0 49 be 91 1f ee bd
       -0.040891908 -0.21886952 -0.19696058 -0.116271146
000390 11 80 7b bb 50 94 4a be 17 77 45 be f7 f4 24 bd
       -0.0038375894 -0.19783139 -0.1928371 -0.04027268
0003a0 6b 1a 13 3d 55 b0 96 bd 0c 22 bf bd a4 e6 d0 3d
       0.035913866 -0.073578514 -0.09332666 0.10200241
0003b0 61 83 2f bd 9d c5 34 be fb a2 8f bd 9b b8 a0 bb
       -0.042849902 -0.17653508 -0.07013508 -0.004904819
0003c0 86 0e cd 3d ee fd f2 bc 5f 77 10 be 93 0e 8a 3c
       0.10012536 -0.029662099 -0.14108036 0.016852653
0003d0 13 89 b9 3d 13 d5 25 be d2 c4 14 bd d2 97 82 3d
       0.09059348 -0.16194563 -0.036320515 0.06376614
0003e0 9b 97 be bd 20 ab 52 bd d9 e6 ee ba e4 7c 38 3d
       -0.0930626 -0.05143273 -0.0018226757 0.04504098
0003f0 7c 2e 70 bd 29 5b 04 be 2c f2 7f bd f3 4f 01 3d
       -0.05863808 -0.129254 -0.062486812 0.031570386

fc2.bias f4 [128]
000000 c1 39 97 3b 5c 7a b2 bc 33 06 0a be fd b0 6a bd
       0.004615039 -0.021786861 -0.13478927 -0.057297695
000010 68 b9 5c bd 56 6d 02 be 7d a3 9b bd d0 6c ff bc
       -0.053887755 -0.12737021 -0.07599542 -0.031179816
000020 50 e2 c8 bd 83 b1 f8 bd 43 34 d9 bd c1 ff 9c bd
       -0.09808791 -0.12143233 -0.10605671 -0.07665969
000030 88 01 de bd 3a 81 b5 3c 3c 15 b1 bd ce 97 1a bd
       -0.10840136 0.022156347 -0.08646628 -0.03774243
000040 fd 29 b9 bd 0a de 7e bd f2 67 4a bd 91 1d e4 3b
       -0.09041212 -0.06222347 -0.049415536 0.0069615324
000050 41 59 87 bd 14 2d c3 bd 55 62 01 be 77 e0 38 bd
       -0.06608821 -0.09530082 -0.12635167 -0.04513594
000060 41 10 9f bd 19 ba 17 bd 10 2c 45 bd d2 44 8f bd
       -0.07766772 -0.03704271 -0.048137724 -0.06995548
000070 5c ef 3c be 13 6e 84 bd 18 98 95 bc 11 de 11 be
       -0.18450683 -0.064663075 -0.018261 -0.14244868
000080 67 e8 d1 bd 21 c6 5b bd 19 b7 39 be 64 e6 26 bd
       -0.10249405 -0.053655747 -0.18136252 -0.04074706
000090 88 4e b8 bd 05 d4 60 bd c4 a7 aa bd 06 4e a5 bd
       -0.08999354 -0.054889698 -0.0833278 -0.080715224
0000a0 4a 5d 44 3b e9 67 c0 bb 38 3f 89 bd a1 69 8c bd
       0.0029962831 -0.005871762 -0.06701511 -0.068560846
0000b0 e8 2c aa bd 25 83 a1 bd 03 3b 32 bd 8e ad 9c 3a
       -0.083093464 -0.07886342 -0.04351331 0.0011953579
0000c0 f9 74 bc bd f4 27 03 bd 17 0d f9 bc cf 48 29 bc
       -0.09201998 -0.032020524 -0.03040175 -0.0103323
0000d0 b3 81 1d bd 37 54 14 be d8 eb e4 bc e9 78 ec bd
       -0.03845377 -0.1448525 -0.02794449 -0.11546499
0000e0 4d a7 b7 bd 1f 20 05 be 17 31 60 3d d9 97 b6 bd
       -0.08967457 -0.13000534 0.054734316 -0.089156814
0000f0 70 c4 de bd 51 ff eb bc 0b 86 1d bd f3 a2 19 bd
       -0.10877311 -0.028808268 -0.03845791 -0.037508916
000100 e0 3f 64 bd eb a3 e9 bd d3 db 10 be 1b 6d 06 be
       -0.05572498 -0.11408218 -0.14146356 -0.13127558
000110 f4 18 e1 bd 75 4c 8d bd 3c 9a 31 bd 40 bc 92 bd
       -0.109910876 -0.06899349 -0.04335998 -0.07164812
000120 a6 de d2 bc 0b ba b0 bd 7d 60 0c be 3e 36 93 bc
       -0.025740933 -0.08629235 -0.13708682 -0.0179702
000130 cd 52 08 be c4 48 a4 bd 56 c5 63 bd f7 23 f6 bd
       -0.13312836 -0.080216914 -0.055608116 -0.120185785
000140 ab ee d0 bd 52 be 01 be 4e a3 e2 bd 29 a6 65 bc
       -0.10201772 -0.12670258 -0.11066304 -0.014016666
000150 da 59 eb bd 1d 53 1f 40 6d 94 c3 3d 95 51 dc bd
       -0.11491747 2.4894478 0.09549794 -0.10757748
000160 02 6e 8c bd 33 50 c4 bd 44 1c be bd 45 8a 11 be
       -0.0685692 -0.09585609 -0.09282735 -0.14212902
000170 0e 26 fa bd 77 20 38 bd b9 94 9e bc 95 6e 6a bd
       -0.122142896 -0.044952836 -0.019358026 -0.057234365
000180 e1 41 cb bd 87 42 de bc 5a 85 bc bd 32 cb ab bd
       -0.09924675 -0.027131332 -0.09205122 -0.08388366
000190 2f d4 97 bc b9 c2 86 bb 5b 74 41 bd 30 ff 8f bd
       -0.018533794 -0.004112568 -0.047230106 -0.07031095
0001a0 f6 92 97 bd c5 92 b2 bc b5 a9 ec bd 6b 2a 2e 3d
       -0.074010774 -0.0217985 -0.115558065 0.04252092
0001b0 93 3d a4 bd c0 e3 ac bc fe f1 15 bc 97 01 00 be
       -0.08019557 -0.021104693 -0.009151934 -0.12500606
0001c0 86 cb 98 bd 24 70 36 bd af 81 f1 bd 06 19 06 bc
       -0.07460694 -0.04454054 -0.11792313 -0.008184677
0001d0 57 24 27 3c b7 71 21 be e2 8f d0 bd ba 7e 20 be
       0.010201535 -0.15766035 -0.101836935 -0.15673342
0001e0 8f 96 59 bc 60 04 77 3f 1c b9 ce bd a5 0c 36 bd
       -0.013280525 0.9649105 -0.100939006 -0.044445653
0001f0 fe 3a f9 bd c6 3e 00 be 2b fb 6c bd f8 74 c4 bd
       -0.12169455 -0.12523946 -0.05785672 -0.095926225

fc3.weight f4 [1, 128]
000000 5a 90 e3 bb d4 77 c6 3c 0f c9 b8 3c 65 6b 01 bc
       -0.0069446983 0.02422706 0.02255681 -0.00789914
000010 9d 36 01 bb 19 8f df bc c5 5b 09 bc 1c fc a3 3c
       -0.001971639 -0.027289914 -0.008383696 0.020017676
000020 a0 7a 64 3c e5 c9 5d bc 9f 22 4a 3b 1c 3e 73 bc
       0.013945252 -0.013536905 0.003084339 -0.014846351
000030 80 81 e9 3c da 2f b7 3b 92 68 f6 3c 4c 76 81 3b
       0.028504133 0.005590421 0.03007916 0.0039508697
000040 1e b6 8c 3c ef a4 d1 bc b0 b9 8f bc 65 92 c3 bc
       0.017176684 -0.025591342 -0.017544597 -0.023873517
000050 b8 81 e6 bc 07 8f 6d 3c 18 78 05 ba 6c 2d 86 bc
       -0.028138027 0.014499432 -0.0005091443 -0.01637908
000060 4d b0 85 3b 2b cb 8d 3a b4 4f 83 bc 2c a8 0e bc
       0.0040798546 0.0010817995 -0.016029216 -0.0087070875
000070 4a 3a d7 3b 66 41 f1 3c c1 68 d4 3c ff 9c f2 3c
       0.006568228 0.02945013 0.025928857 0.029615877
000080 34 68 29 bc fc e4 90 3b 67 1e ad 3c b2 29 2a 3b
       -0.010339785 0.0044218283 0.021132661 0.0025964794
000090 30 53 e6 bc 78 66 91 3c f3 2c 80 bc 2d e7 c1 39
       -0.028115839 0.017749056 -0.015646433 0.00036984068
0000a0 5a bd 19 3c cf c1 56 bc 94 32 d1 bc 6b 36 c1 3c
       0.009383524 -0.013107731 -0.025536813 0.023585519
0000b0 34 4d 3e 3b a0 2f f6 3c 65 36 e6 3c 53 f8 a8 bc
       0.0029037716 0.030052006 0.02810211 -0.020626223
0000c0 08 ce 40 bc d1 ff 00 bc 31 32 25 bc b5 9d db 3c
       -0.011767872 -0.007873491 -0.010082767 0.026808599
0000d0 5d 20 c4 bc 7d 34 e4 bc 0e a7 03 3c a5 a4 a5 3c
       -0.023941213 -0.02785706 0.008035434 0.02022011
0000e0 ff 46 ab 3c 33 1c ac 3b 33 f9 ff 3a e4 6b 10 3c
       0.020907877 0.005252385 0.0019529223 0.008814786
0000f0 87 1e 10 3c fa 1a e4 bc 73 fc eb 3c 8f a7 99 3c
       0.008796341 -0.027844895 0.0288069 0.018756656
000100 d8 41 c3 bc 51 f9 eb bc b7 10 0f 3b 42 e7 54 ba
       -0.023835108 -0.028805407 0.0021830031 -0.00081216183
000110 45 14 d9 3c 77 07 d9 3b a1 8e 6a bc e4 a2 7d 3b
       0.026498923 0.0066232043 -0.014316232 0.0038701827
000120 92 a1 23 bc 77 7b 20 3c f2 41 a4 3c e2 f4 d0 bc
       -0.009987252 0.009795061 0.020050976 -0.025507394
000130 1d bc 0b bc a1 53 4f 3b 72 45 16 bc 0a de b0 3c
       -0.008528736 0.003163554 -0.0091718305 0.021590251
000140 db 14 a3 3c 3a e6 a9 b9 ff 71 a3 3a 80 07 d2 bc
       0.019907406 -0.00032405724 0.0012469887 -0.025638342
000150 74 d8 af 3a 60 d7 21 bc 97 c8 91 bc 80 12 a7 3c
       0.0013415948 -0.00987801 -0.017795844 0.020394564
000160 de fe c0 3b 44 c0 5e 3b 0d 60 ac bc dc 7e fc ba
       0.0058897575 0.003398911 -0.021041894 -0.0019263881
000170 b5 fd 34 3c ff 9e b0 bb 40 b0 ec bc a4 d6 db 3c
       0.011046817 -0.0053900476 -0.028892636 0.026835747
000180 d5 78 9e bb 4d 3f e4 bc d8 3c c7 bc 7c cd df 3b
       -0.0048361816 -0.027862215 -0.024321005 0.0068299156
000190 d2 20 f7 3b e0 4f 92 3b ff 06 ed bc e5 32 30 3b
       0.0075417543 0.0044650882 -0.028934 0.0026885804
0001a0 f7 9b c4 3c 12 55 42 bc 23 e8 ad bc 2d b0 4e bb
       0.024000151 -0.011861103 -0.021228855 -0.0031538114
0001b0 6c cc c5 bc 5a 24 e9 3c d5 6f e8 3b f0 cf 5f 3c
       -0.024145328 0.028459717 0.0070934095 0.013660416
0001c0 bd e9 e8 bc c7 df f0 39 c7 cd e2 3b 9c d5 ea 3c
       -0.028431768 0.00045943094 0.006921503 0.02866631
0001d0 28 a7 00 bd a5 d6 95 bb 65 3e 32 3c 47 71 20 3c
       -0.031409413 -0.0045727068 0.010879134 0.009792632
0001e0 86 45 c2 bc ee 8d 35 bc 00 eb c3 3c bb 5f 40 bc
       -0.023714792 -0.011081202 0.023915768 -0.011741574
0001f0 e0 f0 cb 3b 3d 3c c3 3a 0a 51 f7 39 34 27 cc bb
       0.006223783 0.0014895272 0.0004717189 -0.0062302593
