results/results_5/agent2_actor.pth (torch, 185131 bytes, 6 tensors)

fc1.weight f4 [256, 48]
0	0xbc1bfa0f	-0.009520068
1	0xbd728f29	-0.05921856
2	0xbcdc475c	-0.026889496
3	0xbcd879f8	-0.026425347
4	0x3d50c120	0.05096543
5	0xbd166bbd	-0.03672384
6	0xbcb2dcdf	-0.021833835
7	0x3cdc84f0	0.026918858
8	0x3cb19689	0.021678226
9	0x3d4f699b	0.050637823
10	0xbd197d2d	-0.037472893
11	0x3b1d2a6f	0.0023981591
12	0xbc06fd35	-0.00823908
13	0xbdaf5dfd	-0.08562849
14	0x3cc77967	0.024349881
15	0x3dbeba1a	0.0931284
16	0x3da46869	0.08027727
17	0x3c9ec88b	0.019382736
18	0x3d07e942	0.033181436
19	0x3ced9361	0.02900094
20	0x39ba2af4	0.00035508687
21	0xbd052aff	-0.032511707
22	0x3d92eb67	0.07173806
23	0x3dcaf701	0.099103935
24	0x3ccf9171	0.025337907
25	0xbd50a618	-0.05093965
26	0x3ca642fe	0.020295616
27	0xbd96247c	-0.073311776
28	0xbd5a3fe9	-0.053283606
29	0xbdb78c13	-0.08962264
30	0x3debb625	0.11509351
31	0xbd8adaf4	-0.06780043
32	0x3dca94d6	0.098916695
33	0x3a195442	0.0005849042
34	0x3dd7921b	0.10525914
35	0x3d469651	0.048483197
36	0xbc3fb575	-0.011700978
37	0xbdabd1b7	-0.08389609
38	0x3d944ac6	0.072408244
39	0x3dc3a14d	0.0955225
40	0x3ddfce47	0.10928016
41	0x3d339b54	0.043849304
42	0x3d13a7f1	0.036048833
43	0x3d1033dd	0.03520571
44	0x3c105f7f	0.008811831
45	0xbce159cc	-0.027508639
46	0x3da95eca	0.08270033
47	0x3d8a2ee3	0.06747224
48	0x3d18b226	0.03727927
49	0xbdc89fc1	-0.09796096
50	0xbdae4b5b	-0.08510467
51	0xbdc07de9	-0.093990155
52	0xbd4e916e	-0.05043166
53	0xbdb59f58	-0.08868283
54	0xbd558d7c	-0.052136883
55	0xbd8f8f52	-0.07009758
56	0x3d28d38b	0.041217368
57	0xbdc5b2fd	-0.0965328
58	0xbdf7450f	-0.12073719
59	0xbd05cd11	-0.03266627
60	0xbdeaf59c	-0.114726275
61	0x3c75ab6b	0.0149944825
62	0xbd013826	-0.031547688
63	0x3bcc0446	0.0062260954
64	0xbda1ef86	-0.079070136
65	0xbdf13665	-0.11777953
66	0x3ca34c0b	0.019933721
67	0xbd29ffb2	-0.041503616
68	0xbd548a61	-0.05188978
69	0x3d9289cb	0.07155188
70	0x3bb59d2b	0.0055424175
71	0xbdb0cfe5	-0.08633403
72	0xbc87b13b	-0.016564002
73	0x3d729bf0	0.059230745
74	0x3b8a1451	0.0042138477
75	0x3d7d6590	0.061864436
76	0x3b4378e2	0.002982669
77	0xbdc09de2	-0.09405114
78	0x39b233fe	0.00033989543
79	0x3c4a92c1	0.01236409
80	0x3bf73787	0.007544461
81	0xbd2fc1ae	-0.042909317
82	0x3d723d8a	0.05914072
83	0x3de08793	0.10963359
84	0x3de0882e	0.10963474
85	0xbdbed1c1	-0.09317351
86	0x3d04293f	0.032265898
87	0x3d3486ab	0.044073742
88	0xbda1d374	-0.079016596
89	0xbd1975f2	-0.037465997
90	0x3de9d9d0	0.114184976
91	0xbb1be3d9	-0.002378693
92	0xbd526724	-0.051367894
93	0x3dc54074	0.09631434
94	0x3d31b3f0	0.043384492
95	0x3d1928b1	0.037392322
96	0x3d4f673e	0.05063557
97	0xbe030c00	-0.12797546
98	0x3d809789	0.06278903
99	0x3d90ec1b	0.070762835
100	0xb97e12f0	-0.00024230382
101	0x3dba31e3	0.090915464
102	0x3d0f5280	0.034990788
103	0x3e278155	0.1635793
104	0x3d5a9ee6	0.053374194
105	0xbd95b493	-0.073098324
106	0x3b12d8f7	0.0022407153
107	0x3e21527a	0.15754119
108	0xbd118fb6	-0.035537444
109	0x3dca4dde	0.09878133
110	0xbce94e53	-0.02847973
111	0x3d9a9310	0.07547581
112	0xbd3593ef	-0.044330534
113	0xbc3c7334	-0.011502076
114	0xbc6ef292	-0.0145842
115	0x3e1da704	0.15395743
116	0x3d8aee29	0.06783707
117	0x3df65936	0.120287344
118	0xbcf81656	-0.030284088
119	0x3e2cd317	0.168774
120	0x3c6cfecc	0.014465045
121	0xbd8d0e26	-0.06887464
122	0xbd278cbb	-0.040905695
123	0xbced6ad6	-0.028981607
124	0xbd10b934	-0.035332873
125	0x3db8d7fb	0.0902557
126	0x3cdf3b6b	0.027250012
127	0xbd56a7ae	-0.052406006
128	0xbca33e5b	-0.019927194
129	0x3d37a2dc	0.04483305
130	0x3d764430	0.060123622
131	0x3d5afcb3	0.05346365
132	0xbc24370b	-0.010022889
133	0x3deccad4	0.11562124
134	0x3df9a459	0.1218955
135	0xbd381671	-0.044943277
136	0xbd098a65	-0.03357925
137	0xbc7b4ed5	-0.015338619
138	0x3c7bf015	0.015377064
139	0xbd91a416	-0.07111375
140	0xbdab0275	-0.08350078
141	0x3db0ba2d	0.0862926
142	0x3df9c926	0.12196569
143	0xbdd2a82c	-0.102859825
144	0x3c8b2ce8	0.016989186
145	0x3ce667aa	0.028125603
146	0xbc85a9e7	-0.016316367
147	0x3da8f7bf	0.08250379
148	0xbc88da07	-0.016705526
149	0xbcd3a40d	-0.025835061
150	0x3d00bee2	0.03143204
151	0x3c89f46a	0.016840179
152	0xbc15c383	-0.009140852
153	0x3be02dfe	0.00684142
154	0x3cd8fdc3	0.02648819
155	0x3e4668fb	0.19375984
156	0x3c5867d2	0.013208346
157	0xbd3e70cc	-0.04649429
158	0x3b84d5f3	0.004053825
159	0x3e5da657	0.21645485
160	0x3d834735	0.06410066
161	0x3d5713a5	0.05250897
162	0xba9c514f	-0.0011926087
163	0x3ded74d7	0.11594551
164	0x3d44f4d2	0.04808504
165	0xbe13ecb6	-0.14445767
166	0xbdc326bd	-0.09528873
167	0x3e0c361b	0.13692515
168	0xbabca809	-0.001439334
169	0x3df4d91d	0.119554736
170	0x3bc47b6f	0.0059961597
171	0xbda08ec8	-0.07839733
172	0xbda7481e	-0.08168052
173	0xbd825cfb	-0.06365391
174	0x3d092005	0.0334778
175	0xbda6180b	-0.081100546
176	0x3cdd8287	0.02703978
177	0x3dcc292d	0.09968791
178	0x3e5b11dd	0.21393533
179	0xbc5603cf	-0.0130624315
180	0x3c8d7387	0.017267002
181	0xbdba6a85	-0.09102348
182	0x3e7e3c3b	0.24827664
183	0xbda075b7	-0.07834952
184	0x3d50d0b4	0.050980285
185	0x3e0438ea	0.12912336
186	0xbc5c5c1d	-0.013449696
187	0xbc610420	-0.013733894
188	0x3c377745	0.01119787
189	0xbd099643	-0.033590566
190	0xbdc7a805	-0.09748844
191	0xbcd7f900	-0.02636385
192	0xbd9da4bf	-0.076974384
193	0xbaa3845a	-0.0012475357
194	0xbdabdb48	-0.08391434
195	0x3c15cb75	0.009142746
196	0xbcf15cb5	-0.029463151
197	0x3b1c246a	0.0023825415
198	0xbc8cba34	-0.017178632
199	0xbc8a87c6	-0.016910445
200	0xbb24cc59	-0.0025146215
201	0xbcb9dae0	-0.022687376
202	0xbca5f097	-0.020256324
203	0xbc2aeb60	-0.010432094
204	0x3d86ab26	0.06575613
205	0x3d673184	0.056443706
206	0xbdb3175e	-0.08744691
207	0x3cf61837	0.030040843
208	0x3c819bbc	0.01582133
209	0x3dc16840	0.09443712
210	0xbc425444	-0.011860911
211	0x3b028ec1	0.0019921514
212	0x3d336a36	0.043802463
213	0xbc53469b	-0.012895252
214	0x3cfa4d17	0.030554337
215	0xbd837cd2	-0.06420292
216	0x3c4ac0e2	0.012375088
217	0x3d8f9a19	0.07011814
218	0xbd7448e0	-0.05963981
219	0xbda7c49a	-0.08191796
220	0xbd28906e	-0.041153364
221	0x3d2146a8	0.039374024
222	0xb910641e	-0.00013770207
223	0x3d1d3492	0.038380213
224	0xbcf26d83	-0.029593235
225	0xbc2588dc	-0.010103431
226	0xbd5562eb	-0.05209629
227	0x3daffef6	0.08593552
228	0xbd9450c8	-0.0724197
229	0xbc91a148	-0.0177771
230	0x3b033e5f	0.002002619
231	0x3cc3cf65	0.023902604
232	0xbb00e19b	-0.0019665721
233	0x3d1ea27d	0.03872918
234	0xbd98865d	-0.07447503
235	0x3c8b6134	0.017014123
236	0x3c690da1	0.014224441
237	0xbd1d4ecb	-0.03840522
238	0xbc483187	-0.0122188395
239	0xbd161380	-0.03663969
240	0x3c2c233d	0.010506448
241	0xbe5100fd	-0.20410533
242	0x3ce76329	0.028245525
243	0xbd0af9ec	-0.03392975
244	0x3d28bc60	0.041195273
245	0x3d87ac0a	0.06624611
246	0x3d3a046b	0.04541437
247	0xbd10fd05	-0.03539755
248	0x3d863a6e	0.06554113
249	0xbe326361	-0.17420723
250	0x3d88c619	0.06678409
251	0x3cea2ac1	0.02858484
252	0x3c5aeaa8	0.0133616105
253	0xbccf4520	-0.025301516
254	0x3d3de88e	0.04636436
255	0x3cc8a4af	0.02449259

fc1.bias f4 [256]
0	0xbd492283	-0.04910518
1	0x3d4cf2f9	0.050036404
2	0x3cede74b	0.029040953
3	0xbe047cee	-0.12938282
4	0xbda1ffde	-0.07910131
5	0xbc5ccc1a	-0.013476396
6	0xbda58f48	-0.08083969
7	0x3d9dd020	0.07705712
8	0xbd77d3a6	-0.060504578
9	0xbdcf788b	-0.101304136
10	0xbdb0c169	-0.0863064
11	0x3d032a2a	0.032022633
12	0x3dfe2ca4	0.12410858
13	0x3db7951d	0.08963988
14	0xbe219af1	-0.15781762
15	0xbcb83c05	-0.022489557
16	0xbb9a96bc	-0.004717676
17	0xbda30dbe	-0.079616055
18	0xbe315543	-0.17317681
19	0x3e225ed0	0.1585648
20	0x3da4e7f6	0.080520555
21	0xbe097ae4	-0.13425785
22	0x3d8aae41	0.067715175
23	0xbd4db56e	-0.050221853
24	0x3dd60541	0.10450221
25	0xbce91e2c	-0.02845677
26	0x3df933c4	0.12168077
27	0xbcdbd6c0	-0.0268358
28	0xbd609e02	-0.054838188
29	0xbe21896f	-0.15775083
30	0xbe1fd8fd	-0.15610118
31	0x3e037b26	0.12839946
32	0x3dd1d306	0.10245328
33	0x3e33f937	0.17575537
34	0x3d5bb420	0.053638577
35	0xbe281dee	-0.16417667
36	0xbe0fedf1	-0.14055611
37	0xbc433bc9	-0.011916109
38	0xbe1e0382	-0.15431026
39	0xbc2e35b8	-0.010632925
40	0x3d2c8b84	0.04212524
41	0xbd9ba110	-0.075990796
42	0x3d808bf9	0.06276698
43	0xbcf3ba28	-0.029751852
44	0xbd8d529e	-0.069005236
45	0xbb19ca84	-0.0023466656
46	0x3c8ba279	0.017045246
47	0xbe2b7b78	-0.16746318
48	0x3e14b72b	0.14522998
49	0x3e02e67f	0.1278324
50	0xbe18e04b	-0.14929311
51	0xbdb77923	-0.08958652
52	0xbd6858ca	-0.0567253
53	0x3c045350	0.008076504
54	0xbd48977d	-0.048972595
55	0xbcddbac1	-0.02706659
56	0x3cfb248b	0.030657073
57	0x3d9b3755	0.07578913
58	0x3d6f58cc	0.058434293
59	0x3c90970e	0.017650153
60	0x3cc429eb	0.02394577
61	0xbc4c10b3	-0.012455153
62	0xbda231c5	-0.07919649
63	0x3ce93012	0.028465305
64	0x3dc797d7	0.09745758
65	0xbd32c9e2	-0.04364956
66	0xbe07671c	-0.13222927
67	0x3ca5cc3a	0.020238984
68	0xbe02707f	-0.12738226
69	0x3cf3c35e	0.029756244
70	0x3dc8e00c	0.098083586
71	0xbdb5509f	-0.08853268
72	0xbd6a2057	-0.057159748
73	0x3daa1541	0.08304835
74	0x3d234001	0.03985596
75	0x3de640e6	0.11242847
76	0xbddb98bc	-0.10722491
77	0xbbe723c6	-0.007053825
78	0xbde9019c	-0.1137726
79	0xbdb93f6d	-0.09045301
80	0x3d20b184	0.039231792
81	0x3db13296	0.086522266
82	0x3dac0b50	0.08400595
83	0xbd8eb68f	-0.06968414
84	0x3e08b398	0.1334976
85	0xbe1d001e	-0.15332076
86	0xbe24a254	-0.16077548
87	0xbb7ad3df	-0.0038273258
88	0x3e0075ce	0.12544939
89	0x3dce3868	0.100693524
90	0xbe091d9e	-0.13390204
91	0xbd3282d0	-0.043581784
92	0x3df8b902	0.121446624
93	0x3dba2b1f	0.09090256
94	0x3cc09ac5	0.0235113
95	0xbda7cb68	-0.081930935
96	0x3d8a18ab	0.06742986
97	0x3dd27cde	0.10277723
98	0x3d5ffba9	0.05468336
99	0x3d95bdc5	0.07311586
100	0xbdc5c1d6	-0.09656112
101	0xbe26faf9	-0.16306676
102	0x3e0a9317	0.13532673
103	0xbbda9d95	-0.0066716173
104	0x3ce2d80b	0.027690908
105	0x3bade030	0.0053062662
106	0xbda011a1	-0.078158624
107	0xbd9c1a00	-0.076221466
108	0x3d78b161	0.060716037
109	0xbbb44f6c	-0.005502632
110	0xbe267ef6	-0.16259369
111	0xbd6aa387	-0.057284858
112	0xbd84cffe	-0.06484984
113	0xbe1344b8	-0.14381683
114	0xbe0ecaf5	-0.1394461
115	0xbd69299e	-0.056924455
116	0xbe1e78c9	-0.15475763
117	0x3d936c46	0.07198386
118	0xbe219b46	-0.15781888
119	0xbda86a93	-0.082234524
120	0xbd829314	-0.06375709
121	0xbda0f8df	-0.078599684
122	0xbe3cc86d	-0.18435831
123	0xbd5d8522	-0.054082043
124	0xbdcd8517	-0.100351505
125	0x3d562042	0.052276857
126	0xbde6abaa	-0.11263211
127	0x3de06fa6	0.10958795
128	0x3e189e47	0.14904128
129	0x3d52058d	0.051274825
130	0x38e42aa8	0.000108798326
131	0xbdfd679e	-0.12373279
132	0xbdac35d0	-0.084087014
133	0xbded6de5	-0.11593226
134	0xbbf7519e	-0.0075475713
135	0x3dd5e12d	0.104433395
136	0xbdaef48f	-0.085427396
137	0xbded1f03	-0.11578181
138	0xbc7fd000	-0.015613556
139	0xbe32d481	-0.17463876
140	0xbd3e5efe	-0.04647731
141	0xbe1b4da4	-0.15166336
142	0xbdde256b	-0.10846981
143	0xbd756720	-0.0599128
144	0x3da27ebc	0.07934329
145	0xbc5d96b2	-0.013524698
146	0x3d1d63da	0.038425304
147	0x3dd449a1	0.10365606
148	0x3d33806a	0.043823637
149	0xbd05ad5f	-0.032636043
150	0x3ca4ca94	0.020116128
151	0xbd5bc003	-0.053649914
152	0x3da8bf88	0.08239657
153	0x3d0d30c2	0.034470327
154	0x3d7126c3	0.058874857
155	0xbddb70cf	-0.10714876
156	0xbd8fe8a5	-0.07026795
157	0x3c4fd08c	0.012683999
158	0x3d204e2b	0.039137047
159	0x3c27a51b	0.010232235
160	0xbd9278ab	-0.07151922
161	0x3d01df26	0.03170695
162	0x3c072884	0.008249406
163	0xbdea556e	-0.11442076
164	0xbdc1a09d	-0.09454463
165	0xbd25ce20	-0.04047978
166	0xbd8cf09b	-0.06881829
167	0x3d88281e	0.06648277
168	0x3c86d182	0.016457323
169	0xbd0b2fb9	-0.03398106
170	0x3d9ff396	0.07810132
171	0xbcd8034c	-0.02636876
172	0xbd0ecaff	-0.03486156
173	0x3df8cbd8	0.12148255
174	0xbbb4ee2b	-0.005521556
175	0xbcaf8b17	-0.021428628
176	0x3dee6d91	0.11641992
177	0xbe0a191d	-0.13486142
178	0x3cdd325d	0.027001554
179	0xbb5411f4	-0.0032359334
180	0xbd81ba98	-0.06334418
181	0x3ac4672d	0.0014984362
182	0xbd114006	-0.035461448
183	0xbdc1fb28	-0.094717324
184	0xbdf038d0	-0.11729586
185	0xbcf034a9	-0.029321985
186	0x3dc30326	0.09522085
187	0x3dd13c46	0.10216574
188	0xbd337818	-0.043815702
189	0x3d547cb0	0.051876724
190	0x3d6ab05f	0.057297107
191	0x3dc64e30	0.09682882
192	0x3a925f80	0.0011167377
193	0x3e1ee693	0.15517645
194	0xbd8b3acb	-0.06798323
195	0xbb89c46d	-0.004204324
196	0xbdcf38a8	-0.10118228
197	0xbe022b9d	-0.1271195
198	0xbc5135bc	-0.012769159
199	0xbe065826	-0.13119563
200	0x3d127b4d	0.03576212
201	0x3de6bc55	0.1126639
202	0xbcd7fb64	-0.02636499
203	0xbe1dd705	-0.15414055
204	0x3c8c8257	0.017151995
205	0x3e015074	0.12628347
206	0x3c9e86dd	0.019351417
207	0xbdd37045	-0.10324148
208	0xbd31ac74	-0.043377355
209	0x3dd832da	0.10556574
210	0xbe047fef	-0.12939428
211	0xbdafac13	-0.085777424
212	0x3d86341a	0.06552906
213	0x3d5c919f	0.053849813
214	0xbd5d9cc7	-0.054104593
215	0x3e0056db	0.12533133
216	0xbe03bb28	-0.12864363
217	0x3debb614	0.11509338
218	0xbe047205	-0.1293412
219	0xbd6e5bc7	-0.058192994
220	0x3db32e06	0.08749013
221	0xbdb8df63	-0.09026983
222	0xbe18967b	-0.14901154
223	0x3c6125d1	0.013741926
224	0x3e0959d6	0.13413176
225	0xbd230d5a	-0.039807655
226	0xbe1535d9	-0.14571323
227	0x3d7c737c	0.061633572
228	0x3d8a1a5e	0.067433104
229	0xbdc8920d	-0.09793482
230	0xbd634da9	-0.055493984
231	0x3df7c781	0.12098599
232	0xbc90b62e	-0.017664995
233	0xbe143cc4	-0.14476305
234	0xbd420a98	-0.047373384
235	0x3c99cacd	0.01877346
236	0xbc9f282b	-0.019428333
237	0x3e0a6c4b	0.13517873
238	0x3d8fff70	0.07031143
239	0xbcd0308e	-0.025413778
240	0x3d961758	0.07328671
241	0xbe0ecc9d	-0.13945241
242	0x3d838023	0.064209245
243	0xbca091d7	-0.019600792
244	0xbe11b1f5	-0.14228041
245	0xbd538710	-0.051642478
246	0xbd77a607	-0.06046107
247	0xbe20b876	-0.15695366
248	0xbd09a991	-0.033608977
249	0x3e0e1158	0.13873804
250	0xbdbe75f1	-0.09299839
251	0xbd5ba61a	-0.053625204
252	0xbd9cdf18	-0.07659739
253	0xbda651c7	-0.081210665
254	0x3d6057bf	0.05477118
255	0xbe3a9067	-0.18219148

fc2.weight f4 [128, 256]
0	0xbd644191	-0.05572659
1	0xbd282f5b	-0.041060787
2	0x3c18f4fc	0.009335753
3	0x3d169729	0.03676525
4	0xbce7530b	-0.02823784
5	0x3c4d807a	0.012542838
6	0x3d88fa1f	0.06688332
7	0x3c42d2bc	0.011891063
8	0xbd95abcc	-0.07308158
9	0xbcc0971c	-0.023509555
10	0xbd0ed846	-0.034874223
11	0x3d12b76e	0.035819463
12	0xbd407fa4	-0.046996728
13	0xbbcc132f	-0.006227873
14	0x3d79c9ea	0.060983576
15	0xbb2183c0	-0.002464518
16	0xbda8dc1c	-0.082451075
17	0xbd37872e	-0.04480665
18	0xbcc83c34	-0.02444277
19	0xbc99f701	-0.018794538
20	0xbd4c019f	-0.049806233
21	0x3d61fceb	0.055172842
22	0xbdbe2db2	-0.092860594
23	0x3cf2253d	0.029558772
24	0xbe21d5f8	-0.15804279
25	0xbdca1d0e	-0.09868823
26	0xbd7c9645	-0.061666746
27	0x3d68899c	0.05677186
28	0xbd92a625	-0.07160596
29	0x3a5bd3f2	0.00083857693
30	0xbd5f39cb	-0.054498475
31	0xbc75e6d6	-0.015008649
32	0x3da7850f	0.08179676
33	0x3d05c6e2	0.032660373
34	0xbd8c8e4b	-0.06863078
35	0xbc8f0c44	-0.017461903
36	0x3b93f626	0.004515427
37	0xbd5bc368	-0.05365315
38	0xbc7c69db	-0.015406097
39	0xbd8107bb	-0.063003026
40	0xbd8a0549	-0.06739289
41	0x3d9bc08f	0.07605087
42	0xbd50168d	-0.050802756
43	0xbd8a5e54	-0.06756273
44	0xbd0c90e2	-0.03431786
45	0xbd39dbc4	-0.0453756
46	0xbddfccb0	-0.10927713
47	0x3d9a99fd	0.07548902
48	0xbdcb0393	-0.09912791
49	0x3d87c4b7	0.06629317
50	0x3db71048	0.08938652
51	0xbd5c3bd9	-0.053768013
52	0x3d3d2409	0.046176944
53	0x3cacf10d	0.021111036
54	0xbc222c22	-0.009898217
55	0xbd0f378b	-0.03496508
56	0xbccad8ab	-0.024761518
57	0xbc8ddc65	-0.017317006
58	0xbd81904d	-0.06326351
59	0x3d880448	0.066414416
60	0x3d6e5b95	0.05819281
61	0xbce46d39	-0.027884113
62	0x3cb68bfb	0.022283545
63	0xbc89467a	-0.016757239
64	0xbc6fe28d	-0.014641416
65	0x3daac794	0.08338848
66	0xbc092e58	-0.008372866
67	0xbd63a1ef	-0.055574354
68	0xbd337da5	-0.043820996
69	0x3c656d47	0.0140031045
70	0xbcd3a12e	-0.025833692
71	0xbd3c5a74	-0.0459847
72	0x3cbb1d6a	0.022841174
73	0x3d71098a	0.058846988
74	0x3d740f9b	0.059585195
75	0x3dc06518	0.09394282
76	0x3c812f0f	0.01576951
77	0xbb39ad20	-0.002833195
78	0xbd75303b	-0.05986045
79	0x3b6de73d	0.0036301159
80	0xbd92a004	-0.07159427
81	0xbc6e1f85	-0.014533882
82	0x3cc5bc83	0.024137741
83	0xbc735ab4	-0.014853168
84	0x3cd507e0	0.026004732
85	0x3cd17e93	0.02557305
86	0x3d96292a	0.0733207
87	0x3d84b38a	0.06479557
88	0xbe0dab33	-0.13834839
89	0x3d8ec7d8	0.06971711
90	0xbae11e61	-0.0017175191
91	0xbd8cd9bc	-0.06877467
92	0xbda6df37	-0.081480436
93	0xbcf0b009	-0.029380815
94	0x3cfad004	0.030616768
95	0xbb4d26fa	-0.003130375
96	0xbd4e5ec3	-0.05038334
97	0x3d207d6c	0.03918211
98	0x3c648de7	0.013949848
99	0x3dbfc524	0.093637735
100	0x3d894187	0.067019515
101	0x3caa85de	0.020815786
102	0x3c8705ca	0.016482253
103	0xbda0f730	-0.07859647
104	0xbdcaa446	-0.09894614
105	0x3da4f463	0.080544256
106	0x3cfa5fce	0.030563261
107	0xbcf9bf26	-0.030486654
108	0xbcfbfc7f	-0.030760048
109	0xbdb62c54	-0.08895174
110	0x3d119ade	0.035548083
111	0x3e050908	0.12991726
112	0xbc715e3a	-0.014731938
113	0xbdbdb4b3	-0.09262981
114	0x3c1ba117	0.009498856
115	0xbc2df9f9	-0.01061868
116	0xbda2cc9b	-0.07949182
117	0xbd05a109	-0.03262428
118	0xbc949724	-0.018138476
119	0x3cf1471f	0.029452858
120	0xbd05b980	-0.03264761
121	0xbcab4294	-0.02090577
122	0xbe02f0aa	-0.12787119
123	0xbcc05007	-0.02347566
124	0x3d942259	0.07233114
125	0x3b8a7d4b	0.004226362
126	0x3ca95047	0.020668162
127	0x3cd7fc29	0.026365357
128	0xbdc666d4	-0.09687582
129	0x3d1a3c73	0.037655305
130	0x3c6e08e1	0.014528484
131	0xbdb5c8d6	-0.08876197
132	0xbd035117	-0.032059755
133	0x3c581b5f	0.0131901195
134	0x3d3b36dd	0.04570662
135	0xbd8f204d	-0.06988583
136	0x3c08b3d4	0.008343656
137	0x3d8bfc73	0.0683526
138	0x3d3f3e7c	0.04669045
139	0xbccdfa7e	-0.025143858
140	0x3d7201bd	0.05908369
141	0x3d9b5ddf	0.07586264
142	0x3d97c1e5	0.07410029
143	0xbd7e1954	-0.062035874
144	0x3da5520e	0.08072291
145	0x3d4fa4da	0.050694324
146	0x3c967c99	0.01836996
147	0xbd28051f	-0.04102051
148	0x3d7011f9	0.05861089
149	0x3c5a6f67	0.013332224
150	0x3c1494b4	0.009068657
151	0xbdb194bc	-0.08670947
152	0x3ae350a2	0.0017342756
153	0x3bc5f18a	0.0060407566
154	0xbd36deab	-0.044645946
155	0x3e135bbf	0.14390467
156	0x3c727023	0.014797243
157	0xbc9660c7	-0.018356694
158	0x3c14579e	0.009054093
159	0xbce9d8d9	-0.028545784
160	0xbda43ef7	-0.08019822
161	0xbd411dd2	-0.04714758
162	0xbc8b069b	-0.016970923
163	0xbdb4b4cd	-0.088235475
164	0x3db90dc8	0.09035832
165	0xbc556727	-0.013025082
166	0x3df655b5	0.12028066
167	0x3ad07265	0.0015903233
168	0xbdb9a6f9	-0.09065051
169	0x3c8c3d1d	0.017118985
170	0xbcbcbc76	-0.023039084
171	0xbd81383b	-0.06309553
172	0x3d097068	0.033554465
173	0xbd8be9d7	-0.06831711
174	0x3daf8816	0.08570878
175	0x3b2430f4	0.0025053592
176	0x3d1cd2bd	0.038286913
177	0xbd2f5e93	-0.042814802
178	0x3d1bb989	0.038018737
179	0xbd168388	-0.03674653
180	0x3d88bbc6	0.0667644
181	0x3d83dd4f	0.06438696
182	0x3dc68df4	0.09695044
183	0x3d5d0fa7	0.053970005
184	0x3d44a585	0.048009414
185	0x3d066d52	0.0328191
186	0x3d55dcd0	0.052212536
187	0xbd6ee990	-0.05832821
188	0xbced2966	-0.028950404
189	0x3d83ff94	0.06445232
190	0x3dc51fa8	0.096251786
191	0xbcdaff09	-0.026732938
192	0xbd47744f	-0.048694905
193	0xbcb809e3	-0.022465652
194	0xbd95a708	-0.07307249
195	0x3d0b31a0	0.033982873
196	0x3de72dcc	0.11288032
197	0x3d87d3bb	0.06632181
198	0xbc8f33c7	-0.017480744
199	0xbc956816	-0.018238109
200	0xbba726a7	-0.0051010433
201	0xbd62372f	-0.05522841
202	0x3ce18c46	0.027532708
203	0x3d914cfd	0.070947625
204	0x3d2320af	0.03982609
205	0xbcba12ba	-0.022714008
206	0xbd777a03	-0.060419094
207	0x3d962453	0.07331147
208	0xbc984264	-0.018586345
209	0x3db704e9	0.089364834
210	0x3cc77979	0.024349915
211	0x3da34311	0.07971776
212	0xbd53566d	-0.051596094
213	0x3dc51f6b	0.09625133
214	0x3ced41ee	0.028962102
215	0x3be7300e	0.007055289
216	0x3d3016a8	0.042990357
217	0x3c7bd44e	0.015370442
218	0x3d17527e	0.036943905
219	0xbd9bf3bc	-0.07614848
220	0x3d92fe04	0.07177356
221	0xbd008493	-0.031376433
222	0x3ca40570	0.020022124
223	0x3cbacc68	0.022802547
224	0x3d77e7dc	0.060523853
225	0xbd485902	-0.04891301
226	0x3df6607e	0.12030123
227	0xbd029773	-0.031882714
228	0x3b56976d	0.0032744065
229	0xbdb1d99f	-0.08684086
230	0x3c848007	0.01617433
231	0x3d2516d1	0.040304963
232	0x3b4e9826	0.0031523793
233	0x3d638353	0.055545162
234	0xbdbea92c	-0.09309611
235	0x3a6a0ece	0.00089285977
236	0x3a5ddbd4	0.0008463238
237	0xbcd2a4d9	-0.025713371
238	0xbd83848b	-0.06421765
239	0x3da554c7	0.080728106
240	0x3d4e6bcd	0.050395776
241	0x3d39c9d4	0.045358494
242	0x3d4893e9	0.048969183
243	0x3d4906ba	0.04907868
244	0x3be0a78e	0.0068559116
245	0xbd274c89	-0.040844474
246	0x3d962eb0	0.07333124
247	0x3d9376ed	0.07200418
248	0x3ce1176f	0.027476994
249	0xbca7eb1f	-0.020497857
250	0xbd2da33d	-0.042392004
251	0x3d31dba6	0.043422364
252	0x3cdb4199	0.026764678
253	0x3d8ce345	0.06879286
254	0xbd9d4bdc	-0.07680485
255	0x3d96d639	0.073650785

fc2.bias f4 [128]
0	0xbcb99a4f	-0.022656588
1	0x3d269001	0.040664677
2	0xbc893b41	-0.016751887
3	0x3b245a4c	0.0025078235
4	0x3bec4aa6	0.007211047
5	0xbba2b7ed	-0.0049657733
6	0xbd902081	-0.0703745
7	0x3cd7b8eb	0.026333293
8	0xbd2b3e3f	-0.04180741
9	0x3c6ecb85	0.01457489
10	0xbd2825de	-0.041051738
11	0x3d02fa49	0.03197697
12	0xbd96093b	-0.07325979
13	0x3c1243f4	0.008927334
14	0x3d189d9b	0.03725968
15	0xbcfc30aa	-0.030784924
16	0xbd840991	-0.06447137
17	0xbd754cf5	-0.059887845
18	0x3ca984fe	0.020693298
19	0xbb9c31a2	-0.004766659
20	0x3cbd9413	0.023141896
21	0x3d55f9f3	0.052240323
22	0x3c6c4336	0.014420321
23	0x3d3ee044	0.046600595
24	0x3d16e54d	0.036839772
25	0xbc47a2b7	-0.01218479
26	0x3d851c17	0.06499498
27	0xbd65f039	-0.056137297
28	0xbc5ccf3b	-0.013477142
29	0xbd5e5b45	-0.05428626
30	0xbd26b7f6	-0.040702783
31	0xbcf51cf5	-0.029921034
32	0xbd96bd67	-0.073603444
33	0x3d2d285a	0.04227481
34	0xbc660c1f	-0.014040976
35	0xbd7beae7	-0.061503317
36	0xbd956500	-0.07294655
37	0xbbff894d	-0.00779835
38	0xbd8efb92	-0.06981577
39	0x3d06a2fa	0.03287027
40	0xbd123cca	-0.035702504
41	0x3cd39117	0.02582602
42	0x3dbf3492	0.09336199
43	0xbda4f7e5	-0.08055095
44	0x3c83a4d4	0.016069807
45	0xbd9e9cb0	-0.077447295
46	0xbda979cc	-0.08275184
47	0xbd96f32f	-0.07370602
48	0xbd7cc3a2	-0.061710007
49	0xbd911a1f	-0.0708506
50	0x3d326b0f	0.04355913
51	0x3ae11726	0.0017173036
52	0xbcf472ee	-0.029839959
53	0xbd4da34c	-0.05020456
54	0xbd3ebff5	-0.046569783
55	0xbca813de	-0.020517286
56	0xbd8571ae	-0.06515823
57	0xba8d7e8b	-0.0010795159
58	0x3c946864	0.018116184
59	0x3cee57b2	0.02909455
60	0x3c8f67e9	0.017505603
61	0x3dc6ece6	0.097131535
62	0x3bb4bc0a	0.00551558
63	0xbc10d7d9	-0.008840525
64	0xbdb61f56	-0.088926956
65	0x3e01aa72	0.12662676
66	0xbbeb89b5	-0.007188047
67	0xbc8157d4	-0.01578895
68	0x3ba89b95	0.0051455
69	0x3d1338e4	0.035942927
70	0x3d508731	0.05091018
71	0xbc0d29e0	-0.008615941
72	0x3d56778c	0.052360103
73	0xbcbc5594	-0.022990026
74	0xbd2dae0a	-0.042402305
75	0xbcf39318	-0.029733226
76	0x3d100b7a	0.035167195
77	0xbc18929d	-0.009312299
78	0xbda876be	-0.08225773
79	0x3ceb170e	0.028697517
80	0xbd883a90	-0.06651795
81	0x3cf5ca24	0.030003615
82	0xbd8d42e7	-0.06897526
83	0xbdf9fd24	-0.12206486
84	0xbc71aabb	-0.014750178
85	0xbcd187b0	-0.025577396
86	0xbd350038	-0.04418966
87	0x3ccf9918	0.025341555
88	0x3ccf55ce	0.02530947
89	0x3c24dc31	0.010062263
90	0xbd32391e	-0.043511502
91	0x3c8e17dc	0.017345361
92	0xbd737fa4	-0.0594479
93	0xbccedd88	-0.025252119
94	0xbc96003b	-0.018310657
95	0x3c84c395	0.016206542
96	0xbd945193	-0.072421215
97	0xbdd5d02e	-0.10440098
98	0x3c6c01b3	0.014404702
99	0xbc41d543	-0.011830631
100	0xbd058699	-0.032599065
101	0x3d36e8a5	0.04465546
102	0xbcb24b2a	-0.021764357
103	0xbc878daa	-0.016547043
104	0xbc54cf60	-0.012988895
105	0xbd2fe896	-0.04294642
106	0x37a53f63	1.969905e-05
107	0x3abf618b	0.0014601214
108	0xbd0be327	-0.034152176
109	0xbd49c8d4	-0.04926379
110	0xbb542db5	-0.0032375876
111	0xbd83cf7e	-0.0643606
112	0xbd8aeb64	-0.067831784
113	0xbcf17993	-0.029476916
114	0x3c40afbc	0.011760648
115	0x3d2bc586	0.04193642
116	0x3c368791	0.01114072
117	0x3d61ccde	0.055127017
118	0x3c1650c1	0.009174527
119	0x3c65ff64	0.014037941
120	0xbd33bde2	-0.04388226
121	0xbc7af2d1	-0.015316681
122	0xbc9bc9d9	-0.019017147
123	0xbd674977	-0.056466546
124	0x3c91ef40	0.017814279
125	0xb9d7419a	-0.00041056873
126	0x3d2cb27c	0.042162403
127	0xbcb4ab02	-0.0220542

fc3.weight f4 [2, 128]
0	0xbbe31fa6	-0.006931263
1	0xbcc3d5fa	-0.023905743
2	0xbcd57db7	-0.026060922
3	0xbb8a07fb	-0.004212377
4	0x3d399caa	0.045315422
5	0xbc2551f0	-0.010090336
6	0xbb86f745	-0.0041188323
7	0xbc0b8d56	-0.008517584
8	0xbdad5b16	-0.08464639
9	0xbda1a48d	-0.07892714
10	0xbc2d63d9	-0.010582888
11	0xbd08d9e2	-0.033410914
12	0xbc4cabe6	-0.012492156
13	0xbd16086e	-0.036629133
14	0xbcc73656	-0.024317902
15	0xbc4b8861	-0.012422652
16	0x3cb512a0	0.022103608
17	0x3bf2ac74	0.007405812
18	0xbc0de7fb	-0.0086612655
19	0xbce5ff61	-0.028075876
20	0xbbae6420	-0.0053219944
21	0x3bcc0206	0.006225827
22	0xbbd11df1	-0.006381743
23	0xbcd08bf6	-0.025457364
24	0xbbf85248	-0.007578168
25	0xbd0c01ed	-0.034181524
26	0x3d5a2812	0.05326087
27	0xbc0867f7	-0.008325568
28	0xbd80f845	-0.06297354
29	0xbc54dfcc	-0.01299281
30	0xbd8e921a	-0.069614604
31	0xbca8d7c3	-0.020610696
32	0xbc03639c	-0.008019354
33	0xbd0f3b41	-0.03496862
34	0xbbe6f76d	-0.0070485384
35	0xbc4041c7	-0.011734433
36	0xbbe5b4ee	-0.007010094
37	0xbbf9df58	-0.0076255016
38	0xbba910e7	-0.0051594856
39	0xbbdba113	-0.006702551
40	0xbc30b669	-0.0107856775
41	0xbd4956c9	-0.04915503
42	0xbe37d0eb	-0.1795079
43	0xbc47aab1	-0.012186692
44	0xbc80edc5	-0.015738377
45	0x3c0eeccb	0.008723448
46	0xbce77366	-0.028253268
47	0xbc46faac	-0.012144726
48	0xbc210bcb	-0.009829472
49	0xbca5a9c8	-0.02022256
50	0xbcc1d4f8	-0.023661122
51	0x3c8183c0	0.015809894
52	0xbbbf5ef2	-0.005840176
53	0xbd1a6a9c	-0.037699327
54	0xbd4669ec	-0.04844086
55	0x3a54c6aa	0.00081167615
56	0xbc412432	-0.011788415
57	0xbd0cc2ba	-0.034365393
58	0xbcc3a789	-0.023883598
59	0xbcb5cb46	-0.022191655
60	0xbc9e9bb0	-0.019361347
61	0x3d173978	0.03692004
62	0xbc03b7e5	-0.008039449
63	0xbbdddc64	-0.0067706574
64	0xbc29f955	-0.010374387
65	0x3d87dd7e	0.06634043
66	0xbc1f4869	-0.009721854
67	0xbc250ea0	-0.010074288
68	0xbc4edc44	-0.012625758
69	0xbc5e1d77	-0.01355683
70	0xbca4d791	-0.020122321
71	0xbc5dfcc3	-0.013549033
72	0xbcc5db8f	-0.024152545
73	0xbc8b245d	-0.016985113
74	0xbbb9146e	-0.0056481874
75	0xbbf60ee6	-0.0075091003
76	0xbcc7a67c	-0.024371378
77	0xbbfcc8fd	-0.0077143894
78	0xbcc7f262	-0.02440757
79	0xbc8eb918	-0.017422244
80	0xbbf6f327	-0.0075363102
81	0xbbfb4f0e	-0.007669336
82	0xbc899b6e	-0.016797747
83	0x3ba119d9	0.0049164114
84	0xbc99f3e4	-0.018793054
85	0xbc838cab	-0.016058287
86	0xbd0ddb0d	-0.03463273
87	0xbc284751	-0.010270909
88	0xbc182489	-0.009286054
89	0x3b96b6c8	0.004599426
90	0xbd17103e	-0.036880724
91	0xbc19d24b	-0.009388517
92	0xbbc0dd99	-0.0058857915
93	0xbc12d597	-0.008962057
94	0xbca6221d	-0.020279938
95	0xbc0a7921	-0.008451731
96	0xbc655985	-0.013998394
97	0x3b053b2b	0.0020329456
98	0xbc72cd31	-0.014819429
99	0xbd046ccf	-0.03233033
100	0x3a3f9bc4	0.00073092827
101	0xbd1f42be	-0.03888201
102	0x3d23818b	0.039918464
103	0xbbc75cc0	-0.0060840547
104	0xbc0e3747	-0.008680171
105	0xbd04e428	-0.03244415
106	0xbc120d2c	-0.008914273
107	0xbcb2a53b	-0.021807304
108	0xbc8758f7	-0.016521914
109	0xbc57f0dd	-0.013179985
110	0xbcbdace3	-0.023153728
111	0xbc1afa7a	-0.009459132
112	0xbc82edf0	-0.015982598
113	0xbc867f8b	-0.01641824
114	0xbbe5ec3a	-0.007016686
115	0xbaadc832	-0.0013258515
116	0xbd14cdd8	-0.03632912
117	0xbce0cc5b	-0.027441194
118	0xbcf7dba6	-0.030256104
119	0xbc0a4b5b	-0.008440818
120	0xbd73ae0d	-0.05949216
121	0xbc9ed676	-0.019389372
122	0xbc016746	-0.007898157
123	0xbbfadb7e	-0.00765556
124	0xbca8f2d3	-0.0206236
125	0xbce9d699	-0.028544711
126	0xbbf0292a	-0.007329126
127	0xbc25d0ce	-0.010120584
128	0xbb14f918	-0.002273148
129	0xbd2e3ca6	-0.042538308
130	0xbb7db5bf	-0.0038713065
131	0x3c709821	0.014684708
132	0xbddd0dd9	-0.10793657
133	0x3d3e71c5	0.046495218
134	0x3c58e6f7	0.01323866
135	0xbd4c5245	-0.049883146
136	0x3c00c0fc	0.007858511
137	0x3d58e479	0.052952264
138	0x3cf73784	0.03017784
139	0xbb2ec17f	-0.0026665626
140	0x3be76f31	0.0070628156
141	0xbc300b97	-0.010744951
142	0x3d352a0d	0.044229556
143	0x3d4eaa3e	0.050455324
144	0x3cb1ffd0	0.021728426
145	0x3d2b566e	0.041830473
146	0x3aec689a	0.0018036545
147	0xbca70f72	-0.020393107
148	0xbd6ba2a9	-0.05752817
149	0xbd7dd852	-0.061973877
150	0x3c502fa5	0.012706672
151	0x3afca60d	0.0019275561
152	0xbdcce551	-0.10004676
153	0x3c1e6dd1	0.009669737
154	0x3dbc57bc	0.091964215
155	0x3c28b675	0.010297407
156	0x3c968675	0.018374661
157	0xbbc625a6	-0.0060469685
158	0x3c79083f	0.01519972
159	0x3c5009c1	0.012697638
160	0xbcaab25f	-0.020837007
161	0xbd3a9439	-0.045551512
162	0x3d4fc662	0.050726302
163	0xbd33ba60	-0.043878913
164	0x3c0e75d4	0.008695085
165	0x3c409553	0.011754352
166	0x3a968914	0.0011484944
167	0x3c0c7063	0.008571717
168	0x3bb0a236	0.005390431
169	0x3d5822f8	0.052767724
170	0xbda2781a	-0.07933064
171	0x3aaa86c4	0.0013010134
172	0x3e02a4ad	0.12758131
173	0x3d234383	0.039859306
174	0x3b2213b2	0.0024730978
175	0x3bbd7f74	0.005783016
176	0x3c183839	0.009290748
177	0xbaf3bd3c	-0.0018595825
178	0x3c9033b1	0.017602773
179	0x3cd7f923	0.026363915
180	0xbc8e1810	-0.017345458
181	0xb9f0510f	-0.0004583676
182	0xbb987542	-0.00465265
183	0x3d45d971	0.04830307
184	0x3bd6d201	0.006555796
185	0xbb4081f7	-0.002937434
186	0x3c7a1cfb	0.015265699
187	0xbcbe8288	-0.023255602
188	0x3b9732b6	0.0046141995
189	0x3d85cb0f	0.06532871
190	0x3d18d64f	0.037313756
191	0x3a62a6b9	0.00086460594
192	0x3c2e127e	0.010624526
193	0xbe217e5e	-0.15770862
194	0x3e06850c	0.13136691
195	0x3b71218e	0.0036793682
196	0xbcc08c14	-0.023504294
197	0x3c1abbe2	0.009444209
198	0x3c840910	0.016117603
199	0xbbfbe930	-0.00768771
200	0xbd38a5ad	-0.045079876
201	0xbc888a13	-0.016667401
202	0xbcb36e83	-0.021903282
203	0x3d0fe418	0.035129637
204	0xbc74d948	-0.014944382
205	0xbd66a92b	-0.056313675
206	0x3cc32081	0.02381921
207	0xbbc8afce	-0.006124473
208	0xbbbda658	-0.005787652
209	0x398b9433	0.00026622563
210	0x3c251c95	0.010077615
211	0x3cf4907c	0.029854052
212	0xbd6a677d	-0.0572276
213	0xbbee6c20	-0.007276073
214	0x3c0b9d94	0.008521456
215	0x3cfc073d	0.03076517
216	0x3c86979f	0.01642972
217	0x3d3f536d	0.04671042
218	0x3d9880ac	0.07446417
219	0x3bb750ea	0.0055943625
220	0x3cae95e7	0.021311713
221	0x3bfa17ee	0.007632247
222	0xbc8b42aa	-0.016999561
223	0x3d36bfb5	0.04461642
224	0xbbedee57	-0.0072610783
225	0x3d2033e3	0.039111983
226	0x3c2b4f49	0.010455915
227	0xbc923e93	-0.017852103
228	0x3d210be7	0.03931799
229	0x3c8ddb1f	0.0173164
230	0x3d8ced40	0.06881189
231	0x3bff3cd8	0.0077892356
232	0x3ce105d5	0.027468601
233	0xbac4ee31	-0.00150246
234	0x3d4f1cba	0.050564505
235	0xbd098923	-0.03357805
236	0x3add9000	0.0016903877
237	0x3aa9a3e0	0.0012942515
238	0x3ce3d0ad	0.027809465
239	0xbc426efd	-0.011867282
240	0xbc0826a3	-0.008309993
241	0xbd091ce9	-0.033474836
242	0x3c297843	0.010343614
243	0xbd3cd302	-0.04609967
244	0xbdaafd61	-0.083491094
245	0xbd7b918f	-0.061418112
246	0x3b658f6a	0.0035028108
247	0x3ceda639	0.029009925
248	0x3d404c45	0.046947736
249	0x3b278f5a	0.0025567622
250	0x3c1d3f67	0.009597636
251	0x3c18bd14	0.0093224235
252	0xbc371911	-0.01117541
253	0xbb7b84e5	-0.0038378772
254	0x3d9a3425	0.07529477
255	0x3cdf125d	0.027230436

fc3.bias f4 [2]
0	0x3d939332	0.0720581
1	0xbdcf97f3	-0.10136404
