results/results_5/solved_agent2_critic.pth (torch, 185643 bytes, 5 tensors)

fcs1.weight f4 [256, 48]
0	0xbf0dd3bc	-0.55401206
1	0xbec77cc3	-0.38962373
2	0x3bbc968c	0.0057552513
3	0xbe4282e8	-0.1899525
4	0xbe085c53	-0.13316469
5	0x3e0b11d1	0.13581015
6	0x3c0d4fe2	0.008625003
7	0xbe034274	-0.12818319
8	0xbee42594	-0.4455992
9	0xbea05640	-0.31315804
10	0xbd90af9f	-0.07064747
11	0x3ef09f60	0.46996593
12	0x3e40f37a	0.18842879
13	0xbe6bddad	-0.23033781
14	0xbda17f69	-0.0788563
15	0x3f1398e4	0.5765517
16	0xbe8b5b60	-0.2721815
17	0xbe8ad3df	-0.2711477
18	0xbcd649a2	-0.026158158
19	0x3ef5bd46	0.47995967
20	0x3e75c893	0.24002294
21	0xc00f4368	-2.2384892
22	0xbd28faff	-0.041254994
23	0x3f0717d9	0.52770764
24	0x3e2c185c	0.16806167
25	0x3fe3053e	1.7735975
26	0x3d12f8cf	0.035881814
27	0x3e83e146	0.25757807
28	0x3e49a28b	0.19690911
29	0x3e1a24e7	0.1505314
30	0x3db084a5	0.0861905
31	0x3e70c976	0.23514351
32	0x3e8097d2	0.2511583
33	0x3fe6a96e	1.8020456
34	0xbca7fcea	-0.020506341
35	0xbe7a40f4	-0.2443884
36	0xbe6216aa	-0.22078958
37	0xbe1c4b83	-0.1526318
38	0xbd0f1c7b	-0.03493927
39	0xbead4e00	-0.33848572
40	0x3d57d9b4	0.052697852
41	0x3fda719e	1.7065923
42	0xbce03937	-0.027371032
43	0xbe9be95c	-0.30451477
44	0xbe8b1381	-0.27163318
45	0xc010aadc	-2.2604284
46	0xbd535e93	-0.051603865
47	0xbe8dd776	-0.27703446
48	0x3c86dcc5	0.016462693
49	0x3e7ff2f6	0.24995026
50	0xbd2052c5	-0.039141435
51	0xbe33b0a9	-0.17547859
52	0xbf5e4ca1	-0.86835676
53	0x3f12aaaa	0.5729166
54	0xbd5c35d7	-0.053762283
55	0xbe1085db	-0.14113562
56	0x3cf31120	0.029671252
57	0x3ea9b09e	0.3314256
58	0xbd1d7d31	-0.03844947
59	0xbc67c31a	-0.014145637
60	0xbe23cb67	-0.1599556
61	0x3ec30dfc	0.38096607
62	0x3c526e1c	0.012843635
63	0xbdc915f7	-0.098186426
64	0x3e27f2ee	0.16401264
65	0x3eb73b89	0.3578761
66	0xbdaa507d	-0.08316133
67	0x3dc3c534	0.09559098
68	0x3f5d5e31	0.8647185
69	0x3d6f8514	0.058476523
70	0xbd5b5b97	-0.053554144
71	0x3e263935	0.1623276
72	0xbe68184f	-0.22665523
73	0x3d862b19	0.06551189
74	0xbd2e0426	-0.042484425
75	0xbe571d64	-0.21007305
76	0x3f6ce189	0.9253164
77	0x3f11d52c	0.569659
78	0x3c7670a4	0.015041504
79	0xbe8df5b1	-0.2772651
80	0x3d61fc1b	0.055172067
81	0xbede2ee4	-0.4339515
82	0x3c9c85ed	0.01910683
83	0xbe871cdb	-0.26389202
84	0x3e2b8c2d	0.16752692
85	0x3ece5588	0.4029963
86	0x3c9a6cd9	0.01885073
87	0xbe62ca5b	-0.22147505
88	0x3e1487bc	0.14504904
89	0xbf907d32	-1.1288207
90	0x3cffcd3d	0.031225795
91	0x3e332993	0.17496328
92	0xbf69d5b7	-0.9134173
93	0x3dbbd74f	0.09171926
94	0x3caecd43	0.02133811
95	0x3e701783	0.23446469
96	0x3fb09fb2	1.3798735
97	0x3ebc9ed1	0.36839917
98	0x3d127543	0.03575636
99	0xbf09622a	-0.5366541
100	0x3df02c3d	0.11727188
101	0xc012087d	-2.281768
102	0x3c86da7c	0.016461603
103	0xbef71154	-0.48255408
104	0x3fd140d0	1.6347904
105	0x3e9d14ca	0.30679923
106	0xbd4f38e5	-0.05059137
107	0xbf13345c	-0.5750177
108	0xbda6f531	-0.08152235
109	0xbfc4a859	-1.5363876
110	0xbc739d8f	-0.014869108
111	0xbf03447d	-0.5127638
112	0x3f91ae30	1.1381283
113	0x3ed14ff1	0.40881303
114	0xbe3a0403	-0.18165593
115	0x3f114519	0.5674606
116	0xbf141900	-0.57850647
117	0x3f069960	0.5257778
118	0xbdaf78b3	-0.085679434
119	0x3f15aa25	0.58462745
120	0x3ca0c38a	0.01962449
121	0xbf888f73	-1.0668777
122	0xbe036cba	-0.12834445
123	0xbea560c9	-0.32300404
124	0xbdce85db	-0.10084125
125	0xc0118fb8	-2.274397
126	0xbdf0c9c8	-0.11757237
127	0xbeafd51f	-0.34342286
128	0x3d7ad96d	0.06124251
129	0xbf8e3293	-1.1109184
130	0x3ad5872a	0.0016290892
131	0x3e97f0c1	0.29675868
132	0x3dc8486e	0.0977944
133	0xbfc5bda3	-1.5448498
134	0x3da74f0f	0.08169376
135	0x3e9cfaed	0.3066019
136	0x3e6f7507	0.23384486
137	0xbf89a2d4	-1.0752816
138	0x3e3ef6a8	0.1864878
139	0x3f343fa6	0.7040962
140	0x3f02cfc7	0.51098293
141	0x3f092897	0.5357756
142	0x3e3ab348	0.18232453
143	0x3f2bbef2	0.67088234
144	0x3ec12998	0.37727046
145	0xbee1f7f3	-0.44134483
146	0xbe2f61ab	-0.17127101
147	0xbe8136a3	-0.25236997
148	0x3ef9ae3c	0.48765743
149	0xbf857378	-1.0425863
150	0xbe528423	-0.20558219
151	0xbe63a3a9	-0.222304
152	0x3eb1a94c	0.34699476
153	0xbeb52f11	-0.3538747
154	0xbe488cfe	-0.19585034
155	0x3ede016a	0.43360454
156	0x3e986a3d	0.29768553
157	0xbf697849	-0.91199166
158	0xbe1e75a2	-0.15474561
159	0x3f0a12f3	0.53935164
160	0x3f008dd0	0.5021639
161	0xbea4046d	-0.32034627
162	0xbe38b3f0	-0.1803739
163	0xbe5b8189	-0.21436132
164	0xbdb4436a	-0.08801921
165	0xbf57ce9b	-0.8429963
166	0xbe7dc569	-0.24782337
167	0xbe4c82c1	-0.19971754
168	0x3d5920ab	0.05300967
169	0xbf9cf943	-1.2263569
170	0xbafb9863	-0.0019195195
171	0x3d8599ca	0.065234736
172	0xbec550a4	-0.38538086
173	0xbf863eb0	-1.0487881
174	0xbc6435d6	-0.013928851
175	0x3dfdd482	0.12394048
176	0x3e0176f2	0.1264303
177	0xbf8871b4	-1.06597
178	0x3ddbb415	0.10727707
179	0xbc74255d	-0.014901486
180	0xbe855537	-0.26041576
181	0xbf7c5a27	-0.9857506
182	0x3d95c6ef	0.07313334
183	0xbd127a69	-0.03576127
184	0x3e110200	0.14160919
185	0xbf6b337b	-0.9187543
186	0x3e07186a	0.13192907
187	0x3e66951a	0.22517815
188	0xbc63ea07	-0.013910777
189	0xbf53e685	-0.8277362
190	0x3dce0c96	0.10060994
191	0x3e62e971	0.22159363
192	0x3e903cce	0.2817139
193	0xbf599b13	-0.8500225
194	0x3d295e47	0.041349676
195	0xbe77813c	-0.24170393
196	0x3b71902e	0.003685962
197	0xbf96b177	-1.1772908
198	0x3dbf6d74	0.093470484
199	0xbea3823a	-0.31935292
200	0x3e8d3487	0.27579138
201	0xbf59995e	-0.84999645
202	0x3b63d1be	0.0034762467
203	0xbf0c2e0a	-0.5475775
204	0x3da25358	0.07926053
205	0xbff89a8c	-1.9422164
206	0x3cdefca3	0.027220076
207	0xbf0ec222	-0.55764973
208	0x3eb0e4cf	0.34549567
209	0xbf49a351	-0.78764826
210	0xbe425695	-0.18978341
211	0x3f5f00a4	0.8711035
212	0x3c41468d	0.011796606
213	0xbf89b4c8	-1.0758295
214	0xbe499a7f	-0.19687842
215	0x3f70501c	0.9387224
216	0x3ecf7142	0.40516096
217	0xbf82db63	-1.0223202
218	0x3d900a77	0.07033246
219	0x3f4a56e5	0.7903884
220	0x3cac1af0	0.021008939
221	0xbf9e41bf	-1.2363814
222	0x3da59611	0.080852635
223	0x3f393ba3	0.72356623
224	0x3ec1a131	0.37818292
225	0xbf885b68	-1.0652895
226	0xbdd695ee	-0.104778156
227	0x3e2c51f7	0.16828142
228	0xbdf90d09	-0.121606894
229	0xbffb5d8a	-1.9637921
230	0xbde6a120	-0.11261201
231	0x3e34f1db	0.17670386
232	0x3eefafcf	0.4681382
233	0xbf5f2750	-0.8716936
234	0x3d9772de	0.07394956
235	0x3f01e045	0.50732833
236	0xbc6153b5	-0.0137528675
237	0xbf895065	-1.072766
238	0x3d52e80b	0.051490825
239	0x3efd64eb	0.49491057
240	0x3f88afe7	1.0678681
241	0xbf0ebfe8	-0.55761576
242	0xbd298ca2	-0.041393884
243	0xbe0d174b	-0.13778417
244	0x3e145829	0.14486755
245	0x3efe8d0d	0.49716988
246	0xbdc3966d	-0.09550176
247	0xbdc847dd	-0.09779332
248	0x3e464d6b	0.1936547
249	0xbf1e3eec	-0.6181476
250	0xbd8b0f3c	-0.06790015
251	0x3dedf2ec	0.11618599
252	0x3e9db903	0.30805215
253	0x3f34b008	0.705811
254	0xbd591102	-0.052994736
255	0x3e5a2220	0.2130208

fcs1.bias f4 [256]
0	0xbe7f24ea	-0.24916425
1	0xbedc03e0	-0.42971706
2	0xbf35308b	-0.70777196
3	0xbf69b89a	-0.91297305
4	0xbf586676	-0.84531343
5	0x3d6e7f84	0.058227077
6	0xbf73d57b	-0.9524762
7	0xbedc1109	-0.42981747
8	0xbf1ae79c	-0.6050966
9	0xbf201426	-0.62530744
10	0xbf4c015c	-0.79689574
11	0xbf005fdd	-0.50146276
12	0xbe60007b	-0.21875183
13	0xbefcc424	-0.49368393
14	0xbfebe943	-1.8430561
15	0xbf3dab19	-0.740892
16	0xbf5d642d	-0.8648098
17	0xbeec8aa2	-0.46199518
18	0xbf70bf26	-0.9404167
19	0x3e7bd90d	0.24594517
20	0x3e8c1674	0.2736088
21	0xbf22fa78	-0.63663435
22	0xbe7a6cf0	-0.24455619
23	0xbedbdb71	-0.42940858
24	0xbf211741	-0.6292611
25	0xbf39146c	-0.72296786
26	0xbf21591a	-0.63026583
27	0x3f1e8e9c	0.61936355
28	0xbec824b2	-0.39090496
29	0xbf511e63	-0.8168699
30	0xbf1d1b78	-0.6137004
31	0xbf082670	-0.5318365
32	0xbe81369a	-0.2523697
33	0xbd9d86b8	-0.07691711
34	0xbf075da8	-0.52877283
35	0xbeff596a	-0.49872905
36	0xbf5b2a38	-0.85611296
37	0x3f0d8973	0.55287856
38	0xbf032929	-0.5123468
39	0xbe7ebfc0	-0.24877834
40	0xbe7dfdf7	-0.24803911
41	0xbfa43ce2	-1.283108
42	0xbefa0749	-0.48833683
43	0xbe335ca8	-0.17515814
44	0xbed2694a	-0.41095954
45	0xbd80a4a3	-0.06281402
46	0xbf01b149	-0.5066114
47	0xbfc2b29f	-1.5210761
48	0xbefbea33	-0.49202117
49	0xbe2bd2eb	-0.16779678
50	0xbee572b0	-0.44814062
51	0xbe827977	-0.25483295
52	0xbeae186c	-0.34003007
53	0xbf99bb7a	-1.2010338
54	0xbea943cf	-0.33059546
55	0xbf7af94b	-0.9803664
56	0xbf3c4639	-0.7354465
57	0xbf5448cb	-0.82923573
58	0xbf8b822f	-1.0899104
59	0xbe3fb710	-0.18722177
60	0xbe56cf1f	-0.20977448
61	0xbeaf6259	-0.3425472
62	0xbf392555	-0.7232259
63	0xbf3f30ae	-0.74683654
64	0xbf627977	-0.8846659
65	0xbf332ebd	-0.6999319
66	0xbf310dd7	-0.6916174
67	0x3ee71df7	0.4514005
68	0xbf0c4c73	-0.5480415
69	0x3f5c1745	0.85973006
70	0xbf017f11	-0.5058451
71	0xbf4162f7	-0.75541633
72	0xbfb508c6	-1.4143302
73	0xbf4d1485	-0.80109435
74	0xbe836d91	-0.2566953
75	0xbcd67978	-0.026180968
76	0x3f1a124d	0.60184175
77	0xbe67d0e9	-0.22638287
78	0xbf8edb5a	-1.1160691
79	0xbf782cc7	-0.96943325
80	0xbe2716d6	-0.16317305
81	0xbf08ec94	-0.5348599
82	0xbf26f1e4	-0.65212846
83	0xbecb75ce	-0.39738315
84	0x3f296c9d	0.66181356
85	0xbeaf4d0b	-0.34238467
86	0xbf353ed1	-0.70798975
87	0xbf8219d1	-1.0164129
88	0xbf5f7dc6	-0.8730129
89	0xbf735e78	-0.9506602
90	0xbf042d14	-0.51631284
91	0xbed07980	-0.40717697
92	0xbec5d783	-0.38640985
93	0xbf335318	-0.70048666
94	0xbf5ef896	-0.8709806
95	0xbf6c5baf	-0.923274
96	0x3ca6b767	0.020351125
97	0xbe863e07	-0.26219198
98	0x3e4bbc8a	0.1989614
99	0xbf605ed1	-0.8764468
100	0xbe3c86a3	-0.18410735
101	0xbf0a4c65	-0.5402282
102	0xbe76c840	-0.24099827
103	0x3efc7be5	0.49313274
104	0xbf447934	-0.7674744
105	0xbcddcab6	-0.0270742
106	0x3edbeeb7	0.42955562
107	0xbf311242	-0.69168484
108	0xbdd0bc91	-0.10192216
109	0xbf86dfd6	-1.0537059
110	0xbf6332fd	-0.88749677
111	0xbf1d4441	-0.6143227
112	0xbcee7e26	-0.029112887
113	0xbf470df7	-0.77755684
114	0xbb7c9b94	-0.003854488
115	0xbf87c620	-1.0607338
116	0xbe44d987	-0.19223605
117	0xbd1c7029	-0.0381929
118	0xbf2e8ca7	-0.6818337
119	0xbf901255	-1.1255594
120	0xbf7f694b	-0.9977004
121	0xbcbf801f	-0.023376523
122	0xbf525865	-0.8216613
123	0xbeaf0d42	-0.34189802
124	0xbf2d5148	-0.6770215
125	0xbf373c8a	-0.7157675
126	0xbfd3f02e	-1.6557672
127	0xbf51efea	-0.82006705
128	0xbf8833d7	-1.064082
129	0xbf834c10	-1.0257587
130	0xbf88a269	-1.0674564
131	0x3e8b1873	0.2716709
132	0xbf2ae398	-0.6675353
133	0xbf36d9a6	-0.71425855
134	0xbefc84df	-0.49320123
135	0xbf2d99c1	-0.67812735
136	0xbf224458	-0.63385534
137	0xbf781f63	-0.9692289
138	0xbedc39d9	-0.43012884
139	0xbf6f5322	-0.93486226
140	0x3f335547	0.70052
141	0xbee74e25	-0.45176807
142	0xbf46ee0b	-0.77706975
143	0xbf6e1361	-0.9299832
144	0xbf5164dc	-0.81794524
145	0x3e6c8dc8	0.2310096
146	0xbf161216	-0.58621347
147	0xbec1611a	-0.37769395
148	0xbed01a7c	-0.40645206
149	0x3bbaafbd	0.005697219
150	0xbed76547	-0.42069456
151	0x3ea1281a	0.31475908
152	0xbf6254e9	-0.8841081
153	0xbf55b893	-0.8348476
154	0xbf152bce	-0.58269966
155	0xbed13054	-0.40857184
156	0xbf1c05ab	-0.6094615
157	0xbf3ed06f	-0.74536794
158	0xbe81b711	-0.2533498
159	0xbec35664	-0.38151848
160	0xbf1d1a25	-0.6136802
161	0xbee460ee	-0.446052
162	0xbea74c52	-0.32675415
163	0xbf61f3ab	-0.8826243
164	0xbf55e237	-0.835483
165	0xbf7fa5f5	-0.99862605
166	0xbf66c4e2	-0.9014417
167	0xbe49af15	-0.19695695
168	0xbdfd9ea2	-0.123837724
169	0x3da3e83e	0.08003281
170	0xbf15e073	-0.5854561
171	0xbec7887e	-0.38971323
172	0xbb3972d8	-0.0028297212
173	0xbf345777	-0.7044596
174	0xbf1b173a	-0.60582316
175	0x3e6e44ad	0.23268385
176	0xbf43cb09	-0.7648168
177	0xbf4b2b5c	-0.79363036
178	0xbea6bf53	-0.32567844
179	0xbf453962	-0.77040684
180	0xbf503a30	-0.8133879
181	0xbf2f3bc8	-0.68450594
182	0xbf5c52d2	-0.86063874
183	0xbe6c6708	-0.23086178
184	0xbf0fd1bf	-0.5617942
185	0xbeacdb8e	-0.33761257
186	0xbef715e9	-0.48258904
187	0xbf310fcd	-0.69164735
188	0x3e387573	0.18013553
189	0xbf230d9a	-0.6369263
190	0x3e5d6223	0.21619467
191	0xbec6212b	-0.3869718
192	0xbef4cd02	-0.4781266
193	0xbe814227	-0.25245783
194	0xbebf0003	-0.37304696
195	0xbeed60a4	-0.46362793
196	0xbf11ed69	-0.57002884
197	0xbe093255	-0.13398106
198	0xbf0a12f6	-0.5393518
199	0xbfa1cb39	-1.2640144
200	0xbed9466b	-0.42436537
201	0x3e422ff9	0.18963613
202	0xbde9f2fd	-0.114232995
203	0xbf616fb1	-0.8806105
204	0xbec7dc60	-0.3903532
205	0x3d826965	0.06367759
206	0xbf577e3c	-0.84176993
207	0x3cd6874d	0.026187563
208	0xbec8fc61	-0.3925505
209	0xbf4d3814	-0.80163693
210	0xbed5fb54	-0.4179331
211	0xbf01b506	-0.50666845
212	0xbf439f1e	-0.7641467
213	0xbf521200	-0.82058716
214	0x3e584e22	0.21123555
215	0xbe42478f	-0.1897261
216	0xbf844631	-1.0333921
217	0xbedb6b8a	-0.42855483
218	0xbeb45dc2	-0.35227782
219	0xbed02ab9	-0.40657595
220	0xbf620451	-0.88287836
221	0xbf4d03a1	-0.8008366
222	0xbf0f3d48	-0.5595288
223	0x3eb64fb8	0.35607696
224	0xbee24577	-0.44193622
225	0xbf477073	-0.7790596
226	0xbf755d73	-0.9584572
227	0x3e848a3a	0.25886708
228	0x3da1df4c	0.079039186
229	0xbf644463	-0.8916685
230	0xbf018ec2	-0.50608456
231	0xbe0270dc	-0.12738365
232	0xbf4ce7c5	-0.8004115
233	0xbf512098	-0.8169036
234	0x3e635623	0.22200827
235	0xbf6b4fd8	-0.91918707
236	0xbea8784d	-0.32904282
237	0xbed74e16	-0.42051762
238	0xbe7be748	-0.24599946
239	0xbd74a1b1	-0.059724513
240	0xbf8d662b	-1.1046804
241	0xbee3e9e8	-0.44514394
242	0x3da74774	0.081679255
243	0xbebc863c	-0.36821163
244	0xbf2499b3	-0.64297026
245	0xbd71ad53	-0.059003185
246	0xbf8b0a75	-1.0862566
247	0xbf6101a7	-0.87893146
248	0xbf4d690c	-0.80238414
249	0xbf385ff7	-0.7202143
250	0xbf52f387	-0.82402843
251	0xbf456f90	-0.77123356
252	0xbf58185c	-0.8441217
253	0xbd2947e7	-0.041328337
254	0xbf28ae7f	-0.6589126
255	0xbf224e25	-0.6340049

fc2.weight f4 [128, 258]
0	0xbd609432	-0.05482883
1	0xbdf40c7a	-0.11916442
2	0x3dafd3a6	0.085852906
3	0xbe05ca31	-0.13065411
4	0xbe540e0c	-0.20708483
5	0xbdc9da26	-0.09856062
6	0x3d6c7ad2	0.057734318
7	0xbdda28ab	-0.10652288
8	0xbdda696d	-0.106646396
9	0xbd606d3b	-0.05479167
10	0xbd89e002	-0.06732179
11	0xbc8237c1	-0.015895726
12	0xbc52cbe7	-0.012865997
13	0xbb13f705	-0.0022577655
14	0xbc796787	-0.015222437
15	0x3d8162e4	0.0631769
16	0x3d9c294f	0.076250665
17	0xbe0b71f0	-0.13617682
18	0xbd8f09d4	-0.069842964
19	0xbb2b1cc1	-0.0026109668
20	0xbdfeb09f	-0.124360316
21	0x3c4dd3be	0.01256269
22	0xbcaaa7f6	-0.020832043
23	0x39aa3af7	0.0003246886
24	0xbe02d69d	-0.12777181
25	0xbd319d4c	-0.0433629
26	0xbd854738	-0.065077245
27	0xbd19369c	-0.037405595
28	0x3d3d6345	0.04623725
29	0xbdebea02	-0.11519243
30	0xbe570858	-0.20999277
31	0xbd656cd0	-0.056011975
32	0xbdf4b932	-0.11949386
33	0xbcf18adb	-0.029485157
34	0xbd8017e4	-0.06254557
35	0xbda5cb44	-0.080954105
36	0xbdbaaf4f	-0.09115469
37	0x3dd6c1af	0.10486161
38	0xbd68d9e0	-0.056848407
39	0xbd2fafa2	-0.042892106
40	0x3d22610c	0.039643332
41	0xbdd41d01	-0.103570946
42	0x3c8c1763	0.017100995
43	0x3bbb8031	0.0057220687
44	0xbdf6812d	-0.12036357
45	0xbdc11fe0	-0.09429908
46	0xbeb4d67d	-0.35319892
47	0x3d4dbb73	0.050227594
48	0xbca301a9	-0.019898253
49	0x3e3b7770	0.1830728
50	0xbdab3709	-0.083601065
51	0xbced3edd	-0.02896064
52	0xbd408123	-0.046998154
53	0xbc9ccefa	-0.019141663
54	0xbd681699	-0.056662176
55	0x3c4696c1	0.0121209035
56	0xbdfb0125	-0.12256078
57	0x3b10df6e	0.002210583
58	0xbd4421f8	-0.047883958
59	0xbd87ae64	-0.06625059
60	0x3d07806a	0.03308145
61	0xbd8077a7	-0.06272822
62	0xbd67635d	-0.056491245
63	0x3cd3f3f0	0.025873154
64	0xbe628f7f	-0.22125052
65	0x3b8564e2	0.004070864
66	0xbd2aa2de	-0.04165923
67	0xbe923eeb	-0.28563628
68	0xbbefbc25	-0.0073161297
69	0xbd86383b	-0.06553694
70	0x3cd4c9ab	0.025975069
71	0xbd57d053	-0.052688908
72	0xbe036441	-0.12831213
73	0xbd95065f	-0.07276606
74	0xbdf810c6	-0.12112574
75	0x3ce6b5c6	0.028162848
76	0xbdf19ae4	-0.11797121
77	0xbd942933	-0.072344206
78	0xbd9a1313	-0.07523169
79	0xbdd0672e	-0.1017593
80	0x3903caf2	0.00012568737
81	0xbe7e1bdb	-0.24815314
82	0xbd03280a	-0.032020606
83	0xbc4258ee	-0.011862023
84	0xbcfc99ef	-0.03083512
85	0xbda194dd	-0.078897215
86	0x3d2d871e	0.042365186
87	0xbe0ae285	-0.13562973
88	0x3ca02ec7	0.019553555
89	0xbd24e1a6	-0.040254258
90	0xbccf28dd	-0.02528804
91	0x3c520a3d	0.012819824
92	0xbc2d1d77	-0.010566107
93	0xbc32bcc4	-0.010909263
94	0xbd987053	-0.07443299
95	0x3dab4caf	0.083642356
96	0x3c348174	0.011017192
97	0x3d6087c1	0.054816965
98	0x3ccc3b21	0.024930539
99	0x3c9c22bc	0.019059531
100	0xbdc03e68	-0.09386903
101	0xbb297858	-0.0025859084
102	0xbe429721	-0.19002964
103	0xbe1fdd83	-0.15611844
104	0xbe3ee4f5	-0.18642028
105	0x3e0f1ea6	0.13976535
106	0xbd3c51de	-0.045976512
107	0xbe7f312e	-0.24921104
108	0xbd7a13ae	-0.061053924
109	0x3c406dcc	0.011744928
110	0xbc0af844	-0.008482043
111	0xbdac3b01	-0.084096916
112	0x3d60396d	0.054742265
113	0x3c3e1a35	0.011602928
114	0xbdc679f1	-0.09691227
115	0xbd88c391	-0.06677926
116	0xbd8e28e4	-0.06941393
117	0xbdbf00e8	-0.09326345
118	0xbe2493d7	-0.16072021
119	0xbcae63f3	-0.021287894
120	0xbdc0aeb9	-0.09408326
121	0x3d01e9cd	0.03171711
122	0xbe2bc2c8	-0.16773522
123	0x3d7629c8	0.06009844
124	0xbb9926fe	-0.0046738377
125	0xbe865ae0	-0.26241207
126	0xbd536f8b	-0.051620048
127	0xbde043d3	-0.109504364
128	0xbd1dcf64	-0.03852786
129	0x3d2cf2ac	0.042223617
130	0xbdeec58e	-0.11658774
131	0xbc42ab29	-0.011881628
132	0xbda42886	-0.08015542
133	0xbc758394	-0.014984984
134	0x3e1f6187	0.15564547
135	0xbde24bc9	-0.11049611
136	0xbe6a3f3c	-0.22875684
137	0x3d23c53e	0.039983027
138	0xbd2f0b39	-0.042735312
139	0xbdeaed3c	-0.1147103
140	0xbd881c73	-0.06646051
141	0xbe55a16c	-0.20862359
142	0x3caccefd	0.021094793
143	0xbe568c35	-0.20951922
144	0xbdf3ac5e	-0.11898111
145	0x3dacb119	0.08432216
146	0x3b1e77ec	0.0024180366
147	0x3d37d8b0	0.044884384
148	0xbd2c8108	-0.04211524
149	0xbdf639b1	-0.120227225
150	0xbe3263e2	-0.17420915
151	0xbd5de40a	-0.054172553
152	0x3afe7f1e	0.0019416546
153	0x3b5fbab6	0.0034138388
154	0x3d8453a2	0.06461264
155	0xbe0c896b	-0.13724296
156	0xbd43071c	-0.047614202
157	0x3c8495fe	0.016184803
158	0xbe460d26	-0.19340953
159	0xbd42fb3c	-0.047602877
160	0xbe275f19	-0.1634487
161	0xbd241561	-0.04005945
162	0xbe44eeb5	-0.19231685
163	0x3d4ada0c	0.049524352
164	0xbe315684	-0.1731816
165	0xbe1f4028	-0.15551817
166	0x3c8efd59	0.01745479
167	0xbe13bed7	-0.14428268
168	0xbdb326b8	-0.087476194
169	0xbd04d98c	-0.03243403
170	0x3cd56bf9	0.026052462
171	0xbd8c6608	-0.068553984
172	0xbe30da9e	-0.17270896
173	0x3b5e6df3	0.0033940047
174	0xbe1c38d8	-0.15256059
175	0xbd430ca6	-0.047619484
176	0xbd38eea3	-0.045149457
177	0xbda20f1e	-0.079130396
178	0x3de1e367	0.11029702
179	0x3bf45842	0.00745681
180	0x3d69cc5d	0.05707966
181	0xbe7f4bba	-0.24931231
182	0xbe02cc93	-0.12773351
183	0xbdb5bf26	-0.08874349
184	0x3d6a5205	0.057207126
185	0x3cc16106	0.023605835
186	0xbe80d564	-0.25162804
187	0xbc4b5b5c	-0.0124119185
188	0xbe222fbc	-0.15838522
189	0x3d0f8cd1	0.035046402
190	0x3c91ba72	0.0177891
191	0xbd481a9c	-0.0488535
192	0x3c8a33f6	0.01687048
193	0xbe3920d1	-0.18078925
194	0xbd30fdca	-0.043210782
195	0xbd0256a7	-0.03182092
196	0xbe3c29e9	-0.18375362
197	0x3b8a85d0	0.0042273775
198	0xbde79939	-0.11308522
199	0xbc7a5894	-0.015279908
200	0x3d5f9a1a	0.054590322
201	0x3e177af7	0.14793001
202	0xbc93a52a	-0.018023092
203	0xbda86311	-0.082220204
204	0xbbb303f5	-0.005463118
205	0xbe880544	-0.26566517
206	0x3ce0c545	0.027437815
207	0xbdbef24e	-0.0932356
208	0xbe832741	-0.25615886
209	0x3df3fb91	0.11913217
210	0x3d815cfe	0.06316565
211	0xbda12338	-0.078680456
212	0xbe01623d	-0.12635131
213	0xbcec86ea	-0.028872926
214	0xbbac86ab	-0.005265077
215	0x3d5ce4ee	0.053929262
216	0x3d9280bd	0.07153461
217	0xbd20bcb1	-0.03924245
218	0x3d968037	0.07348674
219	0xbd99b8e3	-0.075059675
220	0xbd652622	-0.05594457
221	0xbe1b42e5	-0.15162237
222	0xbb9cbae8	-0.004783023
223	0xbe1be111	-0.15222575
224	0xbe7598cc	-0.23984069
225	0xbdbf490f	-0.09340107
226	0xbe158319	-0.14600791
227	0x3d932533	0.071848296
228	0xbe35a59e	-0.17738959
229	0xbdd61f94	-0.10455242
230	0xbeb48e4f	-0.35264823
231	0xbd8dfdee	-0.06933199
232	0x3dbaf622	0.09128977
233	0xbdef9903	-0.116991065
234	0xbd56c470	-0.05243343
235	0xbd7dae81	-0.061933998
236	0xbdd91f9f	-0.10601734
237	0x3d5ffafb	0.054682713
238	0xbe213a05	-0.15744789
239	0xbd8d8e4d	-0.06911907
240	0xbca64c51	-0.020300062
241	0x3d450ebc	0.048109755
242	0xbdc10b3d	-0.09425972
243	0x3e542836	0.20718464
244	0x3e26898f	0.16263412
245	0xbd141493	-0.036152434
246	0xbbcf6a3a	-0.006329802
247	0xbd29681e	-0.04135906
248	0xbe0b42cc	-0.135997
249	0xbdbccb2f	-0.09218442
250	0xbdac2ffe	-0.08407591
251	0xbd32d3d9	-0.043659065
252	0xbe8a036e	-0.26955742
253	0x3ce2171a	0.027598906
254	0xba7d14dd	-0.0009654293
255	0x3e28738d	0.16450329

fc2.bias f4 [128]
0	0xbc925e37	-0.01786719
1	0xbccdf055	-0.025139013
2	0xbe08c4c1	-0.13356306
3	0xbdb535f0	-0.088481784
4	0xbde7f1c7	-0.11325412
5	0xbdec4787	-0.1153708
6	0xbe96058c	-0.29301107
7	0xbd80eb35	-0.06294862
8	0xbda5d90c	-0.08098039
9	0xbe270960	-0.1631217
10	0xbe15b54d	-0.14619942
11	0x3dcf7181	0.10129071
12	0xbd46ada9	-0.04850546
13	0xbcd4009d	-0.025879199
14	0xbdd4fe72	-0.10400094
15	0xbc6b1ebb	-0.014350588
16	0xbca75d87	-0.02043034
17	0xbdfdbfed	-0.123901226
18	0xbd44737d	-0.0479617
19	0xbbe05a36	-0.0068466915
20	0xbe19e7ab	-0.1502978
21	0xbd081529	-0.033223305
22	0xbe062065	-0.13098295
23	0xbd46bd1b	-0.04852019
24	0xbcc7bdd4	-0.02438251
25	0xbd8d0a2a	-0.06886704
26	0xbd003cb0	-0.031307876
27	0xbe016b9e	-0.12638709
28	0xbe1f805f	-0.15576313
29	0xbdc7782d	-0.097397186
30	0xbc73b9be	-0.014875827
31	0xbdbb1d41	-0.09136439
32	0xbe22f27a	-0.1591281
33	0xbde4a28f	-0.11163818
34	0xbe1d318b	-0.1535093
35	0xbe0dcf25	-0.1384855
36	0xbe049776	-0.12948403
37	0xbd7884ae	-0.06067341
38	0xbddbdb6f	-0.10735213
39	0xbda65eaa	-0.081235245
40	0x3daedb50	0.08537924
41	0x3d6a2d3a	0.057172038
42	0xbd0b0c42	-0.033947237
43	0xbe08de45	-0.13366039
44	0xbd9c18fa	-0.076219514
45	0xbe074483	-0.13209729
46	0xbd6d487b	-0.05793045
47	0xbcdf77d6	-0.027278822
48	0xbdf941b7	-0.12170737
49	0xbc992963	-0.018696493
50	0xbd802f61	-0.06259037
51	0xbd2a2f80	-0.041549206
52	0xbd16441b	-0.036686044
53	0xbdfdfea1	-0.12402082
54	0xbca7172a	-0.020396788
55	0x3e19de79	0.15026273
56	0xbe02f300	-0.1278801
57	0xbe1ae213	-0.15125303
58	0xbac84f1c	-0.0015282365
59	0xbebb2b38	-0.3655641
60	0xbe06ace4	-0.1315189
61	0x3ce4a6b4	0.027911521
62	0xbe650999	-0.22366942
63	0xbc516425	-0.012780224
64	0xbde30b21	-0.11086107
65	0xbdbe081c	-0.092788905
66	0xbe01e4d5	-0.12684949
67	0xbde08294	-0.10962406
68	0xbe08d93c	-0.13364118
69	0xbcd419f6	-0.025891285
70	0xbe2690de	-0.162662
71	0xbdcf1b2d	-0.10112605
72	0xbdd3fe69	-0.10351259
73	0xbdea4c43	-0.11440327
74	0xbd9555bd	-0.07291744
75	0xbdaff7ac	-0.085921615
76	0xbe02240d	-0.12709065
77	0xbd0c0dec	-0.034192964
78	0xbc12a1f8	-0.008949749
79	0xbe0f73b3	-0.1400898
80	0xbdb945b9	-0.09046502
81	0xbfbe6cda	-1.4876969
82	0xbe029707	-0.12752925
83	0xbd7e794d	-0.0621274
84	0xbe3251e1	-0.17414047
85	0x3e8b62bd	0.2722377
86	0x3dd65172	0.10464753
87	0xbdbe9726	-0.09306173
88	0xbb81e86a	-0.0039644735
89	0xba4b7f09	-0.0007762765
90	0xbdfa81a2	-0.12231757
91	0xbdf0408e	-0.11731063
92	0xbdd6a016	-0.10479753
93	0xbdb46bbf	-0.088096134
94	0xbfcaa92b	-1.5832876
95	0xbd623bf6	-0.055232964
96	0xbe023b79	-0.12718
97	0x3d0b6a3f	0.03403687
98	0xbdf7fb17	-0.121084385
99	0xbd517436	-0.051136218
100	0xbd6dd616	-0.058065496
101	0xbcfbb3be	-0.030725356
102	0xbd51d02f	-0.05122393
103	0xbded608e	-0.11590682
104	0xbda4f427	-0.08054381
105	0x3acbe43d	0.0015555691
106	0xbe442743	-0.19155602
107	0xbe2e2df2	-0.17009714
108	0x3cf8c0b7	0.030365331
109	0xbdf71d43	-0.12066128
110	0xbe164930	-0.14676356
111	0xbd9b4914	-0.07582298
112	0xbd985cb1	-0.074395545
113	0xbd82bb67	-0.063834004
114	0xbdc5e07d	-0.09661958
115	0xbd3eb68b	-0.046560805
116	0x3eb48612	0.35258538
117	0xbdcf0894	-0.10109058
118	0xbe06d114	-0.13165694
119	0xbdbb39b7	-0.091418676
120	0xbdba48b8	-0.09095901
121	0x3e6a95aa	0.22908655
122	0xbdf727fe	-0.12068175
123	0xbd5128cd	-0.0510643
124	0xbe0a5268	-0.13507998
125	0xbda4e4c7	-0.08051448
126	0xbdbc48ff	-0.091936104
127	0xbdf04089	-0.11731059

fc3.weight f4 [1, 128]
0	0xbc1eb8fb	-0.0096876575
1	0xbc53cd49	-0.012927362
2	0x3c39a9c1	0.011331976
3	0x3af4093c	0.0018618475
4	0xbc29f4d7	-0.010373316
5	0x3bc4bbed	0.006003848
6	0x3b3bb4a9	0.0028641617
7	0xbcafcbd9	-0.021459507
8	0xbc87c84e	-0.016575005
9	0x3ce78ff6	0.028266888
10	0xbc44255d	-0.011971799
11	0x3bd75520	0.006571427
12	0xbc4df086	-0.012569552
13	0x3bac9a9f	0.0052674557
14	0x3b36c1f7	0.0027886608
15	0x3c1ed9e4	0.009695504
16	0x3c23784c	0.0099774115
17	0xbb23eee2	-0.0025014211
18	0xbb2aecb8	-0.0026081037
19	0x3cde0bb9	0.0271052
20	0x3cb18801	0.021671297
21	0xbccdc276	-0.02511714
22	0x3c8232f6	0.01589344
23	0x3c86413e	0.016388532
24	0x3c82be3b	0.01595985
25	0xbae2f0a6	-0.001731415
26	0xbc2e48c4	-0.010637466
27	0xba8e4480	-0.0010854155
28	0x3adc2f7d	0.001679882
29	0xbc3f451e	-0.011674194
30	0xbccde88c	-0.025135301
31	0xbb4b94ba	-0.003106399
32	0x3ae80fac	0.0017704866
33	0xb8f21a04	-0.00011544305
34	0xbc020536	-0.007935813
35	0x3c05ea94	0.008173604
36	0x3ba24b81	0.0049528484
37	0x3c113af9	0.008864158
38	0xbc6f3085	-0.01459897
39	0xbc1d1a64	-0.009588812
40	0x3cf9f574	0.030512549
41	0xbaee56d4	-0.0018183836
42	0x3ab2f557	0.0013653439
43	0xbcd7d3b3	-0.026346063
44	0x3c4caf56	0.012492975
45	0xbcd96397	-0.026536746
46	0x3b531acd	0.003221202
47	0x3c088be6	0.008334136
48	0xbb1a4a15	-0.0023542691
49	0xbcfd55ed	-0.030924762
50	0x3ca36edb	0.019950321
51	0xbcd3b367	-0.025842382
52	0xbb64711e	-0.0034857462
53	0xbc5e9cd0	-0.013587192
54	0x3c914ad1	0.01773587
55	0xbcb74de4	-0.022376008
56	0xbbac33bc	-0.0052551907
57	0x3bd45b4a	0.006480609
58	0x3c8bd642	0.01706994
59	0xbbc9140b	-0.0061364225
60	0x3c679f95	0.014137168
61	0x3a193490	0.0005844319
62	0x3c818ae9	0.015813308
63	0x3c228798	0.009920023
64	0xbc957cd6	-0.018248003
65	0x3c03b089	0.008037695
66	0x3cb50d70	0.022101134
67	0xbc97ff30	-0.0185543
68	0xbcc1b642	-0.023646478
69	0x3cc8aae9	0.024495559
70	0xbbb03f77	-0.0053786593
71	0xbc333815	-0.010938664
72	0xbcae0728	-0.021243647
73	0x3a11aaf5	0.00055567856
74	0x38cfd68e	9.910493e-05
75	0xbce6edf5	-0.028189639
76	0x3c92e462	0.017931167
77	0x3be32ad7	0.006932597
78	0x3c9fb8cc	0.019497298
79	0xbc93fb8b	-0.018064281
80	0xbba6368a	-0.0050724195
81	0xbc6dd7e5	-0.014516805
82	0x3b0f6a8f	0.0021883582
83	0x3c1ffd75	0.009765019
84	0x3b4b608d	0.003103289
85	0xbc0132bf	-0.007885634
86	0x3cd90c3d	0.026495093
87	0xbcb87704	-0.022517689
88	0x3c92419c	0.01785355
89	0x3bb62f12	0.0055598104
90	0xbcab1e2c	-0.02088841
91	0xbc7bccb2	-0.015368627
92	0x3ccdb83e	0.025112268
93	0xbcd81d89	-0.026381271
94	0xbc79d2cc	-0.015248012
95	0x390e1505	0.00013550006
96	0xb91d2ae1	-0.0001498866
97	0x3c37f220	0.011227161
98	0xbac300ce	-0.0014877559
99	0x3c57021e	0.013123063
100	0xbcb6f022	-0.022331301
101	0x3bc3c34e	0.00597421
102	0xbbbe19ef	-0.0058014314
103	0xbc7a0857	-0.015260777
104	0x3ca62281	0.020280125
105	0x3c8d99d3	0.017285263
106	0xbcc7917c	-0.024361365
107	0xbcaefc4b	-0.021360537
108	0xbcd33246	-0.025780808
109	0x3c665389	0.014058002
110	0xbc319e52	-0.010840969
111	0x3c95c98d	0.018284583
112	0xbca6f9d5	-0.020382801
113	0xbc82d15d	-0.015968973
114	0x3a30626b	0.00067285326
115	0x3c15aa03	0.009134772
116	0xbc336a2a	-0.010950604
117	0x3ce429c4	0.027851947
118	0xbcb78e16	-0.022406619
119	0x3cab077e	0.020877596
120	0xbcc80b57	-0.02441947
121	0xbc0b95ac	-0.008519571
122	0x3c947d4c	0.018126152
123	0xbcc28256	-0.02374379
124	0x3c422ac8	0.01185102
125	0xbc6818aa	-0.014166037
126	0x3c869fbc	0.01643359
127	0x3ce7b95b	0.028286627
