results/results_5/solved_agent2_actor.pth (torch, 185131 bytes, 6 tensors)

fc1.weight f4 [256, 48]
000000 59 d8 9e bd 89 e3 d3 be 6d 28 22 be 4b 9a 76 be
       -0.07756109 -0.41384533 -0.15835734 -0.24082296
000010 57 bd bd bf a2 69 b7 bf ed fa 1c be d1 fa 3f be
       -1.4823407 -1.4329112 -0.15330096 -0.18748023
000020 d7 20 fc bd 57 b4 f5 be a5 d8 ad 3d 40 7f ae bc
       -0.12310951 -0.4798915 0.08488587 -0.021300912
000030 fc ef 73 bf 7b d1 09 bf cf 3a 16 3e a8 30 8e 3d
       -0.9528806 -0.53835267 0.14670871 0.06942874
000040 a6 e3 97 3b 7a ef cf be a7 c8 5b be f0 c8 6c bf
       0.004635292 -0.40612394 -0.21463262 -0.92494106
000050 6b b1 ab be 0a 71 80 3e c5 4d 34 be 8c d6 5a bf
       -0.33533797 0.25086242 -0.17607792 -0.8548362
000060 f3 f9 40 3e f8 2c 50 bf e2 03 6a be 48 1c a2 be
       0.18845348 -0.81318617 -0.22853044 -0.31662202
000070 6b 71 bd 3f fc 2e be bf bf f1 08 be b8 49 9f be
       1.4800237 -1.4858088 -0.13373469 -0.3111093
000080 75 6f 8a 3d 84 a1 3d bf 49 e6 5d 3e 4a e0 0c 3f
       0.0675954 -0.7407458 0.21669878 0.5502974
000090 3a d5 6e 3f fb 5f 09 bf e3 42 3c 3e 21 eb 18 3f
       0.9329411 -0.5366208 0.1838489 0.5973378
0000a0 c0 8e 11 3d d6 2e 1e bf 5f 0d aa be eb 05 88 3f
       0.035536528 -0.61790216 -0.33213326 1.0626806
0000b0 e5 62 b0 3e d6 00 83 3e a9 2a 92 be 2a 27 8c 3f
       0.3445045 0.25586575 -0.28548172 1.0949452
0000c0 b8 a4 65 3f 99 68 31 bf 3b 21 8e 3d c1 c2 08 3f
       0.89704466 -0.6930023 0.06939932 0.5342217
0000d0 74 9f 1f bf 91 f1 f1 be dd a6 d1 3d b5 e0 0e 3f
       -0.6235268 -0.47254613 0.10236905 0.55811626
0000e0 58 52 6d 3f b7 94 0e bf 85 2c 44 ba 63 e3 88 3f
       0.9270377 -0.5569567 -0.00074834406 1.0694393
0000f0 24 12 34 bf 5f 47 33 3e f5 20 b5 3d bf dd 8d 3f
       -0.7034018 0.17507695 0.08844177 1.1083297
000100 7b 87 43 3f 36 89 0c bf be 5c 04 3c fd 23 27 3f
       0.763786 -0.5489687 0.008078752 0.6528929
000110 20 5a 47 bf 52 3d de 3f f3 d7 ce bb 4b aa 1b 3f
       -0.77871895 1.7362463 -0.0063123642 0.6080672
000120 b9 20 92 3d 2f 19 13 3f 68 12 88 bd 34 f4 2b bf
       0.071351476 0.574603 -0.06644136 -0.671695
000130 06 7a 13 3f 3f b1 f4 be 02 01 90 bd 3e a0 38 bf
       0.5760807 -0.47791478 -0.07031442 -0.7211951
000140 65 7c f8 3d 95 b8 cc 3e 4f d8 c2 3d 7d c4 41 bf
       0.121331014 0.39984575 0.09513914 -0.7569044
000150 76 c4 32 3f 40 07 89 3d 65 ce 8b 3d b5 8c 52 bf
       0.69831026 0.06690836 0.06826476 -0.8224595
000160 31 aa cd 3d 7d 4d 4e be 2f 48 0b 3e 0f ef e2 bf
       0.10042227 -0.20146747 0.13601755 -1.7729205
000170 1e eb 2c 3f c6 68 e1 3f 77 91 85 3d e5 d7 dd bf
       0.6754626 1.7610099 0.06521886 -1.7331511
000180 a8 18 95 be 92 02 c6 3e bc a6 5d 3c 6d 07 81 3e
       -0.29120374 0.38673836 0.013528522 0.25200978
000190 f9 f0 12 bf 3b 0f 5f 3b a3 cd 69 bc 30 8d b0 3e
       -0.57398945 0.0034036178 -0.014270219 0.34482718
0001a0 9a ef 2a 3e 97 98 83 3e fe 32 0a 3d 7d 32 11 3f
       0.16692963 0.25702354 0.033740036 0.56717664
0001b0 77 9b ec 3d e1 95 a9 3f 65 ef 45 3b 39 60 f8 3e
       0.1155309 1.3248864 0.0030202505 0.48510912
0001c0 8f 36 d8 3e 10 bb 79 3e b7 e6 bb ba 94 18 9b 3c
       0.42229125 0.24387765 -0.0014335726 0.018932618
0001d0 76 4f 5c 3f d2 ca 61 40 01 5c 8c bc 6a 3b 0a 3d
       0.8605875 3.5280042 -0.017133715 0.033748068
0001e0 05 0c 18 3f 88 f3 55 3f a6 e0 d1 bd ac a9 3f 3e
       0.5939334 0.83574724 -0.102479264 0.18717068
0001f0 71 d5 09 3f 64 dd 33 3b 34 97 0c bd 2e ad 27 3e
       0.5384131 0.0027445192 -0.034323886 0.16374657
000200 53 d2 19 3f 63 69 47 3f d3 11 52 3d 6f 72 79 bd
       0.60086554 0.7789518 0.05128653 -0.060900148
000210 3a f5 24 be a7 bd ab 3f 40 8b e7 3d 75 22 23 be
       -0.16109172 1.3417252 0.11305857 -0.15931113
000220 19 84 17 3f bf 52 39 3f 1f 88 ac bd 68 bf 3a bf
       0.5918594 0.72391886 -0.084244005 -0.7294831
000230 fe 51 60 bf c2 9d 5f 40 71 09 b7 3c ee df 42 bf
       -0.8762511 3.4940038 0.02234337 -0.7612294
000240 3b 44 c2 3e 14 e1 61 3f fb 11 55 be 7d 06 8f 3e
       0.3794268 0.88234067 -0.2080764 0.27934638
000250 92 b8 86 3e 85 34 60 be bd 2c 24 be 77 cf 5a 3e
       0.2631269 -0.21895035 -0.16032691 0.21368204
000260 0a 6c b8 3e 86 fd 4f 3f e4 bb 32 be 88 87 0f 3c
       0.36019927 0.8124622 -0.17454487 0.0087603405
000270 a1 47 b3 3e 38 d4 42 be 9e b4 49 be 14 d5 00 3d
       0.35015586 -0.19026268 -0.19697806 0.031453207
000280 92 a7 cb 3e 03 40 77 3f 39 46 a2 bd b4 3a 81 bd
       0.39776284 0.9658205 -0.0792355 -0.06310025
000290 23 66 59 3e 80 4a 07 bc a7 7d 31 be 21 89 2c bd
       0.21230368 -0.008257508 -0.17333089 -0.042122964
0002a0 7c 50 d1 3e 27 26 4f 3e 28 83 b6 bd 35 1e 2a bf
       0.40881717 0.20229398 -0.08911735 -0.6645234
0002b0 14 18 b9 be 71 77 83 be f2 77 7c bd 53 cf 2a bf
       -0.36151183 -0.25677064 -0.061637826 -0.667226
0002c0 dd 95 f3 3e 7d c4 99 3d 03 83 ea 3e ef f5 b8 3e
       0.47575274 0.0750818 0.4580308 0.36125132
0002d0 03 ad a3 be 74 6d 70 be 08 18 fc 3e ea 88 97 3e
       -0.31967935 -0.23479253 0.49237084 0.29596645
0002e0 e1 d1 21 3f 0e c5 1f 3e 40 5d ca 3e 62 90 e9 be
       0.63210875 0.15602514 0.3952427 -0.45617968
0002f0 3c b1 1c be bf 23 d2 3d 52 56 9f 3e b2 07 f0 be
       -0.15301985 0.10260724 0.31120545 -0.4688087
000300 0d 24 df bb f8 96 66 bf 3b f0 9d bd 0d 51 09 be
       -0.0068097175 -0.9007411 -0.07711836 -0.13409825
000310 4b 48 6f bf dd 67 94 be 6a 19 2a bc c2 ff 23 be
       -0.93469685 -0.2898549 -0.010382036 -0.16015533
000320 d0 83 d2 3e 8a 1f 70 bf a4 98 bb 3d aa 64 cc 3e
       0.4111619 -0.93798125 0.09159973 0.3992055
000330 06 c5 19 be ce 6e 95 3f b1 f3 c7 3c 92 1d e1 3e
       -0.15016565 1.167444 0.024408193 0.43967873
000340 5a 82 ea 3e 58 3c 55 bf 84 03 99 bd 8a 7d dc 3e
       0.45802575 -0.832952 -0.07471374 0.4306453
000350 79 ca 01 3f c4 a3 6a 40 78 4c 04 bd dc 99 ba 3e
       0.50699574 3.6662455 -0.03229949 0.3644551
000360 b7 4e 3c 3e d2 c1 88 3f c6 f8 16 bd 9b 89 24 3f
       0.18389402 1.0684149 -0.036858343 0.6427247
000370 69 34 5d 3f 97 77 81 be 46 80 b9 3c 75 55 43 3f
       0.86408097 -0.25286552 0.022644173 0.7630227
000380 bb 20 43 3e 90 61 8b 3f de 0d 7a bd e5 18 69 3e
       0.19055454 1.0889149 -0.06104838 0.22763403
000390 64 f2 12 3e ce ee 8b 3f 73 be e3 bb 45 93 29 3e
       0.14350277 1.0932252 -0.0069501936 0.16560085
0003a0 0f b2 6d 3e 74 62 86 3f 00 59 b2 bd ac 88 6d bf
       0.23212455 1.0498796 -0.08708382 -0.9278667
0003b0 7f df e5 be c0 01 69 40 be 63 cb bc e4 44 7b bf
       -0.44897076 3.6407318 -0.024827834 -0.98151994
0003c0 38 ea 31 3f 7f d9 92 3e b7 a6 f3 bd f0 f1 df be
       0.69498014 0.2868156 -0.11897033 -0.4373927
0003d0 04 a6 07 3f 5b 26 01 3e 45 7d d0 bd 5c b2 e0 be
       0.52987695 0.12612288 -0.10180143 -0.43886077
0003e0 43 a0 36 3f 79 b6 4c 3e 10 8f 4f 3d f6 46 1b bf
       0.7133829 0.19991483 0.050673544 -0.6065515
0003f0 51 9b 00 3f f4 67 fa bc e3 d6 f7 3c 32 53 1c bf
       0.50236994 -0.030567147 0.030253833 -0.61064446

fc1.bias f4 [256]
000000 fd 1b 15 be a7 6a 0c be 53 3f de be 01 e7 01 bf
       -0.14561458 -0.1371256 -0.43407688 -0.5074311
000010 29 cf e1 be 0c 7c d7 be b0 5e 04 bf 35 7b 8b 3f
       -0.44103363 -0.42086828 -0.5170698 1.0896975
000020 c2 0b cf be 13 a5 03 bf b9 66 cc be 41 0f c8 be
       -0.40438658 -0.5142376 -0.3992212 -0.39074138
000030 8d 1e 83 be e4 72 b4 be 6a 40 f6 be 49 23 4c bf
       -0.25609246 -0.35243905 -0.4809602 -0.7974134
000040 45 b9 dc be 5d b1 f1 be 41 fc 22 bf 1a 94 aa be
       -0.431101 -0.4720563 -0.6366616 -0.33316118
000050 c1 82 a1 bc 64 08 e5 be e7 45 f1 be 17 f6 b2 be
       -0.019715669 -0.44732964 -0.47123644 -0.34953377
000060 80 6b b4 3d e6 bb c6 be a8 81 df 3e b8 0b 9d be
       0.088095665 -0.3881523 0.43653607 -0.30673003
000070 0e 95 05 bf 83 39 ac be 4e 65 41 bf 78 ee d1 be
       -0.52180564 -0.33637628 -0.75545204 -0.4100225
000080 c0 94 9e be ac ad b7 be 92 db d5 be f9 9e e9 be
       -0.30972862 -0.3587469 -0.4176908 -0.456291
000090 21 ad 09 bf 1c 81 b4 be e8 fb 6d bd 03 97 7c 3e
       -0.537798 -0.35254753 -0.058101565 0.24666981
0000a0 f3 84 eb be 7c b9 27 bf 58 f8 b3 be 2a 44 16 bf
       -0.4599987 -0.655174 -0.3515041 -0.5869776
0000b0 4b e3 26 3f ec 88 04 bf f8 d0 cd be 23 ea 26 bf
       0.6519057 -0.51771426 -0.40198493 -0.65201014
0000c0 2a 81 a0 be 27 d7 b6 3d 33 91 ff be f3 a2 fd be
       -0.31348544 0.08927756 -0.49915466 -0.49538383
0000d0 5d 60 02 bf 84 b8 ae be 3e ba e7 be 37 dc 0a bf
       -0.5092829 -0.3412515 -0.4525928 -0.5424227
0000e0 d3 7c d6 be e7 42 a0 bc 0b 70 4e 3e 17 55 9f be
       -0.41892108 -0.019563152 0.20159929 -0.31119606
0000f0 f4 e2 2b bf 62 0a b2 be fa f8 03 bf 24 c9 db be
       -0.6714318 -0.34773546 -0.51551783 -0.42926896
000100 49 27 54 be 16 9c f9 bd 03 9c ce be d4 f4 62 be
       -0.20718111 -0.12187974 -0.40353402 -0.22163707
000110 27 f9 24 be 3f 9c 3d be e3 1b 95 be 27 e5 18 bf
       -0.16110669 -0.18516634 -0.29122838 -0.5972466
000120 3a a3 28 be 6e 7d a9 be 1f 64 ef be f8 d9 ea bc
       -0.16468516 -0.33103508 -0.46756074 -0.028668389
000130 7b 27 d4 be f7 ab bd be dc 49 0a bf f4 10 87 be
       -0.4143637 -0.3704526 -0.5401895 -0.26380122
000140 3c bc bf be 76 0b be be dc 84 7b be d7 5f be be
       -0.374483 -0.3711812 -0.245624 -0.37182495
000150 5a 8d dc 3e 83 d3 45 bf 57 d6 11 bf c8 a8 ce be
       0.43076593 -0.77275866 -0.5696768 -0.40363145
000160 3f ad b5 be c3 19 5a be c7 00 af be 70 c5 c2 be
       -0.3548374 -0.2129889 -0.3418028 -0.38041258
000170 37 9d 15 3c d8 72 d4 be 04 f0 14 bf af ce 36 bf
       0.009131721 -0.4149387 -0.58178735 -0.71409124
000180 d0 45 4b be 8b 93 a8 be 9b 8e f0 be 28 1c 24 bf
       -0.1985085 -0.32925066 -0.469838 -0.64105463
000190 0c fc e0 be f5 b0 7b be f7 3d e1 be 54 36 87 be
       -0.43942297 -0.24579223 -0.43992588 -0.26408637
0001a0 f2 47 9a be a2 a8 12 bf 43 de 08 bf 55 c7 a4 be
       -0.30133015 -0.57288563 -0.53464144 -0.32183328
0001b0 47 0d fb be f2 f4 ab be 82 38 da be 83 35 db be
       -0.49033567 -0.33585316 -0.42621237 -0.42814264
0001c0 65 55 0f bf 9d 01 7b 3f 44 d8 2d bf 5d a9 15 bf
       -0.55989677 0.98049337 -0.6790812 -0.5846155
0001d0 ac 72 24 bf dd e9 fa bc 69 55 27 be a3 06 e4 be
       -0.64237475 -0.030629093 -0.16341175 -0.44536313
0001e0 4c b6 df be 30 0f 13 bf e7 9a 18 bf 25 57 2a bf
       -0.4369377 -0.5744505 -0.5961136 -0.6653922
0001f0 5e f3 58 bf db eb 12 be e7 7b 06 3e 75 1b ba be
       -0.8474635 -0.14347784 0.13133202 -0.36349073
000200 ab 59 da be 3d 44 36 be 3b 12 f6 be 98 94 d6 be
       -0.42646536 -0.17799468 -0.48060784 -0.41910243
000210 50 fa 98 3e 39 a6 ed be bf 29 de be c1 e0 12 bf
       0.29878473 -0.4641588 -0.43391225 -0.573742
000220 99 cb 02 be 65 44 3f 3c 0d c1 7f be 96 43 04 bf
       -0.12772979 0.011674021 -0.24975987 -0.5166563
000230 4d ce 9d be ad f2 9d be 5f 7d 13 bf 88 cf 32 bf
       -0.30821458 -0.3084921 -0.57613176 -0.6984792
000240 11 a4 b6 be fa 81 2f bf 9c f8 65 be 81 d0 22 be
       -0.35672048 -0.68557703 -0.22458118 -0.1589985
000250 0d 89 cc be c4 73 0d bd 13 58 94 be 1f 9e 22 bf
       -0.3994831 -0.03453423 -0.28973445 -0.63522524
000260 39 00 b1 be 5b 11 12 bc cb c9 bc be 8e a8 fd be
       -0.34570482 -0.008915271 -0.36872706 -0.4954266
000270 2c 5b ff be af f9 d0 be bb 19 21 be 06 db f7 bd
       -0.49874246 -0.40815493 -0.15732472 -0.12102322
000280 46 72 04 bf 98 79 02 bf 16 aa a6 3e 12 92 f6 be
       -0.5173687 -0.5096679 0.3255164 -0.48158318
000290 fd 96 ae be 64 a3 51 be 54 de e0 be 6a 13 e5 3e
       -0.3409957 -0.20472485 -0.43919623 0.44741374
0002a0 98 f3 e1 be 2b 85 d0 be 6d ae 94 be 8f a0 6a be
       -0.4413116 -0.407266 -0.29039326 -0.2291281
0002b0 a7 51 f1 be 6d 96 0e bd 96 ec 36 3e fe a2 60 be
       -0.47132608 -0.034811426 0.17863688 -0.21937177
0002c0 13 56 a0 be 76 b9 e0 be 51 9e c1 be c7 aa c5 be
       -0.3131567 -0.43891495 -0.37816098 -0.38606855
0002d0 ad 82 21 bf 95 60 06 3e b7 76 c8 be d2 44 12 bf
       -0.6309002 0.1312278 -0.39153072 -0.5713626
0002e0 cf 5c 43 be f9 1d a4 be a0 8e d8 be fe 14 c1 3c
       -0.19078372 -0.32054117 -0.42296314 0.02356958
0002f0 5d 0a a0 be 00 ae 89 bd 70 d8 66 be 4e fb 60 3a
       -0.31257907 -0.06722641 -0.22543502 0.0008582369
000300 2d 3e dc 3d e1 03 cf be 37 c3 88 be 7a 9b dd be
       0.107540466 -0.40432647 -0.26711437 -0.43282682
000310 0e 59 db be d9 1b 46 be 82 41 1c bf bb a4 6d be
       -0.4284138 -0.1934656 -0.61037457 -0.23207371
000320 31 9c 91 be 92 72 f6 bd 34 ca 9f be 1b ec 22 bf
       -0.28439477 -0.12033571 -0.31208956 -0.6364152
000330 50 02 c1 be 00 80 cd be 70 5e 90 be 50 2f c2 be
       -0.37697077 -0.4013672 -0.2819705 -0.37926722
000340 ef d9 5c be cb f9 a7 be 56 b7 dc be 32 37 12 bf
       -0.2156751 -0.32807764 -0.43108624 -0.5711547
000350 2b 69 46 be 88 54 6d be f9 0d fd be 09 ae 85 be
       -0.19376056 -0.23176777 -0.49424723 -0.2610934
000360 0f 03 2b bf ac 8c d8 be 33 20 0f bf 75 9d 2f bf
       -0.6680154 -0.42294824 -0.5590851 -0.68599635
000370 72 04 00 bf f9 ca 96 3f ed 72 23 bf 13 d9 82 be
       -0.50006783 1.1780692 -0.6384724 -0.2555624
000380 cf f9 86 be 34 b0 96 be 4d 97 f1 be 6e e7 65 be
       -0.26362464 -0.29431307 -0.47185746 -0.22451565
000390 68 39 94 be d0 24 87 be cb 93 dc be 95 dc c7 be
       -0.28950047 -0.26395273 -0.43081507 -0.39035478
0003a0 25 c9 0f bf 92 0d be be de bd ea be c8 4f 1b 3f
       -0.561663 -0.37119728 -0.45847982 0.6066861
0003b0 77 d8 c4 be f7 7e 21 3e a1 97 11 3f 3d a0 05 bc
       -0.384464 0.1577109 0.5687199 -0.00815588
0003c0 0d 8b 66 be 60 ee 82 3f 36 6e 06 bf ac 87 e5 be
       -0.22513981 1.0228996 -0.5251192 -0.44830072
0003d0 36 4c a1 be 93 ef 16 bf 72 7c f5 be 97 95 95 be
       -0.31503457 -0.5895931 -0.47946507 -0.2921569
0003e0 ae 49 10 bf 22 e0 89 be 15 c4 13 bf e6 4b 9d be
       -0.56362426 -0.26928812 -0.5772107 -0.30721968
0003f0 6a bd 9e be d2 37 8f be 14 dc 0f bf 37 17 5c be
       -0.31003886 -0.27972275 -0.5619519 -0.21493231

fc2.weight f4 [128, 256]
000000 f2 4d 29 be e4 ea e8 3d 1f e5 8d 3e 7a 5a b6 3e
       -0.1653364 0.11372927 0.27713868 0.35615903
000010 d8 0b d3 be 74 83 04 be 2d b5 e1 3e 11 84 ae be
       -0.41219974 -0.1294077 0.4408354 -0.34085134
000020 4f 39 ac bc 82 fe dd bd 35 d3 79 be bd 8e 4e 3e
       -0.02102342 -0.10839559 -0.24396975 0.20171638
000030 dc c0 e7 3c 6c bf df bd 28 32 2e 3f 29 ac f4 3d
       0.028290205 -0.10925183 0.6804528 0.119468994
000040 43 a6 51 bd 9f 26 d8 bd 78 1a eb 3d 31 17 01 bd
       -0.05118395 -0.105542414 0.11479658 -0.031516258
000050 ea d9 82 bd 42 42 a3 3e ef 4d b2 3e 36 60 81 3d
       -0.0638922 0.31886488 0.34825084 0.06317179
000060 9d e9 c1 3d 7c d0 9e 3e dd 47 cb 3e 6e ba a2 be
       0.09468386 0.31018436 0.39703265 -0.3178286
000070 1a a2 12 3f 76 23 bf 3d b0 e4 34 be f7 8b a9 3e
       0.572786 0.093329355 -0.17665362 0.33114597
000080 ff 09 bb 3e 5b 28 c4 3e 50 2f a6 3e 60 44 d0 3e
       0.36531064 0.3831204 0.32457972 0.40677166
000090 91 2e f2 3e 2e 46 34 3e ee e2 c6 3c 55 7a e7 3e
       0.47301152 0.17604896 0.02427813 0.4521052
0000a0 8e 7e df 3e 51 25 6b 3d 27 7e 95 3c ef 4e 73 bc
       0.4365124 0.057408635 0.01824863 -0.014850362
0000b0 87 8a 25 be b3 0e eb 3e 40 ee 38 3e 00 a2 e9 3d
       -0.16166125 0.45909652 0.18059635 0.11407852
0000c0 6b 24 74 3e f3 93 d3 3e 8e 82 08 3c 68 a1 d4 bd
       0.23842017 0.41323814 0.008331908 -0.10382348
0000d0 2b 2f 6c 3e 4c 8c 32 be 85 12 91 3e 92 e3 0c be
       0.23064868 -0.17436332 0.28334442 -0.13758686
0000e0 6f 03 5b 3e 83 fa 48 3e b4 d0 68 3e 22 c6 d3 3e
       0.21388029 0.19626813 0.22735864 0.413621
0000f0 cb de 4b 3e 69 5c 36 bd 0c 09 15 3e 13 30 a7 3e
       0.19909208 -0.044521723 0.14554232 0.32653865
000100 0f 33 84 3e 66 75 fe 3e 92 8f 46 bd 7e 18 9d 3e
       0.25820205 0.49698943 -0.048476763 0.3068275
000110 c7 a4 99 be 1a 4b 4d 3e ed 5f b2 3e 20 3c e1 3e
       -0.30008528 0.2004818 0.3483881 0.43991184
000120 22 09 72 be 05 b2 6a 3d 3c 64 99 3d e7 b7 bb 3d
       -0.23636296 0.05729868 0.07489821 0.09165936
000130 57 55 c8 3e c9 5d 00 3e 91 f9 a8 3e de 84 17 3f
       0.3912761 0.12535776 0.33002904 0.59187114
000140 80 60 48 bd bf 87 a8 3e ff f6 fc 3e 51 33 1a 3e
       -0.048920155 0.32916066 0.49407193 0.15058638
000150 b1 1c a2 bd 63 2a c1 3e c6 d7 d0 bb 11 8d d8 3e
       -0.07915629 0.3772765 -0.0063733784 0.42295125
000160 83 e4 54 3e db a0 9f 3e 69 2c 37 3f d4 eb fc be
       0.20790295 0.3117741 0.7155214 -0.49398673
000170 d8 75 f3 3e 85 92 cd bd 55 44 a0 bc b7 42 03 3f
       0.47550845 -0.10037712 -0.019563833 0.51273674
000180 67 e3 ce 3e 09 f8 bb 3e 51 b0 c9 3d 70 20 b5 3e
       0.4040787 0.36712673 0.09848083 0.3537631
000190 3c c8 fa 3e e5 a2 14 3f e0 81 4c 3f d6 19 91 be
       0.48980892 0.5806106 0.79885674 -0.28340024
0001a0 de eb e2 3e 4c 5d 11 3f 93 e9 07 3f 4b 92 5f 3d
       0.44320577 0.56782985 0.5309078 0.054582875
0001b0 d4 72 6a 3e f2 73 e9 3e 98 f0 17 3d ee 7e 42 3d
       0.22895366 0.45596272 0.037094682 0.04748433
0001c0 12 bb 18 3f 02 89 e6 be fb 54 bc 3e a9 75 63 bd
       0.59660447 -0.45026404 0.36783585 -0.05553213
0001d0 e1 a5 94 3e 3d 89 2f 3e 69 d1 0f be 96 a4 c2 3e
       0.29032806 0.17142196 -0.14044727 0.38016194
0001e0 63 85 31 3f ea 92 9a 3d cb f2 32 3f 7c f6 82 3d
       0.69344157 0.07547553 0.6990172 0.063946694
0001f0 a2 ab 37 3d 11 9a 8d be b3 f1 23 3d 8d e8 96 bd
       0.044841416 -0.27656606 0.040025424 -0.07368574
000200 39 9d 0a 3d 99 26 fa 3d bb 3b 9c 3e bf 77 e2 bd
       0.033841345 0.12214393 0.3051432 -0.11057996
000210 14 5d 18 3e e4 10 52 3e 2f 7a f9 3d 4f b6 2e be
       0.14879256 0.20514256 0.12181508 -0.17061733
000220 d4 41 81 3e d4 bc af 3e 24 01 97 3d 06 81 eb be
       0.25245535 0.34323752 0.073732644 -0.45996875
000230 46 7d 24 3f ee 2a 05 3e 74 79 8e 3e 12 a1 a2 3d
       0.6425365 0.13004658 0.27827036 0.07940878
000240 15 5d df 3e f6 6b 08 3f 45 83 47 3e dd 63 ed 3e
       0.43625703 0.53289735 0.19483669 0.46365252
000250 14 17 2f 3f cd f5 cb 3e cb e4 ef bc 5d 77 80 3e
       0.6839459 0.3983597 -0.029283902 0.25091067
000260 22 10 56 be 26 a6 18 bf 22 1c 97 bc 51 ca d6 3e
       -0.20904592 -0.5962852 -0.018446032 0.4195123
000270 92 45 4d 3d 36 16 3b 3e 22 f1 a1 bd ec 63 cd 3e
       0.050115176 0.18270192 -0.079073206 0.40115297
000280 81 2d 69 bc 3b 91 16 3e 78 75 f2 3e 5d fd 56 be
       -0.01423204 0.14703839 0.47355247 -0.20995088
000290 51 3e 88 bc 78 1c 8b 3e 1f aa 27 3e f6 e4 08 3f
       -0.016631277 0.27170157 0.1637349 0.53474367
0002a0 00 1b f0 bd db 4e 27 3f 6e 90 f0 3e 34 c9 ba 3e
       -0.117239 0.653547 0.4698519 0.3648163
0002b0 31 25 9c 3e 7e 17 0f be 81 84 09 3e 1d b1 a3 bd
       0.30497125 -0.13973805 0.13429452 -0.07992766
0002c0 87 41 5e 3e aa 9c 56 be 73 5c 1c 3f b8 43 1f 3e
       0.21704684 -0.209582 0.61078566 0.15553176
0002d0 22 65 31 3e bc 41 54 bf 6b 66 14 be 80 df 0e 3f
       0.17323735 -0.829128 -0.14492194 0.55809784
0002e0 30 74 8d 3c 4d 2f e8 3e 2c c9 65 3e df 99 12 be
       0.017267317 0.45348588 0.22440022 -0.1431651
0002f0 31 df 95 3e 39 0e 25 3d 04 f3 10 3f 9b 32 2c bd
       0.29271844 0.040296767 0.5662081 -0.04204045
000300 bc 70 d2 be 55 47 af 3c fe e8 50 3f 9b c8 87 bd
       -0.41101635 0.021396318 0.8160552 -0.06630059
000310 e3 cc c4 3e 3c 9c 67 bd 87 a9 3a be 94 d9 7d be
       0.38437566 -0.05654548 -0.18228732 -0.2479003
000320 69 a1 c8 3e c3 16 32 3e 9c 57 ee 3e 30 5b 03 3f
       0.39185646 0.17391495 0.46551216 0.51311016
000330 60 8a 83 3e bf ba 2a 3e 1d d9 5c 3e fd b3 7a 3f
       0.2569151 0.166728 0.21567197 0.9793089
000340 47 d3 3a 3f f9 3f bb 3e 23 5c 37 3e 4e a6 c3 3d
       0.72978634 0.36572245 0.17906241 0.095532045
000350 9f 8f 01 3f 29 7d 34 3e 10 7f 92 bd 81 86 0f 3f
       0.50609773 0.1762587 -0.071531415 0.5606461
000360 41 e9 aa 3e 72 2d 32 3f 7c 3a 36 bd 41 c3 98 3c
       0.33381084 0.69600594 -0.04448937 0.018647792
000370 0e 99 69 3e 4a cf 62 be 8e db 13 3f a9 d6 05 3f
       0.22812292 -0.22149387 0.5775689 0.5228067
000380 31 8a 68 3e a4 37 92 3d 49 e3 b0 3d 10 fd 99 be
       0.22708966 0.07139519 0.08637101 -0.30075884
000390 6b 66 6d 3d af f3 41 3e 03 7d ed bb e6 7d 33 3f
       0.057959 0.18940614 -0.0072475686 0.7011398
0003a0 7e e4 39 3e c6 01 32 3f 4e 4b 4f 3f e9 27 9e bc
       0.18153569 0.69533956 0.8097428 -0.01930614
0003b0 94 f1 ef 3e 5e 94 d6 3e 46 86 e5 3e aa ce 5b 3e
       0.46863997 0.4191007 0.44829005 0.21465555
0003c0 3a f0 5d 3e c5 9d da be 73 d9 84 3e f7 99 83 3e
       0.2167367 -0.42698494 0.2594715 0.25703403
0003d0 05 bc 05 3f 28 12 9e bd 78 e9 2e 3f 3a ea b4 3e
       0.5224002 -0.07718307 0.68324995 0.3533495
0003e0 c7 b1 c0 3e bb b8 9b 3e 4c c0 d0 bd 21 ed 13 3f
       0.37635633 0.30414376 -0.10192928 0.57783705
0003f0 a2 49 28 bb bd 0c ef 3e 33 a2 10 bf 58 61 80 3e
       -0.0025678654 0.46689406 -0.56497496 0.25074267

fc2.bias f4 [128]
000000 61 5c bb be 8c 43 86 be 7b 48 a7 bd af 6a f0 bc
       -0.36593917 -0.2622341 -0.081681214 -0.029347746
000010 4f 3f 2d bf cc 76 db bd ab b0 de 3d e4 82 f2 bd
       -0.67674726 -0.10716018 0.108735405 -0.11841372
000020 be eb 3d bd 83 e6 55 3e 42 a5 97 be bf fa 7a 3a
       -0.0463674 0.20888714 -0.2961827 0.0009574107
000030 ef fe f9 be c9 8c ab bd e3 cb 40 be 93 e3 ca 3d
       -0.4882731 -0.08376462 -0.18827777 0.099066876
000040 25 63 52 be ff 59 67 bd 90 26 6b bd 2d 53 c2 be
       -0.20545633 -0.05648231 -0.057409823 -0.37954083
000050 9f 86 9c be a3 55 b1 be 8c 27 5c bd 66 80 f8 be
       -0.30571458 -0.34635648 -0.053748652 -0.4853546
000060 d1 c9 44 bd 53 b5 92 be 9a 0d ac be b7 58 34 3d
       -0.04804403 -0.28653964 -0.33604127 0.044029918
000070 a4 17 17 be 3a 60 be be 90 67 84 be d4 f1 84 bd
       -0.14755112 -0.3718279 -0.25860262 -0.064914376
000080 d0 ce ff bd 97 2e 08 bf b8 2f e0 3d 5f 8a bf be
       -0.12490618 -0.5319609 0.10946602 -0.37410256
000090 55 f9 42 be 73 69 1d bf fd 1a 9c be 59 2c ef bd
       -0.19040425 -0.6148903 -0.3048934 -0.116783805
0000a0 4f 68 37 be ee df 03 3d d6 cf b2 be 20 3f 08 be
       -0.17910884 0.032195978 -0.3492419 -0.1330533
0000b0 a9 9c 86 bc 14 01 86 be 7f 2a 3c bf bc 9e b2 be
       -0.016432123 -0.26172698 -0.73502344 -0.3488673
0000c0 e3 cd 18 bf 5a 74 36 bf e9 1d 4c 3b 18 23 87 bd
       -0.5968916 -0.7127129 0.0031145758 -0.065984905
0000d0 1d 84 fc be e4 9a af be 90 9a d2 be e3 be 8d be
       -0.49319544 -0.3429786 -0.41133547 -0.27684698
0000e0 29 85 b2 be de e1 c5 be 27 e9 ea bd 70 e8 28 be
       -0.34867218 -0.38648885 -0.114702515 -0.16494918
0000f0 8e 6e 68 be c4 b4 fc be 79 88 b7 be 09 db 46 3d
       -0.22698423 -0.49356663 -0.35846308 0.048548732
000100 42 d8 dd bd e4 5d be be b0 f7 e6 bd 36 b0 27 bf
       -0.108322635 -0.37181008 -0.112777114 -0.6550325
000110 4a 27 2b bf 9c 83 19 bc dc 85 38 3e 78 19 ab be
       -0.66856825 -0.009369757 0.18019813 -0.3341787
000120 b6 47 bc bd 52 fe 8f be 45 3f 76 be 8d 2a 40 be
       -0.09193365 -0.28123719 -0.24047573 -0.18766232
000130 c6 56 0f bf 75 ab 0b 3b 1f 88 36 be f8 d2 b9 bd
       -0.5599178 0.0021311913 -0.17825364 -0.09073442
000140 e6 d5 00 bf c3 3f 90 be af 1d 43 be ff b8 b8 be
       -0.50326383 -0.28173646 -0.19054292 -0.3607864
000150 c4 6e 0d be 56 76 93 be 0c f3 72 be e7 06 08 bf
       -0.13811785 -0.2880122 -0.23725528 -0.5313553
000160 bb e6 dd bd 90 76 6f bd 6f 3a d8 3d 87 80 08 be
       -0.10835024 -0.05846268 0.1055802 -0.1333028
000170 cc a2 4d bd 6c 5f 75 be 3c d9 15 be 92 e6 6a bd
       -0.050204083 -0.23962182 -0.1463365 -0.057348795
000180 19 ee ec bd 75 b3 b8 be 10 c2 bb be 69 7a c1 be
       -0.11568851 -0.36074415 -0.36671495 -0.37788704
000190 9f 74 ff bd c6 ec 8f bd 95 dd 8a bc e5 42 87 bd
       -0.124734156 -0.07027583 -0.016951362 -0.06604556
0001a0 6b f4 b3 bd 18 b9 e6 be da 74 a4 bd bb d2 d2 bd
       -0.087868534 -0.4506309 -0.080301 -0.102941
0001b0 2d 30 4f be 3d c4 35 bf 66 89 06 bf 32 15 d0 be
       -0.20233221 -0.7100256 -0.52553403 -0.4064117
0001c0 0f 1e d3 be 1b 6d 74 be 26 d2 b5 be 80 32 06 be
       -0.4123387 -0.23869745 -0.35511893 -0.13105202
0001d0 6f 41 ae be 64 09 c6 bc 99 71 dc be f9 71 ce be
       -0.34034297 -0.0241744 -0.43055418 -0.4032133
0001e0 fb f4 ab be 37 7c a4 be ae 67 dd be 72 42 83 bf
       -0.33585343 -0.32126018 -0.43243164 -1.0254653
0001f0 be da d9 be 65 24 83 bf 04 25 80 3d fb 12 00 bf
       -0.425497 -1.0245482 0.0625706 -0.5002896

fc3.weight f4 [2, 128]
000000 79 5b 22 be eb 32 d8 3d 42 da b6 bd 5f 56 01 bf
       -0.15855207 0.10556587 -0.08928348 -0.50522417
000010 1c 72 8f be d4 de a0 3c 2c 7e b9 3d 47 74 e5 3c
       -0.28016746 0.019637503 0.090572685 0.028009547
000020 da c8 68 be 19 23 3f 3f 68 3f d8 3c 82 c9 8b 3d
       -0.22732869 0.7466293 0.026397422 0.06825544
000030 b3 21 d6 bd bd 27 dc bc 0e de db bd 9c 1b 69 3d
       -0.10455646 -0.026874417 -0.10735713 0.056911096
000040 fe 04 94 3d 87 b4 42 bc ff 72 2d bd 5c 7a 1d bc
       0.07227515 -0.011883861 -0.042345997 -0.009611692
000050 cf 62 0c be 1b f1 12 be 86 70 47 bc 32 27 31 bf
       -0.13709567 -0.14349787 -0.012172824 -0.6920043
000060 02 8e 04 bd 91 15 d3 3c 4d 2c 3c be 9b d1 7f be
       -0.03236199 0.02576712 -0.18376274 -0.24982302
000070 1c 51 8e bc e7 ce 8e be cc 4f 34 be 7e 16 e1 3c
       -0.01737266 -0.2789223 -0.17608565 0.027476545
000080 1c 0f 47 bb 71 7a 7b be 7d 3c 3b bc fc a7 5e bd
       -0.0030373996 -0.24558426 -0.011427996 -0.05435942
000090 05 5a 73 be 2c 38 84 bd bb 38 a9 3a e9 05 e2 bd
       -0.23764808 -0.064560264 0.0012910584 -0.110362835
0000a0 55 01 bd be ea 3d a3 3d 2d da 8f bd 20 c9 98 ba
       -0.3691508 0.079707935 -0.070240356 -0.001165662
0000b0 a6 0b 5d bb 53 38 ae 3d d6 11 95 be 80 17 25 be
       -0.0033728867 0.08506837 -0.2911517 -0.16122246
0000c0 a6 f7 2f 3d 1c 77 f7 bd 18 9b 44 bd 1b bc c8 3c
       0.042960785 -0.12083265 -0.04799947 0.024503758
0000d0 23 0d d0 be 58 c1 7f be b4 33 62 bd 4e 39 80 3b
       -0.40635023 -0.24976099 -0.05522509 0.0039130813
0000e0 a7 2e 8a 3c 43 e2 86 3d 50 70 f5 bd a8 ac 00 be
       0.016867949 0.06586125 -0.119843125 -0.12565863
0000f0 0b bc ab 3c 1c dd 9d bd c6 95 e0 bd 40 e1 20 3f
       0.02096369 -0.07708189 -0.10966067 0.62843704
000100 d4 d8 11 bd 8f 76 c0 be f4 88 1f bc aa ff 63 be
       -0.035607174 -0.37590453 -0.009737242 -0.22265497
000110 05 ff 1d bf 92 8d 0d bb 93 49 b8 3e 6d 28 d4 be
       -0.61717254 -0.0021599275 0.35993633 -0.41437092
000120 56 4a 76 bc ab b6 83 bd df 79 1d 3e f4 be 31 bd
       -0.0150323715 -0.064313255 0.15378521 -0.043394998
000130 a0 3e 39 bd 5b 08 6d bb eb 74 67 be 6c 0d 9c bc
       -0.04522574 -0.003616831 -0.22603194 -0.019049369
000140 a8 6a 09 be 3a 0f 01 bd 05 9d 2e 3a 90 d6 e1 bc
       -0.13419592 -0.03150866 0.0006660971 -0.027568132
000150 3f 49 87 bc ed 07 04 3e 81 bb 03 bc 54 da f2 3d
       -0.016514419 0.12893648 -0.00804031 0.11858049
000160 16 4c 0e bd 7f 14 05 3d ed d0 ae 3e 9f b1 b2 bc
       -0.03474053 0.03249025 0.34143773 -0.021813212
000170 a3 e2 d6 3e e7 54 8f bd fb 01 81 3c e1 9e ca 3c
       0.41969785 -0.06998616 0.015748015 0.024733962
000180 6d ee 99 bc 74 d5 43 3d 2c 67 46 be bf 1a a0 3d
       -0.018790448 0.047810987 -0.19375294 0.078176014
000190 f9 d0 da 3c 3e d2 f6 bd 76 aa 75 3d 7e dc 88 bd
       0.026710974 -0.12051819 0.059977017 -0.066826805
0001a0 9a d0 1b bc 96 5e b4 be 8c a8 b0 bd 2d 58 af 3b
       -0.009510184 -0.35228413 -0.08625898 0.0053510875
0001b0 54 4e 40 be b5 ce 08 bf e8 92 c8 bc 03 b0 3d 3c
       -0.1877988 -0.5344041 -0.024484113 0.011577609
0001c0 94 4b e5 be 32 01 c6 3d c0 a2 c3 be 5a bb d1 3e
       -0.44784224 0.09668197 -0.38210106 0.4096325
0001d0 e6 d3 c1 bd 23 90 bd bc 79 94 8b be d4 0e 18 3d
       -0.094642445 -0.023140019 -0.27261713 0.037123516
0001e0 5d 4c 3a be 0c b3 dc be ef 63 36 3e e9 5d 78 3d
       -0.18193193 -0.43105352 0.17811559 0.060636435
0001f0 78 f3 a7 bc fc 1f 0f bf 4e a8 1f 3e cb 93 e8 bd
       -0.020501837 -0.5590818 0.15591547 -0.11356314
000200 3b 35 50 bf 56 e8 13 be e4 7d a5 bc ee fb 86 3e
       -0.81331223 -0.14444098 -0.02020163 0.26364082
000210 67 54 4a be 61 fd 01 3e 06 34 16 bf c0 65 ee be
       -0.1975876 0.12694313 -0.5867313 -0.46562004
000220 01 50 e9 ba 57 67 2d bf 7a e0 24 3e 29 68 eb 3e
       -0.0017800332 -0.6773581 0.16101256 0.45977905
000230 80 4f ee be 1a d8 99 3e c1 af b5 3c 4e df 46 bf
       -0.4654503 0.30047685 0.022178533 -0.77684486
000240 8b 1a a2 be 9c 0f 7b 3c 9c d4 17 3f 34 14 51 bb
       -0.31660876 0.015323546 0.5930879 -0.003190291
000250 b1 43 44 3d 2a 85 88 3d 58 08 1f bc a9 0e 48 bf
       0.047916118 0.06666024 -0.009706579 -0.7814737
000260 aa 1d 17 3d ec 04 7a bd fc 24 67 3d 9f d2 d9 3d
       0.036893524 -0.06103985 0.056431755 0.10635876
000270 6e d3 75 ba 03 27 9b be 73 37 07 bd 7e fc 0f 3d
       -0.0009377514 -0.303032 -0.033011865 0.035152905
000280 ec e6 cf 3c 8d 00 23 3c 66 15 3b 3f 94 8e eb 3c
       0.025378667 0.009948862 0.73079526 0.02875451
000290 38 f8 3d 3f 6d bf 92 bd be 7b de be 48 21 55 3f
       0.74206877 -0.07165418 -0.43453783 0.8325391
0002a0 f9 7e 81 be 5a b0 39 bc ac b4 37 be 9f 19 20 3d
       -0.25292185 -0.011333549 -0.17940015 0.039086934
0002b0 8e 59 96 3c 8a f6 00 3e 34 e6 3b 3e c8 6c 42 3e
       0.01835325 0.12594047 0.18349534 0.18986809
0002c0 2d 5b 26 3e 6e e4 b0 be 52 cb a8 3e 3d 04 47 bd
       0.16245718 -0.34549278 0.3296762 -0.048588026
0002d0 20 11 e9 bd 2d e7 4f be 28 51 cd 3e 0b af 2a 3f
       -0.113802195 -0.2030303 0.4010098 0.66673344
0002e0 97 11 0e 3e 67 6c be bd 05 be 06 3f c4 22 08 3f
       0.13873897 -0.0929802 0.52633697 0.5317805
0002f0 18 38 0e 3d 6e a5 e4 bc ec 09 18 3e 01 ad a6 be
       0.034721464 -0.027910914 0.14847535 -0.32553867
000300 51 90 dd be 5b 52 99 be 34 93 1e 3d 8e 3c 76 be
       -0.43274167 -0.29945645 0.038714603 -0.24046537
000310 96 56 f0 bd 60 1f 65 3c 42 1f d7 3e cd fc 74 bf
       -0.11735265 0.013984531 0.42016035 -0.95698243
000320 44 60 5b bc b3 4f c0 be d0 75 c2 be 66 80 28 bd
       -0.013389651 -0.37560806 -0.3798051 -0.041138075
000330 4c ae 7b be ed 80 eb 3e 80 a7 19 bf 65 4e a0 bc
       -0.24578208 0.459968 -0.6002121 -0.019568631
000340 fb 18 bc 3e 6a b7 7c bd 63 7f 22 3d 2a 0f 4d 3f
       0.3673781 -0.061698355 0.039672267 0.80101264
000350 0d 4f ac 3c c6 1b 42 be bd 3e 36 be 93 0a 15 3f
       0.021033788 -0.18955907 -0.1779737 0.5821926
000360 b7 48 88 3e 37 04 61 3e a8 d8 e4 bd 61 b6 2d 3c
       0.26617977 0.21974264 -0.111741364 0.010602565
000370 ac 07 a7 be 85 08 e3 bd c9 89 8b 3b 5b db 84 bc
       -0.3262304 -0.11085609 0.0042583686 -0.016217878
000380 91 27 03 bc 90 08 18 3e 4e 4a 63 3e 31 5a 72 3e
       -0.008005039 0.14847016 0.22196314 0.23667218
000390 cb 21 65 3c 70 d1 21 bd 36 8b 42 bd 18 0c b9 3b
       0.013985108 -0.039506376 -0.047496043 0.0056471936
0003a0 88 2a fa bc 23 45 ad 3e f0 a9 0e 3d 22 82 d2 3b
       -0.030537859 0.3384181 0.034830034 0.0064242044
0003b0 59 80 8c 3e a0 41 74 bf 67 0e 24 bf 6a 3b 19 3d
       0.27441671 -0.95412636 -0.64084476 0.037410177
0003c0 3c 28 22 be 13 17 8f be bb 58 b8 be 90 00 26 bf
       -0.1583566 -0.27947292 -0.36005196 -0.6484461
0003d0 9b 2b 03 bf 52 4d 3a bf 4e 04 14 bf 62 ed c4 3e
       -0.5123841 -0.7277423 -0.5781907 0.3846236
0003e0 a4 42 2b be e5 48 49 3f 5c f1 02 be 8f d5 90 be
       -0.1672464 0.78626853 -0.12787384 -0.28287932
0003f0 dd 56 5d bd 0f 61 1c be f2 8e 05 3f 98 5d a2 be
       -0.054037917 -0.152714 0.5217124 -0.3171203

fc3.bias f4 [2]
000000 f4 89 fd 3e 05 49 6c bf
       0.49519312 -0.9229892
