results/results_7/agent2_actor.pth (torch, 630059 bytes, 6 tensors)

fc1.weight f4 [512, 48]
000000 ea 7b 95 3c ac db 26 bd 0e 6b 86 bc e0 23 de 3c
       0.018247563 -0.04073684 -0.01640847 0.027116716
000010 bd 9e 5b bd de d6 1e be 62 ae ae bb 9e 65 89 bc
       -0.05361818 -0.15511653 -0.0053308466 -0.016772088
000020 e8 4c cc bc 8b 3b b8 bc 2d 4d cb 3b 8a 32 b8 3c
       -0.024939016 -0.02248933 0.0062042684 0.022485036
000030 28 1c 2c 3c e6 1a 02 be 63 dd 19 bc a2 d3 6e bd
       0.01050476 -0.12705573 -0.009391162 -0.058307298
000040 bf bd ac bb cc ab d3 3c af c8 0d bc fd 25 ce 3c
       -0.005271643 0.025838755 -0.008653804 0.025164599
000050 13 c3 bc 3b db dd e0 bd 7c 93 0b 3b c3 75 b8 bc
       0.0057605593 -0.109798156 0.0021297624 -0.02251709
000060 a9 43 d9 bc b1 4f 27 bc b0 45 1b bc 6c bb c8 bc
       -0.02652152 -0.010211871 -0.009477064 -0.024503432
000070 4d 57 0a 3d 1c c6 02 be 0c a3 9a bc 0a ea c4 bd
       0.033774663 -0.12770885 -0.018876575 -0.09614952
000080 db b1 e8 bb b2 db f1 3c 40 91 62 3c f3 c1 64 bd
       -0.00710128 0.029523704 0.013828576 -0.055849027
000090 20 ff 9f 3b ff 36 19 be 39 5f 56 bd 7e c6 e4 bd
       0.004882708 -0.14962386 -0.052336905 -0.11170672
0000a0 aa eb 48 3b ce a2 32 bd d5 f8 5e bc d3 08 8d 3c
       0.0030658045 -0.043612294 -0.013609131 0.017216122
0000b0 3a 23 ff bc e9 1d 99 bd fb a9 84 ba 02 ed 45 39
       -0.031144727 -0.07476408 -0.0010121459 0.00018875676
0000c0 5b 7d 00 bd 33 a7 21 3d 59 51 b7 3c f0 fb 95 bc
       -0.03136955 0.039466094 0.022377657 -0.01830861
0000d0 7c a7 44 bd cf 36 a4 bd 86 53 73 bc 4f 24 8f bc
       -0.048011288 -0.080182664 -0.0148514565 -0.017473368
0000e0 5b 71 f5 3c 15 50 f7 bc a1 df 05 bd bf 06 87 3d
       0.029961279 -0.030189553 -0.032683972 0.065930836
0000f0 23 dd 89 bd a2 b6 83 bd c9 07 ea bc f8 0a 6b 3d
       -0.067316316 -0.06431319 -0.028568165 0.057383507
000100 7c ae 37 3c 2b 31 42 3c 9d 69 28 3d 32 d9 e4 3d
       0.011211034 0.011852543 0.041116346 0.11174239
000110 08 d7 7a 3b b5 5d 04 3c 6d cd bb bb 8f 3a 69 3d
       0.0038275141 0.008078982 -0.005731276 0.05694061
000120 f0 a8 85 3c 57 c1 0e bd f5 0d be 3c 7a 23 9b bc
       0.016315907 -0.034852352 0.023200015 -0.018937815
000130 53 ac 46 3c e5 55 c5 bd f7 1e b5 3c da a3 62 bd
       0.012126046 -0.09635524 0.022109492 -0.055332042
000140 0a 4a a6 bc 94 35 ff 3b 1f 39 90 3d 9c ca d7 bb
       -0.020298976 0.0077883694 0.07042145 -0.006585432
000150 0f 7f 98 bb ba 8d 80 bd 36 44 84 3d b1 30 cc 3a
       -0.0046538184 -0.06277032 0.06458323 0.0015578476
000160 6d 2d 2e bd 9d 7a 46 bb c7 a2 05 3d 39 b9 7c bd
       -0.04252379 -0.0030285486 0.03262594 -0.06170008
000170 cb 08 6c 3d be b4 5e 3d 07 fe 06 bd 8a 48 d5 bd
       0.057625573 0.054371588 -0.032957103 -0.10414226
000180 5c ac 57 3d 97 b7 49 3d ce 9f 63 bc 49 37 b8 ba
       0.05265461 0.04924735 -0.013893081 -0.0014054562
000190 b9 c3 20 bc 51 87 30 bc 8e 74 b5 3c 2d de ea 3c
       -0.009812289 -0.010774449 0.022150304 0.028670395
0001a0 b2 ca 20 bc 4e ef 21 3c 5a 44 1e 3d 2d 0f 07 3d
       -0.009813951 0.009883715 0.038639404 0.032973457
0001b0 5c 16 13 bc d0 0c a5 3c a9 4c 6e 3c a8 9e d0 3c
       -0.008977499 0.020147711 0.014544644 0.025466278
0001c0 f2 57 83 bc a9 54 2d 3d 9d 54 2f bd d9 08 8b bc
       -0.016033147 0.042317066 -0.042805303 -0.016971992
0001d0 61 77 2b bb 4b a7 28 3e 61 b4 12 bc d5 0d 78 bc
       -0.0026163685 0.16470067 -0.0089541385 -0.015140017
0001e0 11 a4 16 bb b0 8f a0 bc 92 f9 61 3c f6 43 99 3b
       -0.0022985975 -0.019599766 0.013792412 0.004677291
0001f0 4d 1f a3 3b 27 ec 42 bd c9 d4 01 bb f6 52 0f bc
       0.0049780966 -0.047588494 -0.0019810668 -0.008747807
000200 a7 ac b5 3c 66 4e 02 bd 84 7a 13 bd 88 82 29 3d
       0.022177054 -0.031813048 -0.036005512 0.04138425
000210 4b d4 fb bc e0 27 e0 ba 93 73 87 bc 69 e6 6d bc
       -0.030740878 -0.0017101727 -0.016534602 -0.014520266
000220 ea 4a 30 bd 87 43 5a 3b 94 c3 56 bd df bd aa 3c
       -0.043040194 0.003330441 -0.05243261 0.02084249
000230 25 e9 81 3d 7e a2 f3 3d 33 88 e9 bc 3d 0a 08 3d
       0.06343297 0.11896227 -0.028507328 0.03321289
000240 7a 25 07 bd 56 13 d5 3c ca 22 ef bc cb f5 fa bb
       -0.032994725 0.026010197 -0.029191393 -0.0076586953
000250 23 d3 b0 3a 1b fd b6 bd c2 f0 b9 bc 9d 6c a9 bc
       0.0013490658 -0.08934995 -0.02269781 -0.020681674
000260 57 1d ed 3b ca 60 07 bc 79 df 39 3d 58 21 04 bd
       0.0072361636 -0.008262822 0.045379136 -0.03225836
000270 06 fb 0b bd 94 7b cc bc 2b 05 8b 3d c0 78 7b bd
       -0.03417494 -0.02496127 0.06788095 -0.061394453
000280 2b 21 38 bd a5 c1 72 ba eb 00 5c bc 69 36 f6 bc
       -0.044953506 -0.00092604227 -0.013427953 -0.030055242
000290 09 63 e7 bd 2f 03 19 3e c6 cb 4c 3d e9 62 84 bd
       -0.11298186 0.1494262 0.04999902 -0.06464178
0002a0 4b 17 cf 3b 1e 04 2a bd c4 8c 18 bc 25 98 78 bd
       0.0063199154 -0.041507833 -0.009310905 -0.06069197
0002b0 ae 4b 86 bd ac 50 86 bd 5e 01 04 3c f5 d1 70 39
       -0.065574035 -0.06558356 0.008056967 0.00022966399
0002c0 27 d0 f9 bc 1a 19 81 bd 69 e8 c5 bc ec 06 5d bd
       -0.030494763 -0.06303616 -0.024158673 -0.05396168
0002d0 14 2a f4 3c 88 44 42 3b 6b 6b 00 3d f3 5b 25 3a
       0.02980522 0.0029642899 0.03135244 0.0006307952
0002e0 57 52 8d bd 4b f1 47 3b ae 39 29 3d 68 16 21 bd
       -0.06900471 0.0030508812 0.041314773 -0.03932801
0002f0 5f 03 7f 3d a1 7b 33 3e d6 4b a5 bc 81 e8 4f 3c
       0.062259074 0.1752763 -0.020177763 0.012689711
000300 82 ae 06 3d 09 e2 16 bc da 64 88 3c b2 eb 3a bd
       0.032881267 -0.009209164 0.016649652 -0.045634933
000310 12 9a 8b 3d 68 1d 92 3d ac d5 59 3d 3b 7b b6 bd
       0.06816496 0.07134515 0.05318229 -0.08910223
000320 b1 e8 7e 3c f7 3c a8 3c fa a2 8e 3b f6 40 fb bb
       0.015558408 0.020536883 0.0043529244 -0.007667656
000330 29 9a 76 bb 95 5d 01 bc 10 3e ad 3b 22 35 16 bd
       -0.0037628508 -0.007895847 0.0052869394 -0.036671765
000340 a8 98 7d bc 03 d2 f8 bb e6 f5 0e 3c be e5 94 3d
       -0.015478291 -0.0075933947 0.008725619 0.07270382
000350 e3 a6 90 3a 78 39 10 3d 24 57 d8 3c 45 d7 2b 3d
       0.0011036064 0.035211056 0.02640874 0.041953344
000360 59 86 e6 bc 00 01 4b ba b1 da 02 3d a1 89 7c bb
       -0.028140234 -0.00077439845 0.03194684 -0.0038534182
000370 9e a2 bc bd c0 c0 96 3d 20 1f 21 3d 0c 2e 2a bc
       -0.09210704 0.07360983 0.039336324 -0.010386955
000380 1b 6a 85 bb 56 d7 61 3c 50 f3 a0 3b c1 4d be bc
       -0.0040714866 0.01378425 0.0049118176 -0.023230435
000390 83 f8 81 bd c8 8c d3 bc e4 05 f9 bc 2c fa 83 bb
       -0.06346228 -0.025823966 -0.030398317 -0.0040276255
0003a0 ae 75 23 bc bb 53 c9 3c b3 08 04 bd c9 1f f3 b9
       -0.0099767875 0.024576059 -0.03223486 -0.00046372254
0003b0 fb ed d3 3c 00 78 3e bd f6 12 bf bb bc b3 26 3d
       0.025870314 -0.04650116 -0.0058311177 0.04069875
0003c0 3e 9d 81 3b 18 c3 d1 3c 76 55 56 3d ef c3 dc bc
       0.0039555123 0.025605723 0.052327596 -0.026948897
0003d0 7f e9 af bd 80 a1 3f bd e8 b4 ae 3b 71 a2 8d 3c
       -0.08589458 -0.046784878 0.0053316243 0.017289372
0003e0 1d b1 11 bd 02 df 25 3d a8 09 cd 3c 7a ad 09 bd
       -0.0355693 0.04049588 0.025029019 -0.033612706
0003f0 46 97 b0 bd a0 68 69 bc ce e7 21 bd ab 78 ac bc
       -0.08622603 -0.014246136 -0.039527707 -0.021053633

fc1.bias f4 [512]
000000 95 a6 04 be 81 da 55 bd 63 2a 8f 3b 7a 50 0a bc
       -0.12954171 -0.052210335 0.0043690666 -0.008442039
000010 4e 40 f0 bd 18 e2 b5 bc 57 49 e1 3d 36 72 c8 bc
       -0.11731015 -0.022202536 0.110003166 -0.024468523
000020 2d 4b 04 3e 2c b4 1b 3e a7 a2 82 bd e8 21 02 bd
       0.12919302 0.15205449 -0.0637868 -0.031770617
000030 17 a2 f6 bb 4d e5 80 3d ee e6 ce 3d 6d 56 10 3e
       -0.007526647 0.06293736 0.1010264 0.14095469
000040 17 3b f9 3d 6a a0 0c bd 20 47 0d 3d fb 5d 72 bd
       0.121694736 -0.03433267 0.03449166 -0.059171658
000050 45 7f 48 3d 07 dc a0 3d 43 89 04 3e 62 3d 1f 3d
       0.0489495 0.07854467 0.12942986 0.0388769
000060 de 91 f1 3c eb af 10 3d 43 f4 9d bd 8a 97 ce 3d
       0.0294885 0.03532402 -0.07712605 0.100874975
000070 37 4b 56 bd d5 da 04 3e 5b 93 b5 3d 15 f0 0a bd
       -0.052317824 0.12974103 0.088659965 -0.033920366
000080 bd 22 aa 3c 11 fe 3d be 78 be e6 bd 54 e5 04 be
       0.020768518 -0.1855395 -0.11266798 -0.12978107
000090 84 df 4d 3d 16 37 ac bd 7a 6a 66 bd 15 29 14 bd
       0.05026199 -0.08408944 -0.056253888 -0.03617199
0000a0 14 b1 a9 3d 5e 37 0e bd 58 a2 b0 3c 24 54 09 3c
       0.08285728 -0.03472077 0.021561787 0.008381877
0000b0 3c ce 97 3d 04 f3 cf 3c 26 06 c6 3d 8b 48 b9 3d
       0.07412383 0.025384434 0.096691415 0.090470396
0000c0 f7 1b ac 3b 7d 9d cf 3d 61 97 8d 3d de bc 48 3d
       0.005252357 0.101374604 0.06913639 0.049008243
0000d0 06 59 fb bd 57 02 95 3d 05 32 6f bd 78 05 01 3d
       -0.12272839 0.07275837 -0.05839731 0.031499356
0000e0 ea 8f 21 3d 63 3b 0a be 84 c6 a5 3c f3 ba cd bd
       0.039443888 -0.13499217 0.020236261 -0.10045423
0000f0 56 ca cb bd 8e 18 20 3d 4f 91 67 bd a4 e6 62 bd
       -0.09950702 0.039085917 -0.05653506 -0.055395737
000100 28 6a 9a bd f4 26 05 3e 70 c4 8d 3d f0 3d f6 3d
       -0.07539779 0.1300314 0.06922233 0.120235324
000110 c7 d1 8b bd 9c 84 91 bd ab d3 81 bd 56 dc ad bd
       -0.06827121 -0.07105371 -0.063392006 -0.08489291
000120 61 e9 d6 bd 65 41 87 bd a7 48 f5 ba 34 bf 5d 3d
       -0.10493732 -0.0660427 -0.0018713669 0.054137424
000130 8e a2 52 bd f7 35 04 bd 8f 5d d0 bd a4 3c 9c 3d
       -0.051424555 -0.032278027 -0.10174095 0.07628754
000140 c9 8c 53 3d db 0e 18 3d c9 2f 92 3d 21 32 2e 3d
       0.051647935 0.037123542 0.071380205 0.042528275
000150 33 cf 87 3b fb 8d 1e 3e e5 93 2d be 56 ce cc bd
       0.004144573 0.15483849 -0.16950949 -0.10000293
000160 5a 92 c4 3d af 8b 03 3e 42 1c eb bd 7c 8a 81 3d
       0.09598227 0.12846254 -0.11479999 0.06325242
000170 03 ee c6 3d 05 ae 49 bd 8a 75 ff bc ff 6f d7 bc
       0.09713366 -0.049238224 -0.031183977 -0.026298521
000180 07 47 cd bd 3a 64 6f bd 70 6f d8 bd 11 a1 d0 bd
       -0.10023313 -0.058445193 -0.1056813 -0.10186971
000190 b0 77 a9 3d b2 24 01 3d 71 11 b8 3d c9 44 bf ba
       0.08274782 0.031529136 0.08987702 -0.0014592643
0001a0 c4 68 70 bd bd a0 ea bd 89 20 c5 bc db de 19 3e
       -0.058693662 -0.1145644 -0.024063366 0.15026419
0001b0 64 ca d0 3d 55 ce f0 bd 1c 68 e4 bd 6f 59 05 3d
       0.10194853 -0.11758105 -0.1115267 0.032555994
0001c0 5b 70 88 bd c9 a2 00 3e 72 d0 8a bd 63 c9 f8 3c
       -0.06662055 0.12562098 -0.06778039 0.030369466
0001d0 0d 68 2f bd 00 06 83 bd b4 1b 92 3d 94 f0 38 bc
       -0.04282384 -0.06397629 0.0713419 -0.011287827
0001e0 89 21 b7 bd 08 8c 95 bd ef 26 55 3d 3b 3a d4 bd
       -0.08941943 -0.073020995 0.052039083 -0.10362669
0001f0 e6 05 0e bd 64 64 82 3d 78 01 8f bd 36 e8 07 3e
       -0.034673594 0.06366804 -0.06982702 0.13272175
000200 79 bd b8 bd 53 b6 ed b9 24 9a ab bd c1 76 ef 3d
       -0.09020514 -0.00045340005 -0.08379009 0.116925724
000210 a9 f8 fb 3c f2 12 a9 3d 61 0d 75 3c 80 b9 16 3e
       0.030758219 0.08255567 0.014956803 0.147192
000220 54 cb db 3d 32 d3 da 39 7b bf 1c be 00 e0 0c 3e
       0.10732141 0.00041737553 -0.15307419 0.13757324
000230 78 b9 a5 bd 95 c7 ab bd 0b 05 c5 3d 9c 9a e6 3c
       -0.08092016 -0.083876766 0.096201025 0.028149895
000240 0e a6 99 bd df c0 9d ba 01 bc 8b 3d 3c 25 58 bd
       -0.075023755 -0.001203563 0.06822968 -0.052769884
000250 58 17 60 bd 2e 51 8a 3d 56 23 6d bd 62 cb e6 bd
       -0.054709762 0.06753765 -0.057895027 -0.11269261
000260 23 bf b6 3d fd b3 65 3d b4 14 c2 bd 33 3c 92 bc
       0.08923175 0.056079853 -0.09476605 -0.01785097
000270 53 19 f6 bd 7b cd a5 3d 4e fc 91 bd 2e 55 02 be
       -0.12016549 0.08095833 -0.071282014 -0.12727806
000280 9f cd 6f bd 5f 23 61 3d 96 08 35 3d 79 47 f7 bd
       -0.058545705 0.054965373 0.04419764 -0.12074179
000290 9f c8 95 bd 23 0f ed 3c f1 60 34 bd 32 21 98 3d
       -0.07313656 0.028937882 -0.044037763 0.074282065
0002a0 d2 df 66 bd 8b a1 cb bc 9d 84 ec bc f0 54 4e bd
       -0.056365795 -0.024857303 -0.028871829 -0.05037397
0002b0 d8 bf 52 3d 85 c5 e7 bd 98 46 17 3e 5d 40 74 3d
       0.051452488 -0.11316971 0.14773023 0.059631694
0002c0 cf 7b b9 3c 6e c2 a4 3d 90 50 56 3c 70 be 00 be
       0.022642044 0.08044897 0.013080731 -0.12572646
0002d0 c2 ff 91 bd b8 85 b3 3d 25 25 35 bd 3c e0 e0 bc
       -0.0712886 0.08765739 -0.044224877 -0.027450673
0002e0 a3 9c fa bd 98 28 d5 3c 90 6a 7a bd 81 02 b0 bd
       -0.12236907 0.026020333 -0.061136782 -0.085942276
0002f0 6e 72 80 bd 67 17 fb bd 66 41 b6 3c b6 0c 8b bc
       -0.06271826 -0.12260323 0.022247981 -0.016973834
000300 c8 77 b4 3d 86 40 6a bd af 3e bc 3d 74 05 7f bd
       0.08811909 -0.05719044 0.091916434 -0.06226106
000310 70 9b 0e be 54 77 fa 3d 32 ca 81 bd 2f f7 b8 bd
       -0.13926482 0.12229791 -0.06337394 -0.090315215
000320 62 24 db 3c 64 59 0c 3d ca 43 b2 3d 29 30 99 bc
       0.026750747 0.034264937 0.08704336 -0.018699722
000330 4a 75 a0 3d 26 0b 8a 3c 5f b8 a6 3d db 3d 15 3e
       0.07834871 0.01685102 0.08140635 0.14574377
000340 6d bc ac bb fa 0d c1 bc 5e 47 ae 3d 45 ad 83 bd
       -0.0052714855 -0.023566235 0.08509706 -0.06429533
000350 08 9a 83 bd 1a 69 da 3d ca 11 ce 3d 1f fa 25 3e
       -0.064258635 0.10664578 0.10061987 0.16208695
000360 4f 22 b0 bd 79 a5 c0 3d ce 80 04 bd ed 26 0f 3e
       -0.08600294 0.094065614 -0.0323494 0.13979693
000370 5e c4 b2 3c 04 72 33 bd 08 d8 ad 3d 1a b6 9d bd
       0.02182215 -0.043809906 0.0848847 -0.07700749
000380 d3 47 e3 3d 5b f4 b0 3d b8 06 0b be b0 15 84 3d
       0.11097684 0.08640357 -0.13576782 0.06449449
000390 89 62 fd bc 9f cc 3e bd 11 e8 5f bd 67 c3 db bd
       -0.030930774 -0.04658186 -0.054664675 -0.107306294
0003a0 d8 53 25 3d d8 42 92 3b 74 e0 11 bd 1a 38 d8 bc
       0.040363163 0.004463535 -0.035614446 -0.026393939
0003b0 81 1a ae bc 6d 58 77 3c c3 e5 36 bd 11 65 71 bd
       -0.021252872 0.015096766 -0.04465271 -0.058934275
0003c0 9c 57 0a be 35 8d c8 3d 94 ba 1b be 77 13 29 bd
       -0.13509983 0.09792558 -0.15207893 -0.04127833
0003d0 c9 1e 35 3c 25 20 0c be 26 cc 34 bd cb 74 a0 3d
       0.011054703 -0.13684137 -0.044140004 0.078347765
0003e0 f1 6e 93 bd a7 f8 1b 3e 97 80 8d bd af cc ad bc
       -0.07198895 0.15231572 -0.06909292 -0.021215765
0003f0 3c df 11 bd ae 3f 56 3d 51 4e cc bd 88 3e 94 bc
       -0.035613284 0.052306823 -0.09975875 -0.018096223

fc2.weight f4 [256, 512]
000000 a7 2b e8 bc 6a 6e 80 3d 1c 0e ac 3d f7 ec bc bc
       -0.028341128 0.0627106 0.08401129 -0.023062212
000010 3f 80 2d 3c 50 2e 6e 3d c8 23 36 3d 45 37 6f 3d
       0.010589658 0.058149636 0.044467717 0.05840232
000020 12 5c 53 3d 76 80 c3 3d d2 ee 28 3c fc 00 56 bd
       0.051601477 0.09545986 0.010310845 -0.052247033
000030 10 47 11 3e 43 5d 05 3d 56 5f b7 3c 86 33 3b bd
       0.14187264 0.032559644 0.022384327 -0.045703433
000040 4b 87 72 bd 68 69 82 bc b5 e6 17 be 6c 18 32 3d
       -0.059211057 -0.015919402 -0.14834101 0.04348032
000050 5b eb 9a 3d af 52 44 bd 3f f0 30 3d 20 7b 1d bd
       0.07564422 -0.047930416 0.043197867 -0.0384475
000060 3b d6 79 3d 7f 38 d9 bb fc ee 82 3d 38 70 a7 3d
       0.06099532 -0.0066290493 0.06393239 0.08175701
000070 45 d5 9c 3d 49 85 c6 ba 82 42 8c 3c 6a 2d c3 bc
       0.076578654 -0.0015145923 0.017121557 -0.023825366
000080 4f 5f 29 bd 13 ad db bd 27 18 95 3d b7 e1 1d 3b
       -0.04135066 -0.10726371 0.07279997 0.0024090835
000090 a2 68 0a ba b6 80 39 3d c9 86 04 3d 19 60 8d 3d
       -0.0005279874 0.045288764 0.032355104 0.06903095
0000a0 d5 5b c6 3d 21 fa 30 be 9c 53 0b bc db dc a5 3d
       0.09685484 -0.17282917 -0.008503821 0.080987655
0000b0 83 e7 4e 3d 05 d7 08 bd 37 c3 8b 3d 98 70 9f bd
       0.050513756 -0.033408184 0.06824344 -0.077851474
0000c0 40 90 8d 3d 37 4a d7 3c b1 e5 fa bc 16 d0 aa 3d
       0.06912279 0.026280506 -0.030627104 0.083404705
0000d0 59 07 32 3c 98 fc b9 3d 64 35 97 bc 67 c4 7b bd
       0.01086601 0.090813816 -0.018458076 -0.0614666
0000e0 86 f0 b4 3d c2 f9 31 3d 39 f5 5e 3d 5a 22 01 3d
       0.08834939 0.04345108 0.05443308 0.0315269
0000f0 2f d8 a0 bc 1b 86 50 3d f5 69 d3 bc 88 9e e1 bc
       -0.019634334 0.050909143 -0.02580736 -0.027541414
000100 45 e5 18 bd 0e 29 14 3c f1 f9 59 bd 1a 70 48 bd
       -0.037328023 0.009042991 -0.05321688 -0.048935033
000110 ab 22 8c bd 3a 5c 07 3d 92 2a 20 3d 05 28 80 bd
       -0.0684255 0.03304694 0.0391031 -0.06257633
000120 ea b1 05 bd fa 7a df 3b 0b 76 c0 bd 5c 7b 67 bc
       -0.032640375 0.00682008 -0.09397515 -0.014128532
000130 9a 99 97 bc 81 2c 08 bd ff dc 57 bd c5 5c e6 bd
       -0.01850586 -0.033245567 -0.052700993 -0.11248163
000140 a0 21 38 3d 43 91 03 be f9 19 99 3d 42 d8 b7 bd
       0.044953942 -0.12848382 0.07475657 -0.08976795
000150 12 60 6a 3d 1c 3e fa 3d 7c 7d c6 bd d7 ed 68 bd
       0.057220526 0.12218878 -0.09691903 -0.056867447
000160 3f f8 06 3d 5b 5f e0 bd fa 37 cb bd c4 29 7a bc
       0.03295159 -0.109556876 -0.09922786 -0.015268747
000170 16 33 18 bd a6 6b dd bd 7e a9 8f 3b 62 7f e2 bc
       -0.037158094 -0.10811548 0.0043842187 -0.027648631
000180 9a 17 c8 3c f9 17 43 bd 08 28 50 bd cd ea ba 3d
       0.024425317 -0.047630284 -0.050819427 0.09126816
000190 7b 5e a1 3c 04 3f 7a 3d c2 3a c8 bc 24 f3 ad 3c
       0.019698372 0.061095253 -0.02444208 0.021234103
0001a0 c2 90 63 bd ac fd 00 3d 2d 9a d5 bc 4e 45 c1 3d
       -0.055557974 0.03149192 -0.026074493 0.09437047
0001b0 63 18 d4 bd 53 ac 4c 3d 92 11 a7 3c f0 e2 b3 3c
       -0.10356214 0.04996903 0.02039412 0.021958798
0001c0 7d 4b 03 3e 5a ae 83 3c 9d d7 60 bc 14 c9 3e be
       0.12821765 0.016074348 -0.013723281 -0.18631393
0001d0 c9 8f a6 bd 42 86 76 3d e6 69 2d 3e bb a8 c8 3c
       -0.081328936 0.060186632 0.16934928 0.02449452
0001e0 c6 e0 78 3d cf 79 f2 bc ec 99 21 3c 94 f3 bb bb
       0.060761236 -0.029599098 0.009863358 -0.005735824
0001f0 a0 2b 2f 3d 39 90 85 3d a2 ae 0a 3d 9b 7b 5f bd
       0.042766213 0.06521649 0.03385795 -0.05456124
000200 18 bc ea ba cd 2d 1d bb 8b 75 ec bd d5 74 1d bc
       -0.001790884 -0.0023983598 -0.11545857 -0.009610374
000210 a1 0b 05 3d 49 8c ce 3d a9 25 89 3c a0 64 0a 3d
       0.032481793 0.10085351 0.01674159 0.03378737
000220 84 13 f3 3c 4d cc 27 3d 1a 03 38 be e4 19 f7 bc
       0.029672392 0.04096632 -0.17969933 -0.030163713
000230 cc 52 e2 bd d4 42 08 bc d1 7f db 3d d0 31 bc 3b
       -0.110509485 -0.008316714 0.107177384 0.005743243
000240 2e 6c ac ba 7b 5e b3 bd 82 8c 18 bd 66 8c 41 bd
       -0.0013154799 -0.08758255 -0.037243374 -0.047253035
000250 7c 46 20 3d f6 f7 0c bd 8d 01 87 bc 65 cb ba 3d
       0.03912972 -0.03441616 -0.016480232 0.09120826
000260 f8 db 7a 3d 6f 55 32 bd a5 c5 7a bb 0b a1 24 bd
       0.061244935 -0.043538507 -0.0038264778 -0.040192645
000270 07 cf 21 bb 9a 44 be 3d 44 f7 c9 3d 66 e0 5e 3d
       -0.0024690048 0.092904285 0.09861615 0.05441322
000280 ef ea bb 3b 11 92 9a bc 06 37 f6 bd 89 38 31 3c
       0.0057347934 -0.018868478 -0.12022214 0.010816702
000290 da 3b 16 bd 34 da 38 bd 34 20 a7 3c 41 71 42 3d
       -0.036678173 -0.04512997 0.020401098 0.04747129
0002a0 db 5e 66 3d 0a 9d 3c 3d ae 13 33 3c 51 af 9d 3c
       0.056242805 0.0460482 0.010929985 0.019248636
0002b0 2a 6a f3 bc 2b 0c d1 bd ff cf 9e bd 26 d8 a1 3c
       -0.029713709 -0.10207399 -0.07754516 0.019756388
0002c0 e5 f0 32 3d 03 01 a3 bd 8c bd c8 bb 98 ba 00 3c
       0.043686766 -0.07959177 -0.0061261114 0.007856987
0002d0 89 2f c9 ba 92 07 65 bd 53 66 9f 3c 4c 98 32 3d
       -0.001534925 -0.055915423 0.019457972 0.043602273
0002e0 47 12 83 bd 4b 6a 22 be 36 69 a4 bc f6 e5 2e bd
       -0.063999705 -0.1586086 -0.0200697 -0.042699777
0002f0 14 cb cf 3c a9 25 3e 3d 7b 68 c0 3d 50 55 cc 3c
       0.02536539 0.046422634 0.09394928 0.024943024
000300 6c 26 7a bd 1e 7f 8e bc 59 ed 12 3d 6e 31 00 3c
       -0.0610718 -0.017394599 0.035870884 0.007824285
000310 6d c4 06 be 92 c5 7d 3d 6c 80 18 be 96 a0 b7 bc
       -0.13160868 0.061955996 -0.14892739 -0.02241544
000320 85 81 9e bb f5 c7 0a 3d cf 57 b7 3b 31 08 a6 3b
       -0.0048372173 0.0338821 0.0055951844 0.0050668945
000330 09 69 39 bd 15 9b 49 3d 95 0d 29 bd 3e d9 76 bd
       -0.045266185 0.049220163 -0.04127272 -0.060265772
000340 c5 4c 21 bc 8b 57 02 bd 59 cd 0a 3c 51 8d c6 bc
       -0.009844963 -0.03182177 0.00847181 -0.024237307
000350 2c c8 24 bc 3a 73 76 bd ea ed 88 bd fb 2c 6f 3d
       -0.01005749 -0.060168482 -0.066860035 0.058392506
000360 1f 17 d0 3b c8 f9 68 3d c6 49 77 3d ce 8e af 3c
       0.0063504125 0.056878835 0.06037309 0.0214304
000370 2f ff ad bd 5d 67 e5 bc 7d 98 18 bd 89 75 77 3c
       -0.08495938 -0.028003389 -0.0372548 0.015103706
000380 b7 74 b1 bd f4 86 63 3d c3 34 90 bd de d7 9a 3d
       -0.0866484 0.055548623 -0.070413135 0.07560705
000390 e6 9e f6 bc 09 9d a5 bc 79 e6 e6 3c 2f 57 1b bc
       -0.030105066 -0.020216482 0.02818607 -0.009481235
0003a0 58 cd ad 3d 5b 71 51 3d c6 41 a3 bc c9 ab a2 3d
       0.08486432 0.051133495 -0.019928824 0.07942922
0003b0 6e 3e 8a bd cb f6 50 be 17 c8 dc bd d0 53 0a bc
       -0.06750189 -0.20406644 -0.107803516 -0.008442834
0003c0 48 69 06 bd ed fd 08 3c 33 be 10 3d 0e 04 43 be
       -0.032815248 0.008361322 0.035337638 -0.19044515
0003d0 07 b8 4b 3c 9e 90 96 bd 9e 18 7e 3d b2 c5 20 bb
       0.012434012 -0.07351802 0.062035196 -0.0024531898
0003e0 cb 2a 95 3c 3d 52 b0 3d 8b 0c d7 3c 88 1b ce 3b
       0.018208882 0.08609436 0.026251098 0.006289903
0003f0 10 11 b0 3d 20 47 ea bc 21 c0 a1 bc 6b 91 88 3c
       0.085970044 -0.028598368 -0.019744935 0.016670903

fc2.bias f4 [256]
000000 69 d4 89 3d 5f cf 47 bd 33 c6 10 3d 6e c7 1a bc
       0.06729967 -0.04878175 0.035345268 -0.009446962
000010 31 a9 54 bc a7 9b b0 3c 2d 01 e0 3c 30 c3 19 3d
       -0.0129797915 0.021558596 0.02734431 0.03753966
000020 bf e2 ec bc 34 55 51 bd 16 6f 6a 3c bf 46 2b 3d
       -0.028916715 -0.051106647 0.0143087115 0.041815516
000030 89 98 64 3d 71 13 c5 bc 70 3e 54 bc dd 82 b3 3c
       0.05580953 -0.024057122 -0.012954339 0.021912986
000040 25 f5 f8 bc 66 91 c4 3c 57 36 48 bd e5 ab c3 bc
       -0.030390332 0.023995113 -0.048879948 -0.023885677
000050 78 99 58 3d e6 11 6e bb d0 6a 2e 3b 13 24 0c bd
       0.052880734 -0.0036326586 0.0026613958 -0.03421409
000060 03 c7 51 3d c5 ba 13 bd 5b 97 cd bb 90 bb a0 bb
       0.051215183 -0.03606679 -0.0062741465 -0.0049051717
000070 4a 78 6c 3c b9 d9 67 3c da 4d 51 3d 00 63 e3 bc
       0.014432976 0.01415103 0.051099636 -0.027757168
000080 26 9a e3 3c 55 fe 02 3b 83 71 0d 3c 17 7f 12 bc
       0.027783465 0.001998802 0.00863302 -0.008941433
000090 1c e7 25 3c 14 dc f0 3b 71 5e 30 3c 70 68 d6 3c
       0.010125902 0.007350454 0.010764704 0.026172847
0000a0 a1 ad 07 3d c9 92 2e bd bc 72 81 3d a5 a5 87 bc
       0.03312457 -0.042620454 0.06320712 -0.016558478
0000b0 95 c9 95 3c 14 45 9f bc 86 a5 b5 bc 8d c1 47 3d
       0.018284598 -0.019442119 -0.022173654 0.04876857
0000c0 00 b6 30 3d b5 23 8e bc e9 4d 1f 3d 08 48 84 3d
       0.04314232 -0.01735101 0.03889266 0.06459051
0000d0 61 9a 7a 3c f8 f6 70 3d 80 30 81 3c 41 3c 6e 3d
       0.015295596 0.058829278 0.015770197 0.05816293
0000e0 f2 1f b2 bc b6 cb 14 3d c5 c8 f8 ba 22 a4 6a bc
       -0.021743748 0.036327086 -0.0018980732 -0.014321359
0000f0 18 a7 af 3c dc ae 0d 3c 1e 6a 22 3b bb eb 8d bc
       0.021441981 0.008647647 0.002478249 -0.01732432
000100 6a 14 b6 bc a7 dd c1 ba fb 56 4f 3d bd 2c 76 3c
       -0.022226531 -0.0014790789 0.05062006 0.015025315
000110 c0 11 90 3c 17 ca 0d 3d 2b 8d 80 3d 94 77 f5 3c
       0.017586589 0.034616556 0.06276926 0.029964246
000120 d9 b7 a3 3c 11 98 16 bd 9f 7e 14 3d 95 07 64 3c
       0.019985126 -0.036766116 0.036253568 0.013917823
000130 d9 8a 8c bd 13 c0 94 bc 1d dd dd ba aa 67 d0 3b
       -0.068624206 -0.018157994 -0.0016926859 0.006360014
000140 07 38 00 3d e9 a8 8e bc c3 e6 b2 3d 93 11 a8 3c
       0.03130343 -0.017414527 0.087354206 0.020516193
000150 55 5c 00 3d 1a 68 9f bc f7 18 f1 3b 98 a4 15 bc
       0.031338055 -0.01945882 0.0073577124 -0.0091334805
000160 32 95 c9 38 be 57 09 3d 0c d8 04 3b 83 47 d8 3c
       9.612217e-05 0.033530943 0.0020270376 0.026401287
000170 35 ea 72 bd 08 57 c1 bc be cc f8 bb b2 0e 9d bc
       -0.05930539 -0.02360107 -0.0075927665 -0.019172046
000180 40 00 a9 3b 5c 15 a8 3c 92 1f 28 3d 47 fa 0e 3a
       0.0051575005 0.020517997 0.041045733 0.00054541643
000190 2d 3f 8b bb 95 6a cc bc 1d 57 18 3d d6 93 e6 bb
       -0.0042494745 -0.024953166 0.037192453 -0.0070366664
0001a0 f7 1c 52 3d d7 56 81 bb 29 8f 1a 3d 70 33 5d 3d
       0.051297154 -0.0039471197 0.037734184 0.054004133
0001b0 b0 ed a5 bc 71 2f 30 3d 62 ed 73 3c 51 31 7a bc
       -0.02025494 0.043013994 0.014888139 -0.015270547
0001c0 45 a8 21 3d 95 de 10 bd 06 e0 84 3a ab 44 86 38
       0.039467115 -0.03536852 0.0010137565 6.402408e-05
0001d0 5c d7 36 3d 22 c3 a0 bc a0 77 7d ba bc d0 8f 3c
       0.044638976 -0.019624297 -0.00096690096 0.017555587
0001e0 68 c7 1b 3d dc c5 62 bb 4a 99 95 3c 05 6f 6f 3d
       0.038031965 -0.0034602797 0.01826157 0.058455486
0001f0 1f 70 f5 3c 0f 43 18 bc ce 33 37 3d 7c 21 be b7
       0.02996069 -0.009293332 0.04472714 -2.2665357e-05
000200 21 a0 0c 3d ef ca 83 bc e2 af b5 bb fb dc 3c 3c
       0.0343324 -0.016087977 -0.0055446485 0.011527295
000210 78 24 e5 3c fd ab d1 3a 1b bf 71 bc d3 12 96 3b
       0.027971491 0.0015996691 -0.014755036 0.0045798807
000220 01 bc 23 3d 52 d1 c8 bc ba ef 00 3c ae 51 d5 3c
       0.039974216 -0.024513874 0.007869655 0.026039924
000230 83 06 89 bc 42 fb 60 3d 01 2b af 3c e8 61 a7 bc
       -0.016726738 0.054927118 0.02138281 -0.020432428
000240 98 f9 12 3c 6c af d7 3c f7 cd 84 3c 2d f3 7f ba
       0.008970641 0.026328765 0.016211493 -0.0009763714
000250 eb ac 49 bc 14 58 27 3d ba 67 c4 3c 20 c5 47 bc
       -0.012309293 0.040855482 0.023975242 -0.012192994
000260 64 fb 03 3d 07 c0 c6 bc 9a f1 dc 3c ae cb 5b bb
       0.032222167 -0.024261488 0.026970673 -0.003353815
000270 bb c1 48 3d f8 41 1f 3d 77 2d b8 3c a6 54 f2 3c
       0.04901288 0.038881272 0.022482617 0.02958138
000280 d1 a3 06 3d 76 d1 d7 3c 9a 93 b0 ba 17 f2 d4 3c
       0.03287107 0.026344996 -0.0013471723 0.025994344
000290 67 e9 4d 3d 4f 4a 5e bc 90 7d 82 3d a1 92 60 bd
       0.050271418 -0.013567521 0.063716054 -0.054827336
0002a0 0e b5 05 3d e8 f3 f5 bc 22 0b 2f bb 27 34 22 3c
       0.03264337 -0.03002353 -0.0026709517 0.009900129
0002b0 b5 eb ec 3c b2 eb 4b bd 09 1e 4b 3d be 8d c6 3c
       0.028920988 -0.049785323 0.04958919 0.02423751
0002c0 72 5b 80 3d c5 b0 47 3d c9 af 6c 3d 48 66 aa b8
       0.06267442 0.048752565 0.05778483 -8.125283e-05
0002d0 4c 16 ce bc c8 14 2a bb 2d 14 97 ba 7b 1e aa 3c
       -0.025157116 -0.0025952328 -0.0011526399 0.020766487
0002e0 ef b2 40 3d ca 0e 32 3d d2 55 05 3d 94 ad 93 39
       0.047045644 0.043471135 0.032552548 0.0002816735
0002f0 9c 69 2b 3c 4c dc 14 bc b7 b0 68 bb 1b c0 c0 3c
       0.010462191 -0.009085726 -0.003550572 0.023529103
000300 12 b1 0e bb b1 53 2a 3c 78 a9 25 3c e0 83 d7 3b
       -0.0021773023 0.01039593 0.010111205 0.006577
000310 a0 14 41 3d ea 56 b7 bc 1c 44 fc 3c 4d 8b 8a bc
       0.04713881 -0.022380311 0.030794196 -0.016912127
000320 3f bd c5 bc e4 16 56 3b b9 6a 75 3d 23 25 22 3d
       -0.024138091 0.0032667452 0.05991623 0.039586198
000330 f3 c0 2a 3d fc c0 c0 3b a3 b2 53 3d 82 cf 21 bc
       0.041687917 0.0058823805 0.051684033 -0.009876134
000340 5b 51 4b 3d c3 d6 9a 3d 5d 10 cf bb fa cd 86 bc
       0.049638133 0.07560494 -0.0063190893 -0.01645564
000350 34 a3 d1 bc 53 e4 12 bd 8e a3 5f 3d 91 e0 0a 3d
       -0.025590517 -0.03586228 0.054599337 0.03390557
000360 dd 80 0d bd e4 b9 19 3b 69 41 8a 3d a4 e9 e5 bc
       -0.03454672 0.0023456747 0.06750757 -0.02806551
000370 2d 39 6d 3d b2 04 0f bd 89 3e 3a 3d 82 ab b3 bb
       0.057915855 -0.034916587 0.045469794 -0.005483092
000380 3e 82 bc 3a 41 1b 1a 3d ca 3c 55 3d 97 e4 b5 bb
       0.0014382077 0.037623648 0.052059926 -0.0055509317
000390 23 20 4a 3c ce a3 dc 3c 34 83 34 3d df af 0b bd
       0.012336764 0.026933577 0.044070438 -0.03410327
0003a0 44 40 a9 3c bb 2c 6e bd 40 65 17 bd b4 f3 33 bd
       0.020660527 -0.058148127 -0.036961794 -0.043933585
0003b0 84 75 5c 3d bb a6 16 3d 53 a7 29 bd 45 5d 08 3d
       0.05382301 0.0367801 -0.04141934 0.033292074
0003c0 c2 8f 27 3d de 0b 52 3d dc a9 c8 3c 90 4b 51 bb
       0.040908583 0.05128085 0.024495058 -0.0031935908
0003d0 4f ab 2b bd 45 6b 15 3d 8e 59 2b 3d c3 13 9d ba
       -0.04191142 0.036479253 0.041833453 -0.0011984039
0003e0 51 70 6f 3d 7c fa a7 3c 55 98 2d bd f9 a3 ea bc
       0.058456723 0.020505182 -0.042381603 -0.028642641
0003f0 ec e0 0b 3d e5 59 99 bc ad 8f 21 3d a3 da 19 3d
       0.03415005 -0.018719623 0.03944366 0.037562024

fc3.weight f4 [2, 256]
000000 5d 90 47 be 86 c2 f3 3c c9 e8 4b be 29 e2 c7 3c
       -0.19488664 0.029755842 -0.19913019 0.024399834
000010 99 12 3f 3d d1 02 64 bd 40 1e e5 bc b3 b3 02 bd
       0.046648595 -0.05566675 -0.027968526 -0.031909656
000020 5f 70 7f be 3d ff 22 3a bc 6e 50 bd 98 3f 7c bd
       -0.2494521 0.0006217843 -0.050886855 -0.061584085
000030 69 36 a0 bc 30 45 5e 3e ec f5 d2 bc 71 de 8a be
       -0.019557195 0.2170608 -0.02575203 -0.27122834
000040 db fb a9 3c 7f f8 1a 3c 74 38 6a 3e 5f 58 3d 3c
       0.020749977 0.00945866 0.22873098 0.011556714
000050 b7 7f 53 3c 8c 30 4a bc e3 87 d3 3a 3b f3 66 3c
       0.012908868 -0.012340676 0.001613852 0.014096077
000060 6f 02 c2 be 53 d1 16 bd 94 a4 88 be 38 1a 13 bc
       -0.37892482 -0.03682072 -0.26688063 -0.008978419
000070 ad a6 18 bd dd e2 03 bd 05 03 53 be d1 ba c2 be
       -0.03726833 -0.032198776 -0.2060662 -0.38033155
000080 7d 70 1d 3c 7b 15 30 be 89 50 f4 bc 00 9a aa 3d
       0.009609339 -0.17195694 -0.029823558 0.083301544
000090 27 c9 55 bd f1 13 e1 bc 2c 11 de be 8a d7 cd be
       -0.052193787 -0.02747533 -0.43372476 -0.40203506
0000a0 06 12 1e bd 45 f1 ad 3d 63 bc 55 bc a7 45 ec bc
       -0.038591407 0.08493284 -0.013045403 -0.028841807
0000b0 49 ab c6 3c 41 d6 59 bd 39 7e 52 be ae 23 a9 be
       0.024251597 -0.053182844 -0.20555963 -0.33035034
0000c0 27 53 87 3c 5b 29 d4 bd 7a 81 5c 3b ef d6 3a be
       0.016519142 -0.103594504 0.003364651 -0.18246053
0000d0 4a ad 27 3c 07 78 cb bc d8 77 c8 3d 65 9f 2c be
       0.010234186 -0.024837507 0.097884834 -0.16857679
0000e0 99 48 6c bd b0 e4 39 be 26 c1 99 3c cb 44 08 be
       -0.057686422 -0.18153644 0.018768858 -0.13307492
0000f0 9c d2 2b bc 02 a4 53 3e 20 18 85 3d 57 bf 80 3e
       -0.010487225 0.20668033 0.06498742 0.2514598
000100 31 29 fa bd 72 8c dd 3d 83 41 5a bd da fe 74 be
       -0.12214888 0.108178034 -0.053285133 -0.23925343
000110 7f 08 1b be be 87 43 3c 57 e4 89 bb 77 33 19 bb
       -0.1513996 0.011934219 -0.0042081284 -0.0023376623
000120 d7 de 7f bc dd 12 2e 3e 50 84 d7 bd 68 ce 9c 3d
       -0.015617094 0.16999383 -0.105232835 0.07656556
000130 0a da 9c 3d 79 a1 40 3c 3c 1a 1e be a2 60 1c be
       0.07658775 0.011757248 -0.15439695 -0.15271237
000140 5e 8b 07 bc 9b c5 00 3d 6a 9f 46 bd b1 83 b9 bd
       -0.008272974 0.03143845 -0.048491873 -0.09058321
000150 32 14 f2 be e4 fd 17 bd 65 d2 2e be 68 6c a4 3c
       -0.47281033 -0.037107363 -0.17072447 0.020071223
000160 15 1e 88 3c 99 23 e9 bd 61 62 37 be 70 90 17 be
       0.016615907 -0.11383743 -0.17908622 -0.14801192
000170 56 66 86 3d 05 9d b4 3c 5c e9 7a 3d fe 00 9c bd
       0.06562488 0.022047529 0.061257705 -0.07617377
000180 fa 5c 68 b8 a5 ed 20 3b ca d9 8f bc d7 91 0e be
       -5.53997e-05 0.002455571 -0.017559905 -0.13922821
000190 e4 d3 8a 3d 01 4f 8e 3c 54 b7 00 be 57 a2 b2 3b
       0.06778696 0.017371656 -0.12569934 0.0054514813
0001a0 31 13 a7 bc c4 aa a4 bd 60 f0 32 be c3 89 0a be
       -0.020394893 -0.080403835 -0.17474508 -0.13529114
0001b0 3a 02 2d bc ce f4 88 be 3f b6 85 3c 3f 4d 60 be
       -0.010559613 -0.2674927 0.016322253 -0.21904467
0001c0 50 e2 b9 bc fd 2d b7 3c e6 2a 9e bc 23 c3 16 be
       -0.022690922 0.022360796 -0.019307565 -0.14722876
0001d0 73 5f 89 3c 87 83 9a 3a 93 fe b3 3d bf 7d a2 bc
       0.016769147 0.0011788466 0.087887906 -0.019835351
0001e0 46 c0 80 bc 8d 75 0c bc 8f 2e ee bc 6f bd 7e be
       -0.015716683 -0.008572948 -0.029074935 -0.2487695
0001f0 49 97 b1 bc ff 77 bc 3c 80 99 31 bd 9f 3e 24 be
       -0.021678584 0.023006437 -0.04335928 -0.16039513
000200 ec 80 92 3d d0 87 39 be ea 5c cf 3b 53 cf b1 3c
       0.07153496 -0.18118215 0.006328215 0.021705305
000210 06 c8 74 bb 7c 56 76 be 41 23 b9 bc 9c f6 03 bd
       -0.0037350669 -0.24056429 -0.022599818 -0.032217607
000220 30 a3 0b bb 6b 2d 00 3e af 67 40 be 51 86 42 bd
       -0.0021306984 0.12517326 -0.18789552 -0.047491375
000230 e9 6c 3b bc fe 60 f4 bd d5 14 5e 3c 00 bc 8d be
       -0.01143954 -0.11932562 0.013554771 -0.27682495
000240 bf 0f 68 bd 35 e1 a0 bd 30 6d d9 3e 79 bc ed bb
       -0.05665564 -0.07855455 0.42466116 -0.0072551337
000250 5a d9 ca be fa 31 73 3c 83 c7 a7 be 34 66 f7 be
       -0.3961895 0.014843458 -0.32769403 -0.48320162
000260 c1 9f 88 3d ea 6c 44 bd 85 f4 0e 39 07 4b fe bb
       0.06671096 -0.04795543 0.00013633266 -0.007760409
000270 c1 84 d4 bd 3d 1b 24 ba 68 46 38 be a9 1d d3 bb
       -0.10376883 -0.00062601623 -0.17995608 -0.0064427448
000280 07 9b 93 bd 5d c5 ff be 7c b9 d6 bc 70 d2 63 bd
       -0.072073035 -0.49955264 -0.026211493 -0.05562061
000290 29 1a e7 bd 7f f9 69 3b fb c1 51 bd b3 94 42 3d
       -0.112842865 0.003570169 -0.051210385 0.047505092
0002a0 46 31 09 bd 73 5b f3 3d 1a 93 40 3e 87 38 e4 bc
       -0.033494256 0.11882677 0.18806115 -0.027858986
0002b0 14 cd 88 3d 81 e4 df 3d 6e bc dc bb ff f3 dc be
       0.066797405 0.109322555 -0.0067363298 -0.43154904
0002c0 b2 4e 0c be 2f a9 83 3d 69 23 13 be 97 48 f6 3d
       -0.13701895 0.064287536 -0.14368977 0.12025564
0002d0 41 95 05 3d 25 00 80 bc 00 3d c9 bd f0 36 f9 bb
       0.032613043 -0.015625069 -0.09826088 -0.007605426
0002e0 8b 16 43 bd 8f 32 ae bc 03 9b a4 be ad ef 7b 3c
       -0.04762892 -0.021264343 -0.32149515 0.015376967
0002f0 88 fd 6e bc 03 ca 86 bc b4 90 1f be 07 6c c0 bd
       -0.014586814 -0.016453749 -0.15582544 -0.093956046
000300 d7 a6 88 3c 5a bf a3 3c 65 9f d3 3c c0 f6 2d be
       0.016681118 0.019988704 0.025832841 -0.16988659
000310 11 e8 b0 bd e4 03 86 3c 33 fb c1 bc 96 48 0a 3c
       -0.08638013 0.016359277 -0.023679351 0.008440157
000320 0e 60 e9 3d c2 7f 76 be c2 5b f3 bc ce 6b a0 bc
       0.11395274 -0.24072173 -0.02970684 -0.019582655
000330 cf ee 01 3c 89 aa 7c be c7 0e b0 bc 13 59 a8 bd
       0.007930472 -0.24674429 -0.021491421 -0.082201146
000340 fb 2d 85 3c a6 08 5d bc 00 de dd 3c 97 dc 96 3b
       0.016257277 -0.0134908315 0.027083397 0.004603933
000350 f4 0d c6 bc 33 76 7d 3c 46 90 6a be 64 a2 5e bd
       -0.024176575 0.015470075 -0.22906598 -0.054354087
000360 f0 3d b4 bd c8 c7 40 3c b8 cd 62 be a8 e0 37 3d
       -0.08800876 0.011766382 -0.22148788 0.044891983
000370 b7 33 99 bb d7 e4 b5 3d 12 81 27 be cd 78 72 be
       -0.0046753543 0.08881538 -0.1635783 -0.23678894
000380 d7 df 9a 3c b6 08 ff bd 06 6d 43 be 7c da 5e bd
       0.018905563 -0.12452833 -0.19084558 -0.05440758
000390 09 1f 2a bd 3e af fb bd 0f 7c e7 bd 7a 1b 34 3e
       -0.041533504 -0.12289284 -0.11302959 0.17588606
0003a0 bf 87 b0 bb 33 81 f5 3c 83 ab f9 be 4b 6d fe bd
       -0.005387276 0.029968834 -0.48763666 -0.1242319
0003b0 22 da 32 bd 9d 6d 0a 3c 28 9e 9e be 88 93 af bd
       -0.04366506 0.008448985 -0.3098004 -0.08573061
0003c0 b7 ad 8a bc 50 a9 30 bd 09 45 c2 bc f1 35 8c bc
       -0.016928537 -0.04313022 -0.02371456 -0.017115565
0003d0 e0 09 fd 3e 95 f1 9a bc aa bf 03 bd 3f e7 a3 bd
       0.49421597 -0.018914023 -0.032165207 -0.08003091
0003e0 29 58 d8 bb 3d 4a 1f 3c 4f bb 05 3c b9 fb ce bc
       -0.0066023064 0.00972229 0.008162334 -0.025266515
0003f0 87 39 1b be d6 07 47 3c 7d b2 1f be dd 27 a6 3d
       -0.15158664 0.012147864 -0.15595432 0.08113072

fc3.bias f4 [2]
000000 70 bf d2 bc 8b 4b 54 bd
       -0.02572605 -0.051829856
