results/results_7/agent1_critic.pth (torch, 631083 bytes, 5 tensors)

fcs1.weight f4 [512, 48]
00000000: 387c 713c 8558 ecbc de1f 8b3c 6f71 a53d
00000010: cd18 c8bd 85e8 c53d 49a4 4ebd a110 d03c
00000020: 4ef8 743d f2f7 393d 3cb8 463b b297 183e
00000030: 558f 863d 8076 4d3d e833 e8bc 9aaa 0f3e
00000040: da94 b73d a3e3 083d f0b4 afb9 3efa 923e
00000050: dd9d 0f3e d549 4e3e e78e fdbc 560a 9b3e
00000060: b127 ed3c 5fe6 7b3d f075 36bb 89bf 09bd
00000070: 9f7f 9c3d 723d 443d 5ee9 91bb 1ee2 e5bc
00000080: 9db1 af3c 27d6 7a3d 8eaf 7e3c fda9 873d
00000090: 8478 d6bc fc9f 083d e81c 50bd 319e 993c
000000a0: 8046 febb 8eeb a73d 9e1c f7bb c278 b23d
000000b0: 032a 52be dd99 3e3e 8995 07bc 021a 213d
000000c0: b5e3 bc3d d218 833c dd82 c7bc d8b3 edbd
000000d0: 51ba a63d 6326 193e 6538 9abc f798 27be
000000e0: c843 c63d 6d97 6b3d cc12 e33b 5cca 0abd
000000f0: 573a 573d 59e1 023e b689 973c 5871 c1bd
00000100: 313e 113e 9113 e33d f217 c13a 7f9a 933c
00000110: f7ed 043c c60f d03d bf85 89bc e075 bf3d
00000120: 3957 3f3d 941d 183d 194c 273d ebb5 14bc
00000130: 817c bebd 197e 353e dd14 533d 31f6 40bd
00000140: eb75 c03d 53e8 723d c920 473c c4b8 8ebd
00000150: 8fd5 3fbd 19f8 463e 6220 933b b2a9 cbbd
00000160: e3eb a63d 24a3 523d 94fd 03bd 2dcb a2bd
00000170: c350 1dbd 0afa b33d 86df ebbc 7cc6 f1bc
00000180: 9f01 853d 1d10 18bd 15ce 92bd c616 c43d
00000190: e27c 74bd 6185 53be 4e37 a2bc f19f 143e
000001a0: 89e8 3f3c c7f1 49bd 8c10 1d3d 39cc 0d3e
000001b0: b7ce 963d ee9c a2bb 10ab 5dbc ad7e 593e
000001c0: a8c5 563d bd00 43bd 50a0 8d3d ce6a d13d
000001d0: 0e84 c33d 97b5 54bf 942f 913d 4ca0 bf3d
000001e0: cffb 073e de49 e3bd d901 8aba 9689 c3bb
000001f0: b993 833c 496e 31be 8438 46bc 6fb8 db3b
00000200: 5bdb 163e eddf cdbd fbdc 67bd 1282 e73d
00000210: 6522 45bd d157 163d b5c6 b6bb 1cb6 c43d
00000220: 3342 b63d 03a2 e8bd 9f6b 7a3c 19b4 a83d
00000230: b2a3 acbd d332 52bf cfad 103d 5831 193e
00000240: e73f 453e 2b39 323e 8927 1a3d eb5b 2cbc
00000250: 1046 f23d 1a1f 5bbe 5352 843d cc7d b23b
00000260: ba24 d43d 3a0a b23d dc5a 73bb ff6a 20bd
00000270: 1027 883d 300a 033e 5839 13bd 9752 4cbd
00000280: b544 0c3e 9c4d e23d e68c 013d dfca bbbd
00000290: 3e32 9f3d 0743 df3d 4675 713d 15a9 dcbd
000002a0: 09ae f43c 5e06 f03d fba6 503b 7fd3 c0bd
000002b0: ec95 c3bd 60d4 81be 05f8 d4bb cb6b 0dbe
000002c0: 9508 76bd 0e06 2d3c 21c7 843d 37b2 68bd
000002d0: bbdf a2bd 3e82 d83d e8f0 103d baae b0bd
000002e0: 8e9c c6bd 6ca0 d93d e01e 153c bac2 3dbe
000002f0: dde3 3fbd 0f0c c23d 573a 6d3c 643a 19be
00000300: f6d2 f5bc 384a 913d 9a14 473c 002b 313d
00000310: 371a 4fbe 3bc3 a9be f1bf 05bc 7610 f33c
00000320: 2fa8 2abc 2683 ef3d db11 183d cbf5 c93d
00000330: 61fe c43d 1ed3 bc3c 6c51 07bd df05 703d
00000340: e1b2 7fbd 2e5e bb3d 88cf b1bc 7cf0 de3d
00000350: 9439 a83e 1817 d03e ee65 8c3c bea4 a53d
00000360: a780 afbb 7d78 b23b 94d6 b93c 950a b5bd
00000370: 8584 233e 5be7 a5be 6690 4cbc 117d 02be
00000380: 593f babc ef19 c4bc 5d5c 613c 7284 a03b
00000390: 306b 3fbd fc8f 823c 6925 93bc 7cae bc3c
000003a0: 7fc2 f8bc ad8f 79bd be61 05bc ab38 263d
000003b0: c450 89be 76c4 d53e 0184 863c b5a3 5fbb
000003c0: a658 e53d d2fd 403e 9f64 873d 5378 1c3e
000003d0: 0645 5b3d 29dc 7fbd e0b5 d73b ddc3 283e
000003e0: 2ec9 d43d 40d8 7f3e 8bbc 9e3c 50c8 b13d
000003f0: 81d0 c33d e377 dbbd f99a 42bc 5e86 fd3d
0.014739089 -0.028850803 0.016982969 0.08078276 -0.097703554 0.0966349 -0.050449643 0.025398554
0.059807114 0.045402475 0.0030322215 0.14901617 0.06570307 0.05016184 -0.028345063 0.14029923
0.08963938 0.033420216 -0.0003351341 0.28706545 0.14025064 0.20145352 -0.03095193 0.30281323
0.02894959 0.061498996 -0.0027841292 -0.033629928 0.07641529 0.04791016 -0.0044528684 -0.028061923
0.021446997 0.061239388 0.015544785 0.066242196 -0.026180513 0.033355698 -0.050808817 0.01875219
-0.007759869 0.08199225 -0.007541253 0.08714439 -0.20523839 0.18613382 -0.008275398 0.039331444
0.09223119 0.016003046 -0.024354393 -0.11606568 0.08141006 0.1495605 -0.01882572 -0.16366945
0.09680897 0.057517458 0.006929731 -0.03388439 0.05254587 0.12781276 0.018498283 -0.09445447
0.1418388 0.11087716 0.0014731868 0.018018005 0.008113376 0.101592585 -0.016787408 0.09348655
0.04671404 0.037137583 0.040844057 -0.009076576 -0.09301091 0.17723884 0.05153357 -0.047109786
0.09397491 0.059303593 0.012153813 -0.06968835 -0.046834525 0.19430579 0.0044899443 -0.09944476
0.081504606 0.051425114 -0.032224253 -0.07948909 -0.0384071 0.087879255 -0.028793108 -0.02951359
0.0649445 -0.03712474 -0.07168213 0.09574656 -0.05968941 -0.20656349 -0.019801762 0.14514138
0.011713156 -0.049302842 0.03834586 0.13847436 0.073636465 -0.004962555 -0.013529554 0.21239729
0.052434593 -0.047608126 0.06915343 0.102254495 0.09546672 -0.83089584 0.07089153 0.09356746
0.13279651 -0.110980734 -0.0010529115 -0.0059673293 0.01606165 -0.17327227 -0.012098435 0.006705336
0.14732115 -0.10052476 -0.056607228 0.11304106 -0.048128504 0.036704842 -0.005577887 0.09605047
0.08899345 -0.11359026 0.015284448 0.08237476 -0.0842966 -0.821088 0.035322007 0.1496023
0.19262658 0.1740462 0.03763536 -0.010519962 0.118297696 -0.21398583 0.064610146 0.005447125
0.103585675 0.08693357 -0.0037133014 -0.03916454 0.066480756 0.12796855 -0.03594336 -0.04988345
0.13698085 0.11049959 0.03162851 -0.09169554 0.07773255 0.10901456 0.05894973 -0.10774437
0.029868143 0.117199644 0.003183781 -0.0941534 -0.0955008 -0.25357342 -0.006499293 -0.13810651
-0.06006678 0.010560526 0.06483293 -0.056810584 -0.079528295 0.10571717 0.035385996 -0.086270764
-0.09697829 0.10626301 0.009101599 -0.18531314 -0.046848167 0.09474956 0.014479241 -0.1496368
-0.03000782 0.07094234 0.012150908 0.0432539 -0.20224844 -0.33156762 -0.008163438 0.029670935
-0.010416075 0.116949365 0.037126403 0.098613344 0.096188314 0.023049887 -0.033036634 0.05859935
-0.06242645 0.09148823 -0.021705404 0.108857125 0.3285643 0.4064262 0.017138448 0.08088063
-0.0053559127 0.005446492 0.022685327 -0.08839909 0.15968521 -0.32403073 -0.012485599 -0.12743022
-0.022735285 -0.023938147 0.013754931 0.004898601 -0.04673308 0.015937798 -0.017962174 0.02303242
-0.03036618 -0.060928036 -0.008140979 0.040581387 -0.26819432 0.4175145 0.016420366 -0.0034124677
0.11198549 0.18846825 0.06610989 0.15280275 0.053532623 -0.06246582 0.0065829605 0.16480966
0.103899345 0.24984837 0.019377014 0.08680785 0.09561253 -0.10716226 -0.011877769 0.12379144

fcs1.bias f4 [512]
00000000: 58f5 52be 400e 54be 876f b6bb 8426 38be
00000010: c361 52be c441 33be 986c 723d 1ca0 f4bc
00000020: 3a16 0f3c aac8 403d 9e8f 22be 2f72 acbd
00000030: 8152 0dbe 9c52 3dbc f5af b3bd 89dd c43d
00000040: a1fd 813c 77a0 3ebe 05eb a2bd 83f3 dabd
00000050: b185 6a3d 83b9 323d aaad 02bc b328 873d
00000060: a27c 2ebd 2c0e 6dbd 5036 0ebe 9246 393d
00000070: 9707 16be b70a d53d 1491 083d 9920 dabd
00000080: e4e7 99bd 1728 92be 875d 8abe d8d5 c2be
00000090: f52e 59bd 589e 43be 9145 33be 71c9 3fbe
000000a0: 71c5 3dbc 8b53 27be bd57 a23c ee51 2abe
000000b0: 4b5b 903c 2ecc 8bbd 524c ddbd 0b58 3bbc
000000c0: b120 57bc 81bf 143d 3808 633c 6d45 93bd
000000d0: 005d 6bbe cfc1 d33d ee10 8abe b690 11be
000000e0: 8751 36be da35 50be a8ff 2abd 184a 65bd
000000f0: a00c 2cbe 5dbe 02be a6d9 32be ce4f 88bd
00000100: 7ed1 e1bd c851 1c3d ad64 1e3c fe2c 013d
00000110: fc15 39be 398f 40bc a9ff 53be 5854 12be
00000120: 0b9d 58be 738b 9fbe 73f0 febd b695 b3bd
00000130: da9c 03be 01a9 67bd 165b 14be 4ac3 523d
00000140: c343 aabd 9954 c3bc 0f28 43bd 3d8d 7e38
00000150: 26da 2abd 0580 d63d ab81 49be 6c9d e0bd
00000160: 73d2 753d ddfa 403d 60a9 3cbe d148 45bd
00000170: 09dc 943b 7dd8 52be 176d 2bbe 3e76 b2bd
00000180: ef5d 80be 5325 37be 656b 69be 90d5 62be
00000190: b9d0 48bd 51ee 6d3d e79f 0abd 1203 02be
000001a0: 7d87 c2bd 5fe0 83be 0688 c8bd 1486 713c
000001b0: e58a 963d cb6d 9bbe a429 5dbe de93 95bd
000001c0: ef20 ebbd 3929 c83c 6ea7 5cbe c5f5 b3bc
000001d0: 7457 bfbc 38b6 1abe 1194 113d a2ec 88be
000001e0: ede4 06be 242a e1bd 12e0 80bd 368a afbe
000001f0: b7bc f0bd 64d6 a1bd bd33 82be 9af6 133d
00000200: 6519 4ebe 5b2f 28be c927 30be 8384 843c
00000210: 6fe9 f0bd 4a8f 7dbd 1c09 8bbd 7d17 773c
00000220: 0970 633d fc2e afbd 5984 88be c5ea 943d
00000230: 3d00 58be 2ee8 dabd 8072 fbb9 9490 afbd
00000240: b862 0ebe 9ea3 a4bd acfa 0c3d 31d1 a0bd
00000250: a6e5 2fbe 4407 96bd 408e 98be f451 39be
00000260: a69f a63c 0ead b8bd 7d55 53be 08b8 04be
00000270: 0d74 3cbd 039a 183d 2ff6 44be 73d4 6ebe
00000280: 9442 6ebe cdb6 b8bd 6552 aebd 6d60 92be
00000290: 7e95 d4bd b7a2 f0bd f5d0 07bd da6c 0ebd
000002a0: 312c 5fbe 69b7 e8bd 082a 45be b1c0 1ebe
000002b0: a1d4 fa3c f751 3dbe e677 093e 9307 113c
000002c0: 494a 05be ff94 5abd 1b76 b3bd e0dd 72be
000002d0: d437 52bd 1cb5 debd bcc0 04be 750f 23be
000002e0: 2f0f 40be fb2a 13be 3fc8 f0bd 16e1 7ebe
000002f0: 1994 ddbd de70 81be e14d 9bbd 1aba e0bd
00000300: de74 b5bd abb4 1fbe 30ab dfbd 49d4 7fbe
00000310: d984 86be 178e 51bd 0f2e 5fbe 14fb 5cbe
00000320: dd5f 0cbe b629 90bd 7bbe ec3c eead f3bd
00000330: 78c7 93bc 6211 3e3d 4712 34bd 3980 1f3e
00000340: 1450 31be 42cd d1bd 3dd5 90bd aa27 26be
00000350: 3a27 f6bd bdd0 ce3d afb4 133d 734a 893d
00000360: de8d 3abe 7ead 00bd 7377 03be 47a9 e63d
00000370: f4db e93c a58a d3bd 2aec ad3d 576e 34be
00000380: 5a78 9f3d dfff 8fbd de58 a5be 8b30 063d
00000390: be28 1bbe c9de 20be bd7d 36be be10 84be
000003a0: ea3c ffbd 63e4 29be 9ee2 0abe 9e87 54be
000003b0: e7e4 ccbd 15b9 f4bd d3bc 19bd baca b8bd
000003c0: ca5f 26be c79e eebb 21df 88be 0007 8dbd
000003d0: b97d cdbc b30e 86be 2a89 55be 5ca1 d33c
000003e0: f2d3 f0bd dbe2 ed3d 37a3 67be 1cef 3bbe
000003f0: 60c3 a9bd 14bf a5bc 55b7 63be bf92 03be
-0.20601404 -0.20708561 -0.0055674943 -0.17983443 -0.20545106 -0.17505556 0.059185594 -0.029861502
0.008733327 0.04706637 -0.15875098 -0.08420216 -0.13801004 -0.01155534 -0.087737955 0.09612567
0.01586801 -0.186159 -0.07954983 -0.106909774 0.057256404 0.04363395 -0.007975975 0.0659956
-0.042599328 -0.057874843 -0.13887906 0.045233317 -0.14651333 0.10402434 0.033341482 -0.10650749
-0.07514933 -0.2854621 -0.2702448 -0.38053775 -0.053023297 -0.19103372 -0.17507006 -0.18729188
-0.011582718 -0.16340463 0.019817227 -0.16632816 0.017621657 -0.068260536 -0.108055726 -0.011434565
-0.013130353 0.036315445 0.01385694 -0.07190976 -0.22984695 0.103397004 -0.2696604 -0.14215359
-0.17804538 -0.20333043 -0.04174772 -0.055978864 -0.16801691 -0.1276793 -0.17465839 -0.066558465
-0.110262856 0.03816393 0.009667558 0.03153705 -0.18074793 -0.011752897 -0.20702995 -0.14289987
-0.21153657 -0.3116108 -0.12448206 -0.087687895 -0.12852803 -0.05655766 -0.14487872 0.051455773
-0.08313706 -0.02384405 -0.047645625 6.0689857e-05 -0.04171195 0.104736365 -0.1967837 -0.10967526
0.060015153 0.047114242 -0.18423986 -0.048165146 0.004542832 -0.20590396 -0.16740833 -0.08713959
-0.25071666 -0.17885332 -0.22794874 -0.2215178 -0.04902718 0.058088604 -0.0338439 -0.12696484
-0.094984986 -0.2575712 -0.097915694 0.014741439 0.07350711 -0.30357203 -0.21597916 -0.07303594
-0.11480891 0.024433719 -0.21548244 -0.021967778 -0.02335713 -0.15108573 0.035541598 -0.26743037
-0.13173266 -0.10994366 -0.06292738 -0.34285134 -0.117547445 -0.0790222 -0.25430098 0.03612385
-0.20126875 -0.16424315 -0.17202677 0.016176468 -0.11763274 -0.06190423 -0.06788847 0.015081284
0.055526767 -0.085538834 -0.26663473 0.07271341 -0.21093841 -0.10688816 -0.0004795976 -0.08572498
-0.13904846 -0.0803902 0.034418747 -0.078524 -0.17177448 -0.073256046 -0.29796028 -0.18097669
0.020339798 -0.090173826 -0.2063808 -0.12960827 -0.046009112 0.037256252 -0.19234537 -0.2332323
-0.23267585 -0.090192415 -0.08511809 -0.28589192 -0.10380076 -0.117497854 -0.03315826 -0.034771778
-0.21794201 -0.11363108 -0.19254315 -0.15503193 0.030618967 -0.18488298 0.13424644 0.0088519035
-0.13016619 -0.05336475 -0.08762761 -0.23717451 -0.051322773 -0.108743876 -0.12964147 -0.15923865
-0.18755792 -0.14371864 -0.11756944 -0.24890551 -0.10819263 -0.25281423 -0.075832136 -0.10972996
-0.08860181 -0.15596263 -0.10921323 -0.24983324 -0.2627323 -0.051160898 -0.21794914 -0.21580154
-0.13708444 -0.07039206 0.028899422 -0.11898409 -0.01803945 0.046403296 -0.043962743 0.15576257
-0.17315704 -0.10244228 -0.07071922 -0.16226068 -0.120192006 0.100984074 0.036060985 0.06703653
-0.1821818 -0.031415455 -0.12838535 0.11262756 0.028547265 -0.10329179 0.0849231 -0.17620216
0.07786627 -0.070312254 -0.32294363 0.032761138 -0.1515226 -0.15709986 -0.17821403 -0.25794023
-0.1246279 -0.16591029 -0.1356301 -0.20754859 -0.10004597 -0.11949364 -0.037533592 -0.09023042
-0.16247478 -0.0072821113 -0.26732734 -0.06886101 -0.025084363 -0.2618309 -0.20853105 0.025833778
-0.11759175 0.11615535 -0.22620855 -0.18352932 -0.08289218 -0.020232715 -0.22237904 -0.12848948

fc2.weight f4 [256, 514]
00000000: 6979 233d fd3c 2abc 9dda 30bd 3e0a 043e
00000010: 6239 5c3d f474 34bd 7619 c0bc efa3 acbd
00000020: 5575 dbbd ba68 06be 4709 f2bc e12e 8a3d
00000030: 0601 a0bc 3e07 703c f1c0 b1bd daa9 80bc
00000040: 262e 6a3d 0d40 aabd d535 8fbd 6674 5abd
00000050: 3d45 2d3d c1a9 e5bd ee08 d2bd 44b5 11be
00000060: 4aea dd3d c194 d5bd 673e 35bc b2a5 2f3e
00000070: 8bbe e9bd a8a2 c2bd e34b 25be 330a dcbc
00000080: 4843 843d 5757 193e b0f2 003e a5c2 94bd
00000090: afef b23d 9c08 cabd 07d3 03be 0f47 6ebd
000000a0: 7c99 a1bc 4095 55bd 6176 26bd efba c8bd
000000b0: 8494 2fbd fb7c 2a3c 1061 343c 71da b33c
000000c0: fc9a 67be 189f 673c 8532 67be 9f16 13be
000000d0: d8ce 9a3d 7d25 8abd 4055 e8bd 13d4 e83c
000000e0: 13bd 823c e7b6 7cbd 21e4 1fbc f434 cb3c
000000f0: f8d4 abbd 8d0d 71bd 4c44 20be 65e8 cf3d
00000100: 6cae 553d 51b8 8fbd 7f81 dbbc ec45 baba
00000110: 72e2 b7bd 87cd a1bd 4643 663c 3885 81bd
00000120: b666 053c 43b9 dfbc 7497 883c 7903 263d
00000130: 5307 10bd 7695 1e3d 04d3 a6bd d2d0 f3bd
00000140: beac e43a 428f 383d 5cc1 713c c3a3 d23d
00000150: e4a3 adbd 1080 03bd a7a3 48bd 479d 4ebd
00000160: 2c3f b13d 7868 c1be a001 2f3d de7a 453c
00000170: bda8 fd3c 217c 1abe f02e 943b 9195 7c3d
00000180: ef96 5d3d 63fd 96bd 0c23 f938 7fe7 07bc
00000190: 4668 57bd 4764 ff3c e3cb b6bd 1967 97bd
000001a0: b368 a2bc a681 60bd 60f6 89bd 0714 5c3b
000001b0: 142a c7bd 4956 bbbd 83a9 a0bd fd01 06bd
000001c0: f8e4 97bd 200a 0d3d ea30 fbbc 028b 4d3d
000001d0: e171 f53c 4abd ba3c 93dd 55be 3b4b 9ebb
000001e0: f18b 373d 1f52 30bd db30 9ebd e202 203d
000001f0: 5e7d 8e3d c87f d8bd 91f9 b23c b51f 8abd
00000200: 9d00 d23d 28f8 2b3d cb65 49bd 56d1 f3bd
00000210: 6920 15bd a7ea 4c3d e634 33bd 0e81 e0bd
00000220: 0b4b c9bd 3ee2 8cbd 096d 7c3d 75a6 48bd
00000230: 23d1 b9bc 1287 6bbe 53eb c33b 4661 4abd
00000240: 1221 b73c 644e b4bd 2b5c 043d 1a6f 4bbd
00000250: bbb7 03be 6f2d 72bd 02de c6bd 0eda b23c
00000260: 4712 02bd a6bd 9ebd 6450 1cbe 23d7 c8bd
00000270: 7fac b5bd a825 47b9 09d0 14bd 0a8a 1ebd
00000280: 4cd8 fe3b a0f0 93bd adc7 923c b2d8 23be
00000290: edd4 13bd 684c 8abc f9a9 b2bd 9c3e cd3d
000002a0: ffe0 ed3c dbe0 29be 4da0 2cbd 0064 c9bd
000002b0: cfed 8ebd 5597 823d 7a7d 9f3c c208 39bd
000002c0: 6fce b7bd b8bc 25bd 1413 6aba 19d7 dabd
000002d0: aa3a c83d 5cb3 00be c6c1 a3bd b4b9 ffba
000002e0: be33 eabd 927e 20bd ea47 4b3d c4c3 b63c
000002f0: ec14 be3c 4ef8 3fbe 4563 b5bc c461 8b3d
00000300: 9d03 debd c206 05be 4b6a 94bd b812 563d
00000310: 123d 73bd 434c ea3b 43dc ecbd f877 833e
00000320: 8db9 ddbd 2682 193d 6ebc 10bd def9 c0bc
00000330: ad5d 9cbd f1b9 453d 3a66 d1bd d72c a1be
00000340: b226 85bd a69c 703d 54d1 a63c 5165 6abd
00000350: d5c1 b8bc 7541 0abd 861d a6be edaa 993c
00000360: 61a6 afbd 04ac bebd 53ec c33c 3f43 16be
00000370: 77b8 8fbc 18be 0c3d 40cb 02be 554a 07bd
00000380: 86e3 8dbd 5a07 6abd dfec c3bd e1fa 4fbd
00000390: cdaa 47be d2f1 1fbd 495a 6dbd 5041 c4bd
000003a0: c9a5 c8bc 38e9 60bd 578a 5cbd 0904 b1bd
000003b0: f41a d03c 002f efbb ffca 88ba f380 adbd
000003c0: 0642 4c3d 2e5d 50bc 68a6 efbd 0a1e 733c
000003d0: 7272 f3bc e259 a7bd 3855 f5bd 540c 9ebd
000003e0: be43 3bbd 2403 1fbd c103 b2bc 3e1f 20bc
000003f0: 937e 75bd e46a ff3d b6c8 8fbc c49d efbd
0.039910708 -0.010390517 -0.043177236 0.12894532 0.053765662 -0.044056848 -0.02344964 -0.08429705
-0.10715739 -0.13125888 -0.02954544 0.06747223 -0.019531738 0.014650164 -0.08679379 -0.015705992
0.057172917 -0.08312998 -0.069926895 -0.053333662 0.04230236 -0.112140186 -0.102556095 -0.14229304
0.10835703 -0.10428763 -0.011062241 0.17153051 -0.11413296 -0.095036805 -0.1614223 -0.026860332
0.064581454 0.14974724 0.12592578 -0.07263688 0.08737122 -0.09864923 -0.1287347 -0.058173236
-0.019726507 -0.05214429 -0.04064024 -0.0980128 -0.042866245 0.010405774 0.01100947 0.021954747
-0.22617716 0.014137052 -0.22577865 -0.14364098 0.075589836 -0.067454316 -0.11344385 0.028421437
0.015959298 -0.061697867 -0.00975898 0.024805523 -0.0839023 -0.058850814 -0.15651053 0.101517476
0.052168295 -0.070175774 -0.026795147 -0.0014211512 -0.08978738 -0.07900529 0.014054125 -0.063242376
0.008142164 -0.02731002 0.016673781 0.040530656 -0.035163235 0.038716756 -0.08145717 -0.11905064
0.0017446501 0.045058496 0.014755573 0.10285141 -0.08478525 -0.03210455 -0.048984196 -0.05044296
0.08654627 -0.37775016 0.04272616 0.01205322 0.03096425 -0.15086414 0.004522197 0.061666075
0.05409902 -0.073725484 0.00011879773 -0.008294939 -0.052589677 0.031175746 -0.08925607 -0.07392711
-0.019825315 -0.054811142 -0.067364454 0.0033581273 -0.09724823 -0.09147317 -0.07844832 -0.03271674
-0.07416719 0.034433484 -0.030662972 0.050181396 0.029961528 0.022795338 -0.20885305 -0.0048307455
0.044811193 -0.043047067 -0.07724162 0.03906525 0.06957506 -0.10571247 0.021847518 -0.06744329
0.10254023 0.041984707 -0.049169343 -0.11905162 -0.03640786 0.05002847 -0.04375162 -0.10962115
-0.098287664 -0.0687909 0.06162742 -0.04898687 -0.022682732 -0.23000744 0.0059789806 -0.049409173
0.022354636 -0.08804014 0.03231446 -0.0496665 -0.12863056 -0.05912536 -0.097103134 0.021832492
-0.031755712 -0.07751016 -0.15265042 -0.09806659 -0.08870792 -0.00018992147 -0.03633121 -0.038705863
0.0077772494 -0.0722363 0.017917478 -0.16000631 -0.036091734 -0.016882136 -0.08723826 0.100217074
0.02903795 -0.16589682 -0.042145062 -0.098335266 -0.06978952 0.063765205 0.019469012 -0.045174368
-0.08974921 -0.04046318 -0.00089292345 -0.10685558 0.09776814 -0.1256842 -0.07995944 -0.00195103
-0.1143565 -0.039183207 0.04962913 0.022310145 0.023203336 -0.18747064 -0.022142062 0.06805757
-0.10840533 -0.12990859 -0.07246836 0.052263945 -0.059384413 0.0071502044 -0.11565449 0.25677466
-0.10826407 0.037477635 -0.03533595 -0.023556646 -0.07635055 0.04827303 -0.10224576 -0.31479523
-0.06501521 0.05874314 0.020363487 -0.05722553 -0.022553364 -0.03375383 -0.324444 0.018758262
-0.08576656 -0.09310153 0.0239164 -0.1467409 -0.017544014 0.034360975 -0.12772846 -0.033029873
-0.06928162 -0.057135917 -0.09566664 -0.050776366 -0.19498749 -0.039048977 -0.05794743 -0.0958277
-0.024493115 -0.054909915 -0.05384287 -0.08643348 0.025403477 -0.007299304 -0.0010436474 -0.08471861
0.049867652 -0.012717528 -0.11701661 0.014838705 -0.029717658 -0.08171441 -0.11979145 -0.07717195
-0.0457189 -0.038821355 -0.021730306 -0.009773074 -0.059935164 0.1247156 -0.017551761 -0.11700013

fc2.bias f4 [256]
00000000: ce49 a8bd 8a06 8dbd f743 053d c2d8 afbd
00000010: 457b cebc 9bfd 923d aac0 7d3d e959 a3bc
00000020: 720d acba 5ff8 efbb 3c3a fbbd 3cf6 283d
00000030: 7781 02bd 6974 123e afdc 6bbd f67d abbd
00000040: e402 1dbd 33fa 583c 60c5 593e 4b36 cdbd
00000050: 8bcc 2a3e 2156 923d ae02 7dbc 0b47 3a3d
00000060: 793d 993c 9342 583d d736 8f3d 2a77 543e
00000070: 847b 9abd 4155 5ebc cdcf 79bd 20d4 053e
00000080: f6d6 85bd a796 8bbd cc05 02bd 6b28 dbbc
00000090: 94aa 96bd c6e4 2dbd 30d8 0ebd 7fe2 05bd
000000a0: 3689 a8bd f547 3e3d 14ce 8c3c c3ea 4dbd
000000b0: 4aa4 943d 5972 983b 3855 bc3c 1a9c bdbc
000000c0: 8e22 8ebd 8fc2 88bd 5a9c a7bd 784d 373e
000000d0: 12f4 b33d 66a1 5bbd f021 b63d 9231 afbb
000000e0: 3aeb 833c 2777 0dbd 3d2b 6dbc 537d 933b
000000f0: ef4f ddb9 8a8e 633d e6b4 5cbc 052e 6a3d
00000100: 59e9 ed3d ad99 163e 1f13 48bc 926c 20bd
00000110: 0d1e b4bc fbf5 8b3d 0b9d 79bd 4a3b 1dbc
00000120: 08d0 8a3d 9fa4 923e 905e b33d 7957 0fbe
00000130: 6cb3 2b3e 9f1d 13bd 0f45 803e 4bad 86bc
00000140: 7b96 8c3d b67a 5a3d 6c95 a7bd 9753 93bd
00000150: ed8f 893d 6724 2a3d 81ed 5b3e 782e c33d
00000160: 9e80 0a3d a574 8fbd c893 743c f216 6fbc
00000170: 3e3a b0bd b99a bcbb 7a41 81bd 22b8 a1bd
00000180: 66de 12bd ecc4 94bc d488 b2bb eec0 c33d
00000190: 44f1 65bd ac35 f0bc d6b6 c13d 2b0d 0ebd
000001a0: 58dc b8bc 42e3 b83d 9ad6 fb3d a955 a0bd
000001b0: de30 c9bb 44c8 eb3d a3cd 83bd 97ae 233e
000001c0: 6e1e 10bd ca83 fcbc 0bb9 1f3d f744 e1bc
000001d0: 41db f4bc e5ea 9fbd ba25 7abd 75db 1f3e
000001e0: ace3 6e3e 8b57 fcb9 e23f 96bd a507 2a3e
000001f0: 6bb2 73bd cad3 7d3c e961 6cbc 6a1a d53c
00000200: 2c48 93bb db4b 213e d6d1 63bd 28ba ef3d
00000210: 18cf 4f3e 5e99 babc 49d4 813d d12f 893d
00000220: 17f7 3ebd 9ca0 893d 973a 2abd ef6b 5c3e
00000230: 40a5 0d3e 3c37 b53d cb33 bd3c c1f4 18bb
00000240: 6788 35bd ba41 813e 5fba d4bc 2857 d73c
00000250: fc22 b03d 7c3f fdbc ba90 63bd 057a eb3c
00000260: 2783 ddbb 86f3 c53a 4686 9abd b2a5 b0bd
00000270: 2013 1cbc 645b e33d 1239 e8bc f197 093d
00000280: 658a 323d cf57 e73d 9953 143d 4685 a1bd
00000290: a306 9f3b 753f 553d 18b5 d6bc 36e8 c6bd
000002a0: 27da 343d 90af d03c 4be5 acbd a309 02bd
000002b0: 7338 9b3e f9ac 23bd f92c a23c 1c9e 9abd
000002c0: f211 1ebd c43d f43d 6939 edba 43a7 2dbe
000002d0: ad1b 023e b894 2fbb 5a83 8ebd 2cfd b6bc
000002e0: 8c98 cf3d 1f9e 1abd af99 40bd 49e3 31bd
000002f0: 714b 15bd d711 ec3d 63ef 2b3b 31db 233d
00000300: a93b 8cbc 575c 683e 923c 103e 91bf 53bd
00000310: ef37 91bd 26b0 01bd da14 38bd 2db0 b8bc
00000320: 0369 27bc eaae 123e 9051 28bc 0177 80bc
00000330: a1fd 263d 244c 50bd 5151 5f3b c22d b7bd
00000340: 93bf 84bd f910 643d 5b76 9d3d e667 debc
00000350: 0ccf 023d df7b 783e 160b f53d e53f 79bd
00000360: 4805 e9bc 92b8 8ebd 828c 313d 1d1c 9a3d
00000370: a32c 01bd 924f d73d e80d 16bd 238f 08bd
00000380: 6baa 56bd a939 55bd 002c 86bc 5974 7f3e
00000390: 9e27 acbb 5ada f63d 335b 923c 9f8e 8fbd
000003a0: 3f47 613d 0ef4 af3d 11cc c83d d003 073e
000003b0: b8e1 633e 10c6 74bd 7508 333e 860f 91bc
000003c0: eed1 103e bffe 9d3d 33b4 253e 1c97 463d
000003d0: 3f2e d93d d183 21bc bc84 0a3e df1d 933b
000003e0: b5dc 14bc d0de 7cbd 6597 663e 8ff5 efbb
000003f0: 43d1 983c 4870 953d dcb0 403e 6185 c63b
-0.08217202 -0.06886013 0.03253552 -0.08586265 -0.025205264 0.07177278 0.061951317 -0.019940333
-0.0013126566 -0.0073233093 -0.12266967 0.041250452 -0.03186175 0.1430222 -0.057583507 -0.083736345
-0.038332835 0.013243246 0.21266699 -0.10020121 0.1667959 0.07145334 -0.015442533 0.045477908
0.01870607 0.052797865 0.06992882 0.20748582 -0.0754309 -0.013570131 -0.06098919 0.130692
-0.06535141 -0.06815844 -0.03174381 -0.026752671 -0.07356754 -0.042454503 -0.03487414 -0.032686707
-0.08229296 0.046455342 0.01718811 -0.050272714 0.07257898 0.004652303 0.022989854 -0.023145724
-0.069401845 -0.06677734 -0.081841186 0.17900646 0.08786787 -0.05362072 0.08893192 -0.0053464854
0.016103376 -0.03453746 -0.014475641 0.004501024 -0.0004221196 0.055555858 -0.013470864 0.057172794
0.11616773 0.1470706 -0.01221159 -0.03916604 -0.021986986 0.068340264 -0.060940783 -0.009596655
0.0677796 0.2864122 0.08758271 -0.13998212 0.16767663 -0.03591692 0.25052688 -0.016440054
0.06864639 0.053339683 -0.08182797 -0.07193678 0.06716905 0.041538622 0.2147732 0.095303476
0.033814065 -0.0700467 0.014927812 -0.014592873 -0.08604859 -0.005755749 -0.06311317 -0.07896449
-0.035856627 -0.018160306 -0.00544844 0.09558283 -0.056138292 -0.029322468 0.09458701 -0.034680527
-0.022566006 0.09027721 0.122967914 -0.078288384 -0.0061398586 0.11512807 -0.064357065 0.1598457
-0.03518527 -0.03082456 0.03899483 -0.027498705 -0.029889705 -0.078084745 -0.061071135 0.1561106
0.23329037 -0.0004813041 -0.073364034 0.16604479 -0.059496325 0.015492389 -0.0144276405 0.026013572
-0.0044946875 0.15751593 -0.055620037 0.11705428 0.20293844 -0.02277821 0.06339318 0.066985734
-0.046622362 0.06720087 -0.041559782 0.21525548 0.13832569 0.08848426 0.023095986 -0.0023339244
-0.044319537 0.25245458 -0.025967775 0.026286677 0.08600423 -0.03091406 -0.055557944 0.028744707
-0.0067600193 0.0015102483 -0.07545142 -0.08625354 -0.009526044 0.11101416 -0.028347526 0.03359217
0.043589015 0.11296045 0.036212537 -0.07886748 0.004853086 0.05206247 -0.0262094 -0.097122595
0.04415336 0.02547434 -0.08442172 -0.03174747 0.30316505 -0.03995988 0.019796835 -0.07549688
-0.038591333 0.11925843 -0.0018098775 -0.16958337 0.1270587 -0.0026791524 -0.06958647 -0.022337519
0.10136518 -0.037748452 -0.047021564 -0.043429647 -0.0364489 0.1152684 0.0026235215 0.04000396
-0.017118292 0.22691475 0.14085606 -0.051696364 -0.070907466 -0.03166213 -0.04494176 -0.022544945
-0.010217908 0.14324537 -0.010273352 -0.015681745 0.040769223 -0.050853863 0.0034075568 -0.089442745
-0.064818524 0.05568025 0.0768859 -0.027149152 0.031935737 0.24266003 0.11965005 -0.06085195
-0.028444901 -0.06968798 0.04334689 0.075248934 -0.03153671 0.10513224 -0.036634356 -0.03333963
-0.052408617 -0.052056942 -0.016378403 0.24946727 -0.005253746 0.12053366 0.017865753 -0.07009625
0.054999586 0.085914716 0.098045476 0.13185048 0.22254074 -0.0597592 0.17483695 -0.017707597
0.14142582 0.077146046 0.16182022 0.048483953 0.10604524 -0.009858088 0.13527197 0.004489645
-0.009085824 -0.061735928 0.2251869 -0.007322974 0.018654471 0.072968066 0.18817466 0.0060583805

fc3.weight f4 [1, 256]
00000000: a297 333c fd4a a5bb b32a 993b 1650 00be
00000010: b6b6 c7b9 be1e 743b 41e8 733b a970 0d3c
00000020: 44d5 d93b 50f4 28ba 7371 ea3b e69e 193c
00000030: 2a40 1c3a e096 4bbc 014c ecbc 90f8 663c
00000040: c170 baba 41e8 eebb 1212 533b a55d de3a
00000050: 4ec0 923b 7acf 833c ce01 3e3a 8766 cc3b
00000060: ad27 c5bc f198 0dbc d3c8 bc3c ed2a 8d3b
00000070: ea2d e2bb 6d7f e43a a264 b23b 9a89 493b
00000080: d8c4 283d e134 cbbb 5d96 be3b 4c80 e9bb
00000090: 5ad6 c0bb 86a1 423b 167b 19ba 03c8 c03d
000000a0: b1ce 763c 2af2 253c c536 053d 4db9 d53b
000000b0: f595 043c 9182 38bd ac92 a93c bc18 6ebb
000000c0: 69b9 87bc 5112 323b c55d a63d 195a 8d3b
000000d0: 63b4 8c3b 509c 42bd 9b56 0d3b cdb5 12bc
000000e0: 25ba 94bc faaf 143b 197a c23b 2308 0c3c
000000f0: 30b8 0abc 1d11 443b 407e 913a 3a52 16bc
00000100: 0b94 353b 2da2 493b a12c 6f3d 4ef1 f13b
00000110: 9417 eeb9 6ddc eb3b a069 273b d7ff 77bd
00000120: a805 183b 48bf 7b3b 0b68 9fbc ecf8 55bd
00000130: ad66 0f3b 30f6 0a3b 135f 893b 2d90 fc39
00000140: d176 b73b e999 f7bc 9496 1d3c e3e8 b3bb
00000150: 8f3e d73a aee9 47bd 777e 533b 4317 553b
00000160: 2644 eabb 87b7 b2bc 946e 343b a3bf 64bb
00000170: 8aee 29bb 3c26 3f3b 9ce0 15bb 9ea8 71bb
00000180: d0be caba 2228 85bb c499 923c 9584 823b
00000190: 8b21 893b 7b46 de3a 3f1a 0b3b d04f 0bba
000001a0: e70b 393b a9a1 0f3b 60be 1b3b e0bc 88bb
000001b0: 1a57 e03a 44b0 e33b 79a5 6b3c f076 753b
000001c0: 564e e1bb f235 c43b aed3 6e3d c8e9 f939
000001d0: 0f21 76ba f571 553c 56e4 813c 2248 ba3b
000001e0: 8ec4 583b 44b3 0fbc 1fef 3abd dc87 1f3b
000001f0: 367a 11bc 33c1 e3bc 1c6c 1cbe 72bd 9e3b
00000200: 3144 913c d49a 873b c90b c9ba 0965 293b
00000210: fab9 8c3b 65fd 163c 32d3 b0bc 47e9 433c
00000220: bb72 f43b c636 d43a 580c 003d 1e88 613b
00000230: 2ced 8d3b eb40 0b3c 2a6d 343b 7dee 53bd
00000240: 9a08 2bbb fa2e 963b bd6d e73c 9ae7 0a3c
00000250: 2d0d f93a 0c6c b5b9 1a56 143b 8643 623c
00000260: e3a1 cfbb 287f 5cbb 3c22 1b3c ac4a b6bd
00000270: 721b b0bb 6338 e73b 03a8 c13b 1f6b 86bc
00000280: bce5 9c3c 6f13 693b 69b9 6d3d 28db 0abc
00000290: 6262 0d3c 5b4c ebbc 2080 8bb9 3901 aab8
000002a0: cd70 a83b 2ffa 01bc 1978 5fb8 0928 b83b
000002b0: c1dd 873b ad2e 223c 4bac 9b3c 9290 58bb
000002c0: 4ae4 fe3b 32ec 603b 5be8 3cbd fe96 a8bd
000002d0: f3aa 403b 020d 553c 66d4 56bb 27a0 a43c
000002e0: 9b69 a23b dcb9 1b3c 70cf 1a3c 9d86 273c
000002f0: 425d d83b 93ec 583b 4767 043b 958c 2c3b
00000300: d42e 33bc 70d6 703b 42ea 4e3b 8c1b 37bb
00000310: 7c6b 71ba 6fc1 3aba d60b 2fbb 7718 5b3b
00000320: d983 e93b 0d91 743b b6f6 6fba 89a4 5dbc
00000330: e769 4d3b e136 a93c 7ce6 943b 543b d13c
00000340: d17c b0bb d20e 223c f9ba a93b fc1e 033c
00000350: 4b7b 91bc 6449 9b3b 6ab2 853b 9408 ac3d
00000360: 0d8d 84b9 7f9d 1abb 26c2 ca3c 4855 8c3b
00000370: 04bc 0fbc fdc0 593b 93a3 1dbc 38fa e63b
00000380: 8f86 703b 4b4a fe3b 31f5 6bb8 1dea 423b
00000390: 8141 b9bb 8988 763b ce6b bcbb f024 4e3b
000003a0: 6def 193b 18a4 523c f403 d33b 8ce3 283b
000003b0: 1de2 4d3b 65f3 dc3b c4eb 383b 8c76 673d
000003c0: 667b c1bc e908 76bc 8598 543b 2e29 643c
000003d0: b960 273b c503 363a 2be4 ed3b dff3 3138
000003e0: d550 203a 53bc 71ba 85d2 9c3b d69a 70bb
000003f0: b353 a1ba ba8d 063c f576 883b a568 07bc
0.010961445 -0.0050443397 0.0046742796 -0.1253055 -0.00038092368 0.003724977 0.0037217292 0.008632817
0.0066477377 -0.0006445097 0.0071546375 0.009376263 0.0005960489 -0.012426108 -0.028844835 0.014097348
-0.0014224277 -0.0072908704 0.0032206816 0.0016965164 0.004478491 0.016090143 0.0007248194 0.006237808
-0.02406677 -0.008642421 0.02304498 0.0043080957 -0.006902446 0.0017432995 0.0054441253 0.0030752183
0.04120335 -0.006201372 0.0058162645 -0.00712589 -0.0058849277 0.0029698326 -0.0005854828 0.09413149
0.0150639275 0.010128537 0.032522935 0.0065223337 0.008092393 -0.045046393 0.020699821 -0.003633066
-0.016567903 0.0027171562 0.08123354 0.004313719 0.0042939647 -0.047512352 0.0021566513 -0.0089544775
-0.018155167 0.0022687898 0.0059349653 0.008546862 -0.008466765 0.0029917427 0.0011100248 -0.009174878
0.0027706649 0.003076683 0.05839217 0.007383502 -0.00045412465 0.0071979077 0.0025545135 -0.060546722
0.002319673 0.0038413573 -0.019458791 -0.052239344 0.0021881268 0.0021203868 0.004192242 0.00048172605
0.005598881 -0.030224757 0.00961842 -0.0054904087 0.0016421842 -0.04880684 0.0032271424 0.0032515086
-0.007149237 -0.021816028 0.002753173 -0.0034904263 -0.0025929534 0.0029167077 -0.0022869473 -0.0036874185
-0.0015468244 -0.004063622 0.017895587 0.00398309 0.004184907 0.0016958261 0.002122536 -0.0005314322
0.0028235854 0.0021916425 0.0023764595 -0.0041729063 0.0017115802 0.0069485027 0.0143827135 0.0037454925
-0.0068757934 0.005987876 0.058307342 0.00047667162 -0.00093890814 0.013027658 0.01585595 0.0056848684
0.003307614 -0.008770768 -0.0456382 0.0024342453 -0.008879235 -0.027802086 -0.15275615 0.004844361
0.017732712 0.00413833 -0.0015338595 0.0025847575 0.004294631 0.009215687 -0.02158508 0.011957473
0.007459966 0.001619064 0.031261772 0.0034413408 0.0043312516 0.008499364 0.0027530887 -0.051741112
-0.0026097656 0.0045832368 0.02825057 0.00847807 0.0019001119 -0.0003460351 0.0022634328 0.013810044
-0.006336437 -0.0033645127 0.009468611 -0.08900961 -0.0053743655 0.0070562824 0.005909921 -0.016408501
0.019152515 0.0035564562 0.05803815 -0.0084751025 0.008629413 -0.028722933 -0.00026607607 -8.1064594e-05
0.0051404 -0.007933184 -5.3279193e-05 0.005620007 0.004146308 0.009898824 0.019003054 -0.0033045155
0.007778679 0.003432047 -0.04612003 -0.082319245 0.0029398769 0.01300359 -0.0032780408 0.020095898
0.004956437 0.009504762 0.009448871 0.010224965 0.006602914 0.0033099994 0.002020316 0.002632891
-0.010936458 0.0036748908 0.0031572734 -0.0027940003 -0.0009209437 -0.0007124161 -0.0026709936 0.003343133
0.007126313 0.0037317902 -0.0009153889 -0.013527998 0.003134364 0.020656051 0.0045440774 0.025540985
-0.005385973 0.009891229 0.0051797596 0.008002993 -0.017758986 0.0047389735 0.0040801065 0.08400074
-0.00025282093 -0.002359241 0.02475078 0.0042826273 -0.008772854 0.0033226602 -0.009621519 0.0070488714
0.0036701297 0.0077603213 -5.625672e-05 0.0029741593 -0.0056535606 0.0037618002 -0.005750156 0.0031455122
0.0023488656 0.012856506 0.0064396802 0.0025770394 0.0031415292 0.006742882 0.00282167 0.05650954
-0.023618411 -0.015016773 0.0032439542 0.013925834 0.002553983 0.0006943311 0.0072598658 4.242721e-05
0.00061155605 -0.0009221483 0.004785838 -0.0036713383 -0.001230827 0.008212501 0.0041645714 -0.008264695
