results/results_7/solved_agent1_critic.pth (torch, 631083 bytes, 5 tensors)

fcs1.weight f4 [512, 48]
000000 e0 d8 60 bc c4 ef 5d bd 52 58 19 3d dc 45 84 3d
       -0.013723582 -0.054183736 0.037437744 0.06458637
000010 d5 c7 5f bd a0 7a 98 3d 9c b7 f5 bc 10 c5 16 3c
       -0.054633934 0.07445264 -0.029994778 0.009202257
000020 a6 2a cf 3c 02 fc 81 3c a0 0d a5 bb 7f bc 38 3e
       0.025288891 0.015867237 -0.0050370246 0.18040656
000030 38 37 48 3d a5 e7 73 3c 6a 27 15 bd 6b cf 2f 3e
       0.048880786 0.014886771 -0.03641454 0.17168967
000040 f2 c0 22 3d db 7f 87 bb f9 da e7 bc a3 8a 5a 3e
       0.03973479 -0.0041351146 -0.028302656 0.21341948
000050 1e e3 86 3d ea 81 f9 3d fc 54 71 bd 49 ab 6a 3e
       0.06586288 0.12182982 -0.058918938 0.22916903
000060 cb 8b 22 3d e9 11 51 3d b8 60 1d 3b 7b 3f b5 bc
       0.0396841 0.05104247 0.0024013948 -0.022124996
000070 19 95 08 3d 5a c2 d2 3c a3 11 40 3a 51 a2 87 bc
       0.033345316 0.02572744 0.0007326847 -0.01655689
000080 cd 8c b8 3c 48 9f 41 3d 35 24 97 3c 31 9e 9f 3d
       0.022528077 0.047271043 0.018449882 0.077938445
000090 09 51 19 bc 6c 8c fb ba 1c 36 44 bd 08 6e f9 3c
       -0.009357699 -0.0019191629 -0.047903165 0.030447975
0000a0 76 b8 51 bc 92 a2 77 3d ae 7e 1a bc 87 3c 49 3d
       -0.012800327 0.060457774 -0.009429617 0.04912999
0000b0 ef fd 05 be fc 21 da 3d 12 86 26 bc 53 c4 ac 3a
       -0.13085149 0.10651013 -0.010163801 0.0013181068
0000c0 07 4a a9 3d 8e 0b 0c bc 2c 21 6a 3c 90 fe aa bd
       0.08266073 -0.008547677 0.014290135 -0.08349335
0000d0 b6 9f 77 3d a1 34 e4 3d f2 5a a2 3c 2e 3e 06 be
       0.060455047 0.11142851 0.019818757 -0.13109657
0000e0 5a d4 54 3d ea 52 23 3c 3a d0 64 bc 9a df 40 bc
       0.051960327 0.009968499 -0.013965661 -0.011772061
0000f0 ff f1 1f 3d e8 38 16 3e 2b 18 1d bb 31 27 94 bd
       0.039049145 0.14670146 -0.0023970704 -0.07234038
000100 f0 45 dc 3d 35 1d 82 3d e1 b8 ff 3b e7 a4 14 bb
       0.10755527 0.06353227 0.0078040217 -0.0022681297
000110 cd 32 0d 3c af 46 06 3e 8a 52 2b bc 6c ea 95 3d
       0.008618069 0.13112901 -0.010456691 0.07320103
000120 db ee 52 3d 16 0d 81 3c ff c9 5b 3c 56 a3 94 3d
       0.05149732 0.01575331 0.013414859 0.07257716
000130 2a 92 93 bd 3b 72 0e 3e 70 76 c5 3c ef 7d 0d 3d
       -0.07205613 0.13910763 0.024104327 0.034543928
000140 60 38 89 3d a8 26 a3 3c a1 5a a5 bc 6a d6 77 bc
       0.06700206 0.019915894 -0.020184817 -0.015126804
000150 2b 8d 08 bd a8 4f 5a 3e c9 22 e4 bc b3 d7 37 bd
       -0.033337753 0.21319449 -0.027848618 -0.04488344
000160 0c 4e 2e 3d 71 13 5a 3c 26 b4 66 bd 29 2d b2 bd
       0.0425549 0.013310299 -0.056324147 -0.0870002
000170 00 62 1f bd 71 77 f0 3d 48 a6 58 bd 90 a7 17 bd
       -0.03891182 0.11741532 -0.052892953 -0.037025034
000180 2e f1 89 3d 5f a6 22 bd a4 d6 47 bd 09 aa 7b 3d
       0.067354545 -0.039709445 -0.04878868 0.061441455
000190 04 77 80 bd 3f a7 57 bb e0 a4 4a 3b f0 fd e2 3d
       -0.062727004 -0.0032906083 0.0030921027 0.11083591
0001a0 68 d0 94 3c 42 71 55 bd 51 70 1e 3d a9 96 00 3e
       0.018165782 -0.052109964 0.038681332 0.12557472
0001b0 51 b9 81 3d 5c cf 10 3d 28 2d 58 bc 18 49 4c 3e
       0.063341744 0.035354003 -0.01319436 0.19949758
0001c0 cd 5a 57 3d 35 6d 45 bd 11 3f 51 3d ed be 6b 3e
       0.05257683 -0.04819985 0.051085535 0.23022051
0001d0 74 d3 95 3d d2 e6 1c bf b3 5d 58 3d c7 d9 62 3e
       0.07315722 -0.61289704 0.052823734 0.22153388
0001e0 e4 25 a1 3d 0a 4c b0 bd 07 b6 20 3a 51 5e 8f bd
       0.07868555 -0.08608253 0.000613064 -0.07000411
0001f0 76 75 9c 3c a2 c4 f5 3c d7 ec 2a bc 09 d4 6a bd
       0.019098978 0.030000988 -0.010432444 -0.05733112
000200 69 4a dd 3d 6e 73 9f bd c0 b3 36 bd b2 8a a5 3c
       0.10805208 -0.07785688 -0.044605017 0.020207737
000210 26 f8 1a bd 3b bd 9d 3d 10 80 d2 3b 97 db 52 3b
       -0.03783431 0.077021085 0.0064239576 0.0032174343
000220 97 f3 79 3d 0f b1 c0 bd 11 97 2f 3c c8 fb c6 3c
       0.06102332 -0.09408771 0.010717169 0.02428998
000230 df e6 7d bd 0e 64 1a bf 96 f1 fb 3c a4 6d bb 3d
       -0.061987754 -0.6030892 0.030754846 0.09151772
000240 2a 71 01 3e 42 d6 06 3e d4 fb af bb 37 2e 81 bd
       0.12640825 0.1316767 -0.0053705964 -0.06307643
000250 ee ec ad 3d d7 36 97 bd ac fb b0 3c f8 f5 40 bd
       0.084924564 -0.07383507 0.021604382 -0.047109574
000260 be 4f 90 3d 15 c6 93 3d fd 09 28 bb e9 73 8d bd
       0.070464596 0.072155155 -0.002564072 -0.06906874
000270 f4 1a 37 3d ca 43 99 3d c2 83 0e bd be 67 a3 bd
       0.04470344 0.07483633 -0.034793623 -0.079787716
000280 0d 39 ba 3d 75 d7 ab 3d 90 8d db 3c 6b 4c ec bd
       0.09092913 0.083907045 0.0268009 -0.11538013
000290 48 6d 84 3d f4 07 86 3d 6a ae 5d 3d 09 95 06 be
       0.06466156 0.06544486 0.054121412 -0.1314279
0002a0 34 5e 7b 3b 6c 30 59 3d 3b 12 6a 3b 4b 0c 97 bd
       0.003835571 0.053024694 0.0035716433 -0.073753916
0002b0 93 79 7e bd 5f 4a e8 bd 3c 42 c8 bb 7d 10 f1 bd
       -0.06212766 -0.1134231 -0.0061114114 -0.11770723
0002c0 db 03 94 bd ab 6e ba bc 69 53 4d 3d 3f b2 a6 bc
       -0.07227298 -0.022757849 0.050128374 -0.020348666
0002d0 bc 8c 6c bd 90 63 57 3d 64 6c a9 3c e9 03 4c bd
       -0.057751402 0.052585185 0.020681567 -0.049808417
0002e0 e1 50 9f bd e1 1f 85 3d f6 b0 8a bc 06 17 d1 bd
       -0.07779098 0.06500221 -0.016930085 -0.102094695
0002f0 2d 59 0a bd f6 a1 51 3d 6b 46 3d bc 1e 06 88 bd
       -0.03377645 0.05117985 -0.0115524335 -0.06641792
000300 15 a7 66 bd 45 69 e0 3c 8e 0e 2d 3c be a0 5a bb
       -0.056311686 0.027393946 0.010562552 -0.003335997
000310 f8 53 72 bd cb 5b 83 be d3 c5 1f bc a8 99 8a bc
       -0.05916211 -0.2565597 -0.009751755 -0.016918972
000320 aa c7 e9 bc ba ed 76 3d ea ca 0a 3d 71 88 0f 3d
       -0.02853759 0.060285307 0.03388492 0.03504223
000330 0a 0a d4 3d b3 c8 8c 3c 8a 98 14 bd 84 ea a2 bb
       0.10353477 0.017185545 -0.036278285 -0.004971804
000340 ee 4b 8b bd 37 30 09 3d e4 c9 9f bc ea 01 7d 3c
       -0.06801592 0.033493247 -0.019505449 0.015442351
000350 da 53 78 3e 90 a3 74 3e a6 6b 9e 3c 7d 5b 4d bc
       0.24250737 0.23890519 0.01933844 -0.01253402
000360 b9 ef 93 bc 01 37 75 bc 7e e7 a3 3c a1 97 8a bd
       -0.018058645 -0.014966727 0.020007845 -0.06767202
000370 03 fc 87 3c bf ff 7e be 23 6e 78 bc 7e 87 da bd
       0.01659966 -0.24902247 -0.015162977 -0.10670374
000380 2d 30 c6 bc 7e 41 65 bd 60 4f f7 3b 39 41 a9 3c
       -0.024192894 -0.05597066 0.007547304 0.020660983
000390 22 83 5d bd 0f 0b 25 3c 65 ff c5 bc 69 e7 1e 3d
       -0.054080136 0.010073437 -0.024169633 0.03879491
0003a0 57 96 e4 bc c4 bc bd bd ce 8e a5 bc e5 2c 6c bc
       -0.027903719 -0.0926452 -0.020209696 -0.014415001
0003b0 20 82 3a be 54 fe 7f 3e 1e 98 8e 3b 28 3e 6f bd
       -0.18213701 0.24999362 0.00435163 -0.058408886
0003c0 cc 7e 7f 3c 95 f6 67 3d 6a f9 f8 3c 96 fa bc 3d
       0.015594196 0.056631643 0.030392367 0.09227483
0003d0 c3 12 b8 3c 8b 42 3d bd ce ac ee bc b8 91 d5 3d
       0.022469884 -0.04620604 -0.029135134 0.10428184
0003e0 82 d1 99 bb 5a dd c8 3d 60 bd 6d 3c d9 91 85 3d
       -0.0046941647 0.098078445 0.014510483 0.06521959
0003f0 df a7 c1 3d c9 3b 7b bd 35 2b 89 bc f7 4f d1 3d
       0.09455847 -0.061336312 -0.016744236 0.1022033

fcs1.bias f4 [512]
000000 f0 a8 2d be 5d 66 11 be d3 f2 83 bb fe e0 ff bd
       -0.16958976 -0.14199205 -0.0040267496 -0.12494086
000010 3a e2 2b be 1d 05 b2 bd db fb 8c 3d b8 35 04 bd
       -0.16785517 -0.086923815 0.06883975 -0.032277793
000020 8d af 97 3d 8a 48 77 3d ae 6a e8 bd 21 71 56 bd
       0.074065305 0.060371913 -0.113484725 -0.052353982
000030 e5 5f f9 bd 11 7a 02 3c b8 4e 41 bd 17 83 d6 3d
       -0.121764936 0.007963673 -0.047194213 0.10474222
000040 c5 c4 4a 3d 64 a0 17 be 96 dd 2d bc a6 9c c7 bd
       0.04950406 -0.14807278 -0.010611912 -0.09746675
000050 0d 09 a2 3c 56 1d 6d 3d 07 a6 4f 3d ea b2 35 3d
       0.019779706 0.057889305 0.050695445 0.04436008
000060 a3 b1 fd bc da 63 0d bd ac fa 0e be 55 c5 a2 3d
       -0.030968493 -0.034519054 -0.13962811 0.07947794
000070 02 5e 14 be e6 16 14 3e f8 2f c4 3c d2 81 6c bd
       -0.14488986 0.1446186 0.023948655 -0.057740994
000080 39 1c 52 bd 77 dc 63 be 15 10 6b be 3a fc a7 be
       -0.051296446 -0.2225207 -0.22955354 -0.3280962
000090 5d b3 ab bc be 1f fa bd b6 03 2f be d4 54 19 be
       -0.02095955 -0.122130856 -0.1709126 -0.14973766
0000a0 db 9e 83 3c 89 8c be bd 78 e1 ad 3c 21 04 b8 bd
       0.01606696 -0.09304149 0.021225676 -0.089851625
0000b0 6a 78 0c 3d 3c 04 14 bd 60 86 1d bc 65 cc fc 3c
       0.034294523 -0.03613685 -0.009614557 0.030859182
0000c0 e7 2e a2 bc f4 78 87 3d d3 65 86 3d 47 56 1e bd
       -0.019797755 0.06614867 0.0656239 -0.0386565
0000d0 02 0e 5f be e9 70 c3 3d 1f 74 5e be b0 77 f3 bd
       -0.21782687 0.0954302 -0.21723984 -0.11888063
0000e0 f8 49 d8 bd 6e 3f 37 be 21 06 5f bc c5 02 87 bd
       -0.105609834 -0.1789529 -0.013612301 -0.06592325
0000f0 8d 1b 0b be fd a2 89 bd 53 46 17 be 4e 47 8b bd
       -0.13584729 -0.06720541 -0.1477292 -0.0680071
000100 a1 01 fe bd 72 a8 89 3d c6 b8 16 3d 59 f4 bc 3c
       -0.124026544 0.067215815 0.036797307 0.023065733
000110 f0 4f 1e be 24 50 fa bc 68 54 28 be ad 8e 07 be
       -0.15460181 -0.030555792 -0.16438448 -0.1323802
000120 1e a3 35 be 81 0d 68 be 11 d2 b0 bd 1a 50 2d bd
       -0.17738006 -0.22661401 -0.08633817 -0.04231272
000130 ff d2 c5 bd ad 67 68 bd 0a 1c 00 be f0 19 87 3d
       -0.09659385 -0.056739498 -0.12510696 0.06596744
000140 9e 08 30 bd 00 96 37 bc 94 f1 c9 bb a7 0f 9e 3c
       -0.042976968 -0.011205196 -0.0061628316 0.019294573
000150 5b 5e 2d bd 96 fb b2 3d d0 8a 23 be 3a 11 cf bd
       -0.042326313 0.087393925 -0.15970922 -0.101107076
000160 db f0 6d 3d c7 7f b0 3d 62 12 2d be f3 e6 9b bb
       0.058091026 0.086181216 -0.16901544 -0.004757756
000170 67 9d b1 3c db 3c 08 be 61 cc f0 bd 8e 3a 10 bd
       0.0216815 -0.13304465 -0.11757732 -0.035212092
000180 aa 30 56 be c4 19 22 be 2f 5e 2c be dd 48 3e be
       -0.20917001 -0.15830141 -0.16832803 -0.18582483
000190 25 48 3a bb e8 e4 3e 3d 01 0d 1d 3c 95 91 93 bd
       -0.002842435 0.04660502 0.00958562 -0.07205502
0001a0 e6 ba c8 bd a4 d6 71 be e7 0c 92 bd 8f a4 74 3d
       -0.09801273 -0.23617035 -0.07131367 0.059727248
0001b0 97 42 6c 3d fb d9 66 be 3c 55 27 be 72 4b a1 bc
       0.057680693 -0.2254409 -0.16341108 -0.019689295
0001c0 46 7c d4 bd 2d c6 8f 3d 90 cb 26 be 99 5f 36 3c
       -0.10375266 0.07020221 -0.1628859 0.011131191
0001d0 01 40 0c bd f2 1b fe bd a9 3c 24 3d c8 fc 35 be
       -0.034240726 -0.12407674 0.040096913 -0.1777221
0001e0 bc 49 fa bd 78 50 f2 bd c9 ec a1 bc cc d4 82 be
       -0.12221095 -0.118317544 -0.019766228 -0.25552976
0001f0 e6 dd c0 bd 98 9c 7d bd 44 b3 55 be 66 c3 51 3d
       -0.09417324 -0.061916918 -0.20869166 0.051211737
000200 11 34 38 be c3 67 c4 bd 06 13 21 be 3b fe 2c 3d
       -0.17988612 -0.095901035 -0.15729913 0.04223464
000210 49 3b 66 bd 25 51 13 bd 16 c9 d3 bc aa 1b 88 3d
       -0.056208882 -0.035966057 -0.025852721 0.066459015
000220 14 25 a6 3d a8 bc 41 bd 65 1c 3b be df 46 b0 3d
       0.08112541 -0.047299057 -0.1827255 0.086072676
000230 f6 07 3a be d9 d5 c5 bd f5 c5 83 ba 41 3b 74 bd
       -0.181671 -0.09659929 -0.0010053503 -0.05962682
000240 36 ad 02 be fa 6f 48 bd ce fd 5b 3d 8a d7 88 bd
       -0.12761387 -0.048934914 0.053708844 -0.06681736
000250 e0 9d 0c be 48 57 35 bd d4 db 7b be 84 53 26 be
       -0.137321 -0.04427269 -0.24595577 -0.16242796
000260 ba 5d fa 3c 2e 13 1f bd 19 87 11 be e5 ed 85 bd
       0.03056227 -0.03883665 -0.14211692 -0.065395154
000270 8b 27 9b bd 76 fb 48 3d 92 c6 17 be 91 49 3a be
       -0.075759016 0.049067937 -0.14821842 -0.18192126
000280 28 49 2e be 76 f9 2c bd 3f 09 51 bd e9 4c 81 be
       -0.17020094 -0.042230092 -0.05103421 -0.2525399
000290 08 de 10 be 27 33 70 bd 77 6f 85 bc 5e f9 bc bc
       -0.14147198 -0.058642533 -0.016288502 -0.023068126
0002a0 7a 23 31 be 2e 7e d3 bd 04 68 01 be 59 f6 c8 bd
       -0.1729869 -0.10326801 -0.12637335 -0.09812612
0002b0 fd 14 d9 3b 47 c3 37 be 0c 2f 0a 3e 6f ca f9 3c
       0.0066248165 -0.17945586 0.1349451 0.030492036
0002c0 47 4f c8 bd b5 6a ef 3a 79 ff 18 bd c1 7d 5a be
       -0.09780746 0.0018266054 -0.037353013 -0.21337034
0002d0 2a 47 b4 bd 8c ec 56 bd 43 85 d1 bd eb b6 e7 bd
       -0.08802636 -0.052471682 -0.10230496 -0.11314186
0002e0 8e 75 31 be 98 b7 d3 bd fa 4e 01 be 51 fd 42 be
       -0.1733 -0.10337752 -0.12627783 -0.19041945
0002f0 ed 66 ef bd f8 2b 54 be f8 34 10 bd 31 2f ad bd
       -0.116895534 -0.20719898 -0.035206765 -0.08456267
000300 06 6b 80 bb 6c b4 eb bd 73 e9 3b bd 0c 25 32 be
       -0.003919008 -0.11509022 -0.04587693 -0.17396945
000310 60 ac 64 be 11 b4 e5 bb e7 63 24 be 52 c5 47 be
       -0.22331381 -0.007009991 -0.16053735 -0.19508865
000320 79 3f ae bd c6 bd da bc c2 52 ca 3c 7d af 91 bd
       -0.085082 -0.02670182 0.024697665 -0.0711355
000330 ef b8 d9 3c da f2 f5 bb d2 82 22 3c f9 96 11 3e
       0.026577441 -0.007505757 0.009918885 0.14217748
000340 0b 8a f0 bd 33 53 a9 bd 85 62 b5 bc db ef 03 be
       -0.117450796 -0.08267822 -0.022141704 -0.12884466
000350 df 1f d7 bd 62 4d f0 3d ba 4d 1e 3d b6 7e bb 3d
       -0.10504126 0.117335096 0.038648345 0.091550276
000360 0d 88 18 be 48 50 94 3c e5 15 c9 bd b8 2f f8 3d
       -0.14895649 0.018104687 -0.09818629 0.12118477
000370 3a 75 0a 3d 9a 23 94 bd 3e 25 e1 3d 1e 62 24 be
       0.033803202 -0.07233353 0.109934315 -0.16053054
000380 7d 37 b6 3d 07 ab 2d bd 8b b1 87 be a3 2b 3b 3d
       0.08897302 -0.042399433 -0.26502642 0.045695912
000390 d3 8e c3 bd 4c 49 13 be 1d ce 1a be ac 28 79 be
       -0.09548726 -0.1438343 -0.15117688 -0.24331921
0003a0 4d 1d ff bd ca 90 d0 bd a8 64 f7 bd bc 51 28 be
       -0.124567606 -0.10183866 -0.120797455 -0.16437429
0003b0 48 d0 95 bd 9c 45 97 bd e2 1c a5 bd 80 c1 ba bd
       -0.07315117 -0.07386324 -0.080621496 -0.091189384
0003c0 f7 07 14 be 90 6b 3f 3d 79 d5 67 be c4 25 80 bd
       -0.14456163 0.04673344 -0.22640027 -0.06257203
0003d0 78 ee d0 3b 9f 14 6b be 8a 1d 13 be 4a d2 23 3d
       0.006376084 -0.22957085 -0.14366737 0.03999547
0003e0 2d a6 8f bd 71 60 06 3e 5f db 31 be 98 6f 00 be
       -0.070141174 0.13122727 -0.1736884 -0.1254257
0003f0 55 12 6d bd 42 1a 40 3c 34 10 46 be d8 9d da bd
       -0.05787881 0.01172501 -0.19342119 -0.106746376

fc2.weight f4 [256, 514]
000000 f2 1a 0e 3d ec 55 6c bc b1 40 42 bd 2c 50 39 3c
       0.034693666 -0.014424782 -0.047424976 0.011310618
000010 9d 30 6b 3c f4 74 34 bd c7 2c 9b bc 71 26 8f bd
       0.014354852 -0.044056848 -0.01894225 -0.06989754
000020 fe bb c0 bd 27 d3 e9 bd af f2 71 bd 7e 0a a4 3d
       -0.09410857 -0.11417227 -0.05906933 0.08009814
000030 3b 10 8a 3b 18 63 2e 3c f1 c0 b1 bd 94 58 36 bc
       0.0042133606 0.010643743 -0.08679379 -0.011129517
000040 d8 b2 ae 3d c3 45 ac bc 21 6b 50 bd cb 0d ae bd
       0.085302055 -0.021029359 -0.050883416 -0.084987246
000050 88 e7 94 38 11 76 c3 bd 4e 6d a1 bd 39 24 b4 bd
       7.100316e-05 -0.09544004 -0.07882176 -0.087959714
000060 95 19 8c 3d 02 85 c8 bd d3 e5 7f 3c 9b f9 00 3e
       0.06840817 -0.09790994 0.015618759 0.12595217
000070 96 2f d3 bd 73 23 8c bd 83 0f a7 bd 33 0a dc bc
       -0.10311811 -0.06842699 -0.081572555 -0.026860332
000080 8f 31 4c 3d 39 45 1a 3e dd cb 35 3d 18 c4 6d bd
       0.04985195 0.15065469 0.044383872 -0.058048338
000090 89 a1 81 3d d5 c3 11 bd 0e e0 da bd 2a ef 98 3c
       0.063296385 -0.03558715 -0.10687266 0.01866873
0000a0 7c 99 a1 bc f5 b6 52 bd 54 00 df 3b c1 e2 ac bd
       -0.019726507 -0.051444013 0.006805459 -0.084416874
0000b0 84 94 2f bd 3c 54 b2 3c 68 45 61 3c 71 da b3 3c
       -0.042866245 0.021768682 0.013749458 0.021954747
0000c0 19 7a 3d be fc 33 56 3d c5 2d 40 be d4 0f dc bd
       -0.18503608 0.05229567 -0.1876746 -0.107452065
0000d0 69 c6 a5 3c 4a d6 d2 bd d2 e2 9f bd 13 d4 e8 3c
       0.02023621 -0.10294779 -0.078069344 0.028421437
0000e0 7b 68 c4 bb e7 b6 7c bd fc 02 8c bc f4 34 cb 3c
       -0.0059939004 -0.061697867 -0.017091267 0.024805523
0000f0 eb f2 8f bd 4d 64 ec bc 37 cb 26 be 71 2d ac 3d
       -0.07028755 -0.02885642 -0.16288458 0.08407105
000100 46 ff 4c 3d 89 d8 8f bc 8d cb b6 bd fb 8a a1 3b
       0.050048135 -0.017559307 -0.08925543 0.004929898
000110 c3 98 81 bd 0e 0b 2c bd a4 ea 1c 3d 8a 1f a9 bc
       -0.06327965 -0.04200273 0.03830971 -0.020644922
000120 06 6a 7d 3b 83 65 ad bc 83 6a 9e bc 9b 50 ea 3c
       0.0038667931 -0.021166569 -0.019337898 0.028602889
000130 53 07 10 bd 76 95 1e 3d 0d a4 fb bd 7d 93 94 bd
       -0.035163235 0.038716756 -0.122871496 -0.07254694
000140 79 5b 17 3d 11 b7 ac 3d 59 c7 61 bd 83 e3 b3 3d
       0.03695247 0.08433355 -0.055121753 0.08783629
000150 96 f9 f8 bc e7 cb d1 3c 14 27 c9 bd ae ca 67 bd
       -0.03039245 0.025609924 -0.09821907 -0.056589775
000160 e2 ff b6 3d 76 09 72 be 02 f3 5d 3d 93 39 b9 3c
       0.089355245 -0.23636422 0.05418683 0.022610461
000170 e9 77 d0 3c c9 ea b0 bd 8c e6 f8 bc 44 99 ed bc
       0.025447803 -0.08638532 -0.03038337 -0.029003747
000180 8b 50 73 3d 17 9d 81 3c 59 e0 07 3d 98 79 ec 3b
       0.059402984 0.015821977 0.03317294 0.0072166435
000190 46 68 57 bd 47 64 ff 3c d4 7f 12 bd f9 f1 9e bd
       -0.052589677 0.031175746 -0.035766438 -0.07760996
0001a0 35 ef 41 bd d9 fe bd 3b 5f 9e 80 bd 07 14 5c 3b
       -0.047347266 0.0057982025 -0.06280207 0.0033581273
0001b0 96 44 a8 bd ed bc f7 bd 83 a9 a0 bd 83 ae 9e 3c
       -0.08216207 -0.120965816 -0.07844832 0.019370323
0001c0 2e 27 08 bd dd f7 dc 3c 73 2d 10 bd 3b ba 03 bd
       -0.03324049 0.02697366 -0.035199594 -0.032160025
0001d0 21 60 36 ba 22 e5 bd 3c c1 a7 2d be b9 bc f8 bb
       -0.00069570733 0.023180548 -0.16958524 -0.007590857
0001e0 f1 8b 37 3d 1f 52 30 bd b4 66 59 bd 39 eb b4 bc
       0.044811193 -0.043047067 -0.05307646 -0.02208482
0001f0 d8 8d 82 3d e6 9d 99 bd 5e 32 4e 3a b5 1f 8a bd
       0.06374711 -0.0750082 0.00078657817 -0.06744329
000200 ba 78 a8 3d e8 a2 2e 3d 0e c2 13 bd a6 d7 aa bd
       0.08226152 0.04263583 -0.036073737 -0.08341913
000210 69 20 15 bd f5 4f 6e 3d 55 19 c0 bd 28 79 17 bd
       -0.03640786 0.05818172 -0.09379832 -0.036980778
000220 0b 4b c9 bd 41 0e 31 be 08 20 ec 3c 75 a6 48 bd
       -0.098287664 -0.17290594 0.028823867 -0.04898687
000230 23 d1 b9 bc 2a 5c 13 be 36 a5 b9 3c 46 61 4a bd
       -0.022682732 -0.14390627 0.022661787 -0.049409173
000240 af a7 10 3d 64 4e b4 bd 2b 5c 04 3d 16 a6 9a bd
       0.035316166 -0.08804014 0.03231446 -0.0755121
000250 37 53 b0 bd 32 36 89 bd 37 31 97 bd 1f 7e 71 3d
       -0.08609622 -0.0669979 -0.07382434 0.05895817
000260 41 32 8f 3b a6 bd 9e bd 3b c7 29 be 7f db 8e bd
       0.0043700044 -0.07751016 -0.16579907 -0.06975459
000270 e5 43 87 bd ab 1f 2b be 09 d0 14 bd 36 dc 90 bc
       -0.06604747 -0.16711299 -0.03633121 -0.01768313
000280 89 93 82 3b a0 f0 93 bd f3 47 b6 3c 26 9c 11 be
       0.0039848727 -0.0722363 0.022251105 -0.14219722
000290 4e 56 49 bd c1 aa 89 bc d2 df 9e bd ae 21 67 3d
       -0.049154572 -0.016805055 -0.07757534 0.056428604
0002a0 0d de 4e 3b 4d 1b 3e be 4d a0 2c bd 17 66 2c bd
       0.0031565458 -0.18565102 -0.042145062 -0.042089548
0002b0 d2 be b8 bd ff be 40 3d 98 47 e9 b8 c2 08 39 bd
       -0.09020771 0.047057148 -0.00011123641 -0.045174368
0002c0 11 7e 51 bd b8 bc 25 bd 0b 25 b9 3c 95 21 5e bd
       -0.051145617 -0.04046318 0.022600671 -0.054231245
0002d0 1c f2 84 3d 5c b3 00 be 06 1e b7 bd 5f 59 ff bc
       0.06491491 -0.1256842 -0.089412734 -0.031170545
0002e0 d8 03 a4 bd 92 7e 20 bd a5 76 42 3d 58 a3 54 bd
       -0.08008546 -0.039183207 0.04747643 -0.05191359
0002f0 2e 65 11 bc 21 f4 1b be 45 63 b5 bc 21 dd 4b bb
       -0.008874221 -0.15229847 -0.022142062 -0.0031107145
000300 30 03 ec bd cd 08 f5 bd 7a 8c 89 bd 14 4a 0d bd
       -0.115240455 -0.11964569 -0.06716247 -0.034494475
000310 79 de 5a bc 35 00 47 3d 50 74 f5 bd 98 4c 33 3e
       -0.013358706 0.04858418 -0.119850755 0.17509687
000320 bb 51 74 bd 05 8f 4b 3c 29 b3 68 bd de f9 c0 bc
       -0.059648257 0.012424235 -0.056811485 -0.023556646
000330 31 f9 a3 bd 4f 83 3c 3d d6 86 f9 bd cd bf 3e be
       -0.08006514 0.046023663 -0.12183921 -0.18627854
000340 10 b7 71 bd 81 f7 9e 3d 1f 94 ee 3c 51 65 6a bd
       -0.059012473 0.077620514 0.029123364 -0.05722553
000350 9e 86 b3 bc b9 cf 66 3c b6 ee 3f be 20 0a 15 bc
       -0.021914776 0.014087611 -0.18743405 -0.009096652
000360 61 71 b6 bd 0f 27 51 bd e1 fe b7 3c 19 db 16 be
       -0.08908344 -0.05106264 0.022460403 -0.14732017
000370 88 1b 61 3c 36 9d d1 bc df 34 c2 bd 5d ee d1 bc
       0.013739474 -0.02558766 -0.094827406 -0.025626356
000380 07 69 8d bd 5a 07 6a bd 41 11 06 be 8b 79 4d 3d
       -0.06904798 -0.057135917 -0.1309252 0.05016474
000390 1b 5c 1e be 98 d2 2c bd ca c7 37 be 39 1b 92 bd
       -0.15464823 -0.042193025 -0.17947307 -0.071340986
0003a0 66 20 bc bc 38 e9 60 bd 01 86 c2 bd 6e c8 a1 bd
       -0.022964668 -0.054909915 -0.094982155 -0.07899557
0003b0 b5 33 8b 3d 25 b3 38 3d e5 e1 50 bd f3 80 ad bd
       0.06796972 0.04509272 -0.05099668 -0.08471861
0003c0 06 42 4c 3d ed 98 36 3d 68 a6 ef bd 92 70 13 bc
       0.049867652 0.044579435 -0.11701661 -0.008999007
0003d0 2b 6c 3b bd 5e 91 61 3b 86 25 0a be 24 8b 76 bd
       -0.045757454 0.003441892 -0.13490877 -0.06019129
0003e0 89 77 ee 3b 46 5c d8 3c 24 a9 6b bd 47 90 1f bd
       0.0072774333 0.026411187 -0.057534352 -0.038955953
0003f0 d1 87 f2 bc f3 db a2 3d 61 d9 2c 3b 6e 23 56 bd
       -0.029605778 0.07952108 0.0026374685 -0.052279882

fc2.bias f4 [256]
000000 b6 b7 b3 bc 4e 65 6d bd b3 06 da 3a cd cb 0c bd
       -0.021938186 -0.05795794 0.0016634077 -0.034374047
000010 45 7b ce bc 8a 44 38 3d 58 95 fd 3c 18 8c 4c bc
       -0.025205264 0.04498724 0.030955002 -0.012484573
000020 3d 10 69 3a bb f4 7b 3b 8a ac 88 bd b7 e0 5a 3b
       0.00088906643 0.0038445431 -0.06673534 0.00333981
000030 3d 28 bf bc 05 a9 a3 3c 27 8f e6 bc 86 73 37 bd
       -0.023334617 0.019978056 -0.028144432 -0.044787906
000040 e4 02 1d bd 82 4f 20 3c 7d ba cc 3d 0b 4c 80 bd
       -0.038332835 0.009784581 0.09996507 -0.06264504
000050 de 44 7a 3d 1e ce 11 3d ae 02 7d bc a2 3f 21 bb
       0.061100833 0.03559696 -0.015442533 -0.0024604579
000060 fe 7f 6f bd ae 97 fc 3b a7 fd 9f 3d 8b ad c7 3d
       -0.058471672 0.0077085113 0.07812052 0.097498976
000070 12 2e 89 bd a2 7f 82 3b cd cf 79 bd 4f b8 db 3d
       -0.0669824 0.0039825 -0.06098919 0.107285134
000080 15 ca b4 3b a7 96 8b bd 5e 81 ce bc 2c 9d 3c bd
       0.005517254 -0.06815844 -0.025208171 -0.04604833
000090 10 a6 7f bd 47 f2 de bc 30 d8 0e bd 88 2d 55 bc
       -0.06241423 -0.027215136 -0.03487414 -0.013011344
0000a0 9b 12 86 bd c2 f0 10 3d f3 8a 82 3c 47 8e c5 bb
       -0.065465175 0.035385855 0.015935397 -0.0060289237
0000b0 e6 ef 29 3d 01 00 aa 3c 38 55 bc 3c 1a 9c bd bc
       0.04148855 0.020751955 0.022989854 -0.023145724
0000c0 48 df 0f bc 56 54 49 bd 4a 4e 7b bd bc 53 b9 3d
       -0.008781262 -0.049152695 -0.06135396 0.09049174
0000d0 65 bf 48 3d d9 69 0c bd 9f 9c 63 3d 3d 41 8e bb
       0.049010653 -0.03428063 0.055569287 -0.004341273
0000e0 77 1f e9 bc b4 e5 94 bc 98 bb 40 bc 62 b2 1b 3c
       -0.028457386 -0.018175937 -0.011763476 0.009502979
0000f0 ef 19 9b 3c 86 85 90 3c e6 b4 5c bc 8c 27 30 3d
       0.018933265 0.017641794 -0.013470864 0.043006465
000100 5f 28 d1 3d c4 a8 2d 3d 0e 50 1d 3c 0f 6e cf bc
       0.10212778 0.042397276 0.009601606 -0.025321035
000110 0e b0 60 bb 41 4d e2 3c bd 59 3d bd a3 b4 b3 ba
       -0.0034284624 0.027624728 -0.04622816 -0.001371045
000120 91 e4 cc 3c 46 f1 3e 3e 43 eb 55 3d df c5 6c bd
       0.025011333 0.18646726 0.052226316 -0.057805892
000130 cb b1 72 3d ce 2d 4b 3b 76 c2 29 3e d1 aa 37 bc
       0.059251588 0.0031002644 0.16578087 -0.011210159
000140 74 74 07 3d ae b6 23 bd 30 c7 9d bc 6b 14 8d bd
       0.033070043 -0.03996914 -0.019260019 -0.0688866
000150 29 c8 2d 3d 4b 75 19 3d 9f c8 ea 3d a6 65 38 3d
       0.042427216 0.037465375 0.11464047 0.045018815
000160 20 7d ac 3c 21 8e 9c bc 4b 96 30 3c 2d de 51 bc
       0.021055758 -0.019110741 0.01077802 -0.0128093185
000170 3e 3a b0 bd f7 ff c6 bc f9 16 67 bd 77 99 85 bd
       -0.08604859 -0.024291975 -0.056418393 -0.06523412
000180 57 cb 04 bd fa 6a 56 bc 00 70 62 3a 31 d6 69 3d
       -0.032420482 -0.013087029 0.0008637905 0.057089034
000190 75 9b 4d bc ac 35 f0 bc 51 23 a5 3d bd 20 bd bc
       -0.012549271 -0.029322468 0.08063377 -0.0230869
0001a0 43 ec 89 bc 05 5f 9c 3d 5d 93 bc 3d 15 82 7a bd
       -0.016836291 0.07635311 0.09207795 -0.061159212
0001b0 dd 9f b0 3c c3 ae a9 3d f8 bf 5b bd 23 d8 ef 3d
       0.021560604 0.08285286 -0.053649873 0.11711147
0001c0 06 34 cd bc 64 52 f5 bc 6b 80 7d 3d 71 68 ac bc
       -0.02504922 -0.029946513 0.061890047 -0.021045895
0001d0 41 db f4 bc 44 83 84 bd 88 4b 34 bd 75 f8 c0 3d
       -0.029889705 -0.064703494 -0.044017345 0.094223894
0001e0 fa fa 0f 3e e2 37 f6 bc 27 5e 98 bc bd e7 bd 3d
       0.14060584 -0.030055944 -0.018599583 0.09272716
0001f0 6b b2 73 bd ef 44 de bc 2c a5 dc 3b 8e b9 11 3d
       -0.059496325 -0.02713248 0.006733557 0.03557735
000200 b2 a4 54 3c 0c 20 a0 3d e0 79 3d bd 70 9c c5 3d
       0.01297872 0.078186125 -0.046258807 0.09648979
000210 0d cc 13 3e f7 97 28 3c b5 e7 a5 bc 55 3e e3 3c
       0.14433308 0.0102901375 -0.020252088 0.027739683
000220 fb 15 20 bd 53 d8 63 3d d8 18 16 bd 0c b1 c8 3d
       -0.039083462 0.055626225 -0.036644787 0.09799394
000230 6a 2c 5b 3d be f6 63 3d 2e 5a 0d 3d ae 9a 39 bc
       0.053509153 0.055655234 0.03450983 -0.011328382
000240 f1 c3 fe bc 30 3f 0c 3e ab 06 08 3a 48 09 32 3c
       -0.031099292 0.13695979 0.0005188982 0.010866471
000250 e3 cd 82 3d 3b d6 e8 bc 70 bb 55 bd 6c de 07 3d
       0.06386926 -0.028422466 -0.052180707 0.033171102
000260 a0 9d e5 3a 45 de af 3c c2 e2 43 bc dc 83 da bc
       0.0017518289 0.021468291 -0.011955919 -0.026674204
000270 ff 7d a9 bb 4a 84 68 3d 12 39 e8 bc 94 9e c0 bc
       -0.0051724906 0.056766786 -0.028347526 -0.023513116
000280 08 19 ac 3c ff f6 0b 3d 74 c4 11 3d 2f 01 94 bd
       0.02100803 0.0341711 0.035587743 -0.07226788
000290 04 a7 4d bc 79 1e 16 3d 5f b4 33 bc 5a 5b c3 bd
       -0.012552027 0.036650155 -0.010968297 -0.09538908
0002a0 35 25 dc 3c 29 cb 62 bb e2 15 9a bd cf db df bc
       0.02687321 -0.0034605956 -0.07523705 -0.027326493
0002b0 ab 4c 49 3e f9 ac 23 bd 9a 2f d5 3c 16 28 80 bd
       0.19658153 -0.03995988 0.026023675 -0.06257646
0002c0 f2 11 1e bd 50 65 cc 3d 7c 96 d4 bb 35 be f7 bd
       -0.038591333 0.09980261 -0.0064876657 -0.12096826
0002d0 1d ed 88 3d ea 3a 58 3c 78 1a 8a bd 63 9a 22 bd
       0.06685851 0.01319764 -0.0674333 -0.039698016
0002e0 a2 53 97 3d 1d 1a d3 bc 12 37 3d bd 49 e3 31 bd
       0.073889986 -0.025769288 -0.046195097 -0.043429647
0002f0 c6 6a 07 bd ce ff b7 3d c7 35 89 3b d3 c1 65 3c
       -0.03306081 0.08984338 0.004187319 0.014023262
000300 29 ee 67 bc 44 b2 28 3e ba 5e fa 3d 91 bf 53 bd
       -0.014155903 0.16474253 0.12225099 -0.051696364
000310 ef 37 91 bd f8 85 61 bc 74 2d 1c bd 23 d1 d0 bb
       -0.070907466 -0.013764851 -0.038129285 -0.0063725873
000320 d9 e8 6c 3b 0c 61 ca 3d a0 c2 a3 bb e4 8d 58 bd
       0.003614953 0.098817915 -0.0049975663 -0.052869692
000330 7f d7 a6 3c e8 9d 84 bc 32 f0 19 bb 51 66 1d bd
       0.020366428 -0.016188577 -0.0023489115 -0.038427655
000340 0c d6 7a bd ad c4 3c 3c a0 cb 2b 3d 84 fd 27 bd
       -0.061239287 0.011521501 0.04194224 -0.041013256
000350 a8 ac 00 bb cc b7 1f 3e ce e2 ee 3d f0 e6 59 bd
       -0.001963416 0.15597457 0.11664353 -0.053198755
000360 f0 77 95 bc 9b 06 8a bd aa 8f 45 3d 83 6a 3d 3d
       -0.018245667 -0.06739541 0.04823271 0.046244156
000370 4f 34 eb bc 99 6b b1 3d 7b 9e ef bc 3b de e4 bc
       -0.028711466 0.08663101 -0.029250374 -0.027937999
000380 84 e7 2d bd c5 6e 4a bd b7 3b f7 bb da bb 14 3e
       -0.04245712 -0.049422044 -0.0075449604 0.14524785
000390 b7 90 5f bb f0 c9 ce 3d 9e 66 bf 3c 0f b4 51 bd
       -0.0034113356 0.1009711 0.023364361 -0.051197108
0003a0 20 82 1e 3d 4f d3 2c 3d fa fa 48 3d d4 41 e2 3c
       0.038698316 0.042193707 0.049067475 0.02761928
0003b0 1f ae df 3d 10 c6 74 bd 66 1f f3 3d 3a f2 c2 bc
       0.10921883 -0.0597592 0.11871223 -0.023797143
0003c0 f3 d8 ac 3d 91 48 9f 3c b9 d8 d2 3d 34 f3 05 3d
       0.08439817 0.019443782 0.10295243 0.03270264
0003d0 33 db b4 3d 48 a5 85 bb fb 7c bd 3d df 1d 93 3b
       0.088308714 -0.004078541 0.09252354 0.004489645
0003e0 3a 32 05 bc 0f 2d 66 bd 09 de f4 3d f4 1c 8b 3a
       -0.008129651 -0.056195315 0.11956412 0.0010613487
0003f0 13 9d d6 3c 1c 43 ae 3c a6 ea dc 3d 43 b3 0b 3c
       0.026197946 0.021272235 0.10786943 0.008526626

fc3.weight f4 [1, 256]
000000 3f a8 3b 3c 94 55 9c bb 98 83 7e 3c dd 24 95 bd
       0.011453687 -0.004770944 0.015534304 -0.07282422
000010 b6 b6 c7 b9 5f 22 84 3b ec ca 10 3c ec 37 6b 3c
       -0.00038092368 0.0040324177 0.008837443 0.0143565945
000020 41 74 f5 ba cd b8 ee ba 11 25 29 3c c5 d8 78 3c
       -0.0018726663 -0.0018213034 0.010323779 0.015188401
000030 0a d7 ff bb b8 e3 be bc c6 d1 ad bc 7c 0e b4 3c
       -0.007807617 -0.023301944 -0.021218192 0.021979563
000040 c1 70 ba ba dc 5f e8 bb 80 8e b9 3b 7c 83 87 3c
       -0.0014224277 -0.0070915055 0.0056627393 0.016542189
000050 d4 16 84 3b 22 40 b2 3c ce 01 3e 3a f1 0d 4c 3c
       0.0040310416 0.021759097 0.0007248194 0.012454496
000060 0b 63 68 b9 c9 7a f5 bb 2f 53 c0 3c 0f e3 a0 3b
       -0.0002216214 -0.007491444 0.023477165 0.00490988
000070 ea 39 18 bc fc b6 e9 39 a2 64 b2 3b 61 74 37 3b
       -0.009291152 0.00044577557 0.0054441253 0.0027992951
000080 7d 75 42 3d e1 34 cb bb 09 4d 67 3b 3c 3d c5 bb
       0.047475327 -0.006201372 0.003529372 -0.0060192626
000090 ed fe d4 3b 80 73 82 3c 16 7b 19 ba fa 34 a7 3d
       0.006500116 0.015924215 -0.0005854828 0.08164401
0000a0 4c 2a 39 3c fb 6e 36 3c be 67 35 3d 93 e7 20 3c
       0.011301588 0.011134858 0.04428839 0.009820837
0000b0 8b 11 59 3c 55 3e 97 bd ac 92 a9 3c bc 18 6e bb
       0.0132488115 -0.07384936 0.020699821 -0.003633066
0000c0 8d 41 4b bc 29 82 f3 3b 00 b2 d0 3d e4 9e ae 3b
       -0.012405765 0.007431288 0.10190201 0.005329
0000d0 64 e5 be 3b 46 65 91 bd 98 38 5d 3b 0c a4 90 39
       0.0058256853 -0.070993945 0.0033755656 0.00027588045
0000e0 8b 83 f8 bc 03 bd b9 3b 73 92 02 3c a1 c8 ff 3b
       -0.030336162 0.005668284 0.0079694865 0.0078058993
0000f0 71 d8 b0 bb 27 92 15 3c 40 7e 91 3a f3 b3 03 bc
       -0.0053968956 0.009129084 0.0011100248 -0.008038509
000100 40 bd 55 3b e9 84 bf 3b 2e 9b 36 3d e8 fc 48 3c
       0.0032614022 0.0058447015 0.044581585 0.012267329
000110 b2 f6 a0 bb 7a 86 34 3c ea c7 75 bc 72 2c 62 bd
       -0.004912221 0.01101839 -0.0150012765 -0.055218168
000120 95 a0 06 3c 34 f1 75 3b f7 70 be bc 46 c3 30 bd
       0.008216997 0.0037527801 -0.023247225 -0.043154977
000130 36 59 8e 3b 2b 15 59 3b 20 9d 4c 3b b9 65 be 3b
       0.004344131 0.003312419 0.0031221583 0.005810466
000140 ba 66 2b 3c a7 ac 99 bc 36 55 50 3c ef 83 15 3b
       0.010461504 -0.018759085 0.012715628 0.0022814234
000150 22 f0 87 3b a2 81 30 bd 5c 83 68 3b 1b 90 e7 3b
       0.004148499 -0.043092377 0.0035478687 0.0070667393
000160 f6 3d c0 bb 3c 01 77 bd ab 2a 97 3c 63 9a ab 3b
       -0.0058667613 -0.06030391 0.018452963 0.00523691
000170 8a ee 29 bb 7c 21 97 3b 8c 49 58 3b 97 e2 08 bb
       -0.0025929534 0.004612146 0.0033002822 -0.0020887011
000180 15 bb c8 3b 4a 47 ba bb e2 72 56 3c 54 f0 45 3c
       0.0061258175 -0.005684768 0.013088914 0.0120812245
000190 93 4e fe 3b 7b 46 de 3a e7 36 54 3b 2c 4d 9e 3a
       0.0077608316 0.0016958261 0.0032381357 0.0012077442
0001a0 5a 82 01 3c 86 56 9f 3b 0e 3d 92 3b 1f ee ca bb
       0.007904613 0.0048626093 0.0044628447 -0.006192937
0001b0 96 79 95 3b 3e 0c 7b 3c 68 76 6e 3b 49 d5 45 3b
       0.0045616133 0.015322743 0.0036386494 0.0030186942
0001c0 18 5d af 3b 3f 1e 3c 3c e6 49 1b 3d 5e 58 85 ba
       0.005351674 0.011481821 0.037912272 -0.001017343
0001d0 0f 21 76 ba ba c4 06 3a 4f 9e f3 b8 26 b8 15 3c
       -0.00093890814 0.0005141009 -0.0001161663 0.009138143
0001e0 30 4f 97 3b 88 f7 e0 bb ad 7b 09 bd ae 03 23 3b
       0.004617594 -0.0068654455 -0.033565212 0.002487402
0001f0 36 7a 11 bc b7 c5 af bc e7 bf 0d be ce dc 17 3c
       -0.008879235 -0.021456582 -0.13842736 0.0092689525
000200 25 27 8c 3c 36 e9 a6 3b be 97 b5 ba bd 07 8f 3b
       0.01710851 0.005093719 -0.0013854427 0.004364936
000210 96 cf cb 3b 48 79 76 3c 9c 16 c5 3a 67 06 c0 3c
       0.0062198145 0.015043564 0.0015036645 0.023440553
000220 d2 ac bf bb 67 22 84 3b fb 14 2b 3d e6 03 94 3b
       -0.005849459 0.0040324214 0.041768055 0.0045170663
000230 d9 1b 93 3b ec d6 5e 3c 63 b1 82 3b 6c 88 77 bd
       0.0044894037 0.013601046 0.0039884313 -0.060432836
000240 60 e3 c4 3a e1 41 d3 3b 0c 82 cb 3c b9 4d 1d 3c
       0.0015021376 0.0064470624 0.024842285 0.00960105
000250 32 24 72 3b c8 26 7d 3c ba 0b b4 3b 5e c1 70 3c
       0.0036947844 0.015451141 0.005494562 0.01469454
000260 ba c6 76 bb ab 26 e5 3a e6 1f a4 3c 5c e5 ae bd
       -0.0037655071 0.0017482837 0.020034742 -0.085398406
000270 ce 98 f7 3a 24 6d 00 3c 03 a8 c1 3b 18 84 77 bc
       0.0018890144 0.007838521 0.005909921 -0.015107177
000280 5f 41 a2 3c a8 7a 02 3c 5b eb 54 3d 4e fe 31 bc
       0.019806562 0.007963814 0.051982265 -0.010863854
000290 ac 7c d5 3c 07 cb e2 bc e8 32 d9 3b e4 08 c9 bb
       0.026060425 -0.027684702 0.006628383 -0.006135093
0002a0 c4 41 3c 3c e6 56 ba bb 74 c8 f7 bb 7a 94 26 3b
       0.011490289 -0.0056866286 -0.0075617377 0.0025418089
0002b0 ad 03 95 3b ad 2e 22 3c be b1 d8 3c 82 3f dd bb
       0.0045475573 0.009898824 0.026451942 -0.0067519555
0002c0 4a e4 fe 3b 4f 1d 6d 3b b8 43 8a bd 33 83 cf bd
       0.007778679 0.00361808 -0.067511976 -0.10132446
0002d0 66 b8 a0 3b f4 2f 85 3c a2 d6 0f b9 af 6d b2 3c
       0.0049047945 0.016258217 -0.000137175 0.021780817
0002e0 4f 32 a1 3b e9 5c 2b 3b 7b 6f 7a b8 9d 86 27 3c
       0.0049193273 0.0026147908 -5.970847e-05 0.010224965
0002f0 3a 29 08 bb d8 4c 87 3b a6 d1 4a 3b 01 f7 b4 3b
       -0.0020776526 0.0041290335 0.0030947714 0.005522609
000300 11 c0 03 3b 92 ae 8d 3b a3 1e 52 3b 8c 1b 37 bb
       0.0020103494 0.004323789 0.0032061718 -0.0027940003
000310 7c 6b 71 ba d1 7b 10 3c 74 41 e7 bb 15 b9 a3 3b
       -0.0009209437 0.008818583 -0.007057363 0.0049964287
000320 f4 fa 48 3c e3 8e a2 3b 79 5d ab ba ff 7f 82 3a
       0.012266863 0.004960881 -0.0013074122 0.0009956359
000330 50 66 88 3b 75 14 8e 3c 85 3b 0a 3c 9e 1b b0 3c
       0.004162587 0.017343739 0.008437042 0.021497544
000340 94 96 76 ba f3 e6 25 3c bb 58 17 3c 9a cd 3c 3c
       -0.0009406593 0.010125863 0.009237464 0.011523629
000350 6e cf 9f bc cb 06 e4 3b db 11 42 3b c0 b2 c6 3d
       -0.01950809 0.0069588176 0.0029612693 0.097020626
000360 b8 cf ff 3b 14 f1 23 bb 44 36 9d 3c 0a 57 ab 3b
       0.0078067444 -0.002501552 0.019190915 0.0052288817
000370 e1 7a 33 bb f6 f8 87 3b 1b 08 80 bc 57 30 d7 b9
       -0.0027386474 0.0041495515 -0.015628865 -0.00041044012
000380 03 e8 0a bb 20 c6 9c ba 9e 6b 09 39 4b 0c b8 3b
       -0.0021195419 -0.0011960901 0.00013105429 0.0056167
000390 a7 af b3 3a 31 7a 37 3b 49 d3 a3 bb 0d d3 a3 3b
       0.0013708965 0.0027996416 -0.0049995524 0.0049995244
0003a0 4a f4 35 3b cc 52 bc 3c 0c 6c 43 3c 54 d9 aa 3b
       0.0027764016 0.0229887 0.011927616 0.005213896
0003b0 aa ed b7 3b 65 f3 dc 3b 28 60 64 3b 62 c6 60 3c
       0.0056130486 0.006742882 0.0034847353 0.013719173
0003c0 f4 91 02 bd bd 13 72 bb 35 b6 4e 3b 0c c9 9b 3c
       -0.031877473 -0.0036938034 0.003154171 0.019016765
0003d0 d4 bb 92 3b f2 e2 d5 bb 9e e1 88 3c df f3 31 38
       0.0044779573 -0.006527298 0.016709145 4.242721e-05
0003e0 80 8e 4a 3a 63 c8 20 bc 22 11 95 3b 70 76 f3 3a
       0.00077269226 -0.009813401 0.0045491615 0.0018574726
0003f0 df d5 03 ba 3e 32 1a 3c 0c 0c b9 3b 89 fb b7 bb
       -0.00050291227 0.009411393 0.005647188 -0.005614702
