results/results_7/solved_agent1_actor.pth (torch, 630059 bytes, 6 tensors)

fc1.weight f4 [512, 48]
00000000: 16b7 ea3c 81df a4bc 6603 503b 8c8e 8b3d
00000010: 6f11 7dbc 5050 23bd e27f 693c 66b1 c63c
00000020: 09d7 cdbc e0e5 b5bb 7bae a53c 72c9 533d
00000030: 5ed4 5c3d 1df1 cb3c 5cb4 973b 1047 eebc
00000040: edf7 b3bc 1c5b e53c a034 76bb 6e88 ad3c
00000050: ecd3 9f3d 13f9 c13d 8a3f e63b 6013 d9bc
00000060: e7a0 e7bc 0f75 b33b 09eb cebc 895a cc3d
00000070: 4f17 90bb f533 4cbc 77f5 0dbd 487e e63c
00000080: 0607 12bc 0bee 363d 86c5 263d a6ee 213d
00000090: 14cd 1dbd 527f 183b a07a d0bc 7db9 85bc
000000a0: e418 b0bc c645 39bd bfc7 833b 5d47 c03d
000000b0: 6ed0 d3bd 73dc 043e b223 883c 2368 9d3d
000000c0: 88aa 61bd 9353 813d 6c7f 223c 957d 543d
000000d0: c4f0 8cbd 8927 c7bc 2bbb dfbc 57e9 573d
000000e0: e54a e63b 4b54 debb 337e 99bc ac38 693d
000000f0: ec20 58bd 08bf 1cbd 948d 6fbc 9c36 463d
00000100: 9c8d 51bc bb08 013d c3f9 cc3c c49a 7f3d
00000110: 3ea9 383d ffb1 0dbb 79cc b2bc 6817 f93b
00000120: 0ac0 223d 0eb5 d5bd 8b24 583d 7fbe 0f3d
00000130: 05e5 063d c1d1 25bd c3ac 533d 484a aaba
00000140: 4850 fe3a a8f7 6ebd 7f4a 7b3c 7601 a93d
00000150: a152 9dbc 146d 16bd 71a1 1b3c f6ae b93d
00000160: 6b65 91bc ebea 39bd 4564 0e3d 5b08 733d
00000170: 331b 863c 99c2 343d 4e78 fcbc b660 8a3c
00000180: 50eb 4a3c 3f67 f23c 2179 66bd 9238 11bc
00000190: 31cf acbb b78a 833d 2cad a5bc 1bc5 ad3c
000001a0: 72fc 37bd 2350 8bba 1e34 bfbb 8e58 f53c
000001b0: d0ff 1b3d a156 75bc ba2e f5bc 2ad8 b73c
000001c0: cb60 e1bc ef08 7c3d 5fa3 13bd 5695 9a3c
000001d0: 7fb9 b73d 1adc 2ebd dabd 0fbb 6e97 a93c
000001e0: 55d8 57bc 7790 98bd 62db 433d d1ac 91bc
000001f0: 7a66 e639 5598 e03c f73f 033d faa6 ffbc
00000200: 39ba 753c e1be 9abd 4aad 28bc 8c68 d53c
00000210: ce57 9fbd 5cdd 16bd 3852 163c ac8e f4bc
00000220: 1512 0dbd 8774 12bc 4c1f 67bd f360 583c
00000230: f6ae ecbc 1519 b5bd 3820 05bd 8286 d13c
00000240: 9da8 79bd c00c 373c 2c9d 14ba acef 69bc
00000250: a804 8dbb 3620 20bd 7b35 c23b 5ca6 dfbc
00000260: f60c a0bc ef29 7ebc 4586 4abc 6fc1 20bd
00000270: 4674 8a3c 862e 09be cd27 263c 720c 8cbd
00000280: 8d09 67bd c025 843c c084 38bd eb75 fd3b
00000290: ab6a ac3c 4881 80be 098e 963c 0bf6 dbbc
000002a0: 9dec 4e3b d75f dcbd ed97 dabb a2ca 50bc
000002b0: 3670 75bd 2a1f 7bbc d941 2f3c 1c58 453d
000002c0: 84de d7bc 9e7a e5bd 29cf dfbc abc3 d6ba
000002d0: 7040 aebc 1b2c d9bd bdf0 e63c c5e6 583d
000002e0: 97ef 5bbd 10e8 8abc 441f 053d bb32 0d3a
000002f0: 92fb 92bd da89 66be e67f edbc 7644 573d
00000300: 05bd 823d 3bce 323c d62c 0cbd b805 b9bc
00000310: 8e3e 453d 1ba4 633d fa72 173b c946 87bd
00000320: 70c2 ed3c a356 883c b08f 9f3c e3f4 97bc
00000330: b307 e4bc c716 8f3d b036 a73c ddc7 42bd
00000340: c0f4 2d3b a391 6abc a528 5c3c 8025 c43c
00000350: 27a0 a53b 8321 a03d d2f0 fe3c 100f dfbb
00000360: a452 1b3d 561a d2bc de98 aa3c 939d bebd
00000370: 21a8 93bd 81ea 6c3d 2221 e73c fdfe cbbd
00000380: 5213 343d 997b 2cbd 81d3 aabc 4059 c6bd
00000390: 6f57 21bd 1abe 543d bb09 66bd 5005 9fbd
000003a0: 3efc c63c 102e 86bc 99a0 aebd cfd5 f1bd
000003b0: 9c90 b33c 33e3 66bb b61a 71bd 4d88 9dbd
000003c0: fc79 02bd c276 d03b a069 1a3d f5fb 49bc
000003d0: bf82 1ebd e077 963b 3255 18bc dbb3 023d
000003e0: d9a7 93bd f20d dc3c e13d 403c 2e3e 70bd
000003f0: f777 babc 88cb 5a39 635d 58bd b4cc 3cbd
0.028651755 -0.020126106 0.0031740307 0.06814298 -0.015446051 -0.039871514 0.014251681 0.024254512
-0.02512695 -0.005551085 0.0202248 0.051705785 0.053913467 0.024895245 0.004629655 -0.02908662
-0.021968806 0.027997546 -0.0037567988 0.021183219 0.07804093 0.09471335 0.0070266174 -0.026498497
-0.028274966 0.005476601 -0.025258558 0.09978206 -0.00439731 -0.012463559 -0.03465792 0.028136387
-0.008912807 0.04466061 0.040715717 0.039534234 -0.038525656 0.0023269248 -0.025449097 -0.0163238
-0.021496244 -0.045232557 0.0040216143 0.093886115 -0.10342489 0.1297472 0.016618583 0.07685878
-0.055094272 0.06314769 0.009918075 0.051877577 -0.0688186 -0.024310844 -0.027310928 0.052712765
0.007027971 -0.006784951 -0.018736934 0.056938812 -0.05276577 -0.03826812 -0.014621157 0.048391923
-0.01279011 0.031502467 0.02502144 0.062403455 0.045083277 -0.0021620987 -0.021826016 0.007601667
0.039733924 -0.10434924 0.052769225 0.03509378 0.032933254 -0.04048324 0.05167843 -0.0012992108
0.0019402588 -0.058341652 0.0153375855 0.08252232 -0.01920444 -0.03672512 0.00949894 0.09066574
-0.017748555 -0.04539005 0.034763593 0.05933414 0.016370391 0.044130895 -0.030819084 0.016891818
0.012385204 0.029590247 -0.05626786 -0.008863585 -0.0052737226 0.06422942 -0.020224176 0.021212151
-0.044918485 -0.0010628741 -0.0058350703 0.029949453 0.03808576 -0.014974267 -0.029929508 0.022441942
-0.027511975 0.061531957 -0.036044475 0.018870037 0.089709274 -0.042690374 -0.0021933229 0.02070209
-0.013174136 -0.074494295 0.04781664 -0.0177826 0.0004394537 0.027416388 0.032043424 -0.03120755
0.014998012 -0.075559385 -0.010295222 0.026050828 -0.07780419 -0.0368322 0.009174876 -0.029853188
-0.034441072 -0.008938915 -0.05642633 0.013206708 -0.028892022 -0.08842675 -0.03250143 0.025576834
-0.060951818 0.011172473 -0.00056691724 -0.014278334 -0.0043035336 -0.03909322 0.0059267855 -0.027301006
-0.01953743 -0.015512927 -0.012361114 -0.039246973 0.016901147 -0.13396654 0.010141325 -0.06838311
-0.056405593 0.016131282 -0.045048475 0.007735004 0.021046957 -0.25098634 0.018378275 -0.02685072
0.0031574138 -0.107604675 -0.006670943 -0.012743624 -0.059921466 -0.015327254 0.010696852 0.04817973
-0.02635122 -0.11205028 -0.027320461 -0.0016385218 -0.02127096 -0.106041156 0.028190965 0.052954454
-0.053695288 -0.01695636 0.03250052 0.00053862826 -0.071768895 -0.22513524 -0.02899165 0.052555524
0.06383709 0.010913427 -0.034222446 -0.022585735 0.04815536 0.055576425 0.0023109303 -0.06605298
0.02902338 0.016642874 0.019477695 -0.018549388 -0.027835703 0.06986766 0.02041182 -0.047553886
0.0026543587 -0.014316949 0.013437425 0.023943663 0.005054492 0.07818892 0.031120691 -0.0068072155
0.03792061 -0.025647324 0.020824846 -0.09307399 -0.072098024 0.057840828 0.028214041 -0.099607445
0.043963738 -0.04211006 -0.020852806 -0.09684992 -0.039390024 0.051939107 -0.056161623 -0.07764685
0.0242902 -0.016379386 -0.08526725 -0.11808359 0.021919541 -0.0035230636 -0.058863364 -0.07692013
-0.031854615 0.0063618133 0.037698388 -0.012328138 -0.038698908 0.004591927 -0.009297656 0.031909805
-0.07209749 0.026862118 0.011733503 -0.05865305 -0.022762282 0.00020865921 -0.052823436 -0.046093658

fc1.bias f4 [512]
00000000: 01a5 e0bd 797f f6bc 9684 e13b d14b 0fbc
00000010: 6aef d7bd 4d08 9a3c 3cc5 dd3d 1290 55bc
00000020: 0baf 1a3e fe42 013e 13bd 2abd 01ad 97bc
00000030: 02d6 aa3c ed59 953d abdc 9e3d f8d9 263e
00000040: ea2e 0e3e 67c9 5fbd 4d88 813d d3ef 0ebd
00000050: ec59 733d f70e ad3d 3f60 d93d 0d78 6b3d
00000060: c628 c83c a55b 563d 9e3f a1bd bc22 b53d
00000070: 585d 9dbd 7970 0e3e 9865 a93d e5bd 6abc
00000080: ca78 9c3b 8c18 02be a2af d1bd d104 17be
00000090: d50f 973d f313 96bd a5d6 4bbd fa1e 2dbd
000000a0: 3557 b93d e1ef 20bd 76b6 213d 4990 af3c
000000b0: 7a62 c03d c02c 363d f7ad b93d 9474 b03d
000000c0: e048 a6bb e7ea e73d f698 833d 50b7 0b3d
000000d0: a5a5 f4bd c643 a33d 2cae a0bd 3dc1 d63c
000000e0: 7d66 9a3c e774 ddbd ff9e 183d dabf bbbd
000000f0: e635 c7bd 3812 a73c e421 a4bd 1224 f3bc
00000100: 1b58 98bd 8215 1b3e 191e 933d 1ad2 163e
00000110: be92 9abd ae71 42bd 3d98 a4bc 4e6d a8bd
00000120: e9b2 f1bd 238a b3bd 744a b03c e4f0 733d
00000130: 3669 87bd 3871 1fbd 52e0 97bd d871 bd3d
00000140: 2e11 b53d 23f3 1e3d 982c 663d 0c56 7f3d
00000150: 35e4 d9ba 104b e53d ad0d 26be c660 6fbd
00000160: 21bf 053e cf08 153e 8d21 c8bd 1ef8 963d
00000170: 9bc0 cb3d e8bf 6bbc b198 40bd 844f 36bc
00000180: 74aa a6bd e50b aebd 5802 d2bd 22b8 91bd
00000190: b201 dd3d 33e5 8e3d e015 c53d eee0 1a3c
000001a0: 64d9 3ebd 0826 dabd 6de6 37bc e50d 133e
000001b0: 321d c03d 2559 16be 5907 1bbe fc81 e83c
000001c0: 79f2 8fbd c291 dc3d 6be9 19bd b91e 843c
000001d0: f7c1 c4bb ecb9 aabd f521 873d be31 a6bb
000001e0: bff3 dbbd 2bf3 6cbd 3b6d dc3c 85ca fdbd
000001f0: 2c24 7fbd bf6d 8a3d 2b2a dabd 62ba 143e
00000200: 469b 9bbd 4d79 7e3c 0a6b 3dbd 3df3 b73d
00000210: ea6c 183d cc3c 913d a958 303d c4fe 0e3e
00000220: da83 043e fa49 8c3c 0904 20be a61e fe3d
00000230: 6ddc 7dbd b793 87bd c9be 7e3d 7898 003d
00000240: cda4 96bd 8763 0f3d ce61 d43d cef2 44bd
00000250: b7e3 b8bd 4dcc 943d fbd5 90bd c613 e5bd
00000260: 6694 dc3d 97bb 823d 4b93 86bd dbf8 303b
00000270: af61 b9bd cc2e 363d 5fec a9bd 924c d7bd
00000280: dd22 d1bd 425b 3f3d 4536 b23d 7961 fbbd
00000290: 283a 7ebd a622 123d 7d20 f0bc d290 7e3d
000002a0: a9f4 bcbd 130a 7bbc bf2d e2bc a130 4fbd
000002b0: 91e1 2c3d e19a e9bd e321 193e 7323 993d
000002c0: c02a 073d 881c ef3d 0207 ae3c 2869 28be
000002d0: 6476 93bd 9aba d33d 7704 d33b f3f7 fabc
000002e0: 1ff0 97bd 7bf0 243d 335a 98bd 75ac b4bd
000002f0: 3311 85bd b687 05be 4d02 3b3d 6a9a 97ba
00000300: 5069 d53d 9038 8bbd f564 b33d 9b95 06bd
00000310: dc6a c7bd 32be ef3d a4d4 13bd 77f8 d4bd
00000320: 9083 0e3d ff8e 883d 3b68 973d 3398 3dbd
00000330: f3af b73d ecdb 343d 5043 bd3d b63b 2c3e
00000340: 600e 40bc cbbd a0bc ec15 cb3d 2616 5dbd
00000350: 78d8 5cbd e0e4 113e 4a39 ac3d f052 1c3e
00000360: 7993 b6bd f6a1 a03d 900a 7fbd 2033 0d3e
00000370: 0e9c 303d 1b25 a4bc 23ce c43d 12d3 a6bd
00000380: e0e8 e33d 11d2 5d3d 28d1 f6bd cdf6 8f3d
00000390: 3fa8 c83c b8a4 7bbd 822d 8cbd 9f9a 13be
000003a0: fe66 c9bc f7f7 1d3d cb31 fbbc a126 3dbd
000003b0: 8adb 38bc 170d 97bb 4245 3cbd ee3d 2fbd
000003c0: 2331 e9bd 583b f13d cff4 1bbe 4097 a8bc
000003d0: d7dc 6c3b 447a d6bd 27b7 37bd a039 b13d
000003e0: cdb1 a2bd fd53 0b3e 298b 16bd bbbf 26bc
000003f0: d6ab f6bc f2a0 5b3d 5af8 d3bd 16d2 d0bc
-0.10968972 -0.03009008 0.0068822606 -0.008746103 -0.105437115 0.018802786 0.10828635 -0.013034837
0.15105836 0.12623212 -0.04168422 -0.018515112 0.020854 0.072925426 0.07756933 0.16294086
0.13885084 -0.05463543 0.063248254 -0.034896683 0.059411928 0.0845012 0.106140606 0.057487536
0.024433505 0.052333493 -0.07873462 0.08844516 -0.076838195 0.13910092 0.082713306 -0.014327501
0.0047751414 -0.12704676 -0.102385774 -0.14747931 0.073760666 -0.07328024 -0.049765248 -0.04226587
0.090498365 -0.039291266 0.03948065 0.021431105 0.09393783 0.04447627 0.09066384 0.086159855
-0.0050746053 0.11324101 0.06425659 0.034110367 -0.11945657 0.07971911 -0.07845721 0.02621519
0.018847698 -0.10813313 0.037261005 -0.09167452 -0.09727077 0.02039443 -0.080142766 -0.029680286
-0.0743868 0.15144923 0.07183475 0.14728585 -0.0754752 -0.047471695 -0.020092124 -0.08223973
-0.118017025 -0.08766582 0.021519877 0.059555903 -0.06611864 -0.038926333 -0.074158326 0.092502296
0.088411674 0.038806092 0.05619487 0.06233792 -0.0016623797 0.11195958 -0.16216154 -0.0584419
0.13061191 0.14554141 -0.09772024 0.07371543 0.09948846 -0.014389016 -0.047020618 -0.011127356
-0.0813798 -0.084983625 -0.10254353 -0.07115199 0.10791339 0.0697731 0.09623313 0.0094530415
-0.04659404 -0.10651785 -0.011224371 0.14360769 0.093805686 -0.14682443 -0.15139522 0.028382294
-0.0702867 0.107699886 -0.03757612 0.016127931 -0.0060045677 -0.08336243 0.06598274 -0.0050718477
-0.1073985 -0.05784909 0.026907554 -0.12392143 -0.062290356 0.06759214 -0.10652574 0.14524224
-0.075979754 0.01553185 -0.04624466 0.08981941 0.037213244 0.07091674 0.043053303 0.13964373
0.12940922 0.017125119 -0.1562654 0.124081895 -0.061977793 -0.06619971 0.062193666 0.031395406
-0.07355652 0.035007026 0.10370217 -0.04808312 -0.09027808 0.0726553 -0.070720635 -0.11185412
0.10770492 0.06383436 -0.06571063 0.0027003798 -0.09051835 0.044478223 -0.08297037 -0.105126515
-0.10211728 0.04671789 0.08701757 -0.12274451 -0.06206718 0.035677575 -0.029312367 0.06214983
-0.09226353 -0.015322226 -0.027609704 -0.050583486 0.042207304 -0.11406494 0.14954333 0.074774645
0.032999754 0.11675364 0.021243576 -0.16446364 -0.072003156 0.10338326 0.0064397412 -0.03063581
-0.07418846 0.040268403 -0.07439079 -0.08821956 -0.06497421 -0.13040051 0.04565649 -0.0011566405
0.104204774 -0.06797898 0.087594904 -0.03285752 -0.09737179 0.11706199 -0.03609146 -0.103989534
0.034793437 0.06667899 0.07392927 -0.046287727 0.089691065 0.044155046 0.092413545 0.16819653
-0.011722177 -0.01962175 0.09916291 -0.0539762 -0.05391738 0.14247465 0.084093645 0.15266013
-0.08914847 0.078433916 -0.062265933 0.13789034 0.043117575 -0.020037225 0.0960963 -0.08145727
0.11128402 0.054155413 -0.12051612 0.070294954 0.024494288 -0.061436385 -0.068446174 -0.14414452
-0.024585243 0.038566556 -0.030663392 -0.046179418 -0.011282811 -0.0046097147 -0.045964487 -0.04278367
-0.11386325 0.11778897 -0.15230106 -0.020579934 0.0036142373 -0.10472539 -0.044852402 0.08653569
-0.07944069 0.13606258 -0.036753807 -0.010177548 -0.030111235 0.053620286 -0.10350104 -0.025490802

fc2.weight f4 [256, 512]
00000000: 34e7 17bd aa4f f33c 68d8 853c 2baf babd
00000010: 8cfb 0b3d fe28 6a3d 8f61 983c a588 333d
00000020: 4240 11bd 4beb 993d df43 323d 04b3 47bb
00000030: 7a1f dabc dc34 833c 6c8e d5bd 758a 3bbb
00000040: 2a52 c23c 126d 4a3d 7b7d 033c d476 923b
00000050: 6360 8b3d 39ae 82bd 5c37 e73c 71c2 83bd
00000060: 8c55 a3bb 0131 61bc edae 943c b5dc 593b
00000070: 051c 6ebd ea61 b33c a3a9 bcbc 3b8b 3abc
00000080: ab2e 35bd b099 81bd 8bf6 003d 45a1 143c
00000090: 87fa 923c c532 1b3d 771b 463d 3fce 513d
000000a0: a467 4dbc ce8a a7bc 591c 68bd 56ad d8bc
000000b0: 80c6 b73c 3ff3 53bd 4270 98bd f9ee 37bd
000000c0: 7698 a3bc 625a ea3d dd97 3cbd 339d 973d
000000d0: 0eb0 65ba 61bf 893d 14a3 a73d c95d 82bd
000000e0: 4265 a0bc 7f48 a13d afd9 c0bd 4a09 a1bc
000000f0: 4d47 b5bc cb72 6f3c 5943 efbc a5b2 733c
00000100: 4634 283d 30f2 c9bc 13fa 19bd 6ac9 bbbc
00000110: 7094 1abd 376e c13c 5d28 9dbb 1ff3 0f3d
00000120: 2234 3dbd a592 88bc fcb8 d4bc 7461 1f3d
00000130: e3a0 93bd 724f 25bd c153 2a3c 3556 66bc
00000140: 8aa4 973d 0396 83bc 5e7c b13c 54a6 ccbc
00000150: ba82 98bc 6f3d 9f3d 9721 a1bd f876 72bd
00000160: ac66 0a3c bb10 6cbd 7346 7bbd 2f28 43bd
00000170: 70ac dabc 2b35 46bd bf2b 253d 3056 24bc
00000180: b350 3f3d cfd6 423c 5644 f3bb d10f 9abd
00000190: 40a4 753d 9d27 083e 1045 903c bbdc 823c
000001a0: 2826 e9bd 8e1f bcbb c936 483d 9721 7f3d
000001b0: 4647 083d 765c a13d 838b a33c 2be0 e7bc
000001c0: efa8 163d bc2a 38bd 2b25 cc3d 0231 a8ba
000001d0: 802e 3d3d 3b19 853d 01fe e03c 29b3 3d3d
000001e0: 7ed7 9b3d a073 ad3b 9660 92bc 9cfe 1c3c
000001f0: 3466 3e3c 7d5c 483d ecf3 0c3c 71f9 81bc
00000200: e036 69bd cede 683c 5318 32bd 9c25 e9bb
00000210: 319e b53d 8741 3e3c f384 86bd 83e0 d33d
00000220: 2f31 363d 57bd edbd 5fd0 19bd e4c7 ddbd
00000230: dca5 55b8 1448 b43c 812f c3bc 5227 933c
00000240: 1e90 38bd 1e82 1abd f9e7 05be 4291 edbd
00000250: 1d72 91bc a032 56bd e47a 42bd 907a f93c
00000260: d0ac b03c 36bc 29bd aaf5 9e3c ffea c63c
00000270: 1278 2abb df29 d5bc 87ec 7a3d 3348 2e3d
00000280: 7f63 0fbd cdc0 60bd fc7d 36bd ffd1 4fbd
00000290: a6d0 3a3d d34d 61bd 8613 2b3d f5c6 203d
000002a0: 38b4 913c 6173 2b3d dfe7 b1bc 09c9 a13c
000002b0: f1b3 35bd 5c68 4f3b c9a6 2b3d ff0f 9e3b
000002c0: 72c1 3a3d 5cc6 df3b 39b6 b4bd 1126 853c
000002d0: 096f 573c 12d6 663d 5cc6 9ebd 442e 863d
000002e0: 5511 733d afb8 543d 0a8e 2bbd 83ff 0abd
000002f0: c33a f73b a2e6 193d 22a2 c8bc 3f5c 66ba
00000300: b7ee b3bc cd5b 7ebc 16ae a7bd 42f0 913c
00000310: c865 5cbd b8b2 0a3d bbe2 663d 906d 35bc
00000320: 0d5e 553c 2a26 543c a5bc 50bc 2805 b7bc
00000330: b9e7 93bd d543 cb3c 6e0f 33bb 6a86 0fbd
00000340: ca24 6abd ec06 eebc c3b5 8c3c bcaf 0ebd
00000350: 3d75 2bbd 0dea 15bd d7f4 dabc e4d2 ba3c
00000360: a7f9 47bd f73d 3e3c 1021 c23d 2a23 1abd
00000370: a09a 28bd 29c5 2f3d ec48 253d c601 f7bd
00000380: d611 68bc 9a24 e23c 06b2 0bbd e274 aa3d
00000390: 4d71 263a a9fe 6dbc 20b3 98bc 2b96 cabd
000003a0: d7ce 133a bdfb f1bc cffc 2ebc 2e21 563d
000003b0: 55af bfbc a55d febb 9fe0 02bd cc5a 92bd
000003c0: e8b5 bdbc c73f 8abd edab 1ebd 2667 94bd
000003d0: 7c38 aa3c 0636 0ebc c1f1 d93c f40f 59bd
000003e0: 9e6e cebc 692f 023d d2f1 b03c c3aa f1bc
000003f0: e32d 583d a955 2d3d 0f98 b6bc c491 473d
-0.037085727 0.029701073 0.016338542 -0.09115442 0.03417544 0.057168 0.018601207 0.043831486
-0.03546167 0.07515582 0.04352176 -0.0030471692 -0.026626337 0.016016416 -0.104275554 -0.0028616462
0.02372082 0.049420424 0.008025522 0.004469732 0.06805494 -0.063808866 0.02822464 -0.06433571
-0.004984563 -0.013744594 0.018149817 0.0033243124 -0.05813219 0.021897275 -0.023030108 -0.011385734
-0.04423396 -0.06328142 0.03148512 0.009071653 0.017941726 0.037890214 0.048366036 0.051222082
-0.012536917 -0.02045193 -0.05666766 -0.02644984 0.02243352 -0.05174565 -0.074432865 -0.044905636
-0.01997016 0.114430204 -0.046043266 0.0740303 -0.0008761891 0.06725956 0.081854016 -0.06365544
-0.019579533 0.07875156 -0.0941652 -0.01965775 -0.022128725 0.014614771 -0.029206919 0.014874135
0.041065477 -0.024651617 -0.037592005 -0.02292319 -0.037739217 0.023612125 -0.0047960714 0.035143968
-0.046192296 -0.016671488 -0.025967114 0.038911298 -0.07208421 -0.040358968 0.010395945 -0.014058639
0.0740443 -0.016062742 0.021665748 -0.024981655 -0.018617023 0.077753894 -0.07867735 -0.05919549
0.00844733 -0.057633143 -0.061346482 -0.047645744 -0.026693553 -0.04839055 0.040324923 -0.010030314
0.04670782 0.011892035 -0.0074239178 -0.07522548 0.059971094 0.13296361 0.017611057 0.015974393
-0.11384231 -0.0057410663 0.048880372 0.062287893 0.033271097 0.07878964 0.019963985 -0.028305134
0.0367822 -0.04496263 0.09968027 -0.0012831988 0.046186924 0.06498953 0.027464869 0.04631344
0.07609461 0.0052933246 -0.017868321 0.009582188 0.011621047 0.04891633 0.008603077 -0.015866013
-0.0569371 0.014213277 -0.04348023 -0.007115079 0.08868063 0.011612303 -0.06568327 0.103455566
0.0444805 -0.11608379 -0.037552234 -0.10829142 -5.0937626e-05 0.022007026 -0.023826363 0.017963085
-0.045059316 -0.037721746 -0.13076772 -0.11599971 -0.017754609 -0.052294374 -0.04748048 0.03045395
0.021566778 -0.041439258 0.019404251 0.024281977 -0.002601151 -0.026020942 0.061260726 0.042549323
-0.035006996 -0.05487137 -0.04455374 -0.050737377 0.04560914 -0.05500586 0.041766666 0.03925224
0.01778613 0.04185808 -0.02171701 0.019749181 -0.04436106 0.0031647896 0.041907106 0.004823684
0.04559464 0.006829066 -0.08823819 0.016253503 0.013149031 0.056356497 -0.07752678 0.06551793
0.0593427 0.05193394 -0.041883506 -0.03393508 0.0075448467 0.037573464 -0.024491373 -0.00087875495
-0.021964414 -0.015524817 -0.08187501 0.01781476 -0.053808004 0.033861846 0.05636857 -0.011073485
0.013022912 0.012948552 -0.012740289 -0.022341326 -0.07221932 0.024812618 -0.002732243 -0.035040297
-0.05716399 -0.029056035 0.017176514 -0.034835562 -0.041859854 -0.03660016 -0.026728077 0.022805639
-0.04882207 0.011611453 0.094789624 -0.03763119 -0.041163087 0.042912636 0.040352747 -0.12060885
-0.014164409 0.027605344 -0.034105323 0.08323075 0.00063492806 -0.014526048 -0.018640101 -0.098919235
0.00056384265 -0.029538983 -0.010680391 0.052277736 -0.023399035 -0.007762628 -0.031952497 -0.071462244
-0.023158029 -0.06750446 -0.03873818 -0.072462365 0.020778887 -0.008679872 0.026604535 -0.05299373
-0.02519923 0.031783495 0.021599684 -0.02950037 0.052778136 0.04231802 -0.022289304 0.048722997

fc2.bias f4 [256]
00000000: 9282 5a3d 50fa f1bb 1d4d f13c 6ed6 13bc
00000010: 9bcb adbc 9849 a93c d5a1 7d3b b582 d53c
00000020: 594a 06bd f2ab 17bd ad96 db3b b30e 933c
00000030: 6e17 3b3d e535 b9bb 3f06 09bd 220a e03c
00000040: dc9a f9bc 0925 d23c 712a 01bd b232 05bd
00000050: 1d99 643d 5524 09bc 3ada 603c 4d9a 0cbd
00000060: f769 283d c50e 47bc 4c8e c03a c047 cabc
00000070: 25a2 8f3b 2938 d8bb 3011 583d 9420 67bc
00000080: 7d49 1c3d af80 3abc 3d16 6bbc 5497 053d
00000090: 4e9c 4f3c e7f7 7cbc 947a 9839 4719 353d
000000a0: d5f0 9b3c 8507 32bd 652d 303d 83aa 06bd
000000b0: 0220 ef3b ba7c dcbc 7b30 05bd e8a3 273d
000000c0: 4dd0 3d3d 9121 2bbd 2388 363d b2be 633d
000000d0: 0c26 993c 8cee 263d cf17 f03c 2d1a 233d
000000e0: e9f7 15bd 7317 1b3d 0c70 533c 852b 11bc
000000f0: d1be c2bb 69a7 1a3c 802f 163c 9be4 ccb9
00000100: 571a d3bc 19ce fc3b 78a6 003d d9b5 da3c
00000110: 5e74 fd3c 5362 1d3d 55a4 4f3d e7d2 2b3c
00000120: 3064 c03a 5aa9 733c 3b36 563c a817 b53c
00000130: d01b 00bd edb6 cfbc 6946 5bbc 5808 9f3a
00000140: 7d5d c23b 43e8 11bc f441 fc3c 56bc be3c
00000150: 97c8 1a3d 7bf6 61bc 01af c7ba 719e a3bc
00000160: 8f76 69bc ba08 a13c 4d51 12bc cb4d 583c
00000170: c2f1 20bd 0f4f 25bd b143 02b9 32fb 9dbc
00000180: d646 83bc afea ba3c 7f7a da3c c740 11bc
00000190: 6d2a 253c 95be 13bd d6a2 023d c8bc c43c
000001a0: fe08 243d 0a92 66bc 58b3 c83c b0e0 523d
000001b0: 806b 8c3c 59d3 1e3d 6a15 8b3b 085a ccbc
000001c0: 66da e53c 3aa9 b2bc 064f 723c 39c0 35bc
000001d0: 27b0 393d 5a48 a1bc cb54 d73c 931c 883c
000001e0: 5de6 bf3c f4b9 37bc e757 923c 7ffa 493d
000001f0: 1241 883b 75c5 e33b a955 7a3c 7fb4 efbb
00000200: 12f2 183d 1e96 7ebc 46ec 323c 0916 553c
00000210: 44ce 213c c904 a03c 32ac cebc 28fe 843b
00000220: 7410 fd3c 7935 d23c 046d b7bc 77a2 be3c
00000230: 6c8d d4bc 4ca6 863b 7614 db3b 82eb e8bc
00000240: 64ae 9abc f59f 083c 8d3a d13c a748 06bd
00000250: 3afd 7abc f47c 073d 492b b63c 0668 333b
00000260: 436d 1f3d 5df0 9abc 77ac 173d 7acf b4bc
00000270: 44d9 3c3d 6cdb 283d c241 fe3b a127 943b
00000280: ff50 8f3c 49d4 113d 4100 35bc 0e82 863c
00000290: e83c 053d 128e 6abc f7a2 263d 2d12 eebc
000002a0: d6c2 913c 71de b73b e41f 293c 3c09 ccbb
000002b0: 416f 673d cb10 153c 517f 263d acd4 ea3c
000002c0: 44b3 4c3d 49b7 5f3d 0430 813d c6f8 553b
000002d0: 1782 04bd 0f76 a3bc a07a c0bc 283c 7e3b
000002e0: 4eb8 103d e59d 103d 78e8 d33c 32cd 99bb
000002f0: a9a1 3fbc 3942 bcbc 28aa ebbb f1ee 933c
00000300: 565b 2fba e99d 9f3b 2ef9 323d 9ed5 9e3b
00000310: 7a22 c33c d0e0 08bc 977f a13c 8a89 4abb
00000320: 3dbb 9db9 2c08 2cbc f859 353d 41a9 013d
00000330: 9a24 ba3c ae3e 873b 2d2b ba3c a20a 05bd
00000340: 853f 433d 8062 653d 4272 953c 638c 2dbd
00000350: f05a 28bd c28e 46bd 5e64 4c3d db6f 8b3c
00000360: cc40 c8bc 6829 f3bb 02ac 1a3d ab2d 36bd
00000370: 3f2c 023d 1f34 13bc 9a4e d13c df3e 2bbc
00000380: 09f1 12bb 421e 273d 5b56 233d d4b2 debb
00000390: 80d6 313c 2c54 b13c ace1 233d ff42 ecbc
000003a0: 16a0 903b 7f34 ddbc 9c7a 09bd 4531 c0bc
000003b0: d86c 373d c511 163d 6a98 0dbd fd2c a83c
000003c0: b205 433d ef97 3b3d bc66 8a3c f7c0 91bc
000003d0: c7e8 17bd 4478 0b3d fdb3 303d 2c8c 50bc
000003e0: d223 103d eb5d 183d 6597 b0bc 90c7 c1bc
000003f0: a669 233d 525a 9cbc f0f3 2f3c 2e02 423d
0.053347178 -0.007384576 0.029455716 -0.009023292 -0.02121525 0.020664975 0.0038701196 0.026063303
-0.032785747 -0.037029214 0.0067013116 0.017951345 0.04567664 -0.0056521767 -0.033453222 0.027348582
-0.03046935 0.025652425 -0.031534616 -0.03251905 0.055810083 -0.008370479 0.013723904 -0.03432684
0.04111668 -0.012149517 0.0014690845 -0.024692416 0.004383343 -0.0065984917 0.052750766 -0.014106888
0.03815602 -0.01138322 -0.014348564 0.03261502 0.012671543 -0.015439964 0.00029083027 0.04421356
0.019035736 -0.043464202 0.04301204 -0.032877456 0.007297517 -0.026914943 -0.032516938 0.040927798
0.04634123 -0.04178006 0.044563424 0.055601783 0.0186949 0.04075484 0.029308228 0.039819885
-0.03661338 0.03786416 0.012905132 -0.0088604735 -0.0059431572 0.009439328 0.009166598 -0.00039080236
-0.025769396 0.0077149984 0.031408757 0.02669804 0.030939277 0.038423847 0.05069383 0.010487295
0.0014678296 0.0148719195 0.013074453 0.022106007 -0.031276524 -0.02535578 -0.013383486 0.0012133224
0.005931555 -0.008905473 0.030793168 0.023283165 0.037788954 -0.013791676 -0.001523465 -0.019973012
-0.014249458 0.019657481 -0.008930516 0.013202141 -0.03929306 -0.0403586 -0.00012422983 -0.019284818
-0.016024988 0.022816984 0.026669739 -0.008865542 0.010080916 -0.036070425 0.031893574 0.0240158
0.040047638 -0.014072904 0.02449958 0.05148381 0.017141104 0.038775776 0.004244496 -0.024945274
0.028058242 -0.02180921 0.0147893485 -0.011093193 0.045334008 -0.01968782 0.02628555 0.016615188
0.023425275 -0.011213768 0.01786418 0.049311157 0.0041581476 0.006951029 0.015279212 -0.007315218
0.03734023 -0.01553872 0.01092059 0.013005742 0.009875838 0.019533532 -0.025228593 0.004058618
0.030891635 0.025660263 -0.02239085 0.023270829 -0.025946341 0.0041091796 0.0066857887 -0.028432611
-0.018881984 0.008338918 0.025540615 -0.03278413 -0.015319163 0.03307815 0.022237437 0.0027375235
0.03892256 -0.018913442 0.03702971 -0.022071589 0.04610564 0.041224882 0.007759304 0.0045213257
0.017494677 0.03560284 -0.011047424 0.016419437 0.032528788 -0.014316099 0.04068276 -0.029061401
0.0177931 0.005611234 0.010322545 -0.0062266868 0.056502584 0.009098242 0.040648762 0.028665863
0.04997565 0.054618154 0.063079864 0.0032649501 -0.032350626 -0.019953756 -0.023495972 0.003879318
0.035332017 0.03530683 0.025867686 -0.0046936506 -0.011696258 -0.022980796 -0.007191915 0.018058272
-0.00066893303 0.0048711193 0.043694668 0.0048472425 0.02382015 -0.008354381 0.01971416 -0.0030904734
-0.00030084877 -0.010499995 0.044275254 0.031655554 0.022722531 0.004127345 0.022725666 -0.032480843
0.047668 0.05600214 0.018242959 -0.04237021 -0.04110235 -0.04847599 0.049900405 0.01702111
-0.02444496 -0.0074207075 0.037761696 -0.044477146 0.031780478 -0.008984595 0.025550175 -0.010452001
-0.00224215 0.04080034 0.039877277 -0.0067962203 0.010854363 0.021646582 0.04001014 -0.02884054
0.004413615 -0.027002571 -0.033564195 -0.023460994 0.044781536 0.03663804 -0.03456918 0.020529265
0.047612853 0.045799192 0.01689469 -0.017792208 -0.03708723 0.03405024 0.0431404 -0.012728732
0.03519041 0.037198942 -0.021556566 -0.02365473 0.039895676 -0.019086037 0.010739312 0.04736536

fc3.weight f4 [2, 256]
00000000: e641 98bd cebf 3e3d 540f 87bd 7df4 213d
00000010: 9d4f e93c 52ed 13be dd1b 15be 3fbb 17bd
00000020: 8ebf babd 54b0 0bbb 0ef8 d03d 3978 95be
00000030: fb98 903d 4eff 11be edd6 debd 65dc aabd
00000040: d971 153d ee73 6abc f0d4 a1bd 5d51 6fbc
00000050: 1fef a4bb de5a 10be 11fd 1bbe f2d6 adbb
00000060: d2a4 d13d 5171 113d 9457 4fbd 152a f7bd
00000070: 49a4 153e 9a54 41bd dd80 553d aec2 bcbc
00000080: 6bd4 f5bc 3e95 7abe 7a2f babd e5cd f3bd
00000090: 2602 0ebd 5462 2bbd de28 f5bc 157a 213d
000000a0: 6866 0fbe af75 c3bc 44af 11be d9a8 2abe
000000b0: 4670 6dbc cbb5 42be fd8f b6bd 7e37 7ebe
000000c0: e2f5 43bc 19eb e9bd 71f5 92bc f00e d7bd
000000d0: e7b1 933b 6169 82bc 3d4b 21be d991 67bc
000000e0: c812 0ebd 5175 babd aade dabc 3c09 d8bc
000000f0: 8966 2d3d d68d 04be 7681 debd b0d6 f33d
00000100: 2d39 c53d a3dd 47bd cc33 ac3d d5fe 98bd
00000110: 60a4 9fbd a9d9 0dbc a0e5 213e 049a 4ebd
00000120: d24c 88be dd10 413d 48f6 f6bc 9245 d4bd
00000130: ab93 0e3d d652 2ebc 63c7 c1bd d99f f6bd
00000140: 1621 4fbd 5ebf 39bc 35f3 5bbb b4ab 33be
00000150: b4dc 1c3d 2134 073d 9d5b 82bc ebbe f13c
00000160: 3911 3b3c 3aee 18be 32ea 0fbe b994 c2bc
00000170: dbed 80bc 50da 5b3c 9c62 a4bc 5aca ebbd
00000180: 805a 89bd 80fe 44bc 1833 25bd b257 3abd
00000190: 7c82 1d3d aa02 e53c 94b9 06be a1a3 e0bb
000001a0: e348 0b3e 4b72 9fbd 69fe ccbc 67f7 d9bd
000001b0: 6b61 87bd cc4e cebd 042c 023c a2e6 9bbc
000001c0: c5d9 a2bd 39b6 06be 10f3 413d 2aeb d9bd
000001d0: bf5f 07be d9e8 2a3d c4bb 223d 55a8 b13c
000001e0: 7302 28bd 4a78 e2bd faa3 013d 0a57 00bd
000001f0: 0041 cbbd 8373 473d 0024 46bd 958f 243d
00000200: 65d0 8bbd e87f d3bd 1865 0abd 1e9e cdba
00000210: 32d5 77bd 6193 32be 7fd3 85be b333 bfbd
00000220: 00ec f2bd 5c77 b43d 4047 f63c 78cb 61bd
00000230: 07b2 d4bc 82fe 1f3c 158e 953b 21c2 e53c
00000240: 4b50 46bd 6eea 76be 2756 fb3d d728 14bd
00000250: 440b 1fbe 8336 ad3b 252b 30bd 17f3 3f3d
00000260: 6fe3 38bc e897 ec3c cfc3 27bc 85a3 9abd
00000270: 6835 8fbd 3ef2 3d3d 008b b3bc 973f afbe
00000280: 6c55 e1bc cac6 fbbb 0d64 babd a4ab 8bbc
00000290: b647 f3bc 48a7 75be 3a03 903d 4b2c 41bc
000002a0: 58ee 9bbd 5699 e63c b276 93bd 9a05 a33d
000002b0: 8678 823d 0254 4e3d cd9f f5bd 86ea bb3c
000002c0: a762 02bd 6fa1 273d 5b75 183d 9f91 ffbd
000002d0: d2e4 203b 36e2 f43c bc15 3ebe efce 19be
000002e0: d218 dabc 801e f0bd 7912 bcbc 2710 d9bc
000002f0: 6298 8ebe 8fc4 683d 1956 23bd d4c4 143d
00000300: 7d51 66bb 83ba 0ebe 34fe 453d 2bf3 39bd
00000310: 5738 7f3d 5619 fa3c 35c3 f9bd dbca c7bd
00000320: 4bfc 89bc 34e3 0ebe 26bb 1c3d e6f9 73bd
00000330: beae 453e 3d43 c2bd cbf4 07be 8c52 563d
00000340: 50da b43c 7791 0b3d 10cc e23c 5024 8bbe
00000350: 8c00 7dbe 2dda 373c 8412 c4bc 34de 14be
00000360: 9250 5ebe b28b 60bb 4e08 36be 4268 c93c
00000370: 4c6a a9bd ebf3 38bc 6a64 003d 348f 7dbc
00000380: c732 adbb c870 2ebe 551d 1abd f0b5 063d
00000390: 15ee 293d d768 e43d a517 84bc ed73 0dbc
000003a0: 4a15 0bbe 47ea 6d3d 90ab 84bd 361c 37bd
000003b0: 3e04 afbd cee1 70bb e07e d5bc 567e b7bc
000003c0: 91fb e83c 13e3 0c3d b1cf 74bd 9e60 1cbd
000003d0: 2c31 77bd f9e3 83bd 96e8 d93d b7dd aabe
000003e0: 3f52 ffbc 16ec 0bbd 8269 f6bc fced 24be
000003f0: 8e99 883a 22a5 743c fbb4 03be 2650 abbd
-0.07434444 0.046569638 -0.065947205 0.039539803 0.028480345 -0.14446 -0.1456141 -0.037043806
-0.091185674 -0.0021314817 0.10203563 -0.29193285 0.07060429 -0.14257547 -0.108808376 -0.08342818
0.036485527 -0.014309866 -0.07901943 -0.014606801 -0.0050333883 -0.14097163 -0.15233256 -0.0053051645
0.10236515 0.035508458 -0.05062063 -0.120685734 0.14613451 -0.047199823 0.052124847 -0.02304205
-0.030008515 -0.24470994 -0.09091087 -0.11904506 -0.034670018 -0.04184182 -0.029926714 0.039423067
-0.14003909 -0.023859827 -0.14227015 -0.16665973 -0.0144921 -0.19014661 -0.08914182 -0.24825856
-0.0119604785 -0.114217944 -0.017939301 -0.10500896 0.0045072916 -0.01591939 -0.15751357 -0.014133894
-0.03468588 -0.091044076 -0.026717503 -0.02637159 0.042334113 -0.12944731 -0.108645365 0.11906183
0.09630046 -0.048795354 0.08408317 -0.0747048 -0.07795024 -0.008657851 0.15810251 -0.05043985
-0.2662111 0.047135223 -0.030146733 -0.10364832 0.034808796 -0.010639867 -0.09461858 -0.12042207
-0.050568663 -0.011337129 -0.003356171 -0.17545968 0.038296416 0.0330087 -0.015912825 0.029509982
0.01141768 -0.14934626 -0.14054182 -0.023752557 -0.015738418 0.013418749 -0.020066552 -0.11513205
-0.06706715 -0.012023568 -0.04033193 -0.04549379 0.038454518 0.027955372 -0.1315673 -0.0068554436
0.13602023 -0.077854715 -0.025023656 -0.106428914 -0.06610378 -0.10073623 0.007945064 -0.019030873
-0.079516925 -0.1315545 0.047350943 -0.10640557 -0.13220118 0.041725967 0.03972985 0.021686712
-0.04101796 -0.110580996 0.03165052 -0.031333007 -0.09924507 0.048694145 -0.048374176 0.040175993
-0.068268575 -0.103271306 -0.033787817 -0.0015687381 -0.060506053 -0.17439033 -0.2613792 -0.09336033
-0.1186142 0.088118285 0.030063272 -0.055125684 -0.025963796 0.009765269 0.0045640566 0.02804667
-0.048416417 -0.24112865 0.12272292 -0.03617176 -0.15531641 0.0052860393 -0.043009896 0.046862688
-0.011284693 0.028881028 -0.0102395555 -0.0755072 -0.06992608 0.0463736 -0.021916866 -0.34228203
-0.027506553 -0.0076836096 -0.091011144 -0.017049618 -0.02969728 -0.23989594 0.070318654 -0.011790345
-0.0761382 0.028149288 -0.07200374 0.07960053 0.06370644 0.050373085 -0.1199337 0.022938978
-0.031832363 0.04092544 0.037221294 -0.12478947 0.002455045 0.029893022 -0.18562979 -0.15020345
-0.026623163 -0.117245674 -0.022958027 -0.02649696 -0.27850634 0.056828078 -0.03987703 0.036320522
-0.0035143786 -0.13938336 0.04833813 -0.04539792 0.06230959 0.03052966 -0.12195436 -0.097554885
-0.016843935 -0.13953859 0.038264416 -0.059564494 0.1930494 -0.09485481 -0.13276975 0.052324817
0.022076756 0.034074273 0.027685195 -0.27176142 -0.2470724 0.011221451 -0.02393461 -0.14537889
-0.21710423 -0.0034262952 -0.17776605 0.024585847 -0.08272228 -0.011288623 0.031345762 -0.015476037
-0.005285594 -0.1703521 -0.03762563 0.032888353 0.04148682 0.11152809 -0.016124556 -0.008633596
-0.1358234 0.058084752 -0.064780354 -0.04470464 -0.08545731 -0.0036755684 -0.026061475 -0.022399109
0.028440269 0.034396242 -0.059768382 -0.03817808 -0.06034963 -0.06439967 0.10640065 -0.3337228
-0.031167148 -0.034160696 -0.030079607 -0.16106409 0.001042174 0.014931949 -0.12862007 -0.083648965

fc3.bias f4 [2]
00000000: 71a6 93bc b983 4cbd
-0.018023701 -0.049930308
