results/results_7/solved_agent2_critic.pth (torch, 631083 bytes, 5 tensors)

fcs1.weight f4 [512, 48]
0	0x3dcd2328	0.10016471
1	0x3dde151f	0.10843872
2	0x3d1bb0ff	0.038010594
3	0xbd72cb25	-0.059275765
4	0xbdef8add	-0.11696408
5	0xbe8ec5e1	-0.27885345
6	0xbcf1062d	-0.02942189
7	0xbdead319	-0.11466045
8	0x3e1a0e32	0.15044478
9	0x3e1370f9	0.14398564
10	0x3d2496ff	0.040183064
11	0x3d450255	0.048097927
12	0xbd806146	-0.062685534
13	0xbeb4e09f	-0.35327622
14	0x3c1044f2	0.0088055
15	0x3d214e5d	0.039381374
16	0x3dfdab72	0.12386216
17	0x3dba0505	0.09082989
18	0x3d253f16	0.040343367
19	0x3dd4e890	0.1039592
20	0xbdfd8ba2	-0.123801485
21	0x3d0b81b5	0.034059245
22	0x3c1f5dd2	0.009726958
23	0x3df52a0e	0.11970912
24	0x3de24b09	0.11049468
25	0x3e5f6d41	0.21819021
26	0xbcd331b9	-0.025780546
27	0x3cc3a87e	0.023884054
28	0x3dc3f15b	0.09567519
29	0xbea7b863	-0.32757863
30	0xbce0dd4f	-0.027449278
31	0x3cf1460c	0.029452346
32	0x3d69c989	0.057076965
33	0x3e483b97	0.19553982
34	0x3d22661e	0.039648168
35	0x3e2efb10	0.1708796
36	0x3dd1526a	0.10220797
37	0xbebd7b45	-0.3700811
38	0xbcdac5fa	-0.02670573
39	0x3dfcb37f	0.12338924
40	0x3bf5c132	0.0074998373
41	0x3e4bb893	0.19894628
42	0xbc1a9ed8	-0.009437285
43	0x3ead68c2	0.33868986
44	0x3d70e578	0.05881259
45	0x3c998250	0.018738896
46	0xbc26a67c	-0.010171529
47	0x3e94edee	0.29087776
48	0x3d87765e	0.066143736
49	0x3db53f32	0.08849944
50	0xbc274df3	-0.010211456
51	0x3a7faf73	0.0009753622
52	0xbd7aab49	-0.061198507
53	0xbca36b76	-0.019948702
54	0xbb9972cd	-0.004682875
55	0xbd3efcf2	-0.046627946
56	0x3dc380b0	0.095460296
57	0x3e00cc7a	0.12578002
58	0xbc3839a6	-0.011244213
59	0xbc120a64	-0.00891361
60	0xbde87d12	-0.1135198
61	0xbdfa6cb9	-0.122277685
62	0x39aa26c8	0.0003245382
63	0xbd8e4c8d	-0.06948195
64	0x3e4f0bd8	0.20219362
65	0x3e3644aa	0.17799631
66	0x3d21a10b	0.039460223
67	0xbdda6d70	-0.10665405
68	0xbe620840	-0.2207346
69	0x3e5a31b0	0.21308017
70	0x3cada9e6	0.021199178
71	0xbcff7667	-0.031184388
72	0xbd0357d5	-0.032066185
73	0x3d72066a	0.05908815
74	0xbc34a917	-0.011026642
75	0xbdffd805	-0.12492374
76	0x3d4b26e5	0.04959764
77	0x3bfd5412	0.007730969
78	0xb9b0b3ff	-0.00033703443
79	0xbe26de76	-0.162958
80	0xbc05e678	-0.008172624
81	0x3d90c5f7	0.07069009
82	0xbd51ee41	-0.051252607
83	0xbd9f0a4e	-0.07765637
84	0x3df42f4e	0.11923085
85	0xbd647fa3	-0.055785786
86	0xbd715205	-0.05891611
87	0xbddbfbc8	-0.10741383
88	0x3c3afb64	0.011412475
89	0x3d8c0715	0.06837288
90	0xbd8374e2	-0.06418778
91	0x3d9b61e7	0.07587033
92	0x3e4302de	0.19044062
93	0x3e4c26d6	0.1993669
94	0xbd78dbab	-0.060756367
95	0x3e00dd2f	0.12584375
96	0x3d792222	0.060823567
97	0x3d12aa70	0.035807073
98	0x3c00a153	0.007850963
99	0xbd0d0456	-0.034427963
100	0xbe00ed69	-0.12590565
101	0x3e0389c4	0.12845522
102	0x3d74a94f	0.059731778
103	0x3c753865	0.014967059
104	0xbcd2dbbb	-0.025739541
105	0x3cfbabda	0.030721594
106	0x3d3a2c28	0.045452267
107	0xbc993acc	-0.018704794
108	0xbd342fe7	-0.043990996
109	0x3dc2f6ba	0.095197156
110	0xbbd27c1a	-0.0064234855
111	0x3d622ae5	0.05521669
112	0xbc962d8c	-0.018332265
113	0x3d108b62	0.035289176
114	0x3caf4289	0.021394031
115	0x3d4ff66a	0.05077211
116	0xbe2eb93c	-0.17062849
117	0x3c3a96b4	0.0113884695
118	0x3cbd7fb9	0.023132192
119	0x3d2c61a4	0.042085305
120	0x3e3549f0	0.17703986
121	0x3c3891da	0.0112652425
122	0xbd4b1e85	-0.049589653
123	0x3d73d8ae	0.059532814
124	0x3da8809f	0.082276575
125	0x3e25a0c6	0.16174611
126	0xbd785c5c	-0.060634956
127	0x3d93e02b	0.07220491
128	0x3e4530d0	0.19256902
129	0x3d022223	0.031770837
130	0xbd72b3b0	-0.059253395
131	0x3de6c26c	0.11267552
132	0x3d8e54fd	0.06949804
133	0x3e0c2632	0.13686445
134	0xbc06bee2	-0.008224221
135	0x3dc3f6b0	0.09568536
136	0x3e30a08a	0.17248741
137	0x3cba23b1	0.022722097
138	0xbd39d59a	-0.045369722
139	0x3d73717e	0.059434406
140	0x3e3a28f6	0.18179688
141	0x3cada540	0.021196961
142	0xbccf8590	-0.025332242
143	0x3e01b392	0.12666157
144	0x3e23adbf	0.15984248
145	0xbbb5ab32	-0.0055440897
146	0xbd26bd17	-0.040707674
147	0xbcf2be01	-0.029631617
148	0x3b0ee846	0.0021805926
149	0xbd6493b0	-0.05580491
150	0xbc61011a	-0.013733173
151	0xbc5fe302	-0.013664963
152	0x3dc31a00	0.095264435
153	0xbd11bf82	-0.035583027
154	0xbdaf4bfb	-0.08559414
155	0xbd055007	-0.032547023
156	0xbd09240a	-0.033481635
157	0xbd2aa46a	-0.041660704
158	0xbdf14d8b	-0.11782368
159	0xbd31376a	-0.043265738
160	0x3dec9998	0.11552733
161	0xbcd259f5	-0.02567766
162	0xbd017aaf	-0.03161114
163	0x3e658043	0.22412209
164	0x3d2e92c5	0.04262044
165	0x3d7ba17e	0.061433308
166	0xbb8c9c90	-0.0042911246
167	0x3e55117b	0.2080745
168	0x3db1d9e6	0.08684139
169	0x3d31917b	0.04335163
170	0x3d59e8d4	0.053200558
171	0x3d07decf	0.03317147
172	0x3ca8e31c	0.020616107
173	0xbdc35d93	-0.09539332
174	0x3d323f76	0.043517552
175	0xbc30a8e1	-0.010782451
176	0x3dacd1f7	0.08438485
177	0x3c7e2fa9	0.015514293
178	0x3b28784c	0.0025706468
179	0x3e43de3f	0.19127749
180	0x3ca764b3	0.02043376
181	0xbd82e411	-0.063911565
182	0xbcdc2abf	-0.026875852
183	0x3e25b39d	0.16181798
184	0x3d2d02cf	0.042239007
185	0x3d3d337c	0.046191677
186	0xbc42f852	-0.0119000245
187	0x3d88d13a	0.06680532
188	0xbc40449f	-0.011735111
189	0x3d413398	0.047168344
190	0xbbd5b81d	-0.006522192
191	0x3dd1e1f8	0.10248178
192	0xbae274ce	-0.0017277242
193	0x3c3ada3c	0.01140457
194	0xbd42cc05	-0.04755785
195	0xbda7bcc9	-0.08190305
196	0x3c7c559b	0.015401269
197	0xbedbccf3	-0.429298
198	0xbd8b0069	-0.067871876
199	0xbdc38e07	-0.09548574
200	0x3bbcc868	0.005761195
201	0x3d08289f	0.033241864
202	0x3dd157fd	0.102218606
203	0x3d8ec743	0.069716
204	0x3d41ea94	0.04734285
205	0xbe47dde3	-0.19518237
206	0x3d034c66	0.03205528
207	0x3cf34fdf	0.029701171
208	0xbbcb6aba	-0.006207791
209	0x3c8f05cd	0.01745882
210	0x3d33850b	0.04382805
211	0x3d0424ff	0.032261845
212	0x3cdd9970	0.027050704
213	0xbe401195	-0.18756707
214	0x3da94fb2	0.08267154
215	0x3b8c6856	0.0042848988
216	0x3dc32e59	0.095303245
217	0x3da35cc8	0.07976681
218	0xbc662397	-0.014046571
219	0x3d785b62	0.060634024
220	0xbd6d6b75	-0.057963807
221	0xbed7f0e7	-0.4217598
222	0xbd499870	-0.04921764
223	0x3cb0f969	0.021603303
224	0x3d841421	0.06449152
225	0x3cd59b2a	0.026074965
226	0xbd22d13e	-0.03975033
227	0x3d6be836	0.0575945
228	0x3b0a662f	0.0021118035
229	0xbe4f2653	-0.20229463
230	0xbd925d0c	-0.071466535
231	0x3d9b178d	0.07572851
232	0x3da3a7b8	0.07990974
233	0x3bfac995	0.007653425
234	0xbcee36a6	-0.029078793
235	0x3d004865	0.03131904
236	0x3d087ab6	0.03332015
237	0xbe34b69b	-0.17647783
238	0xbb9403b4	-0.004517043
239	0xbc4fab56	-0.012675127
240	0x3dd35444	0.10318807
241	0x3ddacc09	0.10683448
242	0xbc9f7556	-0.01946513
243	0x3dc5e748	0.09663254
244	0xbdcd58c8	-0.10026699
245	0xbd843cd9	-0.06456918
246	0xbda1c676	-0.078991815
247	0x3dde7e38	0.10863918
248	0x3dc1c6f9	0.09461779
249	0x3e2cb15e	0.16864535
250	0x3cce7323	0.025201386
251	0x3cca1059	0.024665998
252	0xbd285e92	-0.041105814
253	0xbe469b8b	-0.19395272
254	0xbbc65d3d	-0.0060535953
255	0x3d7c83ec	0.061649248

fcs1.bias f4 [512]
0	0xbe2fa900	-0.17154312
1	0xbe67550b	-0.22591035
2	0xbdcf2a6a	-0.10115512
3	0xbe09cad1	-0.13456275
4	0xbe3677e6	-0.17819175
5	0xbdd30821	-0.10304285
6	0x3d87495a	0.066057876
7	0xbd0d1a54	-0.034448937
8	0x3dc4c11e	0.09607147
9	0x3d552f12	0.052046843
10	0xbddf3a6a	-0.108998135
11	0xbdbb3953	-0.09141793
12	0xbc168966	-0.009188032
13	0xbc8d65b4	-0.01726041
14	0xbb8c12ef	-0.004274718
15	0x3dabbdb1	0.0838579
16	0x3d379312	0.04481799
17	0xbd5d721c	-0.0540639
18	0xbca2c598	-0.01986961
19	0xbe44fef4	-0.19237882
20	0xbdb3511d	-0.087557055
21	0x3db290b9	0.0871901
22	0x3d3ebe2e	0.04656809
23	0x3d252bb9	0.0403249
24	0x3a4a5227	0.000771793
25	0xbcc2868d	-0.0237458
26	0xbe1cc849	-0.15310778
27	0x3c74c6d8	0.014939986
28	0xbe41e9d2	-0.18936852
29	0x3dd5ca0c	0.10438928
30	0x3bd673d2	0.0065445686
31	0xbd127e4c	-0.035764977
32	0xbd8e0231	-0.06934012
33	0xbe21bbc9	-0.1579429
34	0xbe4d5d69	-0.20055164
35	0xbe316561	-0.17323829
36	0x3db40a75	0.08791057
37	0xbd7c4e93	-0.06159837
38	0xbda8519a	-0.08218689
39	0xbdff485a	-0.12464972
40	0xbc842831	-0.016132446
41	0xbdb0aa5b	-0.08626243
42	0xbbed782b	-0.007246991
43	0x3cecf144	0.028923638
44	0x3be631dd	0.007024987
45	0xbd6e7b49	-0.058223043
46	0x3d9bd428	0.07608825
47	0x3d545e5f	0.05184781
48	0xbda90350	-0.08252585
49	0x3dc1d12d	0.09463725
50	0x3cfa8a5b	0.030583551
51	0xbd8b590a	-0.06804092
52	0xbe299d86	-0.16563997
53	0xbd4527bd	-0.0481336
54	0xbde09af7	-0.10967057
55	0xbd79818b	-0.060914557
56	0xbc9e9785	-0.01935936
57	0xbe14bc13	-0.1452487
58	0xbc979e3a	-0.018508065
59	0xbde5801b	-0.11206075
60	0xbe2d357d	-0.16914935
61	0xbdab2dc3	-0.08358338
62	0xbd32cc38	-0.04365179
63	0xbda55a84	-0.08073905
64	0xbe08a4d0	-0.13344121
65	0x3db4f72a	0.08836205
66	0x3c5f4c54	0.013629038
67	0x3dd2a369	0.10285074
68	0xbdc09138	-0.09402698
69	0xbdbcea80	-0.09224415
70	0xbd5dfd9a	-0.05419693
71	0xbe0b1516	-0.13582262
72	0xbe774641	-0.24147893
73	0xbe68c351	-0.22730757
74	0xbbc56ff4	-0.0060253087
75	0xbba7de81	-0.00512296
76	0xbd832ac3	-0.064046405
77	0xbce08b23	-0.027410096
78	0xbdeac8cd	-0.11464081
79	0xbc9fe493	-0.019518172
80	0xbcdabd6a	-0.026701648
81	0x3d0b1458	0.03395495
82	0xbcea6264	-0.02861137
83	0xbcc728e0	-0.024311483
84	0xbca5c452	-0.020235214
85	0x3d91036e	0.07080732
86	0xbe53ba6f	-0.20676588
87	0xbe0bbc3f	-0.13646029
88	0x3cdf7ebe	0.027282115
89	0x3de3ad65	0.11117057
90	0xbe205770	-0.15658355
91	0x3cfc5e29	0.030806618
92	0x3cc37652	0.02386013
93	0xbcfbb188	-0.030724302
94	0xbdf52771	-0.119704135
95	0xbbf2fd70	-0.007415466
96	0xbe3e0ea0	-0.18560266
97	0xbe50376a	-0.20333639
98	0xbe6ca186	-0.23108491
99	0xbe594481	-0.21217538
100	0x3dd2047d	0.10254762
101	0x3a49d5c6	0.0007699396
102	0x3d5cf941	0.053948645
103	0xbd473e39	-0.048643325
104	0xbd8f4c9a	-0.069970325
105	0xbe05e6b4	-0.13076288
106	0xbd2e456b	-0.04254667
107	0x3e0995af	0.13436006
108	0x3cff7c1e	0.031187113
109	0xbe35fe89	-0.17772879
110	0xbe219a73	-0.15781574
111	0xbdbe17e9	-0.09281904
112	0xbd31b86d	-0.043388773
113	0x3c43bfe1	0.011947603
114	0xbe289afe	-0.16465375
115	0xbc93b3b9	-0.018030034
116	0xbe51b049	-0.20477404
117	0xbe111644	-0.1416865
118	0x3b89b383	0.0042023077
119	0xbdecbeb9	-0.11559815
120	0xbe36cf99	-0.1785263
121	0xbd936cdd	-0.071984984
122	0xbd27f517	-0.04100522
123	0xbe438834	-0.19094926
124	0xbe209d7e	-0.15685079
125	0x3d98dfba	0.074645475
126	0xbe00a40c	-0.12562579
127	0x3db9acaf	0.0906614
128	0xbe0edf2d	-0.13952322
129	0xbd598a3b	-0.053110342
130	0xbe04b547	-0.12959777
131	0x3d6db925	0.058037896
132	0xbd996767	-0.074904256
133	0x3d16209e	0.0366522
134	0xbd6dc9a6	-0.058053635
135	0x3dcb1add	0.09917233
136	0x3b115b43	0.002217964
137	0x3d123f86	0.035705112
138	0xbe23a73f	-0.15981768
139	0x3daffd42	0.08593227
140	0xbe07a822	-0.13247731
141	0xbe248719	-0.1606716
142	0xbc7d5042	-0.0154610295
143	0xbd55f9c3	-0.052240144
144	0xbdd7b56e	-0.10532652
145	0xbae2cfd6	-0.0017304372
146	0x3d9c67d2	0.0763699
147	0xbdf74253	-0.12073197
148	0xbdfb4628	-0.122692406
149	0x3c3e63c8	0.011620469
150	0xbe0d84cb	-0.13820188
151	0xbe1dc34e	-0.15406534
152	0x3d2711c0	0.040788412
153	0xbb1d2485	-0.0023978066
154	0xbe13e5f7	-0.14443193
155	0xbdabc651	-0.08387435
156	0xbe2a9197	-0.166571
157	0xbd433dbc	-0.047666296
158	0xbdd33793	-0.10313334
159	0xbe495867	-0.19662629
160	0xbe1b0a01	-0.15140535
161	0x3b84de13	0.0040547936
162	0x3d222442	0.03958536
163	0xbe143dd1	-0.14476706
164	0xbd32658f	-0.043553885
165	0xbac4aa2a	-0.0015004326
166	0xbd8d60c4	-0.06903222
167	0xbc843588	-0.016138807
168	0xbd1a2e19	-0.03764162
169	0xbda1b9f0	-0.07896793
170	0xbe125f32	-0.14294127
171	0xbd400ab4	-0.046885207
172	0xbd612448	-0.05496624
173	0xbe29accb	-0.16569822
174	0x3db4dc69	0.088311024
175	0xbcef5a4f	-0.029217867
176	0xbd0be29c	-0.03415166
177	0x3d71da92	0.059046336
178	0x3cef48a3	0.02920944
179	0xbe556326	-0.20838603
180	0xbe55921f	-0.20856522
181	0x3d5a5313	0.053301882
182	0xbdc28fc8	-0.0950008
183	0xbdfecb59	-0.12441129
184	0xbe17442b	-0.14772098
185	0xbd4baee7	-0.049727347
186	0xbdf0c2e6	-0.11755924
187	0xbe25b65e	-0.16182849
188	0xbde6091f	-0.112322085
189	0xbe380c83	-0.17973523
190	0x3cc3a61a	0.023882914
191	0xbcf1f6c1	-0.029536607
192	0x3ca2ea8b	0.01988723
193	0xbdc770a9	-0.09738285
194	0x3d9ff6e4	0.078107625
195	0xbd963519	-0.07334346
196	0xbe78ce47	-0.24297439
197	0x3d9040ec	0.07043633
198	0xbdf81e82	-0.12115194
199	0xbe83dce3	-0.2575446
200	0x3b80b8e2	0.0039282897
201	0xba834be5	-0.0010017125
202	0x3bc6d37e	0.0060676923
203	0xbdb027ab	-0.08601316
204	0xbcb42d37	-0.021994216
205	0xbb1e573c	-0.0024160882
206	0x3d713833	0.058891486
207	0x3dc56670	0.09638679
208	0xbd801b16	-0.06255166
209	0xbd2c5d3e	-0.04208111
210	0x3dde0f16	0.10842721
211	0xbe1686cb	-0.14699857
212	0xbe23ccfc	-0.15996164
213	0x3d6c5e38	0.05770704
214	0x3c078aad	0.008272809
215	0x3d9d1a0f	0.07670986
216	0xbe58eb7d	-0.21183582
217	0x3d4dd252	0.050249405
218	0xbdc55a4b	-0.09636363
219	0x3dbbbb00	0.09166527
220	0xbd3ff4ba	-0.04686425
221	0xbd56d03f	-0.052444693
222	0x3d7eafe5	0.062179465
223	0xbe1ac07b	-0.15112488
224	0x3dd957da	0.106124595
225	0x3d283f95	0.04107626
226	0xbe158679	-0.14602078
227	0x3d9aa168	0.07550317
228	0xbd93c98f	-0.072161786
229	0xbe03ec06	-0.12883005
230	0xbe24353b	-0.16035931
231	0xbe44d6f8	-0.19222629
232	0xbcec00f1	-0.028809043
233	0xbd5d019c	-0.053956613
234	0xbdddff7f	-0.10839748
235	0xbdbdb6f4	-0.09263411
236	0xbbfedf44	-0.00777808
237	0xbdaa6be9	-0.083213635
238	0xbdbe009e	-0.092774615
239	0xbdda7373	-0.106665514
240	0xbe01acd1	-0.1266358
241	0x3c98d43b	0.018655887
242	0xbe5b2b11	-0.21403147
243	0xbda8d34a	-0.08243425
244	0x3d0c46a9	0.034247074
245	0xbe4fd2c9	-0.20295252
246	0xbe49cfc2	-0.1970816
247	0xbd218ef9	-0.03944299
248	0xbdcf403d	-0.10119674
249	0x3db5d24f	0.08878004
250	0xbe0c9ffb	-0.13732903
251	0xbb41fcf5	-0.0029600237
252	0xbd4f52e0	-0.050616145
253	0x3def49f2	0.11684026
254	0xbe215e07	-0.15758525
255	0xbde55eee	-0.11199747

fc2.weight f4 [256, 514]
0	0x3d9f6a1c	0.07783911
1	0x3d394fb6	0.045242034
2	0xbdbfab2c	-0.0935882
3	0xbc064c5c	-0.008196916
4	0x3bf60e68	0.0075090416
5	0xbe0bdc14	-0.13658172
6	0xbc41f863	-0.011839005
7	0xbda508d4	-0.080583245
8	0x3c7d0a17	0.0154443
9	0xbc7c5f2f	-0.015403553
10	0xbdc01bd8	-0.09380311
11	0x3df71f48	0.12066513
12	0x3c9dfb07	0.019284738
13	0xbd05e1ab	-0.032685917
14	0x3c1ee6c9	0.009698578
15	0xbdac1c49	-0.084038325
16	0x3cfa62de	0.030564722
17	0x3da26c83	0.07930853
18	0xbb88c176	-0.004173453
19	0xbe87f1a9	-0.2655156
20	0xbccb3085	-0.02480341
21	0x3da1623d	0.078800656
22	0xbd4b2cd5	-0.049603302
23	0xbc62222c	-0.0138020925
24	0x3bf2fac3	0.007415147
25	0x3d873cd0	0.06603396
26	0xbdda9da7	-0.10674601
27	0xbd7e1e09	-0.062040363
28	0xbdbd9100	-0.09256172
29	0xbc61e2d0	-0.0137869865
30	0xbe87c185	-0.2651483
31	0xbd390f62	-0.045180686
32	0xbd4183cb	-0.04724483
33	0x3d85e628	0.065380394
34	0x3d043711	0.032279078
35	0x3dc277e3	0.09495523
36	0x3c6ce669	0.014459231
37	0xbe37da8e	-0.17954466
38	0xbe60bbc8	-0.21946633
39	0xbdab2d50	-0.08358252
40	0xbe63323f	-0.22187136
41	0x3e01eeee	0.126888
42	0xbc895b59	-0.01676719
43	0xbbf2afac	-0.0074061956
44	0xbd70289e	-0.058632486
45	0xbd3df901	-0.046380047
46	0x3cab4a53	0.020909464
47	0xbd73474f	-0.059394177
48	0xbd95fcb9	-0.07323594
49	0xbcaa68d6	-0.020801943
50	0xbe8da361	-0.2766371
51	0x3c7d66df	0.015466421
52	0xbe39e5d7	-0.18154083
53	0xbeb8f59b	-0.36124882
54	0xbd2845ba	-0.04108212
55	0x3b4fcf24	0.0031709159
56	0x3caa87d9	0.02081673
57	0xbe334ede	-0.17510554
58	0x3cb66cae	0.02226862
59	0xbdce2870	-0.100663066
60	0xbd32d1ca	-0.0436571
61	0xbd661d83	-0.05618049
62	0xbd5c069f	-0.053717252
63	0x3a66170a	0.0008777237
64	0xbd918cb1	-0.07106913
65	0xbd74ce80	-0.059767246
66	0x3bff9d0f	0.0078007053
67	0x3d3788f0	0.04480833
68	0xbf0f8bdb	-0.5607278
69	0xbbbd41ec	-0.0057756808
70	0x3c763014	0.015026111
71	0x3bc8df6c	0.0061301496
72	0xbc949c2e	-0.018140879
73	0x3cb0a5dc	0.021563463
74	0xbaa266fd	-0.0012390312
75	0x3e4ad331	0.19807126
76	0xbddb27b9	-0.10700936
77	0x3ce050c0	0.027382255
78	0xbd7105cb	-0.058843415
79	0x3d0753bf	0.03303885
80	0x3c8c28ae	0.017109241
81	0xbd747ce6	-0.059689425
82	0xbce39a58	-0.027783558
83	0xbdb3bda6	-0.08776407
84	0x3bd63c53	0.006537953
85	0x3c4fa774	0.012674201
86	0xbd718b8d	-0.058970977
87	0xbe348a66	-0.1763092
88	0xbe8f7b94	-0.2802397
89	0x3c9331c2	0.017968062
90	0x3dc1290c	0.09431657
91	0xbdbf136f	-0.093298785
92	0xbd43fc60	-0.047848105
93	0x3e076843	0.13223366
94	0xbdbfcbc4	-0.09365037
95	0xbc9a6ba3	-0.018850153
96	0xbddecc32	-0.10878791
97	0x3da685a4	0.08130959
98	0x3cc5bfde	0.024139341
99	0x3b7d1c39	0.0038621558
100	0x3c494535	0.012284567
101	0xbd456df8	-0.048200577
102	0xbbd3191f	-0.0064422037
103	0xbd66e1b0	-0.056367576
104	0xbd42ba0a	-0.047540702
105	0xbd2b103c	-0.04176353
106	0x3bbd0f1f	0.005769625
107	0xbd2d2131	-0.042267982
108	0xbcfd1ffe	-0.030899044
109	0xbc903976	-0.017605525
110	0x3d290870	0.041267812
111	0xbddd55ba	-0.10807367
112	0xbda1630c	-0.0788022
113	0xbbb4c7c1	-0.0055169766
114	0x3d26b131	0.040696327
115	0xbe52cf2e	-0.20586845
116	0x3dd1fe8b	0.10253628
117	0x3d8f554e	0.069986925
118	0xbdee4319	-0.116338916
119	0xbd204e5a	-0.039137222
120	0x3da67f3b	0.08129736
121	0xbcd29148	-0.025704041
122	0xbefd1a03	-0.49433908
123	0xbb8a1786	-0.00421423
124	0x3db06318	0.08612651
125	0xbcc819d5	-0.02442638
126	0x3d5c7a50	0.053827584
127	0x3ce669c9	0.028126614
128	0x3d07454a	0.033025064
129	0xbd2c04f1	-0.0419969
130	0x3b0d8093	0.0021591529
131	0xb9a23297	-0.0003093674
132	0x3bf8d399	0.007593584
133	0xbd078025	-0.033081193
134	0xbd841f61	-0.064512976
135	0x3e0646ce	0.13112947
136	0x3ce25266	0.027627181
137	0x3d682ad0	0.056681454
138	0xbc86aee7	-0.016440822
139	0x3d99f7f7	0.07517999
140	0x3dae8189	0.085208006
141	0x3ccf9431	0.025339218
142	0xbd809b97	-0.062796764
143	0xbea1a0a4	-0.31567872
144	0x3d43b3b3	0.047778796
145	0x3c654305	0.0139930295
146	0x3d0a0936	0.03370019
147	0xbd4a8390	-0.049441874
148	0x3db5c216	0.088749096
149	0xbcb65ff0	-0.022262543
150	0xbcb173a4	-0.021661587
151	0xbda82b71	-0.08211411
152	0x3dda52fb	0.106603585
153	0xbdd849b9	-0.105609365
154	0xbd6c1113	-0.05763347
155	0xbd8ee4b1	-0.06977213
156	0xbda34cfb	-0.07973667
157	0xbdfb7eab	-0.122800194
158	0x3dd2ce7e	0.102932915
159	0x3daa557e	0.083170876
160	0x3c53da4d	0.012930465
161	0xbc5c9cbb	-0.013465102
162	0xbbf9e43b	-0.007626084
163	0xbbf51c27	-0.0074801627
164	0x3d890533	0.06690445
165	0xbc9783d0	-0.01849547
166	0xbd5344ec	-0.0515794
167	0xbdabfff1	-0.08398426
168	0xbe00b439	-0.1256875
169	0x3df25e85	0.118344344
170	0xbc8e6464	-0.017381854
171	0x3cdb8d6d	0.026800836
172	0x3c4c54ef	0.012471422
173	0xbe0fb14f	-0.14032482
174	0x3ca69dc2	0.020338897
175	0x3c029302	0.00796962
176	0xbe9c08b8	-0.30475402
177	0xbe4541f4	-0.1926344
178	0xbecdb39c	-0.40176094
179	0xbeb86288	-0.36012673
180	0x3d1057fb	0.035240155
181	0xbc85d89e	-0.016338643
182	0xbd996bcc	-0.07491264
183	0xbe85f7c8	-0.26165605
184	0x3d22f621	0.039785508
185	0x3cf3e633	0.029772853
186	0xbc97e187	-0.018540157
187	0x3aa2272a	0.0012371291
188	0xbc618cc8	-0.013766475
189	0xbd45307a	-0.048141934
190	0xbbc2e5bf	-0.005947798
191	0xbd2d89e9	-0.04236785
192	0x3d628d0d	0.055310298
193	0x3d90db84	0.07073119
194	0xbd841ffa	-0.064514115
195	0x3d834320	0.064092875
196	0x3c400036	0.0117188
197	0x3d3eb41c	0.046558484
198	0xbd073e72	-0.033018537
199	0x3ecbfcc8	0.39841294
200	0x3cf894e3	0.030344432
201	0xbde6cd76	-0.11269657
202	0x3cecbbb7	0.028898103
203	0xbd40ee72	-0.0471024
204	0xbddd54b6	-0.10807173
205	0x3c561616	0.013066789
206	0x3d838aa6	0.064229295
207	0x3ccc2751	0.024921091
208	0x3c23617f	0.009971975
209	0x3d86758d	0.0656539
210	0xbc18e2cf	-0.009331419
211	0x3e191964	0.14951092
212	0xbe26f587	-0.16304599
213	0x3dac5651	0.08414901
214	0x3d8f4f5b	0.06997558
215	0xbd40db0a	-0.047083892
216	0xbd744fb3	-0.05964632
217	0x3d93b2a5	0.07211808
218	0xbcb7d663	-0.022441095
219	0x3ca6ed93	0.020376956
220	0x3d8b6c31	0.06807745
221	0x3a3efe9c	0.00072858646
222	0x3b5879e7	0.0033031644
223	0x3ddfe3be	0.1093211
224	0xbdc2498a	-0.09486683
225	0x3d026242	0.031831987
226	0x3d20a072	0.039215513
227	0x3e7243c7	0.23658668
228	0x3deb8899	0.11500663
229	0xbd5a662f	-0.053320106
230	0x3cf05088	0.029335275
231	0xbe3b3b21	-0.18284275
232	0xbe9b40e3	-0.30322942
233	0x3d89ba5e	0.06725
234	0xbc09719b	-0.008388902
235	0xbbcfef4d	-0.0063456655
236	0x3d696417	0.05698022
237	0x3dae391f	0.08506989
238	0x3d51664f	0.05112296
239	0xbdd2082a	-0.102554634
240	0x3dbc70a0	0.09201169
241	0x3c75896a	0.014986375
242	0x3a3127be	0.0006757936
243	0x3c3c3fd0	0.011489823
244	0x3d5fcedb	0.054640632
245	0xbde07749	-0.10960252
246	0x3cf76fa5	0.030204603
247	0xbe51379d	-0.20431371
248	0x3dd18594	0.10230556
249	0xbb9b8027	-0.0047455016
250	0x3de11df5	0.10992042
251	0xbd2393a6	-0.03993573
252	0x3d01f1ad	0.03172462
253	0x3d8fb516	0.07016961
254	0x3d4cfaac	0.050043747
255	0xbdd6383c	-0.104599446

fc2.bias f4 [256]
0	0x3dbe6864	0.09297255
1	0x3da19e54	0.07891527
2	0x3dc2229e	0.09479259
3	0xbbf1ed91	-0.0073830565
4	0xbd8e2877	-0.06941312
5	0x3d2ef08d	0.042709876
6	0xbcebc2e4	-0.028779455
7	0x3cea62f7	0.028611643
8	0x398efc34	0.00027272257
9	0x3ae0d9cf	0.0017154756
10	0xbc973f41	-0.018462779
11	0x3d6498ec	0.0558099
12	0xbca59806	-0.020214092
13	0x3d115681	0.035482887
14	0x3dda317e	0.10653971
15	0xbd839f84	-0.064269096
16	0xbd269bc2	-0.040675886
17	0x3d3f4c20	0.046703458
18	0x3d1788b3	0.0369956
19	0xbd0f778f	-0.03502613
20	0xbd59c886	-0.05316975
21	0xbcf8b58b	-0.030360004
22	0x3b954670	0.004555516
23	0xbd8508fb	-0.064958535
24	0x3cf279bb	0.029599061
25	0xbd921ddd	-0.07134602
26	0x3d069f3f	0.032866713
27	0x3d9a460a	0.0753289
28	0xbd4a7a2b	-0.049432915
29	0xbc9e5b10	-0.019330531
30	0xbd4b6d59	-0.04966483
31	0x3d616611	0.05502898
32	0x3d537766	0.05162754
33	0xbdd00b90	-0.10158455
34	0xbd810695	-0.063000835
35	0xbd7fb2f8	-0.062426537
36	0xbe27d51e	-0.16389892
37	0xbd3de691	-0.046362463
38	0xbd43065b	-0.047613483
39	0x3da5745a	0.08078833
40	0xbde00442	-0.10938312
41	0x3e18865e	0.14895007
42	0x3d5b4937	0.05353662
43	0x3c832804	0.016010292
44	0x3d86d275	0.0658311
45	0x3d7ee485	0.062229652
46	0x3ca3a84f	0.019977717
47	0xbd1ee0bb	-0.03878854
48	0x3c08e339	0.008354955
49	0xbe16af08	-0.14715207
50	0xbc73e674	-0.014886487
51	0xbcb8b31f	-0.02254635
52	0x3dfc0a45	0.12306646
53	0xbd3cdd20	-0.04610932
54	0xbce59412	-0.028024707
55	0x3d0de488	0.034641773
56	0xbd36713f	-0.044541594
57	0xbc9df4b2	-0.019281719
58	0x3bc85cfe	0.006114601
59	0xbd027e10	-0.031858504
60	0x3c8ec606	0.01742841
61	0xbc98c573	-0.018648839
62	0x3b57595a	0.0032859654
63	0x3da56b6e	0.08077131
64	0x3d6a2ece	0.057173543
65	0xbdc81c1f	-0.09770989
66	0x3e113800	0.14181519
67	0xbdc4fe31	-0.09618796
68	0x3d7c378e	0.06157642
69	0x3d185755	0.03719266
70	0xbd1672ac	-0.036730453
71	0xbd0220e8	-0.031769663
72	0x3d64d17b	0.05586384
73	0x3cb4c5fa	0.022067059
74	0xbdaaf511	-0.08347524
75	0xbd57016f	-0.0524916
76	0xbdd683d5	-0.10474364
77	0xbd566506	-0.052342437
78	0x3d178205	0.03698923
79	0xbd3ee054	-0.046600655
80	0x3ce5734a	0.028009076
81	0x3d066751	0.032813374
82	0x3d661a5c	0.056177482
83	0xbd5fe92e	-0.054665737
84	0x3d3b064d	0.045660306
85	0x3d4f7b11	0.050654475
86	0xbcc5568a	-0.024089117
87	0xbd03fc25	-0.032222886
88	0x38d3fb2e	0.0001010805
89	0x3b628add	0.0034567632
90	0x39d70bc7	0.0004101677
91	0x3ded6dc1	0.115931995
92	0xbd86e77d	-0.06587122
93	0xbd826762	-0.06367375
94	0xbb432015	-0.002977376
95	0x3c8f9e89	0.01753165
96	0xbcc8d6c6	-0.024516474
97	0xbd592c38	-0.053020686
98	0x3c172568	0.009225227
99	0xbdbb3689	-0.09141261
100	0x3be7ce96	0.0070741875
101	0xbd2be02c	-0.041961834
102	0x3dc3d13e	0.09561394
103	0xbbc15316	-0.005899797
104	0x3ccda1e0	0.025101602
105	0x3df26053	0.11834779
106	0x3dff9f7b	0.1248159
107	0xbd79b14c	-0.0609601
108	0x3d836412	0.06415571
109	0x3dbb0fbe	0.09133862
110	0xbd0cc052	-0.0343631
111	0x3ba80428	0.0051274486
112	0xbc2dc5b3	-0.010606217
113	0x3dbbcccd	0.09169922
114	0xbcbaca51	-0.02280155
115	0xbb5881d4	-0.0033036368
116	0xbce67a07	-0.028134359
117	0xbd15b242	-0.036546953
118	0xbc87778a	-0.016536493
119	0x3c3c655f	0.011498778
120	0x3d8fe2cd	0.07025681
121	0x3d81f1bf	0.063449375
122	0x3c570e43	0.013125959
123	0xbd155a73	-0.036463212
124	0xbd1cf490	-0.03831917
125	0xbc431ba1	-0.011908443
126	0xbc92c516	-0.017916244
127	0xbdbfd062	-0.09365918
128	0x3dbf30f0	0.09335506
129	0x3d6dcc98	0.058056444
130	0xbd83194f	-0.064013116
131	0x3de2b48f	0.11069595
132	0xbd348bb2	-0.044078536
133	0x3e279e1a	0.16368905
134	0x3d274abd	0.04084276
135	0x3cb3bd06	0.02194072
136	0xbbc21619	-0.0059230444
137	0x3dadd41f	0.084877245
138	0xbd2d1081	-0.042252067
139	0x3cc45fc7	0.023971451
140	0xbbf32e9d	-0.007421328
141	0x3db837c2	0.0899501
142	0x3ce31d6f	0.027723996
143	0x3d2a41f2	0.041566797
144	0x3ce8e73d	0.028430576
145	0xbbb16f9b	-0.0054149157
146	0xbb42bf67	-0.0029716135
147	0x3d03bf01	0.032164577
148	0x3d4c350a	0.04985527
149	0x3dbbd06f	0.09170615
150	0xbcf195bf	-0.02949035
151	0x3dd04d55	0.10171
152	0x3de60ebc	0.11233279
153	0x3c5b46cf	0.013383581
154	0x3d609fa5	0.05483975
155	0x3e4079d6	0.18796477
156	0x3d665323	0.05623163
157	0x3d8acbed	0.06777177
158	0x3ca8e9f1	0.020619364
159	0xbc44b07e	-0.01200497
160	0x3c33e657	0.01098021
161	0xbbc996bb	-0.0061520017
162	0x3ddfe56c	0.109324306
163	0xbd6dde3c	-0.058073267
164	0xbd000942	-0.03125883
165	0x3bae9009	0.005327229
166	0xbd0608bf	-0.032723185
167	0xbdadd6db	-0.08488246
168	0x3dffe4a9	0.12494785
169	0xbdab47a2	-0.08363272
170	0xbb78e3b1	-0.0037977512
171	0x3d1a4886	0.03766682
172	0x3dfefc9f	0.124505274
173	0xbd746e49	-0.05967549
174	0x3cb00b3e	0.021489736
175	0xbdf65ad8	-0.12029046
176	0xbc727cd2	-0.014800267
177	0x3bd1da55	0.006404201
178	0xbc961d54	-0.018324532
179	0xbd218bfb	-0.039440136
180	0xbdebc09b	-0.11511346
181	0x3d97a4a9	0.07404453
182	0xbd7e7095	-0.062119085
183	0xbd66a290	-0.056307375
184	0x3d4f7caa	0.050656
185	0x3d9e014f	0.07715093
186	0xbd280826	-0.041023396
187	0x3d2809db	0.041025024
188	0xbdb68f60	-0.08914065
189	0x3b925d7e	0.0044667115
190	0xbc05d747	-0.008169002
191	0xbd238764	-0.03992404
192	0xbbe2ff80	-0.0069274306
193	0x3e07211c	0.13196224
194	0x3dfc2966	0.123125836
195	0x3dc6f970	0.09715545
196	0xbdac0dac	-0.08401045
197	0x3d3ff4cf	0.046864327
198	0xbd397c72	-0.045284696
199	0x3de021e6	0.109439656
200	0x3dea88ae	0.11451851
201	0x3dd72a21	0.10506082
202	0xbc9f7888	-0.019466653
203	0xbd170d6a	-0.036878027
204	0xbdba51b7	-0.09097617
205	0x3d820bb9	0.06349892
206	0x3dd27cd8	0.10277718
207	0xbb707434	-0.0036690356
208	0xbbb6ce1e	-0.0055787703
209	0x3d4172e2	0.0472287
210	0x3d05da0c	0.03267865
211	0xbc801c03	-0.015638357
212	0x3cc3b217	0.02388863
213	0x3dc52e61	0.09627987
214	0xbd841bf9	-0.06450648
215	0x3cfc495f	0.030796705
216	0x3d8b9a25	0.0681651
217	0xbdb81ace	-0.089894876
218	0x3e07d751	0.1326573
219	0xbd055eeb	-0.032561224
220	0xbd31b549	-0.043385778
221	0x3d6b6c44	0.057476297
222	0xbdaa1762	-0.08305241
223	0x3c67be27	0.014144457
224	0xbd404658	-0.046942085
225	0x3b52b8ec	0.003215368
226	0xbb4e7e30	-0.003150832
227	0x3d64f09c	0.055893525
228	0xbd97a94f	-0.0740534
229	0x3d9e067e	0.07716082
230	0x3c99a0b0	0.01875338
231	0x3c8ed737	0.017436607
232	0x3dbefe0f	0.093258016
233	0xbd4745a4	-0.0486504
234	0x3d57cde1	0.052686576
235	0xbda6623a	-0.08124204
236	0x3d578849	0.052620206
237	0xbd2b003c	-0.04174827
238	0x3dfde371	0.12396897
239	0xbd1e2876	-0.038612805
240	0x3da62729	0.08112938
241	0x3ce817cd	0.028331662
242	0xbd74da0b	-0.059778254
243	0xbca98ac8	-0.020696059
244	0x3e069e2e	0.13146278
245	0xbc14e421	-0.009087593
246	0x3d145081	0.036209587
247	0x3d88838f	0.06665718
248	0xbcd45453	-0.025919115
249	0x3c8c581c	0.017131858
250	0x3d89d0dc	0.0672929
251	0x3c5ae8d5	0.013361176
252	0x3d2275e5	0.039663214
253	0xbd748b38	-0.05970308
254	0x3dbbf881	0.09178258
255	0xbd173bfc	-0.03692244

fc3.weight f4 [1, 256]
0	0x3b193d60	0.002338253
1	0x3b1bb77f	0.0023760495
2	0x3b100faf	0.0021982004
3	0xbcf59323	-0.029977387
4	0xbdc2aa5c	-0.0950515
5	0x3b6e18a9	0.0036330617
6	0xbbee2771	-0.0072678854
7	0x3b7f5ee8	0.003896648
8	0xbbe0d08a	-0.0068607973
9	0x3cdabe28	0.026702002
10	0xbd0572e6	-0.03258028
11	0xbd10b31d	-0.035327066
12	0x3dfec2fa	0.124395326
13	0x3b92ba90	0.0044778064
14	0x3b6918da	0.0035567791
15	0x3d3d8048	0.046264917
16	0x3c159d9b	0.009131814
17	0x3c32d6ef	0.010915502
18	0x3b21270c	0.0024589924
19	0xbb296ae8	-0.0025851075
20	0x39d7f19f	0.00041188017
21	0x3cd011f4	0.025399186
22	0x3cdfcc3a	0.027319063
23	0x3c26ac80	0.010172963
24	0xbb849282	-0.0040457854
25	0xbdcb6aec	-0.09932503
26	0x3ce6ceb4	0.028174736
27	0x3ba16df7	0.004926439
28	0xbc8bbdaa	-0.017058212
29	0x3c60a042	0.013710083
30	0x3ba9c8ea	0.0051814215
31	0x3c38dbf2	0.011282908
32	0x3c097b4c	0.008391213
33	0xbc1351ff	-0.008991717
34	0x3d58e474	0.052952245
35	0x3af9bb8d	0.0019053087
36	0xbdcad171	-0.09903229
37	0x3e10f4ae	0.14155838
38	0x3c1e1b53	0.009650069
39	0x3b74becc	0.003734517
40	0x3d8da995	0.06917111
41	0x3b589470	0.003304746
42	0x3c2625c5	0.010140841
43	0x3ca841e8	0.020539239
44	0x3b3d8802	0.0028920178
45	0xbc249afb	-0.010046716
46	0x3d91ef29	0.07125694
47	0x3aa427d0	0.0012524072
48	0xbdc9dbfd	-0.098564126
49	0xbdc464fc	-0.09589574
50	0x3da36c61	0.07979656
51	0x3c8c2d2f	0.017111389
52	0x3b652c9b	0.0034969214
53	0x3c07e5cb	0.008294533
54	0x3ca5e27f	0.020249603
55	0x3d143615	0.03618439
56	0xbdea4867	-0.11439591
57	0xbbbfaf8e	-0.005849785
58	0xbb615374	-0.0034382017
59	0x3d0f05b2	0.03491754
60	0xbc695d83	-0.014243486
61	0x3bb80865	0.005616235
62	0x3cfdb6e3	0.030970996
63	0x3c6a2e51	0.014293269
64	0x3c66a822	0.014078172
65	0x3d35cbb3	0.044383716
66	0x3b47edf6	0.0030506826
67	0xbc0716ea	-0.008245209
68	0x3bab2036	0.0052223457
69	0x3bb3efab	0.005491217
70	0x3b3a9b6b	0.0028473984
71	0x3a9478d6	0.0011327516
72	0x3d13865d	0.03601681
73	0xbdadd1b7	-0.084872656
74	0xbc944c9f	-0.018102942
75	0x3ba50a99	0.0050366637
76	0x3cd453eb	0.025918921
77	0x3caaf061	0.020866575
78	0x3d34265b	0.04398189
79	0xbe253a64	-0.16135556
80	0x3c0e41b2	0.008682655
81	0xbd38902f	-0.04505938
82	0x3c3cec39	0.011530929
83	0x3b76f092	0.0037680012
84	0x3c16534d	0.009175134
85	0x3b768f64	0.0037622089
86	0x3ce187f3	0.027530646
87	0x3be80f62	0.007081912
88	0xbd9cd7af	-0.07658326
89	0x3c50e427	0.012749708
90	0x3c65495c	0.013994541
91	0x3af9e202	0.0019064548
92	0xbbbf8233	-0.0058443784
93	0x3e19d9bf	0.1502447
94	0xbb62f831	-0.0034632797
95	0x3b5bdcf3	0.0033548444
96	0x3a67a503	0.00088365393
97	0xbd5f4be1	-0.054515723
98	0x3c1035a3	0.0088018505
99	0x3dad2762	0.08454777
100	0x3d87e356	0.06635158
101	0xba022d07	-0.0004965816
102	0x3b5e65f1	0.0033935274
103	0x3c4afaf0	0.01238893
104	0x3c9b0028	0.018920973
105	0x3b36b176	0.002787677
106	0x3baf66d7	0.0053528356
107	0xbb5a36f4	-0.0033296915
108	0x3bfc2a53	0.007695475
109	0x3c0a783a	0.008451516
110	0x3cefd80a	0.02927782
111	0x3cb303fd	0.021852488
112	0xbb9cc867	-0.004784632
113	0x3ba091a5	0.0049001747
114	0xbccaf582	-0.02477527
115	0x3c5aeb0c	0.013361704
116	0xbd7cf13a	-0.06175349
117	0xbdfea29e	-0.124333605
118	0xbd142ba9	-0.03617445
119	0x3cf71af7	0.030164225
120	0x3b232279	0.0024892373
121	0x3c828533	0.015932655
122	0x3c5f1bcb	0.013617466
123	0xbabef990	-0.0014570225
124	0xb9e02366	-0.00042750983
125	0x3c3b2546	0.011422461
126	0xbb82f0a8	-0.0039959736
127	0xbde5b759	-0.112166114
128	0x3b7ea26e	0.003885414
129	0x3ca75f10	0.020431072
130	0xbbc7e02c	-0.0060997214
131	0x3b5252c2	0.0032092785
132	0x3bb0a5ce	0.005390859
133	0x3b2ac7f5	0.0026059125
134	0x3bf55cc6	0.007487866
135	0x3cd720c1	0.026260735
136	0x3c9e70a5	0.019340822
137	0x3b6ea2a5	0.0036412862
138	0x3b74acda	0.0037334473
139	0x3b9b503a	0.0047397884
140	0xbba3a5de	-0.004994138
141	0x3c58de75	0.013236632
142	0x3c85d2a9	0.016335802
143	0x3bdc6e50	0.0067270175
144	0x3c00d5e2	0.007863494
145	0x3c4f8447	0.012665815
146	0x3d50aa84	0.050943866
147	0x3cfa7c5b	0.030576875
148	0xbd00a9ca	-0.031411923
149	0x3b341a61	0.0027481543
150	0x3c9975b0	0.018732876
151	0x3b391686	0.0028242185
152	0x3b26d53b	0.0025456685
153	0xbbae6ca9	-0.005323012
154	0x3bd68a9e	0.006547286
155	0x3b1199d8	0.0022216942
156	0x3bfae4e9	0.0076566827
157	0x3b206e4c	0.0024479805
158	0x3da0af25	0.07845906
159	0x3c95672a	0.018237669
160	0x3bbaeec3	0.005704732
161	0x3c2a0d49	0.010379144
162	0x3bdf46e2	0.00681387
163	0x39c41ee8	0.0003740706
164	0x3bf10b0d	0.0073560537
165	0xbbdd9547	-0.00676218
166	0x3ca5759f	0.020197688
167	0x3d951152	0.07278694
168	0x3b4238b1	0.0029635841
169	0x3c8b5e13	0.017012632
170	0xbd9a2c91	-0.075280316
171	0xbcb041b9	-0.021515714
172	0x3b863e7a	0.0040968033
173	0x3c93d629	0.018046455
174	0x3d273eb4	0.040831283
175	0xbe48bcfe	-0.19603345
176	0x3bf4f2d2	0.0074752355
177	0x3bf86e94	0.0075815413
178	0x3be94f3c	0.007120041
179	0x3d231ac1	0.039820436
180	0xbd83b1f8	-0.06430429
181	0x3b22c334	0.0024835588
182	0xbba41855	-0.0050077834
183	0x3b3d53d0	0.0028889067
184	0x3d081ad1	0.0332287
185	0x3b6e6206	0.0036374344
186	0x3d81e71c	0.06342909
187	0x3b8181cf	0.003952242
188	0xbc9b8e7b	-0.018988838
189	0x3d03831b	0.032107454
190	0x3b225a37	0.002477301
191	0x3cccf1b2	0.025017593
192	0x3c88fb93	0.016721522
193	0x3b7627f8	0.0037560444
194	0x3b08a82b	0.002085219
195	0x3b1ccddc	0.0023926413
196	0xbc02c9bb	-0.007982667
197	0x3cc3c26e	0.023896422
198	0xbb497e99	-0.0030745624
199	0x3b8cd444	0.004297765
200	0x3b2e391e	0.0026584337
201	0x3ae5b4f0	0.0017525237
202	0x3d173e4d	0.03692465
203	0xbd69057e	-0.056890003
204	0x3cd159e1	0.025555553
205	0x3b2a9281	0.0026027265
206	0x3b30a863	0.0026955835
207	0x3cd19d78	0.025587782
208	0xbc071517	-0.008244774
209	0x3ba1e358	0.0049404316
210	0x3c99a9bb	0.018757692
211	0x3cbe6512	0.023241553
212	0x3d10b37e	0.035327427
213	0x3b50b533	0.0031846284
214	0x3cb885c5	0.022524724
215	0x3b7acc58	0.003826877
216	0xbd07f564	-0.033193007
217	0x3b8f34ac	0.0043702926
218	0x3b25b089	0.0025282225
219	0xbc0f8fcb	-0.00876231
220	0xbba62d32	-0.0050713057
221	0x3baefc98	0.00534017
222	0x3e09ff3a	0.13476267
223	0x3ca073f9	0.01958655
224	0x3d100185	0.0351577
225	0x3b7f148d	0.0038922161
226	0xbd45113d	-0.048112143
227	0x3c462000	0.01209259
228	0xbbf0b7c7	-0.0073461267
229	0x3b6556ff	0.003499448
230	0x3d0ec776	0.03485819
231	0xbd527f64	-0.05139102
232	0x3ba0b6f9	0.0049046245
233	0xbbcb7e15	-0.0062100985
234	0x3b11e73c	0.002226307
235	0x3d0ad343	0.03389288
236	0x3c8ac6a2	0.016940419
237	0xbce85a0f	-0.028363256
238	0x3b192e30	0.0023373477
239	0x3c9098e9	0.017651038
240	0xbbebf108	-0.007200364
241	0x3c359150	0.0110820085
242	0x3bd9d9b9	0.006648269
243	0x3bc86e61	0.006116674
244	0x3b347bb4	0.0027539553
245	0xbbdb7fe2	-0.0066985944
246	0x3dbe01dd	0.09277699
247	0x3c36ec0d	0.011164677
248	0xbd8dfe81	-0.069333084
249	0x3ba9db9a	0.0051836492
250	0x3b5354a1	0.0032246488
251	0x3d344572	0.04401154
252	0x3d680140	0.056641817
253	0x3c3ee9f1	0.011652456
254	0x3b7a5519	0.0038197695
255	0xbdec5059	-0.115387626
