results/results_7/solved_agent2_actor.pth (torch, 630059 bytes, 6 tensors)

fc1.weight f4 [512, 48]
0	0x3cb00d2b	0.021490654
1	0xbd47daa2	-0.04879249
2	0xbc8c19d0	-0.017102152
3	0x3bb48826	0.005509394
4	0xbd30ccb9	-0.04316399
5	0xbd555ec1	-0.052092317
6	0xbbc56990	-0.006024547
7	0xbd1d3397	-0.038379278
8	0xbcb59631	-0.022166343
9	0xbcfb87c3	-0.030704385
10	0x3bfa8cf2	0.0076461965
11	0x3cfc75ac	0.03081783
12	0x3c8ed38a	0.017434854
13	0xbd3a84d1	-0.04553682
14	0xbc023c96	-0.007949015
15	0xbd4cb229	-0.049974594
16	0x39eaf3f1	0.00044813709
17	0x3c91d0a0	0.017799675
18	0x3c872157	0.01649539
19	0x3cfe4316	0.031037848
20	0x3c289e6e	0.010291679
21	0xbd672360	-0.05643022
22	0x3cdf783c	0.027279012
23	0xbc8858f8	-0.016643986
24	0xbcf5d915	-0.03001074
25	0xbcadf2f0	-0.021234006
26	0xbbf43bae	-0.0074534034
27	0xbc803eef	-0.01565501
28	0x3cbf0aa3	0.023320502
29	0xbcca37cd	-0.024684811
30	0xbc8a0f2a	-0.016852934
31	0xbdb2cade	-0.087301
32	0xbc1b3972	-0.009474145
33	0x3c988bd3	0.01862136
34	0x3cf41e26	0.029799532
35	0xbd0069a2	-0.03135074
36	0xbb062d23	-0.002047368
37	0xbd8b7ab5	-0.06810514
38	0xbd14f483	-0.036365997
39	0xbdb29a17	-0.087207966
40	0x3a0aaacf	0.00052897347
41	0xbd5f3dc3	-0.05450226
42	0xbc376460	-0.011193365
43	0x3d0d9f49	0.034575734
44	0xbd122077	-0.035675492
45	0xbcaf4869	-0.021396833
46	0x3ab7fa84	0.0014036451
47	0x3c8fc187	0.017548336
48	0xbd1ce26c	-0.03830187
49	0x3d22fc88	0.039791614
50	0x3cc6680a	0.024219532
51	0x3ca9860f	0.020693807
52	0xbd69d0be	-0.057083838
53	0xbd1f32cc	-0.038866803
54	0xbc552594	-0.013009448
55	0x3cb05d9d	0.021529013
56	0x3cc32be4	0.02382464
57	0xbcf58f03	-0.02997542
58	0xbc2937b8	-0.010328226
59	0x3d344b16	0.04401692
60	0xbd931dee	-0.07183443
61	0xbd65d60d	-0.056112338
62	0xbbcb9206	-0.0062124757
63	0x3d11495c	0.03547035
64	0x3ba02c81	0.004888118
65	0x3c3f2a9c	0.011667874
66	0x3d3060e5	0.043061156
67	0x3d661194	0.056169108
68	0x3af23d99	0.0018481492
69	0xbc42ffe7	-0.011901832
70	0xbb7821dc	-0.0037861979
71	0x3ab34a46	0.0013678751
72	0x3be81067	0.0070820334
73	0xbd2a7227	-0.04161277
74	0x3d0484ac	0.03235309
75	0xbd5d3ade	-0.05401122
76	0x3cada7ec	0.021198235
77	0xbd6170ef	-0.055039342
78	0x3d000d36	0.0312626
79	0xbdb92623	-0.09040477
80	0xbcf2aad0	-0.029622465
81	0x3a3d02a3	0.0007210171
82	0x3d5f4ee1	0.054518584
83	0xbcb99b6c	-0.022657119
84	0xb90e7e60	-0.00013589254
85	0xbd5f8425	-0.054569382
86	0x3d476495	0.048679907
87	0xbc6dcbc2	-0.014513912
88	0xbd4802d0	-0.048830807
89	0xbc28bf81	-0.010299564
90	0x3cfb15b1	0.030649992
91	0xbd98af52	-0.07455315
92	0x3d74247e	0.059605114
93	0x3d0cdd3c	0.034390673
94	0xbd0f15cf	-0.034932908
95	0xbdef9b0c	-0.11699495
96	0x3d647156	0.055772148
97	0x3d5437c2	0.051810987
98	0xbc9280ad	-0.017883623
99	0xbb130808	-0.0022435207
100	0xbb9d90fd	-0.0048085437
101	0x3c9f7597	0.01946525
102	0x3c94c407	0.01815988
103	0x3ce400b9	0.027832376
104	0xbbfd42cc	-0.00772891
105	0x3c484bbb	0.012225087
106	0x3d1a7999	0.03771362
107	0x3d03af53	0.032149624
108	0x3a5395e0	0.00080713443
109	0x3c927530	0.017878145
110	0x3c5f22a8	0.013619103
111	0x3cc9deab	0.02464231
112	0xbc691678	-0.014226548
113	0x3d368b78	0.0445666
114	0xbd629794	-0.055320337
115	0xbcbb2c3c	-0.022848241
116	0x3c526d1e	0.012843398
117	0x3e04c6bc	0.12966436
118	0xbcafe0da	-0.021469522
119	0xbcac2a54	-0.021016277
120	0x3a74c068	0.0009336532
121	0xbc8ef7d6	-0.017452162
122	0x3c4e43db	0.01258942
123	0xbc944514	-0.018099345
124	0xb7d6bcd8	-2.5598725e-05
125	0xbc8e1eef	-0.017348735
126	0xbb50ac38	-0.0031840932
127	0xbd011fbb	-0.0315244
128	0x3cbbe5a0	0.022936642
129	0xbcf5c52b	-0.030001244
130	0xbd15dec6	-0.036589406
131	0x3cd515c9	0.026011365
132	0xbd25fe86	-0.040525936
133	0xbb8267b9	-0.00397965
134	0xbc8c3db3	-0.017119264
135	0xbcf4e2b7	-0.029893262
136	0xbd253513	-0.04033382
137	0x3ba23c5f	0.0049510445
138	0xbd3c86fd	-0.046027172
139	0x3c1ffb38	0.009764485
140	0x3d447fb3	0.047973346
141	0x3dabe208	0.083927214
142	0xbcb50f24	-0.022101946
143	0x3cb553e1	0.022134723
144	0xbcdffe21	-0.027342858
145	0x3cf4f202	0.029900555
146	0xbcbc8147	-0.023010863
147	0xbc41d565	-0.011830662
148	0xbc560d54	-0.013064701
149	0xbd862da3	-0.06551673
150	0xbc874f55	-0.01651732
151	0xbccb9972	-0.024853442
152	0x3c4e5b71	0.0125950435
153	0xbb91bb06	-0.0044473438
154	0x3d24867b	0.040167313
155	0xbcd364d5	-0.025804916
156	0xbd0adcfa	-0.033902146
157	0xbc813932	-0.015774343
158	0x3d8058b7	0.06266921
159	0xbd61095f	-0.054940578
160	0xbd23a923	-0.039956223
161	0x3b3c6835	0.0028748636
162	0xbbc49336	-0.005998994
163	0xbc4f25b9	-0.012643271
164	0xbdb57a89	-0.08861262
165	0x3d997e89	0.07494838
166	0x3d6b399f	0.057428
167	0xbd417382	-0.047229297
168	0x3c5493b2	0.012974666
169	0xbd1827a0	-0.037147164
170	0xbc0cfc59	-0.008605086
171	0xbd8a5c27	-0.06755858
172	0xbd518d63	-0.051160228
173	0xbd2b0210	-0.041750014
174	0x3c0f91df	0.008762806
175	0xbbd9766f	-0.006636433
176	0xbcb587a3	-0.022159403
177	0xbd703d1d	-0.058652032
178	0xbcc49b0c	-0.023999713
179	0xbd61bbc8	-0.055110723
180	0x3cf1ed95	0.029532233
181	0x3c4715d3	0.012151199
182	0x3d01122a	0.031511463
183	0xba07d81f	-0.0005182046
184	0xbd81a7db	-0.06330844
185	0x3bf9d59c	0.007624341
186	0x3d14655b	0.036229473
187	0xbc4be1e8	-0.012443997
188	0x3d1b3302	0.03789044
189	0x3dce6fcb	0.100799166
190	0xbccef3ee	-0.0252628
191	0x3d2217c7	0.039573457
192	0x3cca30f1	0.02468154
193	0xbc875ff8	-0.016525254
194	0x3d05d47f	0.032673355
195	0xbbef5532	-0.0073038572
196	0x3d574c4a	0.05256299
197	0x3d2d3789	0.04228929
198	0x3d8dbc19	0.069206424
199	0xbd4ff598	-0.050771326
200	0x3c022c01	0.007945062
201	0x3c556418	0.0130243525
202	0x3c8e4720	0.0173679
203	0x3c177780	0.0092448
204	0xbc581b81	-0.013190151
205	0xbc9e4dfb	-0.019324293
206	0x3c95ee00	0.018301964
207	0xbca1debf	-0.019759534
208	0xbcba0322	-0.022706572
209	0xbc772623	-0.015084776
210	0x3c5c89c1	0.013460577
211	0x3d99704b	0.07492121
212	0x3b16f34f	0.0023033207
213	0x3d00f632	0.03148479
214	0x3cff2107	0.031143678
215	0x3d34ec5d	0.044170726
216	0xbd0974f5	-0.033558805
217	0xbc3372ba	-0.010952646
218	0x3d0993fc	0.033588395
219	0x3b17d074	0.002316502
220	0xbd9caeeb	-0.076505505
221	0x3d367e4b	0.044554036
222	0x3d27d878	0.040977925
223	0xbb8a2e5a	-0.0042169513
224	0xbc11b43f	-0.008893072
225	0x3b627bd3	0.0034558668
226	0x3b354929	0.0027662015
227	0xbc81b39f	-0.01583272
228	0xbd5d5425	-0.054035325
229	0xbd1895e8	-0.037252337
230	0xbd054c54	-0.032543495
231	0x3b5cdebb	0.0033702094
232	0xbc605ed0	-0.01369448
233	0x3c69f68c	0.014279973
234	0xbd0f6a6d	-0.035013605
235	0x3bd4b44c	0.0064912196
236	0x3cca19cf	0.02467051
237	0xbd4dbb0c	-0.05022721
238	0xbc0d0f8d	-0.008609665
239	0x3d4330eb	0.047654074
240	0xbb71beca	-0.00368874
241	0x3c999cd3	0.018751537
242	0x3c80b9da	0.01571362
243	0xbd3241af	-0.043519672
244	0xbd86e840	-0.06587267
245	0xbd0e8131	-0.034791175
246	0xbd002240	-0.031282663
247	0x3a3c590a	0.0007184899
248	0xbd35b0e7	-0.04435816
249	0x3d089d11	0.033352915
250	0x3bf61cad	0.0075107426
251	0xbd5f31a7	-0.05449071
252	0xbd94a99e	-0.072589144
253	0xbb6d43dd	-0.003620378
254	0xbd69a951	-0.05704624
255	0xbd2bc039	-0.041931365

fc1.bias f4 [512]
0	0xbdf398b7	-0.118943624
1	0xbd32584a	-0.04354123
2	0x3b178a45	0.0023123187
3	0xbc6a9fdf	-0.014320343
4	0xbddda8c7	-0.10823207
5	0xbc182e6f	-0.009288414
6	0x3dd9ba67	0.106312566
7	0xbccafbf6	-0.024778347
8	0x3dfb41bb	0.122683965
9	0x3e1903c6	0.14942846
10	0xbd813584	-0.063090354
11	0xbc9e0ccb	-0.01929321
12	0xbcac67e3	-0.02104563
13	0x3d875921	0.06608797
14	0x3dc02c55	0.09383456
15	0x3e1b2d8d	0.15154095
16	0x3df8b9fa	0.12144847
17	0xbd0d5321	-0.034503106
18	0x3d347dc3	0.04406525
19	0xbd85c799	-0.06532211
20	0x3d37b9f8	0.044855088
21	0x3da241be	0.079226956
22	0x3e00df38	0.12585151
23	0x3d19c257	0.037538853
24	0x3ccfa7b3	0.02534852
25	0x3d1bc81f	0.038032647
26	0xbd9d016a	-0.07666285
27	0x3dca5821	0.098800905
28	0xbd49d5fc	-0.049276337
29	0x3e08b3bc	0.13349813
30	0x3dac61d5	0.084170975
31	0xbca813c7	-0.020517243
32	0x3c737335	0.01485901
33	0xbe364948	-0.17801392
34	0xbdeccf76	-0.115630075
35	0xbe00da3e	-0.12583253
36	0x3d77a666	0.060461424
37	0xbdade4dc	-0.08490917
38	0xbd7532b4	-0.059862807
39	0xbd0f4e3e	-0.034986727
40	0x3db2092c	0.08693156
41	0xbd211a19	-0.03933153
42	0x3cb88b48	0.022527352
43	0x3c0fcaeb	0.008776407
44	0x3da03797	0.07823103
45	0x3cf6aa1a	0.030110408
46	0x3dc310c4	0.09524682
47	0x3db96506	0.09052472
48	0x3b2f32c2	0.0026733135
49	0x3dd9b32e	0.10629879
50	0x3d9e8023	0.07739284
51	0x3d4fbee2	0.05071915
52	0xbdfd137e	-0.123572335
53	0x3da4ce6e	0.08047186
54	0xbd686770	-0.05673927
55	0x3d0f8f6f	0.0350489
56	0x3d10aa94	0.035318926
57	0xbe065e0c	-0.13121814
58	0x3cbcc6b8	0.023043975
59	0xbdc94359	-0.09827299
60	0xbdaed6a0	-0.0853703
61	0x3d22f6b1	0.039786045
62	0xbd4a99d4	-0.04946311
63	0xbd40b694	-0.04704912
64	0xbd8e4aac	-0.06947836
65	0x3e05f0af	0.13080095
66	0x3d8dfc08	0.06932837
67	0x3dfe13c3	0.12406113
68	0xbd99494c	-0.074846834
69	0xbd6b72e2	-0.057482608
70	0xbd35b34b	-0.04436044
71	0xbdbbfb97	-0.09178846
72	0xbdd6f4d4	-0.10495916
73	0xbd8d705b	-0.06906196
74	0xbb8e05f8	-0.0043342076
75	0x3d59fbc4	0.053218618
76	0xbd4a1ecf	-0.049345788
77	0xbd0ebbb9	-0.034846995
78	0xbdc2a6c2	-0.09504463
79	0x3daa794d	0.083239175
80	0x3d86b220	0.065769434
81	0x3d239783	0.039939415
82	0x3d85e329	0.06537468
83	0x3d3c822c	0.04602258
84	0x3b75e32a	0.0037519434
85	0x3e193156	0.14960226
86	0xbe19108b	-0.14947717
87	0xbdbc1516	-0.09183709
88	0x3ddc2695	0.107495464
89	0x3e09c92f	0.13455652
90	0xbde450ce	-0.11148225
91	0x3d683bc2	0.056697614
92	0x3dbf45b5	0.093394674
93	0xbd645f41	-0.055754904
94	0xbca65408	-0.020303741
95	0xbc8718a5	-0.016491244
96	0xbdb0a3d1	-0.086249955
97	0xbd651ca1	-0.055935506
98	0xbddb7f8f	-0.10717689
99	0xbdd89560	-0.10575366
100	0x3dc68848	0.09693962
101	0x3d0278a0	0.03185332
102	0x3dcc2f9a	0.09970017
103	0x3c5ad41b	0.013356234
104	0xbd55bee4	-0.052184
105	0xbdd800dd	-0.1054704
106	0xbce1e862	-0.02757663
107	0x3e1f19bc	0.1553716
108	0x3de395d3	0.11112561
109	0xbdffcbbc	-0.12490031
110	0xbde9ee62	-0.11422421
111	0x3ca3f167	0.02001257
112	0xbd8e03e9	-0.069343396
113	0x3dfaa321	0.122381456
114	0xbd96f731	-0.07371367
115	0x3d07fd92	0.033200808
116	0xbce2c126	-0.027679991
117	0xbd700c01	-0.058605198
118	0x3d733847	0.059379842
119	0xbc81b492	-0.015833173
120	0xbdc16cfa	-0.09444614
121	0xbd93cc78	-0.07216734
122	0x3d7bf532	0.061513133
123	0xbdf09422	-0.11747004
124	0xbd0c5744	-0.03426291
125	0x3d8b6f1d	0.068083026
126	0xbd813f52	-0.063109055
127	0x3e04b5ea	0.1296002
128	0xbdb100e5	-0.08642749
129	0x3b0f93b8	0.0021908116
130	0xbd7b1d5a	-0.06130729
131	0x3def415a	0.11682387
132	0x3d22c8d6	0.039742313
133	0x3d977630	0.07395589
134	0x3c83abe1	0.01607317
135	0x3e10e386	0.14149293
136	0x3de99f06	0.114072844
137	0x39155169	0.00014240075
138	0xbe1c32b4	-0.15253717
139	0x3e0f6c78	0.14006221
140	0xbd872812	-0.0659944
141	0xbd938d87	-0.072047286
142	0x3dc2ae68	0.095059216
143	0x3cfe7f4d	0.031066561
144	0xbd94e88f	-0.072709195
145	0x3c065eb7	0.008201293
146	0x3da61806	0.08110051
147	0xbd440718	-0.047858328
148	0xbd5aba9e	-0.05340063
149	0x3d9b75bb	0.07590815
150	0xbd6bb8f1	-0.05754942
151	0xbdecb84c	-0.11558589
152	0x3dc314e3	0.09525468
153	0x3d79ac3b	0.060955267
154	0xbdb983f0	-0.09058368
155	0xbca2cb78	-0.019872412
156	0xbdef1401	-0.11673737
157	0x3da168f2	0.07881345
158	0xbdb585a3	-0.0886338
159	0xbdf7c369	-0.120978184
160	0xbd5855d5	-0.05281623
161	0x3d766dbf	0.060163256
162	0x3d5124ab	0.05106036
163	0xbdec670d	-0.11543093
164	0xbd782485	-0.060581703
165	0x3d16ec9d	0.036846746
166	0xbd0b18db	-0.03395925
167	0x3d8aaf77	0.067717485
168	0xbd59ce62	-0.053175338
169	0xbcd4edd3	-0.02599231
170	0xbcdc577b	-0.026897183
171	0xbd598058	-0.053100914
172	0x3d730238	0.059328288
173	0xbde0c39e	-0.10974811
174	0x3e1e7a35	0.15476306
175	0x3d83e495	0.06440083
176	0x3cc55527	0.024088455
177	0x3db4960f	0.08817684
178	0x3bbd150d	0.0057703317
179	0xbdfc253e	-0.12311791
180	0xbd8ff704	-0.07029536
181	0x3dc293a7	0.09500819
182	0xbd154c87	-0.036449935
183	0xbcfe695a	-0.031056095
184	0xbdd8c899	-0.10585136
185	0x3d12197a	0.035668828
186	0xbd6b7d35	-0.057492454
187	0xbdb7d20d	-0.08975611
188	0xbd713b3d	-0.058894385
189	0xbe034ef4	-0.12823087
190	0x3d02a780	0.03189802
191	0xbca5a60b	-0.020220777
192	0x3dc8b575	0.09800235
193	0xbd83ee5f	-0.0644195
194	0x3dbeb749	0.093123026
195	0xbd2991f0	-0.041398942
196	0xbe0870ce	-0.13324282
197	0x3e000381	0.12501337
198	0xbd86313e	-0.06552361
199	0xbdca66fd	-0.09882925
200	0x3d025e73	0.031828355
201	0x3d1dc2d0	0.038515866
202	0x3db5309f	0.08847164
203	0xbccac246	-0.02475084
204	0x3da36bba	0.079795316
205	0x3cc00880	0.023441553
206	0x3db8076b	0.0898579
207	0x3e1df2fa	0.1542472
208	0xbc45a0fd	-0.012062308
209	0xbcc2885c	-0.023746662
210	0x3dcace77	0.09902661
211	0xbd85e2a5	-0.0653737
212	0xbd75bccd	-0.059994508
213	0x3de859a8	0.113452256
214	0x3ddc67f2	0.107620135
215	0x3e26ef0a	0.16302124
216	0xbdb0cef2	-0.08633222
217	0x3dc1d4ce	0.094644174
218	0xbcda0a90	-0.026616365
219	0x3e13d394	0.1443618
220	0x3cadf300	0.021234035
221	0xbd2303c5	-0.039798517
222	0x3db972db	0.0905511
223	0xbd9f64ea	-0.0778292
224	0x3de23456	0.110451385
225	0x3dac7274	0.08420268
226	0xbe08968f	-0.13338684
227	0x3d7a8969	0.0611662
228	0xbc8316a6	-0.01600201
229	0xbd1347b5	-0.035957057
230	0xbd4e1daa	-0.05032126
231	0xbde495e5	-0.111614026
232	0x3d2a0a6a	0.041513838
233	0x3c0b4e23	0.008502516
234	0xbd060325	-0.032717843
235	0xbcf36ded	-0.029715503
236	0xbcac54c1	-0.021036508
237	0x3c8a943a	0.016916383
238	0xbd232037	-0.039825644
239	0xbd7ef8f1	-0.062249128
240	0xbdfe8ec2	-0.12429573
241	0x3dcb1b63	0.09917333
242	0xbe16a21e	-0.1471028
243	0xbd139252	-0.036028214
244	0x3ca5615a	0.020188022
245	0xbe082af0	-0.1329763
246	0xbd4a8719	-0.049445245
247	0x3db15bc0	0.08660078
248	0xbd8de86e	-0.06929098
249	0x3e1ee574	0.15517217
250	0xbd59e1fb	-0.053194027
251	0xbc69bcb8	-0.014266185
252	0xbcb053d8	-0.021524355
253	0x3d5f9aa3	0.054590832
254	0xbdce9487	-0.10086923
255	0xbc92a247	-0.017899645

fc2.weight f4 [256, 512]
0	0xbd34bd57	-0.04412588
1	0x3d5bcf69	0.0536646
2	0x3d84ce55	0.06484667
3	0xbd0c59e1	-0.034265403
4	0x3c0aa268	0.008461572
5	0x3daf2f00	0.085538864
6	0x3d0846d4	0.033270672
7	0x3d584da7	0.05280843
8	0x3d321b32	0.043482967
9	0x3df5b83a	0.11998029
10	0x3c6b9a55	0.014380057
11	0xbcda366c	-0.026637278
12	0x3d8c8856	0.068619415
13	0x3cfb0db4	0.030646183
14	0x3cb28c99	0.021795558
15	0xbd1fe285	-0.039034385
16	0xbd02ff91	-0.03198201
17	0x3d46d7ab	0.04854552
18	0xbe0201ec	-0.12696046
19	0x3c8e062a	0.017336924
20	0x3d9a4165	0.07532004
21	0xbd306ccf	-0.043072518
22	0x3d05baa1	0.032648686
23	0xbd1e56d6	-0.038657032
24	0x3d828231	0.06372488
25	0x3c220fb0	0.0098914355
26	0x3d5032a1	0.050829533
27	0x3d8bb1cb	0.06821021
28	0x3d8042cb	0.0626274
29	0x3b8349fa	0.0040066214
30	0x3c211298	0.009831093
31	0xbbf9c118	-0.0076218955
32	0xbd324a2b	-0.043527763
33	0xbd993a7e	-0.074818596
34	0x3d7fdfaa	0.062469162
35	0x3bf0daba	0.007350293
36	0xba8339ac	-0.0010011694
37	0x3d5ccb6c	0.053904936
38	0x3d56bede	0.05242812
39	0x3d8dd786	0.069258735
40	0x3da73061	0.081635244
41	0xbe140d6a	-0.14458242
42	0xbaaeccc8	-0.0013336176
43	0x3d7a03d1	0.061038796
44	0x3d11a313	0.03555591
45	0xbd3b63d9	-0.04574952
46	0x3cd4286f	0.025898186
47	0xbd8bf61d	-0.06834052
48	0x3d29d857	0.041466083
49	0x3cfa8834	0.030582525
50	0xbcd3c403	-0.025850302
51	0x3da94e64	0.08266905
52	0xb9248342	-0.00015689156
53	0x3d9bf9fc	0.0761604
54	0x3ae2d547	0.0017305993
55	0xbd85f1d6	-0.06540267
56	0x3d871671	0.06596077
57	0x3d4ee5d6	0.050512157
58	0x3d25131d	0.04030143
59	0x3ce6d772	0.028178904
60	0xbc8cc3ff	-0.017183302
61	0x3d3538f1	0.044243757
62	0xbc8b4ac7	-0.01700343
63	0x3c602715	0.013681193
64	0xbb6e1523	-0.0036328516
65	0xbb702562	-0.0036643376
66	0xbd10464f	-0.0352233
67	0xbd4fe5da	-0.050756313
68	0xbd7dcf19	-0.06196508
69	0x3cb50123	0.022095269
70	0x3cd9600b	0.026535055
71	0xbd8a520f	-0.06753933
72	0xbd167d79	-0.036740754
73	0x3c344309	0.011002311
74	0xbde3d375	-0.111243166
75	0x3c07968f	0.008275642
76	0xbcd24980	-0.025669813
77	0xbcba0527	-0.022707535
78	0xbd46cc14	-0.048534468
79	0xbdbc3700	-0.09190178
80	0x3d20bdad	0.03924339
81	0xbdeca322	-0.115545526
82	0x3d907981	0.07054425
83	0xbdb93edb	-0.09045192
84	0x3d2bc157	0.04193243
85	0x3dbfb7f3	0.093612574
86	0xbdb4d6d6	-0.08830039
87	0xbdb93bd6	-0.09044616
88	0x3cc466f3	0.023974871
89	0xbda15548	-0.07877594
90	0xbdc8d202	-0.09805681
91	0xbcc6b6d1	-0.024257096
92	0xbd1d6a61	-0.03843153
93	0xbdafef00	-0.085905075
94	0xbb7d1546	-0.0038617416
95	0xbd05ff61	-0.03271425
96	0x3d00c789	0.03144029
97	0xbc09924a	-0.008396694
98	0xbcf835cb	-0.030299088
99	0x3d7f8d6d	0.062390734
100	0x3d038d68	0.032117277
101	0x3d659378	0.05604884
102	0xbc019069	-0.007907965
103	0x3c258509	0.010102519
104	0xbd3f6584	-0.046727672
105	0x3d0cc150	0.034364045
106	0xbcccb49d	-0.024988467
107	0x3dcb03d7	0.09912842
108	0xbd268d49	-0.040662084
109	0x3d567ae8	0.052363306
110	0x3ccb8f06	0.024848472
111	0xbbaf394e	-0.0053474074
112	0x3dceaeee	0.10091959
113	0x3c8021d7	0.015641136
114	0xbd4ed6b9	-0.050497744
115	0xbe430661	-0.19045402
116	0xbd65df4b	-0.056121152
117	0x3d8859d9	0.06657762
118	0x3e23efc6	0.16009435
119	0x3c550e1e	0.013003854
120	0x3d57cc13	0.052684855
121	0xbc12ca11	-0.008959309
122	0xbc2db954	-0.010603268
123	0x3d8f8808	0.07008368
124	0x3d1ef9cb	0.03881244
125	0x3d7a0c09	0.061046634
126	0x3d04d199	0.03242645
127	0xbcf0a67c	-0.029376261
128	0xbbb8fc1c	-0.005645288
129	0xbc0dab15	-0.008646746
130	0xbd618df8	-0.055067033
131	0xbc7a85b2	-0.0152906645
132	0x3d39c632	0.04535503
133	0x3dd0abe9	0.10189039
134	0x3c840e87	0.016120208
135	0x3cd896c4	0.026439078
136	0x3c3606d3	0.011110025
137	0x3d5b22a4	0.053499833
138	0xbe21bdfa	-0.15795127
139	0xbd0f4e90	-0.034987032
140	0xbd11bbdc	-0.035579547
141	0xbba8baef	-0.0051492373
142	0x3dbadc16	0.09124009
143	0xbb7022d2	-0.0036641848
144	0xbc67a6bf	-0.014138876
145	0xbdb3f5e1	-0.08787132
146	0xbcd0d9a4	-0.025494404
147	0xbd248dde	-0.040174358
148	0x3d1644ea	0.036686815
149	0xbcedece0	-0.029043615
150	0xbc8a052b	-0.016848167
151	0x3dc4ea71	0.09615029
152	0x3d3bc641	0.045843367
153	0xbd4a596e	-0.049401693
154	0x3b9229b6	0.0044605387
155	0xbd07577a	-0.03304241
156	0xbc3e0b63	-0.0115993945
157	0x3ddd8ac4	0.10817483
158	0x3de18055	0.110108055
159	0x3d312204	0.04324533
160	0xbbde3b75	-0.00678199
161	0xbc5d64b1	-0.013512776
162	0xbd686299	-0.056734655
163	0x3c99b379	0.018762337
164	0xbd41892d	-0.04724996
165	0xbd85c31f	-0.06531357
166	0x3cb783c7	0.022401704
167	0x3ceef3a5	0.029168913
168	0x3dac8db0	0.08425462
169	0x3d3cd1e3	0.0460986
170	0xba907cae	-0.0011023486
171	0x3c9c028d	0.019044185
172	0xbce3972e	-0.027782049
173	0xbe0ddce5	-0.13853796
174	0xbda7670c	-0.081739515
175	0x3c3f1e95	0.011665006
176	0x3d5f2227	0.05447593
177	0xbd57bab3	-0.052668285
178	0xbca44246	-0.020051133
179	0x3c5adb58	0.01335796
180	0xbc5a83ff	-0.013337134
181	0xbd1e4377	-0.03863856
182	0x3c30f7e2	0.010801287
183	0x3d34fc6d	0.044186044
184	0xbbc377d8	-0.005965214
185	0xbdfd323d	-0.12363098
186	0xbc84a544	-0.016192086
187	0xbd4d6322	-0.05014337
188	0x3ca12b5f	0.019674001
189	0x3d2adc92	0.04171426
190	0x3da074a0	0.078347445
191	0x3d03b3cc	0.03215389
192	0xbd215baa	-0.03939406
193	0xbc981f5c	-0.01856964
194	0xba53560e	-0.00080618344
195	0x3ca98edf	0.020698009
196	0xbe0216fa	-0.12704077
197	0x3d6b5a16	0.05745896
198	0xbe34efa8	-0.17669547
199	0xbcf9a192	-0.03047255
200	0xbb99cc32	-0.0046935314
201	0x3bd461c0	0.0064813793
202	0x3988c124	0.00026083842
203	0xbb9ead65	-0.0048424476
204	0xbd332205	-0.043733615
205	0x3d5ba79f	0.053626653
206	0xbc55beb4	-0.013045955
207	0xbd6b1a37	-0.057398047
208	0xbccdae49	-0.02510752
209	0xbce46aeb	-0.027883014
210	0x3bcfe554	0.0063444767
211	0xbccf52a7	-0.025307966
212	0xbbdede20	-0.0068013817
213	0xbd5be438	-0.053684443
214	0xbd40a03e	-0.04702782
215	0x3d9364d9	0.071969695
216	0x3bf0b833	0.007346177
217	0x3d8c46af	0.06849419
218	0x3d9369a3	0.07197883
219	0x3c9c92d4	0.019112982
220	0xbdb06e8f	-0.086148374
221	0xbd4d87be	-0.050178282
222	0xbd2646b6	-0.04059478
223	0x3b8afcb9	0.0042415527
224	0xbd8e715d	-0.06955216
225	0x3d4b0fa5	0.049575467
226	0xbd851f9b	-0.06500169
227	0x3d63beaf	0.055601772
228	0xbd115353	-0.035479855
229	0xbbc0d48a	-0.0058847116
230	0x3d117108	0.035508186
231	0xbc0e43ac	-0.008683126
232	0x3db54044	0.08850148
233	0x3ce3b247	0.02779497
234	0xbcac61ea	-0.021042783
235	0x3d849732	0.06474151
236	0xbd873b0a	-0.06603058
237	0xbe65bf7e	-0.2243633
238	0xbd9ae1eb	-0.07562622
239	0xbcb784cb	-0.022402188
240	0xbcf70169	-0.03015204
241	0xbbda7f02	-0.0066679725
242	0x3d0634a6	0.032765053
243	0xbe1ef17e	-0.1552181
244	0x3d186adc	0.037211284
245	0xbd73fe1a	-0.059568502
246	0x3d9c3308	0.07626921
247	0x3c82d677	0.015971405
248	0x3c064a43	0.008196416
249	0x3dbaa675	0.091137804
250	0x3ceef436	0.029169183
251	0x3ce88c0e	0.028387096
252	0x3e011418	0.12605321
253	0xbcb5c212	-0.022187266
254	0xbca259cc	-0.01981821
255	0x3c93fabe	0.0180639

fc2.bias f4 [256]
0	0x3d6cc84c	0.057808205
1	0xbd381e1b	-0.044950586
2	0x3cebae44	0.02876962
3	0xbbfc2278	-0.0076945387
4	0xbc534453	-0.012894708
5	0x3c8ecea8	0.017432526
6	0x3cb6c235	0.022309402
7	0x3ce5e12c	0.028061472
8	0xbd0d8e70	-0.034559667
9	0xbd221744	-0.03957297
10	0x3bfcac4e	0.00771097
11	0x3d03dd28	0.032193333
12	0x3d3bde37	0.045866217
13	0xbcadd719	-0.02122073
14	0xbc9d312f	-0.019188492
15	0x3cd63d46	0.026152264
16	0xbceb0594	-0.028689183
17	0x3cee354d	0.02907815
18	0xbd0f2122	-0.034943707
19	0xbca363da	-0.019945074
20	0x3d662e2a	0.05619637
21	0xbb6aecbd	-0.0035846673
22	0x3c2176a9	0.009854951
23	0xbcfa2799	-0.03053646
24	0x3d303caf	0.043026622
25	0xbc8e534d	-0.017373705
26	0xbafe82bd	-0.0019417625
27	0xbc59eba1	-0.013300807
28	0x3c24cb07	0.010058171
29	0x3bcee847	0.0063143107
30	0x3d3c3175	0.045945603
31	0xbcd1b516	-0.025599044
32	0x3ce4ce1d	0.027930314
33	0xbb0885a4	-0.002083161
34	0xba393e41	-0.00070664665
35	0xb98a2656	-0.00026349974
36	0x3c3412bd	0.010990796
37	0xbad88292	-0.0016518405
38	0x3b514a58	0.0031935181
39	0x3ce7fe79	0.028319584
40	0x3d089e34	0.033354
41	0xbd09cb23	-0.033640992
42	0x3d6684bf	0.05627894
43	0xbcc09ca9	-0.023512201
44	0x3ca301cb	0.019898316
45	0xbcb477ce	-0.022029784
46	0xbcecfeef	-0.028930156
47	0x3d3361d1	0.043794457
48	0x3d3d2bd9	0.046184395
49	0xbca4c9e0	-0.020115793
50	0x3d3d2e97	0.04618701
51	0x3d725024	0.05915846
52	0x3ca30a11	0.019902261
53	0x3d5feac8	0.054667264
54	0x3cb76db7	0.022391183
55	0x3d635857	0.05550417
56	0xbcdb114d	-0.026741648
57	0x3d05fdc6	0.03271272
58	0x3abe2798	0.001450765
59	0xbc9902a6	-0.01867802
60	0x3c3a8cae	0.01138608
61	0x3ba40402	0.0050053606
62	0x3ad1dbf4	0.0016010986
63	0xbc3f508e	-0.011676921
64	0xbce12761	-0.027484598
65	0x3a03c948	0.00050272467
66	0x3d31971b	0.043356996
67	0x3c8d6145	0.017258296
68	0x3cb78c01	0.022405626
69	0x3d1e25c5	0.03861024
70	0x3d67fd3e	0.056637995
71	0x3cc2f6d1	0.023799332
72	0x3c8b0a47	0.016972674
73	0xbcca3998	-0.024685666
74	0x3cdf4d08	0.027258411
75	0x3c891d0f	0.016737489
76	0xbd67b554	-0.056569412
77	0xbc6a05c7	-0.014283604
78	0x3b6add71	0.0035837556
79	0x39f288b4	0.0004625969
80	0x3caa6830	0.020801634
81	0xbc93393f	-0.017971633
82	0x3d9f33f7	0.077735834
83	0x3ca45450	0.020059735
84	0x3d153137	0.036423888
85	0xbcaf1ca1	-0.021375956
86	0x3b8c82d8	0.0042880587
87	0xbbde15dc	-0.006777508
88	0x3b52e8ee	0.0032182294
89	0x3cd85b2a	0.026410658
90	0x3bad6133	0.005291128
91	0x3cd43722	0.025905196
92	0xbd64ab82	-0.055827625
93	0xbcb1282e	-0.021625604
94	0xbbda63bd	-0.0066647218
95	0xbc811abb	-0.015759816
96	0xb9cdc2fa	-0.00039245916
97	0x3cf7737c	0.030206434
98	0x3d074aea	0.033030428
99	0xb97941eb	-0.00023771047
100	0xbb34c132	-0.0027580974
101	0xbcb4063e	-0.021975633
102	0x3d0c6bfa	0.034282662
103	0x3bc26913	0.005932936
104	0x3d3a0da0	0.04542315
105	0xbc262b57	-0.010142169
106	0x3cf22598	0.029558942
107	0x3d6c35de	0.05766856
108	0xbc80f0ca	-0.015739817
109	0x3d2fb870	0.042900503
110	0x3c915c00	0.017744064
111	0xbc87907b	-0.016548386
112	0x3d0390e5	0.032120604
113	0xbd0fbdb5	-0.035093028
114	0xbb1e5aae	-0.0024162936
115	0xbaaf4109	-0.0013370822
116	0x3d42b91e	0.047539823
117	0xbc897f2d	-0.016784275
118	0x3b730635	0.0037082557
119	0x3c2e1eef	0.010627492
120	0x3d067e2d	0.032835174
121	0xbbe712d1	-0.0070518036
122	0x3c7a4f0c	0.015277635
123	0x3d4f150b	0.050557178
124	0x3cc39c30	0.023878187
125	0xbbe4cfd5	-0.0069827833
126	0x3d15a725	0.036536355
127	0xbb66403d	-0.0035133504
128	0x3d185f67	0.037200358
129	0xbc9bd0f5	-0.019020537
130	0x3b802f71	0.0039119055
131	0x3c5f213b	0.013618763
132	0x3cb2fabd	0.021848077
133	0x3c0703a6	0.008240616
134	0xbc7c196b	-0.0153869195
135	0x3afca7bd	0.0019276064
136	0x3d10ee52	0.03538353
137	0x3a4dead9	0.00078551244
138	0x3c161a30	0.009161517
139	0x3c950def	0.01819512
140	0xbcc2e55d	-0.02379101
141	0x3d514b92	0.05109746
142	0x3cc9ad48	0.02461876
143	0xbcfb5228	-0.030678824
144	0x3b11d1c3	0.0022250272
145	0x3cb4b788	0.02206017
146	0x3ca51333	0.020150756
147	0xbbef641e	-0.007305636
148	0xbc3e94bd	-0.011632142
149	0x3d3447a6	0.04401364
150	0x3cca7af6	0.024716835
151	0xba69120e	-0.0008890935
152	0x3d07b1b2	0.033128448
153	0xbcdb7ba2	-0.026792351
154	0x3d1c70d0	0.038193524
155	0xbc2a0d32	-0.010379123
156	0x3d35ebe6	0.044414423
157	0x3d237cb7	0.03991386
158	0x3ca4891e	0.020084914
159	0x3caefa21	0.021359505
160	0x3cf376a6	0.029719662
161	0x3cf9f285	0.03051115
162	0xbb8adff9	-0.0042381254
163	0x3cf6c5b3	0.030123567
164	0x3d30b8da	0.04314504
165	0xbc1129ab	-0.008860032
166	0x3d620d94	0.05518873
167	0xbd469ce6	-0.048489474
168	0x3ccfed24	0.025381632
169	0xbc7e5408	-0.015522964
170	0x3c00ec54	0.007868845
171	0x3b748dc8	0.0037315954
172	0x3d1152a4	0.035479203
173	0xbd0cf19d	-0.034410108
174	0x3d38e917	0.045144167
175	0x3cd6d66f	0.026225297
176	0x3d814227	0.06311446
177	0x3d47bf2b	0.048766296
178	0x3d8144d0	0.06311953
179	0x3b1d2126	0.0023976057
180	0xbcc87e36	-0.024474245
181	0xbc3daad6	-0.011576375
182	0xbc46e8f2	-0.012140499
183	0x3c34979f	0.011022477
184	0x3d250ee3	0.0402974
185	0x3d1a604c	0.037689492
186	0x3cdcb57c	0.026942007
187	0x3b64ebc6	0.003493057
188	0x3b94a415	0.0045361617
189	0xbc8989f3	-0.016789412
190	0xbbfb76cb	-0.0076740733
191	0x3cc7b286	0.024377119
192	0xba639972	-0.0008682228
193	0x3bfeee06	0.0077798394
194	0x3c66a3f8	0.014077179
195	0x3b955817	0.0045576203
196	0x3d21a84a	0.039467134
197	0xbca682ba	-0.020326007
198	0x3d1a5e11	0.037687365
199	0xbc481a6d	-0.012213332
200	0xbc6bf5ff	-0.014401912
201	0x3b72471d	0.0036968656
202	0x3d66c5db	0.056341033
203	0x3d06c70d	0.032904673
204	0x3d1dabb5	0.03849383
205	0x39d1d7c8	0.00040024356
206	0x3d367aaa	0.044550575
207	0xbc97b69e	-0.018519696
208	0x3d574344	0.052554384
209	0x3d86f0af	0.065888755
210	0xbb3a01eb	-0.002838249
211	0xbc8d48a9	-0.017246561
212	0xbd0a542b	-0.033771675
213	0xbd07cdb5	-0.033155162
214	0x3d3792fe	0.044817917
215	0x3d0927ff	0.03348541
216	0xbd085c6a	-0.033291258
217	0x3bcec1e5	0.006309735
218	0x3d788470	0.060673177
219	0xbce5ac25	-0.028036186
220	0x3d4ca4b5	0.049961764
221	0xbcd5b65d	-0.026087934
222	0x3d329dfa	0.04360769
223	0xbc0a71ce	-0.008449985
224	0x3b81b912	0.0039588297
225	0x3d2addfe	0.041715614
226	0x3d4a3f8a	0.049377
227	0xbc39496c	-0.011309009
228	0x3beb4573	0.00717991
229	0x3d0014d3	0.03126986
230	0x3d51233e	0.051059
231	0xbcf2f2ed	-0.029656852
232	0x3c6e1d4d	0.014533353
233	0xbd6e1b21	-0.05813134
234	0xbcedb38b	-0.029016277
235	0xbd0deb49	-0.034648214
236	0x3d34cc4f	0.044140156
237	0x3d2458ff	0.040123936
238	0xbd0c0ca3	-0.03419174
239	0x3cc29169	0.023750978
240	0x3d2180f6	0.039429627
241	0x3d4fa83d	0.050697554
242	0x3c89e9c4	0.016835101
243	0xbc349d79	-0.0110238725
244	0xbd37ab6d	-0.04484122
245	0x3d062e99	0.032759283
246	0x3d298c68	0.041393667
247	0x390149c8	0.00012329884
248	0x3d5716ca	0.052511968
249	0x3cdd2e50	0.026999623
250	0xbcedf556	-0.02904765
251	0xbcd10b13	-0.025517976
252	0x3ccd656d	0.025072778
253	0xbc739e5b	-0.014869298
254	0x3cfb2fc4	0.030662425
255	0x3d0173d1	0.03160459

fc3.weight f4 [2, 256]
0	0xbe26047e	-0.16212651
1	0x3d0256ed	0.03182118
2	0xbdf0b792	-0.11753763
3	0x3cc80bf5	0.024419764
4	0x3d404002	0.046936043
5	0xbd4e230c	-0.050326392
6	0xbd157399	-0.036487196
7	0xbcc7883c	-0.024356954
8	0xbe25517e	-0.16144368
9	0x3c1399f3	0.009008872
10	0xbd4af616	-0.049551092
11	0xbd4175fe	-0.047231667
12	0xbcd24323	-0.025666779
13	0x3e372fd6	0.17889342
14	0xbcd1eb2b	-0.025624832
15	0xbe6e508e	-0.23272917
16	0x3cbae693	0.022815024
17	0x3c409860	0.011755079
18	0x3e4994d4	0.1968568
19	0x3c6ff6fd	0.014646289
20	0x3c73f741	0.014890493
21	0xbbd085ef	-0.0063636224
22	0x3c4e0399	0.0125741
23	0x3c821232	0.015877817
24	0xbe2bcf24	-0.16778237
25	0xbcd74c96	-0.026281636
26	0xbe3da6ae	-0.18520615
27	0xbc9a61fd	-0.018845553
28	0xbd1314b3	-0.035908412
29	0xbcf354c4	-0.029703505
30	0xbe3f6c8d	-0.18693753
31	0xbe653f82	-0.22387508
32	0x3c220d06	0.0098908
33	0xbdd983f0	-0.10620868
34	0xbd103afc	-0.035212502
35	0x3d87bfff	0.06628417
36	0xbd4a32c9	-0.04936484
37	0xbd11ed8f	-0.035626944
38	0xbe68d497	-0.22737347
39	0xbebe3978	-0.3715322
40	0xbd5e3933	-0.05425377
41	0x3a7ccc27	0.0009643458
42	0xbc9fcc4e	-0.0195066
43	0xbcd240b4	-0.025665618
44	0x3cce9b91	0.025220664
45	0xbdbb8948	-0.09157044
46	0xbde0f536	-0.1098427
47	0xbe33f0d2	-0.17572334
48	0x3c8a6170	0.016892165
49	0xbda36000	-0.07977295
50	0x3c2abcfe	0.010421036
51	0xbe30774f	-0.17233013
52	0x3c4df05b	0.012569512
53	0xbc35c7c2	-0.011094989
54	0x3d5bb352	0.05363781
55	0xbe2c6814	-0.16836578
56	0xbb898f4f	-0.004197992
57	0xbe1098d5	-0.14120801
58	0x3b41c17f	0.0029564796
59	0xbdd8a72c	-0.105787605
60	0xbcadc4b3	-0.021211958
61	0x3e330f36	0.17486271
62	0x3bcaa514	0.0061842296
63	0x3e439d58	0.1910299
64	0xbaa18746	-0.001232364
65	0x3dc1578b	0.094405256
66	0xbd571223	-0.05250753
67	0xbe34acb9	-0.17644013
68	0xbdf3aaea	-0.11897834
69	0x3c6858b2	0.014181303
70	0xbc1af6f1	-0.0094582895
71	0xbc957fa3	-0.018249338
72	0xbcbd4f65	-0.023109147
73	0x3db3bbd5	0.087760605
74	0xbdb1b186	-0.08676438
75	0x3d8914a1	0.06693388
76	0x3d1d158e	0.038350634
77	0x3c55af0c	0.013042223
78	0xbdb5393e	-0.08848809
79	0xbe0020a5	-0.12512453
80	0xbc8b4820	-0.017002165
81	0x3d04edeb	0.03245346
82	0xbd58c1ff	-0.052919384
83	0xbdd7dc8d	-0.105401136
84	0xbe96ffde	-0.29492086
85	0xbb5223f2	-0.0032064882
86	0xbe3b9435	-0.18318255
87	0x3ca87952	0.020565663
88	0x3c8fa790	0.017535955
89	0xbd8d2fd4	-0.06893888
90	0xbe0a2c0d	-0.13493367
91	0xbde74d10	-0.112939954
92	0x3c01987e	0.007909892
93	0x3cb52706	0.022113334
94	0x3d3c34af	0.04594868
95	0xbbcbb02c	-0.0062160697
96	0xbc3be634	-0.011468459
97	0x3c15749e	0.009122042
98	0xbc986900	-0.018604755
99	0xbdbd040b	-0.09229287
100	0x3d8141ad	0.06311355
101	0x3c917855	0.017757574
102	0xbe0bbc06	-0.13645944
103	0x3c3f7f0d	0.011688006
104	0xbcb487ca	-0.022037406
105	0xbd91714a	-0.07101686
106	0xbe17cf2b	-0.14825122
107	0xbe1b55da	-0.15169469
108	0xbba86620	-0.0051391274
109	0xbe306c82	-0.17228892
110	0x3c941b7b	0.01807951
111	0xbe247841	-0.16061498
112	0xbcb64a4c	-0.022252224
113	0x3cb839d0	0.022488505
114	0xbbd22e90	-0.006414242
115	0xbd9415ca	-0.072307184
116	0x3c8d85c5	0.0172757
117	0xbc296812	-0.010339754
118	0x3d94ab2d	0.07259212
119	0xbcb5548d	-0.022135044
120	0xbca6bd86	-0.020354044
121	0xbc3bde05	-0.011466508
122	0xbce84484	-0.028352983
123	0xbe061e49	-0.1309749
124	0xbcfbee80	-0.030753374
125	0x3d08faad	0.033442188
126	0xbd3c9b03	-0.04604627
127	0xbe31a0dd	-0.1734652
128	0x3aedff0d	0.0018157676
129	0xbe33a3ea	-0.17542997
130	0x3c0a4e39	0.008441501
131	0x3cad263b	0.021136394
132	0xbc35dbcd	-0.011099768
133	0xbe395c62	-0.18101647
134	0xbc81a7ce	-0.015827086
135	0xbd165e69	-0.03671113
136	0xbc2e1456	-0.010624966
137	0x3d593ac0	0.053034544
138	0xbe4dbd54	-0.20091754
139	0xbd39b815	-0.04534157
140	0xbcab9f5a	-0.020950008
141	0xbe02091a	-0.12698784
142	0x3c8ba405	0.017045984
143	0xbe3f2a55	-0.18668492
144	0xbd6efe11	-0.058347765
145	0xba94de04	-0.001135767
146	0x3e983d9c	0.29734504
147	0xbc8be0b6	-0.017074924
148	0xbe93850d	-0.28812447
149	0x3c897cce	0.016783144
150	0xbe86841b	-0.26272663
151	0xbe515955	-0.20444234
152	0x3d5193f8	0.051166505
153	0xbd39f001	-0.0453949
154	0x3c2c893d	0.010530767
155	0xbc840767	-0.016116811
156	0xbdbb120a	-0.091343
157	0xbc850937	-0.016239746
158	0xbe16a6ec	-0.14712113
159	0xbc399d32	-0.011328982
160	0xbd8afe56	-0.06786792
161	0xbe8531a2	-0.2601443
162	0xbc37549e	-0.011189608
163	0xbbf60ba3	-0.0075087114
164	0xbdb8d4c1	-0.090249546
165	0xbc3e60d0	-0.011619762
166	0xbd2ae881	-0.04172564
167	0x3d473382	0.048633106
168	0xbd207755	-0.039176304
169	0x3d672f62	0.056441672
170	0x3de0364e	0.10947858
171	0xbcf1a688	-0.029498354
172	0x3d54d53f	0.05196118
173	0x3d93f093	0.0722362
174	0xbcae89d2	-0.021305952
175	0xbe8a659f	-0.27030656
176	0xbe1a88c6	-0.15091237
177	0x3d89f6a3	0.06736495
178	0xbe1cea5b	-0.15323775
179	0x3d92f074	0.07174769
180	0x3d12e460	0.035862327
181	0xbcd529b9	-0.026020871
182	0xbdd6585d	-0.10466073
183	0xbce44d39	-0.027868854
184	0xbd2c2f1c	-0.042037115
185	0xbc81dd3c	-0.015852563
186	0xbe6ddde7	-0.2322918
187	0x3c8a9c32	0.016920183
188	0xbc9735d5	-0.018458286
189	0xbce55264	-0.027993388
190	0xbdf20618	-0.118175685
191	0xbde13391	-0.10996164
192	0x3c215a4b	0.009848188
193	0xbc34f734	-0.011045266
194	0x3cf753d7	0.030191345
195	0xbda96966	-0.08272056
196	0xbd9d3188	-0.07675463
197	0x3cb987b2	0.022647712
198	0xbc0c3ed9	-0.008559906
199	0x3c673ea2	0.014114054
200	0x3d7f4f23	0.06233133
201	0xbe511739	-0.20419015
202	0xbd08c41d	-0.033390153
203	0xbcbff5fa	-0.02343272
204	0xbc7c3fc8	-0.015396066
205	0xbe164d21	-0.1467786
206	0xbcea155c	-0.028574638
207	0xbd91437a	-0.07092948
208	0x3c976f3e	0.018485662
209	0xbce17286	-0.02752043
210	0x3ce42001	0.027847292
211	0xbc343bd2	-0.01100059
212	0xbd117c1b	-0.035518747
213	0x3c92c1fd	0.017914766
214	0xbe211e8b	-0.15734307
215	0xbd39e536	-0.04538461
216	0xbda7e627	-0.08198195
217	0x3c713ba8	0.014723696
218	0xbe22f86e	-0.15915081
219	0x3d488b8f	0.04896122
220	0xbc9a56a5	-0.018840143
221	0x3d5bd1e8	0.05366698
222	0xbe321577	-0.17391
223	0xbe48ed93	-0.19621877
224	0x3ca89b9d	0.020582015
225	0xbbfc1ec1	-0.007694096
226	0xbe11b1a8	-0.14227927
227	0xbd430586	-0.04761269
228	0xbd26005b	-0.040527683
229	0xbe0e7468	-0.13911593
230	0xbdedda91	-0.11613954
231	0x3e00f32f	0.12592767
232	0xbc4727b5	-0.012155463
233	0x3ce644e5	0.028109023
234	0xbe6031eb	-0.21894042
235	0xbda7367b	-0.08164688
236	0xbd06ffa1	-0.03295863
237	0x3c67bd8b	0.014144312
238	0xbe2f8eaa	-0.17144266
239	0xbdb0c001	-0.08630372
240	0xbd00580d	-0.03133397
241	0xbd2265f4	-0.03964801
242	0xbd0bd55b	-0.03413902
243	0xbc95d148	-0.01828827
244	0x3eb95060	0.36194134
245	0xbcf0d2ac	-0.029397331
246	0xbd0ec522	-0.03485597
247	0xbdaa78ed	-0.08323846
248	0xbcb754c5	-0.022379288
249	0x3babd5b8	0.005243983
250	0x3c13fa38	0.009031825
251	0xbc1fd043	-0.009754243
252	0xbd761752	-0.060080834
253	0x3c7d761c	0.015470054
254	0xbde9f6a9	-0.11424
255	0x3d9639c6	0.07335238

fc3.bias f4 [2]
0	0xbcdf99b0	-0.027294964
1	0xbd3de895	-0.046364386
